02_Representations/model_weights/autoencoder_cnn_best.pth (torch, 852970 bytes, 15 tensors)

encoder.0.weight f4 [16, 1, 3, 3]
0	0xbe72c22d	-0.23706885
1	0x3d3ca039	0.046051238
2	0x3d13a94e	0.036050133
3	0xbeabb753	-0.33538303
4	0xbe000a35	-0.12503894
5	0xbe6b9be8	-0.23008692
6	0xbe8468f7	-0.25861332
7	0xbdea1aa3	-0.11430862
8	0xbecb3518	-0.39688945
9	0xbe7b0edc	-0.24517387
10	0xbda00e56	-0.07815234
11	0xbe5cf9c6	-0.21579656
12	0xbe21685a	-0.15762463
13	0xbcef4adf	-0.029210506
14	0xbe5acc1d	-0.21366926
15	0xbe631249	-0.22174944
16	0xbce8a461	-0.028398694
17	0xbe210087	-0.15722857
18	0x3e62a8f4	0.22134763
19	0x3eed0844	0.4629537
20	0x3ed30ec8	0.41222215
21	0x3e825259	0.2545345
22	0x3f246735	0.6421998
23	0x3ecee40e	0.40408367
24	0x3e8d64fc	0.27616107
25	0x3eaaedd5	0.33384576
26	0x3ce1a08f	0.02754238
27	0xbe9f8b1b	-0.31160817
28	0xbdfd7ddd	-0.12377522
29	0xbe81899c	-0.253003
30	0xbe0ec00f	-0.13940452
31	0xbd5d3936	-0.05400964
32	0xbe27659e	-0.16347358
33	0xbe02b281	-0.12763406
34	0xbdb37eb4	-0.08764401
35	0xbeacb345	-0.33730522
36	0xbd31ac32	-0.04337711
37	0x3dbd674a	0.092482165
38	0x3dc41ba5	0.09575585
39	0x3e37d20e	0.17951223
40	0x3eef94b7	0.46793148
41	0x3d99ea47	0.07515388
42	0x3eae1bf1	0.34005693
43	0x3f1db2a5	0.61600715
44	0x3e31ca76	0.17362389
45	0x3e5867b9	0.21133317
46	0x3eec8a25	0.46199146
47	0x3f4deae2	0.8043653
48	0xbcd97e4c	-0.02654948
49	0x3e50259a	0.20326844
50	0x3f464e31	0.7746306
51	0x3e4c0925	0.19925363
52	0x3ee84310	0.45363665
53	0x3f551a67	0.8324341
54	0xbe79fb16	-0.24412188
55	0x3e3a6d20	0.1820569
56	0xbc81fe77	-0.015868409
57	0x3e13f3b9	0.14448442
58	0x3f38ca12	0.72183335
59	0x3ec99f75	0.3937947
60	0x3e43f826	0.1913763
61	0x3f2fa68b	0.686135
62	0x3eab6f13	0.3348318
63	0x3d5bb7b9	0.05364201
64	0x3e23f872	0.16012743
65	0x3de238aa	0.11045964
66	0x3ed04af8	0.40682197
67	0x3f0ad09c	0.5422456
68	0x3e3a6cdc	0.18205589
69	0x3e84080a	0.25787383
70	0x3e6bbcd1	0.23021246
71	0x3e94c8dd	0.29059497
72	0x3eac4943	0.33649644
73	0x3e203a1a	0.15647164
74	0xbe158c2c	-0.14604253
75	0x3e98ce0a	0.29844695
76	0xbdc948f1	-0.098283656
77	0xbe8a8400	-0.27053833
78	0xbd75dc5e	-0.06002461
79	0xbede8e1f	-0.43467805
80	0xbe8d7faf	-0.27636477
81	0xbe69a4d9	-0.2281679
82	0xbee26629	-0.44218567
83	0xbe8cd5c4	-0.2750684
84	0x3bd91270	0.0066245124
85	0xbe9945e6	-0.2993614
86	0xbed6e514	-0.41971648
87	0x3f058223	0.521517
88	0x3e6c01eb	0.23047607
89	0xbe16cb39	-0.14725961
90	0x3d30eb47	0.043193128
91	0x3e5f3bb2	0.21800116
92	0x3e461978	0.19345653
93	0x3e93317f	0.287487
94	0x3ea1e07a	0.31616575
95	0x3e299312	0.16560009
96	0x3ebe7e26	0.3720562
97	0x3e9fde62	0.31224352
98	0x3dbdb946	0.09263854
99	0x3f315c87	0.6928181
100	0x3eed9979	0.46406153
101	0x3e10bb73	0.14134006
102	0x3f553f0b	0.8329932
103	0x3f07e5b4	0.53084874
104	0x3e762774	0.24038488
105	0x3ecb49bf	0.397047
106	0x3e3b841d	0.18312116
107	0xbdb83929	-0.089952774
108	0xbdbecd0c	-0.09316453
109	0xbeb27980	-0.34858322
110	0xbd16fbb0	-0.03686112
111	0xbd871d77	-0.06597417
112	0xbea2047a	-0.3164404
113	0xbc86f34f	-0.01647344
114	0x3e317789	0.17330755
115	0x3c491915	0.012274046
116	0x3e88bf4d	0.2670845
117	0xbe9a54a6	-0.30142707
118	0xbe128a07	-0.14310466
119	0xbecdd6b2	-0.40202862
120	0xbed9202e	-0.42407364
121	0xbe574cf7	-0.21025454
122	0xbea97fee	-0.33105415
123	0x3dbb326f	0.09140479
124	0x3ec2a698	0.38017726
125	0x3e67491b	0.22586481
126	0xbe96ebfb	-0.29476914
127	0xbd4446a4	-0.04791893
128	0xbe89e0f9	-0.26929453
129	0x3db706a2	0.08936812
130	0x3ea649bb	0.32478127
131	0x3e0debc6	0.13859472
132	0xbd3f035c	-0.046634063
133	0x3de5cae9	0.11220343
134	0x3a9ee273	0.001212193
135	0x3ed8aacf	0.42317817
136	0x3dc8ef6a	0.098112896
137	0xbda3b50f	-0.079935186
138	0x3da6c609	0.08143241
139	0xbeb5b9db	-0.3549336
140	0xbe9cbb1f	-0.30611512
141	0x3e87322c	0.26405466
142	0xbe190cc9	-0.14946283
143	0xbeb4a197	-0.35279533

encoder.0.bias f4 [16]
0	0x3f0b6828	0.54455805
1	0x3ecb7bcb	0.39742884
2	0x3b7998a6	0.003808537
3	0x3ef10ff3	0.4708248
4	0xb8ac6fcf	-8.222425e-05
5	0x3b089013	0.0020837828
6	0xba8df628	-0.0010830807
7	0x3a8fc88a	0.00109698
8	0x3e87a9fd	0.26496878
9	0x3eaef306	0.34169787
10	0x3b0fe306	0.0021955385
11	0x3bbcd75b	0.005762977
12	0x3ed7b1d6	0.42127866
13	0x3e88892e	0.2666716
14	0x3e309793	0.17245321
15	0x3eb90eb0	0.36144018

encoder.2.weight f4 [32, 16, 3, 3]
0	0xbbe92ffb	-0.0071163154
1	0x3ce117ac	0.027477108
2	0xbcdc6cfb	-0.026907435
3	0x3c8bc317	0.0170608
4	0x3c7b1e92	0.015327113
5	0xbd8f418e	-0.069949254
6	0xbe1fa6c0	-0.15590954
7	0xbdeaeffc	-0.11471555
8	0xbcafa2e2	-0.021439973
9	0xbbad0296	-0.0052798493
10	0x3d2b9694	0.04189165
11	0xbc04a8c5	-0.008096878
12	0x3c790e79	0.015201204
13	0x3c86fa1b	0.016476681
14	0xbd249589	-0.04018167
15	0xbda72596	-0.08161466
16	0xbd2c41d2	-0.04205496
17	0xbb4fc363	-0.0031702153
18	0xbda994ce	-0.08280335
19	0xbd77e112	-0.06051738
20	0xbd989c39	-0.07451672
21	0xbd6a69d9	-0.05722985
22	0x3d5655d7	0.052327957
23	0x3d908d45	0.07058195
24	0x3d3d9769	0.046286974
25	0x3d55fced	0.052243162
26	0xbcef05a3	-0.029177492
27	0x3c13a005	0.00901032
28	0x3d557313	0.052111696
29	0xbcdbffee	-0.026855435
30	0x3c619ca5	0.013770257
31	0xbbaa77fb	-0.005202291
32	0xbd855aa3	-0.06511428
33	0xbde80fb1	-0.11331118
34	0xbd7a2c2c	-0.06107728
35	0xbc8b8118	-0.01702933
36	0xbd693c8c	-0.056942508
37	0xbd8e110d	-0.06936846
38	0x3cd08a16	0.02545647
39	0xbd083f14	-0.03326328
40	0x3d62c2a7	0.055361416
41	0x3d217e48	0.03942707
42	0x3d7f855d	0.062383045
43	0x3ddecda0	0.108790636
44	0x3bffdc0a	0.007808213
45	0xba4c9206	-0.00078037416
46	0xbde40fcd	-0.11135826
47	0xbb012b87	-0.0019709782
48	0x3c8e84e3	0.01739735
49	0x3d49b7a4	0.0492474
50	0x3e1c9894	0.15292579
51	0x3d58825d	0.0528587
52	0x3db7614e	0.08954106
53	0xbc93290a	-0.017963905
54	0x3bfdb901	0.0077430014
55	0xbd865866	-0.065598294
56	0x3d37f6a1	0.044912938
57	0xbcc37e8b	-0.023864051
58	0x3d8d2d37	0.0689339
59	0x3d1d90a4	0.03846802
60	0x3d7646fc	0.06012629
61	0x3d97e547	0.07416778
62	0xb857402e	-5.1319766e-05
63	0xbdb62614	-0.088939816
64	0xbccdc538	-0.025118455
65	0x3b182fc9	0.0023221842
66	0xbdb58bf4	-0.088645846
67	0xbba19c91	-0.0049319942
68	0x3d9d05e0	0.07667136
69	0x3cff9c03	0.031202322
70	0x3da92b32	0.08260192
71	0x3c36a8e8	0.011148669
72	0xbdf2d9c3	-0.11857941
73	0xbd8b463f	-0.06800508
74	0xbcca7640	-0.02471459
75	0xbd8c60c3	-0.06854393
76	0xbbd05aff	-0.006358504
77	0xbcb1dd6d	-0.02171203
78	0x3bccf1b7	0.0062544006
79	0x3d273967	0.040826228
80	0xbcaef0a0	-0.021354973
81	0xbce792e3	-0.028268283
82	0x3c9903a4	0.018678494
83	0xbdbda01d	-0.09259055
84	0xbcf2c5d0	-0.02963534
85	0xbc4e9745	-0.012609308
86	0xbe1a71bb	-0.15082447
87	0x3d097519	0.03355894
88	0xbd999445	-0.07498983
89	0xbd85f4b8	-0.06540817
90	0xbdb05029	-0.08609039
91	0xbca0ef86	-0.019645464
92	0xbcde3389	-0.027124183
93	0xbd03cfc4	-0.032180563
94	0x3cc57e61	0.024108114
95	0x3d1941d5	0.037416298
96	0x3d199382	0.03749419
97	0x3d1a799a	0.037713625
98	0xbccb855e	-0.024843868
99	0xbe8149b4	-0.25251544
100	0xbd7c839f	-0.06164896
101	0xbdecc2fe	-0.11560629
102	0xbe65da64	-0.2244659
103	0xbce50f10	-0.027961284
104	0x3e0d4e15	0.13799317
105	0x3c7332dc	0.014843669
106	0x3e0bf220	0.13666582
107	0x3db6ef86	0.08932404
108	0xbc1eeab4	-0.009699512
109	0xbc570c77	-0.01312553
110	0x3d111f69	0.035430346
111	0xbc8d1691	-0.017222675
112	0xbcf9939e	-0.030465897
113	0xbd919412	-0.0710832
114	0xbd06b40d	-0.032886554
115	0xbd8c899d	-0.06862185
116	0xbcde864c	-0.027163647
117	0xbc8687dc	-0.016422205
118	0x3c11874a	0.008882353
119	0xbb61fd12	-0.0034483117
120	0x3c8124db	0.015764644
121	0x3c3d5b93	0.0115574775
122	0xbcfdc38d	-0.030977035
123	0x3de32e2c	0.11092791
124	0x3d5292d2	0.05140955
125	0xbd327a1e	-0.04357349
126	0x3c12a201	0.008949758
127	0xbc163f97	-0.009170434
128	0x3d10f7ea	0.03539268
129	0xbd062f47	-0.03275993
130	0xbcf72ee2	-0.030173723
131	0xbd373644	-0.044729486
132	0xbcebc2cc	-0.02877941
133	0xbc33faa7	-0.010985053
134	0xbc28f549	-0.010312387
135	0xbe00042e	-0.12501594
136	0xbdd78a50	-0.10524428
137	0xbdfd62a5	-0.123723306
138	0xbdfab019	-0.12240619
139	0xbdb1f835	-0.0868992
140	0xbdf907b0	-0.121596694
141	0xbd4293ca	-0.047504224
142	0xbd60c945	-0.054879446
143	0xbd85c463	-0.065315984
144	0x3deea77d	0.116530396
145	0xbd90307f	-0.070405
146	0x3c915c05	0.017744074
147	0x3d2ad5fa	0.04170797
148	0xbe0f3947	-0.13986693
149	0x3c0afe52	0.008483486
150	0x3d6f760e	0.058462195
151	0xbdccb794	-0.09995952
152	0x3c3474ea	0.011014203
153	0x3d366234	0.044527248
154	0xbdc503b1	-0.09619845
155	0xbc0e52fc	-0.008686777
156	0x3d0f2228	0.034944683
157	0xbdc31151	-0.09524787
158	0xbce2e3ca	-0.027696509
159	0x3dac5b06	0.08415799
160	0xbdc28af0	-0.094991565
161	0xbb9f49ff	-0.004861116
162	0xbd63b444	-0.055591837
163	0x3ddbd988	0.1073485
164	0x3d47e6e4	0.04880418
165	0xbd8a7328	-0.067602456
166	0x3e0731af	0.13202547
167	0x3d0b399f	0.0339905
168	0xbdb6f382	-0.08933164
169	0xbc16943b	-0.009190614
170	0xbc0c0258	-0.008545481
171	0x3d844b3e	0.06459664
172	0xbda95707	-0.08268552
173	0xbc252833	-0.010080385
174	0x3d25bd44	0.0404637
175	0xbdd73d76	-0.105097696
176	0xbcc858bd	-0.024456376
177	0x3dc30b91	0.095236905
178	0xbdb5a583	-0.088694595
179	0x3c2b638d	0.0104607465
180	0xbd1b4232	-0.037904926
181	0x3e130db9	0.14360704
182	0x3d99a2c2	0.07501747
183	0xbc8d38e6	-0.017239045
184	0x3e0bb1eb	0.13642089
185	0x3d5b831c	0.053591833
186	0xbcad7c0d	-0.021177316
187	0x3d0b2418	0.03396997
188	0xbd2da24e	-0.042391114
189	0x3ae9cb21	0.0017837026
190	0xbada12ab	-0.0016637644
191	0xbd349a5f	-0.044092532
192	0xbd2f9589	-0.042867217
193	0x3caf88a8	0.021427467
194	0xbc8125a9	-0.015765028
195	0xbdd26d7f	-0.10274791
196	0xbc96eb88	-0.018422857
197	0xbd0217b7	-0.031760897
198	0x3b3c6f13	0.0028752729
199	0x3e005522	0.12532476
200	0x3d185cab	0.03719775
201	0xbc0af19b	-0.008480455
202	0x3e2497e8	0.16073573
203	0x3c31595e	0.010824529
204	0xbca24e5b	-0.019812753
205	0x3d75ec41	0.060039762
206	0xbda84a17	-0.082172565
207	0xbd93e5b3	-0.07221546
208	0x3daf6717	0.08564585
209	0x3d57e01b	0.052703958
210	0xbc9f9a84	-0.019482858
211	0x3e0e90e4	0.13922459
212	0x3d8eac3e	0.06966446
213	0xbd3bce3f	-0.04585099
214	0x3a9a5557	0.0011774701
215	0xbcb71bf0	-0.022352189
216	0xbcab24ff	-0.020891665
217	0x3d9452c3	0.07242348
218	0x3c1c628a	0.009544978
219	0x3cc0118e	0.02344587
220	0x3d45b95d	0.04827248
221	0x3b9bffdd	0.004760726
222	0x3d918214	0.071048886
223	0x3dcd95c6	0.10038333
224	0x3d89e692	0.06733431
225	0x3a9a28a7	0.0011761383
226	0x3d81b235	0.063328184
227	0x3d6e0118	0.05810651
228	0xbd397fa0	-0.04528773
229	0xbd165679	-0.03670356
230	0x3d33a49c	0.043858156
231	0xbcba9d30	-0.022780031
232	0xbdd0dad7	-0.101979904
233	0x3d351678	0.04421088
234	0xbd2aff50	-0.04174739
235	0x3cfc2bac	0.030782543
236	0xbbae46b7	-0.0053184885
237	0xbc93d486	-0.018045675
238	0x3c115dfc	0.008872505
239	0xbc1017bc	-0.008794721
240	0xbd0b05cc	-0.033941075
241	0xbd483ce6	-0.048886202
242	0xbcd36591	-0.025805267
243	0xbe2de855	-0.16983159
244	0x3de17ce7	0.11010151
245	0x3d98769a	0.074444965
246	0xbd8b2b71	-0.06795395
247	0x3e447c44	0.19188029
248	0x3e0db20e	0.13837454
249	0xbd6b42c2	-0.057436712
250	0x3cc71e71	0.024306508
251	0xba01df2a	-0.00049542135
252	0x39ba9e28	0.0003559452
253	0xbdac917c	-0.084261864
254	0xbd1e734a	-0.038684167
255	0x3cb7cf0a	0.022437591

encoder.2.bias f4 [32]
0	0xbdbde261	-0.09271694
1	0xbb53a65f	-0.003229521
2	0xbd33281a	-0.043739416
3	0xbd620290	-0.055178225
4	0x3d20bdcc	0.039243504
5	0xbd91fd75	-0.07128421
6	0xb3057882	-3.1076077e-08
7	0xba980371	-0.0011597705
8	0x3d098a13	0.033578943
9	0x3bde2e49	0.00678042
10	0xbc041d0b	-0.008063565
11	0xb393429a	-6.857336e-08
12	0x392e9dc2	0.00016652702
13	0xbd3f845b	-0.046757083
14	0xbdc16a6e	-0.09444128
15	0xbbc7b9d8	-0.0060951523
16	0xbcd07300	-0.025445461
17	0x3d577c87	0.052608993
18	0xbcb0a912	-0.021564994
19	0xb2e215ed	-2.6319833e-08
20	0x3ca0f26e	0.01964685
21	0xbd3f6238	-0.046724528
22	0x3e138ae6	0.14408454
23	0x3d97d047	0.074127726
24	0xbd12c09e	-0.035828225
25	0x3c2cbc64	0.010542963
26	0xbbbc9862	-0.00575547
27	0xbc9f8525	-0.019472668
28	0x3bb07e73	0.0053861677
29	0xbd32cb58	-0.043650955
30	0xbd799ea5	-0.06094231
31	0xbdb40c7a	-0.08791442

encoder.4.weight f4 [64, 32, 7, 7]
0	0x000568db	4.96793e-40
1	0x80057a2f	-5.03009e-40
2	0x3b931089	0.004488055
3	0x3b98e1bd	0.004665582
4	0x3c233c59	0.0099631185
5	0xbb596488	-0.0033171494
6	0xbb3a52ee	-0.0028430778
7	0x800559d1	-4.91398e-40
8	0x3c013925	0.0078871595
9	0xbd24102c	-0.040054485
10	0xbc87b98c	-0.016567968
11	0xbd47caee	-0.048777513
12	0xbcddb985	-0.027066002
13	0xbb8487f4	-0.004044527
14	0x3baa87c5	0.0052041733
15	0xbc29f00a	-0.010372171
16	0xbb97c751	-0.0046319147
17	0xbd23b45e	-0.039966933
18	0xbce438f9	-0.027859198
19	0x3ca1a78f	0.019733218
20	0x3d092b03	0.033488285
21	0xba0ad7fe	-0.00052964676
22	0xbcf58eb9	-0.029975282
23	0xbc3e1e7c	-0.011603948
24	0x3d8fdc3e	0.0702443
25	0x3ca800f0	0.02050826
26	0x3c978574	0.018496253
27	0xbcc0b2b6	-0.023522716
28	0x37edd05c	2.8349627e-05
29	0x3b6c844e	0.0036089602
30	0x3d5c675a	0.0538095
31	0x3c1af6ba	0.009458238
32	0x3cae46da	0.021274019
33	0x3c24a2b3	0.010048556
34	0xbbfacd97	-0.0076539028
35	0xba9c624a	-0.0011931148
36	0xbb16d56b	-0.002301539
37	0xbcfebe04	-0.031096466
38	0xbc9b392b	-0.018948158
39	0x3c95c40c	0.018281959
40	0xbc9a3fd3	-0.018829262
41	0xbb178bfe	-0.0023124213
42	0xb980a6df	-0.0002453839
43	0xbbc51659	-0.006014627
44	0x38d1d314	0.00010005213
45	0x3a13c30a	0.0005636668
46	0xbbe3892b	-0.006943842
47	0xbb96da88	-0.0046036877
48	0x8005623f	-4.94422e-40
49	0x80057ed9	-5.04682e-40
50	0xb9f55806	-0.00046795624
51	0x3a83dbbe	0.0010059995
52	0x3b01f2d1	0.0019828568
53	0xbb6aa8f5	-0.0035806273
54	0xba178787	-0.0005780388
55	0xb9f8b6ed	-0.00047438536
56	0x000581bb	5.05716e-40
57	0x3c42a71e	0.011880664
58	0x3c99a22e	0.018754091
59	0x3cbf0e1a	0.023322154
60	0xbca58ef1	-0.020209761
61	0xbd1c424c	-0.038149163
62	0x3ac33821	0.0014894047
63	0x39684579	0.00022151125
64	0x3d164a5b	0.036692005
65	0xbb160208	-0.0022889394
66	0x3d1cd5d5	0.038289864
67	0x3d22169d	0.039572347
68	0xbc81367e	-0.015773054
69	0x3afa6e17	0.0019106296
70	0xbb5a5275	-0.0033313308
71	0xbcef5365	-0.02921457
72	0xbd0cb5f6	-0.03435322
73	0xbc8d1af0	-0.017224759
74	0xbd3355c5	-0.043782968
75	0x3dc49c92	0.09600176
76	0x3d8f1c06	0.06987767
77	0x36aed005	5.2098208e-06
78	0xbd421422	-0.04738248
79	0x3c0523c4	0.008126203
80	0x3d6b2029	0.057403717
81	0xbc26568f	-0.010152473
82	0xbc721b26	-0.0147769805
83	0xbd0195a7	-0.03163686
84	0x39501e44	0.000198477
85	0xbc861ef5	-0.016372183
86	0xbc09042c	-0.008362811
87	0xbcc4c4fe	-0.024019714
88	0x3c8af073	0.016960358
89	0xbc1e9533	-0.009679127
90	0x3ae406c7	0.0017397039
91	0x37039363	7.842525e-06
92	0x3c1f2cd4	0.009715278
93	0x3b9a5db4	0.0047108773
94	0xb9bd6164	-0.0003612145
95	0x3d0b1c10	0.03396231
96	0xbc89bc10	-0.016813308
97	0x3b603596	0.0034211627
98	0x80066b50	-5.8951e-40
99	0xae0b75b7	-3.1709493e-11
100	0x3ad37010	0.001613142
101	0xbb806396	-0.0039181216
102	0x3aad64fb	0.0013228947
103	0x391f6d0a	0.00015204042
104	0x0005baa6	5.26134e-40
105	0x0006ad96	6.13284e-40
106	0x3b9b857f	0.0047461386
107	0x3a8c57af	0.0010707284
108	0x3d31d628	0.043417126
109	0x3d1867b6	0.03720828
110	0xbc052705	-0.008126979
111	0xbc750e0e	-0.014956964
112	0xbbba3e92	-0.0056837285
113	0x3b858be2	0.004075513
114	0x3c8adc65	0.016950795
115	0xbb097fdc	-0.002098075
116	0xbba86160	-0.005138561
117	0x3d5b09bc	0.05347608
118	0xbcf1a1b1	-0.029496046
119	0x38b9159b	8.825512e-05
120	0xbc949300	-0.018136501
121	0xbc572e2d	-0.013133568
122	0xbb9de867	-0.0048189643
123	0xbccce917	-0.02501349
124	0x3c07a798	0.008279704
125	0x3ca25eef	0.019820658
126	0xb88ff639	-6.864634e-05
127	0xbc155f77	-0.009116999
128	0xbcede5e5	-0.029040286
129	0x3c1bf601	0.009519101
130	0x38935f9c	7.027315e-05
131	0x3c5bd0ab	0.01341645
132	0x3c83ff22	0.016112868
133	0x3b317697	0.0027078742
134	0x3bf2a535	0.007404948
135	0xbca6d425	-0.02036483
136	0xbcdea7ae	-0.027179565
137	0xbc87ab52	-0.016561184
138	0x3c167b27	0.009184635
139	0x3c1a1dde	0.009406535
140	0x8005ebdb	-5.43786e-40
141	0x3a899fe9	0.0010499927
142	0x3ca196d9	0.01972525
143	0x3bf04904	0.007332923
144	0x3c1c01c2	0.0095219035
145	0x3a9a4bff	0.0011771916
146	0xbb61b63d	-0.0034440898
147	0x3549d1be	7.518355e-07
148	0xb627fbf6	-2.50316e-06
149	0xb5cdc7ab	-1.5331801e-06
150	0xb5820f33	-9.690178e-07
151	0x361c5e14	2.3300572e-06
152	0x385ab3ae	5.214259e-05
153	0xb63ab3e1	-2.7820863e-06
154	0x3a48014e	0.0007629589
155	0xb8b57c5f	-8.6539185e-05
156	0xba9dfaf8	-0.0012052944
157	0xbbd0f0ef	-0.006376378
158	0xbd24bae3	-0.04021729
159	0xbc876b56	-0.016530674
160	0xbc7c19fe	-0.015387056
161	0x3a35592f	0.00069178914
162	0x3ad1d0dd	0.0016007681
163	0x3b13bea6	0.0022544055
164	0xbcfaa69c	-0.030597024
165	0xbda2b075	-0.07943813
166	0xbd2bcd64	-0.041943923
167	0xbc82f4f8	-0.01598595
168	0x3a5399e0	0.00080719404
169	0xbbbbe769	-0.0057343733
170	0xbd26a98b	-0.040689033
171	0x3bdc3d5f	0.006721183
172	0xbd15ff32	-0.036620326
173	0x3d478499	0.04871044
174	0x3d1d8a3d	0.038461912
175	0x397aecc0	0.00023930054
176	0x3b037bdd	0.0020062842
177	0x3d1c272f	0.038123306
178	0x3c88e0dc	0.016708784
179	0x3c521916	0.012823364
180	0xbac07389	-0.001468287
181	0xbb92aa32	-0.0044758553
182	0x357fe037	9.532118e-07
183	0xbaf8a99d	-0.0018971447
184	0xba3ccd9e	-0.000720227
185	0xbc8314e3	-0.01600117
186	0x3c5679b2	0.013090538
187	0xbc7e6c89	-0.0155288065
188	0x3c06fd65	0.008239125
189	0x396e1fe3	0.00022709327
190	0x3b065549	0.0020497611
191	0xbd5256ba	-0.05135224
192	0x3c4e5589	0.012593635
193	0x3c9f05d4	0.019411959
194	0xbbf7be9c	-0.007560564
195	0xbc549a72	-0.012976276
196	0xb73cdd18	-1.1257151e-05
197	0x3b549d25	0.0032442298
198	0x3b59fa25	0.003326067
199	0xbba58d4c	-0.0050522443
200	0x3b302dfa	0.0026882873
201	0xbb879f2d	-0.0041388483
202	0xbb6eb0ed	-0.0036421374
203	0x3bc611c4	0.0060445983
204	0x3c592072	0.0132523645
205	0xbc0fe516	-0.008782646
206	0x3c4592be	0.012058912
207	0x3d3a8690	0.045538485
208	0x3d102b60	0.035197616
209	0x3c62133b	0.01379853
210	0xbb3ccbc8	-0.0028807987
211	0xbcee8347	-0.029115332
212	0xbd1888fd	-0.037240017
213	0xbd02c28f	-0.031923827
214	0x3c91c380	0.017793417
215	0x3cda06aa	0.026614506
216	0xbd12168c	-0.035666034
217	0x3b5af0fa	0.0033407793
218	0x3c904570	0.017611235
219	0x3d854818	0.065078914
220	0x3c9a2e52	0.018820915
221	0x3c99fb80	0.018796682
222	0xbe356291	-0.17713381
223	0xbd066556	-0.032811485
224	0xbb0d6139	-0.0021572842
225	0x3c90af2e	0.017661657
226	0xbb0b535a	-0.0021259398
227	0xbd257b25	-0.040400643
228	0x3cd109f5	0.025517443
229	0xbd15d896	-0.036583506
230	0x3be21951	0.0068999906
231	0xbad1541e	-0.0015970503
232	0x3bc3588d	0.005961484
233	0x3a11a855	0.00055563945
234	0x3c031f46	0.008003062
235	0xba8f209e	-0.0010919755
236	0xbc025c5e	-0.007956592
237	0x3c16d73c	0.009206589
238	0x3b39fcc0	0.002837941
239	0x38759530	5.8551494e-05
240	0x3c46fbd5	0.012145002
241	0xbc3cc874	-0.011522401
242	0xbc307b4d	-0.010771585
243	0x3bf04638	0.0073325895
244	0x3bcdd210	0.006281145
245	0x3aa376e5	0.0012471346
246	0x3b08d887	0.0020881013
247	0x3bae8585	0.0053259754
248	0xbb1976ea	-0.0023416826
249	0x3b38c0c8	0.0028191078
250	0x3bc117c3	0.005892725
251	0x3b0fbc20	0.00219322
252	0x3668789c	3.4640898e-06
253	0x3b13b009	0.0022535345
254	0x3bd55ff6	0.0065116836
255	0x3cbedb1c	0.023297839

encoder.4.bias f4 [64]
0	0x3b885371	0.0041603376
1	0xbba9aa88	-0.0051777996
2	0x3c265a6c	0.010153394
3	0x3c1007eb	0.00879095
4	0xbb8d24e5	-0.0043073767
5	0xbb32eab1	-0.0027300532
6	0xbb5651c1	-0.0032702538
7	0x3bb7441f	0.0055928375
8	0xbc578380	-0.013153911
9	0x3bbb5502	0.005716921
10	0x3c9f198c	0.019421361
11	0x3c242d07	0.010020501
12	0x3b1b302b	0.0023679833
13	0x3cb12caf	0.021627752
14	0x37a22614	1.9329636e-05
15	0xb990ff3c	-0.00027655985
16	0x3c5986f3	0.013276803
17	0xbc4518e2	-0.012029858
18	0xb9e85f14	-0.00044321327
19	0xbab5d687	-0.0013873138
20	0xbcd1fbb5	-0.025632719
21	0xbc7886b7	-0.015168837
22	0x3c8abfc7	0.01693715
23	0x3aefd656	0.001829813
24	0xbb4b53e9	-0.0031025356
25	0xbc15343b	-0.009106691
26	0xbc834fe8	-0.016029313
27	0x3a1832c6	0.00058059057
28	0x3bd7791d	0.006575717
29	0xbc05788f	-0.008146419
30	0x3c9f1fcd	0.019424343
31	0xba795cb3	-0.00095124095
32	0x3c2f0c6e	0.010684116
33	0x3b194859	0.002338907
34	0xbc2b2c12	-0.010447519
35	0xbc87e378	-0.016587958
36	0xbbd1ff5a	-0.006408614
37	0xbc1d3058	-0.009594046
38	0xbcf5787c	-0.029964678
39	0xbcbf2fa4	-0.023338147
40	0xbc991530	-0.01868686
41	0xbc6b4ba4	-0.014361296
42	0x3bb1636e	0.0054134643
43	0x3c84f521	0.016230168
44	0x3c27906c	0.010227304
45	0xbcb7ebd7	-0.022451324
46	0x3c870868	0.0164835
47	0x3b8d0bef	0.004304401
48	0xbca81d67	-0.020521833
49	0xbd0807ea	-0.033210672
50	0x3c983798	0.018581197
51	0xbc455c45	-0.012045925
52	0x3bfbcacc	0.0076840874
53	0x3cb7d247	0.022439135
54	0xbb8f6ba7	-0.004376847
55	0xbc874f53	-0.016517317
56	0x3c16ab9a	0.009196186
57	0x3c1b1003	0.009464267
58	0x3c6dc263	0.014511677
59	0xbc81b117	-0.015831513
60	0x3c1e887b	0.009676094
61	0x3c35885a	0.011079872
62	0x3cc41fdc	0.023940973
63	0xbbb35c25	-0.005473631

encoder.6.weight f4 [10, 64]
0	0xbe14d36d	-0.14533778
1	0x3e19501d	0.14971967
2	0x3d13b50b	0.036061328
3	0xbe9cb823	-0.30609235
4	0x3dc1b090	0.09457505
5	0xbc7d75fe	-0.015470026
6	0xbdd47df6	-0.10375588
7	0xbed90b2c	-0.42391336
8	0x3e66d993	0.22543935
9	0xbcc000ff	-0.023437975
10	0xbddaed3b	-0.10689779
11	0xbc2580dd	-0.010101524
12	0x3e487050	0.19574094
13	0x3d2afb64	0.04174365
14	0xb546e74c	-7.409733e-07
15	0xbdc879bb	-0.09788843
16	0xbec29281	-0.380024
17	0x3e453222	0.19257405
18	0x3d13e634	0.03610821
19	0x3dfea11e	0.124330744
20	0x3d99492f	0.07484662
21	0xbd897666	-0.06712036
22	0xbe0904af	-0.13380693
23	0xbda0e3f0	-0.07855976
24	0x3d8111ba	0.06302209
25	0x3d8157cd	0.06315575
26	0xbdeacab2	-0.11464442
27	0x3e3af024	0.18255669
28	0xbdbe128a	-0.0928088
29	0x3dbef92a	0.09324868
30	0x3d413e9a	0.047178842
31	0x3eb8b6bb	0.36076912
32	0x3e19da9e	0.15024802
33	0xbed53031	-0.4163833
34	0x3d8c655a	0.06855269
35	0x3d848872	0.064713374
36	0x3c7bdacb	0.0153719885
37	0xbe50def0	-0.20397544
38	0x3e0ec156	0.1394094
39	0xbe29cf31	-0.16582943
40	0x3da3b732	0.07993926
41	0x3e87b73d	0.26506987
42	0xbd499553	-0.049214672
43	0x3e503bce	0.20335314
44	0x3dac9225	0.08426312
45	0xbe1cd4e3	-0.15315585
46	0x3db42b9b	0.087973796
47	0x3e686729	0.22695602
48	0x3dd23395	0.10263745
49	0x3e356b37	0.1771668
50	0xbe8896ea	-0.26677638
51	0x3dbd3ae3	0.092397474
52	0xbdb7b0b4	-0.0896925
53	0x3cfabdeb	0.030608138
54	0xbcbb805f	-0.02288836
55	0xbd955a6b	-0.072926365
56	0xbda5ba0e	-0.08092128
57	0x3e315576	0.17317757
58	0x3dc89544	0.09794095
59	0xbd1c94b4	-0.03822775
60	0x3cfd4077	0.030914528
61	0xbe02d8c0	-0.12777996
62	0x3d4903a6	0.049075745
63	0x3dac92b2	0.084264174
64	0xbde12f66	-0.10995369
65	0xbdf580e2	-0.11987473
66	0x3d976d40	0.07393885
67	0xbe4bcc87	-0.1990224
68	0xbb028285	-0.0019914221
69	0x3debd017	0.11514299
70	0xbe01725a	-0.12641278
71	0xbe194335	-0.14967044
72	0xbdf13e9e	-0.117795214
73	0xbe7c4a31	-0.24637677
74	0xbe043b9a	-0.12913361
75	0xbe275078	-0.1633929
76	0x3dfed8a4	0.12443665
77	0xbe18a3be	-0.14906213
78	0x3903f7dc	0.00012585468
79	0x3d6a26b4	0.057165816
80	0x3e233f04	0.15942007
81	0x3db70170	0.08935821
82	0xbe8837de	-0.26605123
83	0xbe1e5db9	-0.1546544
84	0x3e804ed2	0.25060135
85	0xbdb20bdc	-0.08693668
86	0xbe6faade	-0.23405024
87	0x3d0222ac	0.031771347
88	0xbc53c2b0	-0.012924835
89	0xbdd34867	-0.10316544
90	0x3e94ce98	0.2906387
91	0xbe5b4824	-0.21414238
92	0x3e56e4f0	0.2098577
93	0x3e47fd17	0.1953014
94	0xbe0c95b2	-0.13728979
95	0x3da4e4f1	0.080514796
96	0xbdc77750	-0.09739554
97	0x3c7555a7	0.014974034
98	0xbd34c682	-0.044134624
99	0xbe06a355	-0.13148244
100	0xbe056f3f	-0.13030718
101	0x3e43d151	0.19122817
102	0x3e80f45f	0.2518644
103	0xbe4f48c3	-0.202426
104	0xbcd76876	-0.026294928
105	0xbe8ac1f3	-0.27101097
106	0x3c53e670	0.012933359
107	0x3e80e1e4	0.2517234
108	0xbd86776b	-0.06565746
109	0x3da48df3	0.08034887
110	0xbc2fa6b0	-0.010720894
111	0x3deb371b	0.1148512
112	0xbdcb6afa	-0.099325135
113	0xbe905b50	-0.28194666
114	0x3e6cb975	0.23117621
115	0x3dc250ab	0.094880424
116	0x3d35c97d	0.044381607
117	0x3e77d264	0.24201351
118	0xbe109b50	-0.14121747
119	0xbdcc5b17	-0.099783115
120	0x3e6b57cd	0.22982712
121	0x3dcb8345	0.09937147
122	0x3d9c0acc	0.07619247
123	0xbd26c943	-0.040719282
124	0x3d3f44c3	0.046696436
125	0x3def6453	0.11689057
126	0xbd8f7b57	-0.07005947
127	0x3d704cd3	0.058667015
128	0xbe3cd345	-0.18439968
129	0x3d9d46d3	0.07679524
130	0x3d21771e	0.03942024
131	0xbee52eb9	-0.4476221
132	0xbd753064	-0.059860602
133	0x398c839d	0.0002680094
134	0x3e1fd25a	0.15607587
135	0xbe965bf9	-0.29367045
136	0xbe39ef5b	-0.18157713
137	0x3e8f2b7d	0.27962866
138	0x3e1b0f8d	0.15142651
139	0xbde45fbf	-0.111510746
140	0x3e09f39c	0.13471836
141	0xbe3cdeb6	-0.18444332
142	0x388ff136	6.8637004e-05
143	0xbdd52923	-0.10408237
144	0x3c6b5dd4	0.014365632
145	0xbd980614	-0.07423034
146	0xbe351806	-0.17684945
147	0x3dc656ef	0.0968455
148	0xbdc7307b	-0.09726044
149	0xbd622c83	-0.05521823
150	0x3e9ed400	0.31021118
151	0xbe33e363	-0.1756721
152	0xbbdca8d2	-0.006733992
153	0xbe4b30e0	-0.19842863
154	0xbeaa4c9e	-0.3326158
155	0x3ddd5933	0.10808029
156	0xbd0a4d76	-0.03376528
157	0x3cb21735	0.021739582
158	0x3cc7a416	0.024370234
159	0xbe6d343a	-0.23164454
160	0x3e02da91	0.12778689
161	0xbd883bd9	-0.0665204
162	0x3dc64006	0.0968018
163	0xbd6a23e1	-0.057163123
164	0x3bc4daa8	0.006007511
165	0x3e7ee8a8	0.24893439
166	0xbe9628e6	-0.29328078
167	0xbe1a0c80	-0.15043831
168	0xbe167fb5	-0.14697154
169	0x3de9cbd1	0.11415828
170	0x3d942e74	0.07235423
171	0xbd757c94	-0.05993326
172	0xbddd0299	-0.10791511
173	0x3d3184e0	0.04333961
174	0x3e35cc0a	0.17753616
175	0x3d2b72f7	0.041857686
176	0xbe513445	-0.20430095
177	0xbd3fff03	-0.046874058
178	0xbe4b8765	-0.19875868
179	0x3e21c566	0.15797958
180	0x3e40eb71	0.18839814
181	0x3eae012c	0.3398527
182	0xbca01a18	-0.019543692
183	0xbe512392	-0.20423725
184	0x3e3c3f89	0.18383612
185	0x3e20fdff	0.15721892
186	0xbbecb727	-0.007223982
187	0x3e1933ba	0.14961138
188	0x3cd20e00	0.025641441
189	0x3e3cf3e1	0.18452407
190	0x3db090ad	0.08621345
191	0xbc6154bd	-0.013753113
192	0xbd1ca798	-0.038245767
193	0x3d0b48a4	0.034004822
194	0xbd4530cd	-0.048142243
195	0xbe3aa831	-0.18228222
196	0x3cc5348c	0.024072908
197	0xbcea76de	-0.028621133
198	0x3d86525d	0.06558678
199	0x3e433498	0.19063032
200	0x3cccce30	0.025000662
201	0x3d03c396	0.032168947
202	0x3d111101	0.035416607
203	0x3e3f4f2b	0.18682544
204	0xbe238f70	-0.15972686
205	0x3e12b536	0.14326939
206	0x38afdcaa	8.385752e-05
207	0xbddc6fbe	-0.10763501
208	0xbd43ce61	-0.04780424
209	0xbe0aa3de	-0.13539073
210	0x3e0f6027	0.14001523
211	0x3dbb72d6	0.091527626
212	0xbdec36e9	-0.11533911
213	0x3c8f4430	0.017488569
214	0xbbe15bd3	-0.0068774014
215	0x3d87c494	0.06629291
216	0x3a66d280	0.00088051707
217	0xbd89d841	-0.067307
218	0xbcc5092c	-0.024052225
219	0xbcf84cd7	-0.030310078
220	0xbe341d34	-0.17589265
221	0x3cbda444	0.023149617
222	0xbda93711	-0.08262456
223	0xbc11db85	-0.008902435
224	0x3e003333	0.12519531
225	0x3cd4a702	0.025958542
226	0xbbda3f29	-0.0066603613
227	0x3dba6b61	0.09102512
228	0x3d8072d8	0.06271905
229	0x3d0c085a	0.034187652
230	0xbd3bcb7c	-0.045848355
231	0xbdbfefe7	-0.093719296
232	0xbc73af98	-0.014873408
233	0xbd873cda	-0.066034034
234	0xbdfcbb46	-0.12340407
235	0xbdebc64f	-0.11512434
236	0xbcbf4397	-0.023347659
237	0x3d90f299	0.07077522
238	0xbe0d9292	-0.13825443
239	0xbd9fe5ac	-0.07807478
240	0xbe5e9837	-0.21737753
241	0xbe4c1de5	-0.19933279
242	0x3d3e563b	0.046468955
243	0xbc256908	-0.010095842
244	0xbe22b86d	-0.15890665
245	0x3e08b260	0.13349295
246	0xbe02bda8	-0.1276766
247	0xbe069e3c	-0.13146299
248	0x3c624003	0.013809207
249	0xbdcec703	-0.10096552
250	0x3d7bbb18	0.061457723
251	0xbe414cda	-0.18876973
252	0xbc94e3d8	-0.01817505
253	0xbc3286b3	-0.010896373
254	0x3e43cd4b	0.19121282
255	0x3b7e4432	0.0038797972

encoder.6.bias f4 [10]
0	0x3cb1a4c8	0.02168502
1	0xbc4f7491	-0.012662069
2	0xbcd32c62	-0.025778
3	0x3d5c7014	0.053817824
4	0x3c033dea	0.008010367
5	0x3c119103	0.008884671
6	0xbcc574cc	-0.024103545
7	0xbcbf71f2	-0.023369763
8	0xbd111c33	-0.035427283
9	0x3d2c0997	0.042001333

decoder.0.weight f4 [64, 10]
0	0xbe445f75	-0.19177039
1	0xbd28e3c4	-0.04123284
2	0x3e7cc098	0.24682844
3	0xbcc6a32b	-0.024247726
4	0x3e2a79fa	0.16648093
5	0xbe9adc72	-0.3024631
6	0xbdcabff2	-0.09899892
7	0xbe2c22df	-0.16810177
8	0xbe46afd8	-0.19403017
9	0xbe7439e2	-0.23850206
10	0x3dd8fd82	0.10595228
11	0x3beee7a7	0.0072907987
12	0x3d2e4252	0.042543717
13	0xbc660a7b	-0.014040585
14	0x3dca5f3a	0.09881444
15	0x3cd1981a	0.025585223
16	0x3c436843	0.011926713
17	0x3d859727	0.06522971
18	0x3d3910ee	0.04518216
19	0xbca39f0e	-0.019973304
20	0xbe40b8c0	-0.18820477
21	0xbe2e34dd	-0.17012353
22	0xbcff82fc	-0.031190388
23	0xbe415672	-0.18880633
24	0x3e33e751	0.17568709
25	0xbdbd49a0	-0.092425585
26	0xbe8b74e8	-0.2723763
27	0x3e221c16	0.15831026
28	0xbdf12da0	-0.117762804
29	0x3dfeef63	0.12448003
30	0x3dfc2104	0.12310985
31	0x3e965f6f	0.29369685
32	0xbe0ca894	-0.13736182
33	0xbd1df289	-0.038561378
34	0x3eb9e00c	0.36303747
35	0x3e25e3d1	0.16200186
36	0x3e5c6789	0.2152387
37	0x3e8efc7a	0.27927
38	0xbe8f3454	-0.2796961
39	0x3e7a82fe	0.24464032
40	0xbecdfcc1	-0.40231898
41	0x3ebc436b	0.36770186
42	0x3db08507	0.08619123
43	0xbdf0d993	-0.11760249
44	0x3d9a6b00	0.0753994
45	0x3c59f59b	0.013303186
46	0xbe297567	-0.16548692
47	0x3e78a32e	0.24280998
48	0xbebecac2	-0.37264067
49	0x3e87254b	0.2639564
50	0xbe409150	-0.18805432
51	0x3e54de19	0.20787849
52	0xbc937bf2	-0.018003438
53	0x3e8b3623	0.2718974
54	0xbdb15122	-0.08658053
55	0x3e014942	0.12625602
56	0xbe7770b7	-0.24164091
57	0x3eb038f9	0.34418467
58	0xbc38f8ad	-0.011289758
59	0xbeb7a28f	-0.3586621
60	0xbea44fc5	-0.3209211
61	0x3b8cee34	0.004300857
62	0x3dc37f61	0.0954578
63	0xbe6da637	-0.23207937
64	0x3dda3d52	0.10656227
65	0x3e85f0f1	0.26160386
66	0x3d1993f8	0.03749463
67	0xbe94c207	-0.2905428
68	0x3de57200	0.112033844
69	0xbe6be4d6	-0.23036513
70	0xbe22fd84	-0.15917021
71	0xbd8813bc	-0.06644389
72	0x3dd81335	0.105505385
73	0x3d8dc59e	0.06922458
74	0xbe7a1ba0	-0.244246
75	0xbdf22451	-0.11823333
76	0xbaeffdc2	-0.0018309879
77	0xbe3e1e01	-0.18566133
78	0xbe5db0fd	-0.21649547
79	0x3e310f2e	0.17290947
80	0x3ce0da3b	0.02744781
81	0x3e6c6692	0.23086002
82	0x3e98a3fd	0.29812613
83	0xbdc594fb	-0.096475564
84	0x3e8591c1	0.26087764
85	0x3e2a9712	0.16659191
86	0xbe7ceef7	-0.24700533
87	0x3e54bc87	0.20775042
88	0xbe1befb6	-0.15228161
89	0x3d92d14c	0.071688265
90	0x3e9d306b	0.30701002
91	0x3e8c7f68	0.27440953
92	0xbed5e7f7	-0.41778538
93	0x3ebac6b7	0.36479732
94	0xbd65279f	-0.05594599
95	0xbec171de	-0.37782186
96	0xbe488073	-0.1958025
97	0x3e83fcb2	0.2577873
98	0xbe7d9cd6	-0.2476686
99	0xbedf506b	-0.43616042
100	0x3da22c76	0.079186365
101	0xbd750eef	-0.059828695
102	0x3ea7276d	0.32647267
103	0xbe5b6a71	-0.21427323
104	0x3e4c50fb	0.19952767
105	0xbe8216d5	-0.25408044
106	0xbe67372d	-0.22579642
107	0x3e8febc7	0.2810957
108	0x3daf12d9	0.08548517
109	0x3e56fd10	0.20994973
110	0xbd96f7e2	-0.07371499
111	0xbeba6c09	-0.3641055
112	0x3df0b27e	0.11752795
113	0x3e78c11a	0.24292412
114	0xbdeed5ec	-0.11661896
115	0xbe4377ee	-0.19088718
116	0xbc9cbdfc	-0.01913356
117	0xbe2bf579	-0.16792859
118	0x3da34c24	0.07973507
119	0x3d7ce577	0.061742272
120	0xbe217017	-0.15765415
121	0xbddc8459	-0.10767431
122	0xbe8da48b	-0.276646
123	0xbe739b32	-0.23789671
124	0x3dd4f772	0.10398759
125	0x3eb7fe02	0.3593598
126	0xbdf114ff	-0.11771583
127	0x3e7271ac	0.23676175
128	0x3e239820	0.15976
129	0xbdc62e0c	-0.096767515
130	0x3eaebfc3	0.34130678
131	0x3e5a2bf2	0.21305826
132	0x3eaf4dc6	0.34239024
133	0xbc8f75e4	-0.01751227
134	0xbe643c24	-0.22288567
135	0x3d6afd85	0.05737068
136	0xbe0b53ea	-0.1360623
137	0x3e759aba	0.23984805
138	0x3ebf936f	0.3741717
139	0x3e332753	0.1749547
140	0x3e1b3368	0.15156329
141	0xbe30c174	-0.17261297
142	0xbe486496	-0.1956962
143	0x3e3283ab	0.1743304
144	0x3d3e8a80	0.046518803
145	0x3e647d0e	0.2231333
146	0x3de584e1	0.11206985
147	0xbc914504	-0.017733105
148	0x3dab7e81	0.08373738
149	0x3cd54d94	0.026037969
150	0xbeb30bf3	-0.34970054
151	0x3e62dd4e	0.22154734
152	0xbe2714ce	-0.1631653
153	0x3da42759	0.080153175
154	0x3dab1de3	0.0835531
155	0xbe38b112	-0.18036297
156	0x3e651063	0.22369532
157	0xbc77482b	-0.01509289
158	0xbdffdf9d	-0.12493823
159	0xbd7fa4ed	-0.062413145
160	0xbec3a634	-0.3821274
161	0xbe8af03f	-0.27136418
162	0xbd90ff91	-0.070799954
163	0xbc23c4a9	-0.009995618
164	0x3d45d621	0.048299912
165	0xbd5325f1	-0.051549856
166	0xbd1eb999	-0.03875122
167	0xbd9d5949	-0.076830454
168	0x3f00e5ce	0.50350654
169	0x3e1d6b0b	0.15372865
170	0x3da2f550	0.07956946
171	0x3de2c94d	0.11073551
172	0x3e6a46bb	0.22878544
173	0x3db21cf8	0.086969316
174	0xbdb75e3b	-0.0895352
175	0x3de27191	0.11056817
176	0xbd9f3fad	-0.07775817
177	0x3e561105	0.2090493
178	0x3e110788	0.14163029
179	0xbe25bdb7	-0.16185652
180	0x3e0a5c2d	0.13511725
181	0xbe635e87	-0.22204028
182	0x3e2b9688	0.16756642
183	0x3e444ff7	0.19171129
184	0x3d0149b9	0.031564448
185	0x3e2c2c95	0.16813882
186	0xbe2b7c54	-0.16746646
187	0x3d7f77e6	0.062370203
188	0xbe9d9fa1	-0.3078585
189	0x3e598e77	0.21245752
190	0xbeac3c69	-0.3363984
191	0x3ea3a919	0.3196495
192	0x3c1088f3	0.008821714
193	0xbe6e351d	-0.23262449
194	0xbebd88c0	-0.37018394
195	0x3ec0bcec	0.37644136
196	0xbd9bbc64	-0.07604292
197	0xbe781b3f	-0.24229144
198	0xbda13385	-0.07871155
199	0x3ea49a8a	0.32149154
200	0x3de80678	0.11329359
201	0x3e46f408	0.19429028
202	0x3ebbc3c2	0.3667279
203	0x3de2bb25	0.11070851
204	0xbe062dc1	-0.13103391
205	0xbe62c78e	-0.22146437
206	0x3e099b60	0.13438177
207	0x3d5f4cc1	0.054516558
208	0x3e474eaf	0.19463609
209	0xbe3c0bea	-0.1836392
210	0x3bd3b11a	0.006460321
211	0x3b8307ce	0.003998733
212	0x3bf9e2b9	0.0076259044
213	0xbcd720b6	-0.026260715
214	0xbc117986	-0.008879071
215	0xbcc665a8	-0.024218395
216	0xbc8b20ea	-0.016983468
217	0xbb339b2c	-0.0027405722
218	0x3ca3ec7e	0.02001023
219	0x3c2f09a2	0.010683449
220	0x3d1440f4	0.036194757
221	0x3e6ece11	0.23320796
222	0xbd4e116f	-0.050309595
223	0xbe3bb67d	-0.18331333
224	0x3a632932	0.00086655014
225	0xbe2a21b1	-0.16614415
226	0x3cd14b6f	0.025548665
227	0xbe329faf	-0.17443727
228	0x3e41bb03	0.18918996
229	0x3d210a9e	0.039316766
230	0xbd863478	-0.06552976
231	0x3cb1fac7	0.021726025
232	0x3d8ed738	0.069746435
233	0xbdee8812	-0.11647047
234	0x3de7aaf3	0.11311903
235	0xbdddcda7	-0.10830241
236	0xbdefdef0	-0.11712444
237	0xbce4ace3	-0.02791447
238	0x3e06122c	0.1309287
239	0xbd17267b	-0.036901932
240	0x3de120a3	0.10992553
241	0x3e420970	0.18948913
242	0xbe561cd3	-0.20909433
243	0x3e93e145	0.28882805
244	0xbdcb504e	-0.09927426
245	0xbc2aa936	-0.01041632
246	0x3e9e273a	0.30889302
247	0x3eba8578	0.36429954
248	0xbe169eb5	-0.1470898
249	0x3e76041c	0.24025005
250	0x3db631b8	0.08896202
251	0xbddba48f	-0.107247464
252	0x3c6bc44e	0.014390064
253	0xbc02d5d1	-0.007985548
254	0xbd4a7ad4	-0.049433544
255	0xbc21f978	-0.009886138

decoder.0.bias f4 [64]
0	0xbda0e1ec	-0.07855591
1	0x3e102021	0.14074756
2	0x3dcc00b7	0.09961074
3	0xbd5a4052	-0.053283997
4	0x3db141f0	0.08655155
5	0x3de56102	0.112001434
6	0x3ca84262	0.020539466
7	0xbdb0c717	-0.086317234
8	0xbdf9e1fb	-0.122013055
9	0x3e2d9db9	0.16954698
10	0xbd41efbb	-0.047347765
11	0xbd138bb3	-0.0360219
12	0xbda49531	-0.080362685
13	0x3c8c1f6b	0.017104825
14	0xbd236044	-0.039886728
15	0xbdb604bb	-0.08887621
16	0x3e3a858f	0.18215011
17	0xbc8b9e13	-0.01704315
18	0x3cd6c95e	0.026219066
19	0x3d1b2bcb	0.03788356
20	0xbc9e6d8e	-0.01933935
21	0x3de3654b	0.111033045
22	0xbd2c33c6	-0.042041562
23	0x3d12aa33	0.035806846
24	0x3d930618	0.07178897
25	0x3d81e4f0	0.063424945
26	0xbd719062	-0.058975585
27	0xbc2f1f29	-0.0106885815
28	0x3e10dec3	0.14147477
29	0xbde95312	-0.113927975
30	0x3dce6ecc	0.100797266
31	0x3c330f05	0.010928874
32	0x3e0226ea	0.12710157
33	0xbd10e039	-0.035370085
34	0x3e1130ff	0.14178847
35	0xbe28802d	-0.16455145
36	0xbd18eff6	-0.03733822
37	0xbde35c74	-0.111016184
38	0xbca60353	-0.020265257
39	0xbbef0143	-0.0072938516
40	0x3d5c0153	0.0537122
41	0xbdc62d6d	-0.09676633
42	0xbe698895	-0.22806008
43	0x3bd92109	0.0066262526
44	0x3c76152c	0.015019696
45	0xbb0d4f19	-0.0021562038
46	0xbe057684	-0.13033491
47	0xbcdc5c12	-0.026899371
48	0xbe17641d	-0.14784284
49	0x3d5abd5a	0.053403236
50	0xbe00ec44	-0.12590128
51	0x3d12cc16	0.035839163
52	0x3d5c7d64	0.05383052
53	0x3cd93a8a	0.026517171
54	0x3ce78867	0.028263284
55	0x3d85a53b	0.06525656
56	0x3cf51d9e	0.02992135
57	0x3da18034	0.07885781
58	0xbd727c3b	-0.059200507
59	0xbe1c7dd2	-0.15282372
60	0x3c7c0157	0.015381179
61	0xbdaaad72	-0.08333863
62	0xbdfe76f9	-0.12425036
63	0xbd8d598e	-0.06901847

decoder.2.weight f4 [64, 32, 7, 7]
0	0x0005c5bc	5.30111e-40
1	0x80055df0	-4.92876e-40
2	0x3cb822e4	0.022477575
3	0x3b8b3eec	0.004249444
4	0x2c353292	2.574972e-12
5	0x8005e18b	-5.40087e-40
6	0x00056274	4.94496e-40
7	0x80057c26	-5.03714e-40
8	0x3d39e3b0	0.045383155
9	0x3be419b9	0.006961074
10	0x3d483bf8	0.048885316
11	0xbb381231	-0.0028087015
12	0x3cb343a9	0.021882849
13	0x3b8f9222	0.004381434
14	0x000558b7	4.91002e-40
15	0xbca560fc	-0.020187847
16	0x3c427fe0	0.011871308
17	0x3dbf1f39	0.09332127
18	0xbc91f289	-0.017815845
19	0xbd7dc1eb	-0.061952513
20	0xbca3950c	-0.019968532
21	0x800557af	-4.90632e-40
22	0x3ca5079a	0.020145226
23	0x3b9debe8	0.004819382
24	0x3c926a5a	0.017872978
25	0xbda66760	-0.08125186
26	0x3b74da85	0.0037361693
27	0x3c23998e	0.009985341
28	0x80056585	-4.95596e-40
29	0xbb5845de	-0.0033000628
30	0xbd9a6c0a	-0.07540138
31	0x3b502441	0.003175989
32	0x3e0143a0	0.12623453
33	0x00055af3	4.91804e-40
34	0x2942265c	4.3109925e-14
35	0xb59aae62	-1.1524646e-06
36	0xbd052d3f	-0.032513853
37	0xbb834cab	-0.0040069423
38	0x3be80e38	0.007081773
39	0x3d5ff559	0.05467734
40	0xa8caa23e	-2.2496866e-14
41	0x3c66dc57	0.014090619
42	0x8005683a	-4.96567e-40
43	0xbd151faf	-0.03640717
44	0xbcb51095	-0.022102633
45	0xbd5a8f54	-0.053359345
46	0x3d0e5513	0.0347491
47	0xbd06dd73	-0.032926034
48	0x80055899	-4.9096e-40
49	0xb8c7a96e	-9.520618e-05
50	0x3b3abbb8	0.0028493237
51	0xbaab59e5	-0.0013073055
52	0x386f9b31	5.7126574e-05
53	0xbc0a6089	-0.008445867
54	0x390d1073	0.00013452936
55	0x3b5e70e7	0.0033941807
56	0x390a3337	0.00013179785
57	0xba51f571	-0.0008009291
58	0xbaee8432	-0.0018197356
59	0xbc5370df	-0.012905329
60	0x3db904d1	0.09034122
61	0x3c8df2c2	0.01732767
62	0x3ac1e7a9	0.0014793772
63	0xb9ea3e87	-0.00044678545
64	0xbb17f709	-0.0023188016
65	0xba0ca598	-0.00053652516
66	0x3c23b65f	0.009992211
67	0xbcd46e21	-0.02593142
68	0x3cf540c5	0.029938111
69	0x3d0665f2	0.032812066
70	0x37b20dd9	2.1225702e-05
71	0x3c9387b8	0.018009052
72	0x3da1226d	0.07867894
73	0xbd3973d9	-0.045276497
74	0xbd1200f4	-0.03564544
75	0x3c1ffd38	0.009764962
76	0x3c7c1aae	0.01538722
77	0xb998e102	-0.00029159343
78	0xbd4babce	-0.049724393
79	0xbc65433d	-0.013993082
80	0x3db5750f	0.08860218
81	0xbe2453ce	-0.16047594
82	0xbd13ca7c	-0.036081776
83	0xbca9e93e	-0.020741101
84	0x3aa9ae2a	0.0012945582
85	0x3a8d004d	0.0010757536
86	0xbc82ae3a	-0.015952218
87	0xbdb7e55c	-0.08979294
88	0xbdd32c1a	-0.10311146
89	0xbd3acb46	-0.045604013
90	0xbd21ae6f	-0.039472993
91	0xbb068c16	-0.0020530275
92	0xbc4633d6	-0.01209732
93	0x3c88e19c	0.016709141
94	0xbdafc041	-0.085815914
95	0xbdfdc163	-0.12390401
96	0xbd364e1a	-0.044508077
97	0xbc1dc9ea	-0.00963066
98	0xbb23916a	-0.00249585
99	0xbc0e39f8	-0.008680813
100	0xbc874f8f	-0.016517429
101	0x3c624c35	0.0138121145
102	0xbbfbaf62	-0.0076808194
103	0xbcbecfde	-0.023292478
104	0xbaaf0f98	-0.0013356088
105	0xb9663282	-0.00021953325
106	0xbd173a02	-0.036920555
107	0xbd71e479	-0.05905578
108	0x3c1996de	0.009374348
109	0x3cadf4f4	0.021234967
110	0x3c438be4	0.011935208
111	0x3bff754d	0.0077959658
112	0xbc3af523	-0.011410984
113	0xbd5e0fd5	-0.054214317
114	0xbb8ce1cf	-0.0042993794
115	0xbd872674	-0.06599131
116	0x3c0bca3a	0.008532101
117	0x3d923d39	0.071405835
118	0x3b990598	0.0046698563
119	0x3b677196	0.0035315505
120	0xbc8ceed5	-0.017203728
121	0xbd551759	-0.05202422
122	0xbd286a37	-0.04111692
123	0x3c511fa4	0.012763891
124	0xbdd10bfb	-0.10207363
125	0xbd045847	-0.03231075
126	0xbb86e644	-0.0041168053
127	0xbd44e927	-0.048073914
128	0xbd518f39	-0.05116198
129	0xbba6badd	-0.005088194
130	0x3b7004a4	0.003662386
131	0xbd3eb341	-0.04655767
132	0x3c94ad34	0.018148996
133	0x3c20be9a	0.009811068
134	0x3cca247b	0.024675598
135	0x3bc7ffb3	0.00610348
136	0x3d73349f	0.059376355
137	0xbc1243f5	-0.008927335
138	0xbd854312	-0.06506933
139	0xbd5004b8	-0.05078575
140	0xbbcb46d1	-0.0062035103
141	0xbc495c10	-0.012290016
142	0xbd36c848	-0.044624597
143	0xbd9af990	-0.075671315
144	0x3c02a1e3	0.007973167
145	0xbd92959a	-0.071574405
146	0xba9e1dee	-0.0012063363
147	0x800565b7	-4.95666e-40
148	0x000573f9	5.0078e-40
149	0x00055eb9	4.93158e-40
150	0xb5ad0c05	-1.2893003e-06
151	0x000559ba	4.91365e-40
152	0x3c020b34	0.007937241
153	0x80055874	-4.90908e-40
154	0x800574fc	-5.01144e-40
155	0x01e314b7	8.3416355e-38
156	0x3d35fd71	0.044431154
157	0xbd9bf1ec	-0.07614502
158	0xbdc04a25	-0.09389142
159	0xbd4c8048	-0.049927026
160	0x36b6089d	5.4250254e-06
161	0x800569d3	-4.9714e-40
162	0xbc0df6e4	-0.00866482
163	0x800557ee	-4.90721e-40
164	0x3d24480c	0.04010777
165	0x3d6a51f1	0.05720705
166	0x3c3017dd	0.010747877
167	0xb81d580a	-3.751371e-05
168	0x00055b31	4.91891e-40
169	0x3d2291f3	0.03968997
170	0x3c0d4e5d	0.00862464
171	0xbd44859f	-0.047978994
172	0x3a8721e3	0.0010309782
173	0x3d68c99e	0.056832902
174	0x00055c44	4.92276e-40
175	0x000558ac	4.90987e-40
176	0xbd894e18	-0.06704348
177	0x3cc85e2a	0.024458963
178	0xbcd85eb3	-0.026412344
179	0x3d4b68e4	0.04966058
180	0xbe165ac4	-0.14683062
181	0xb3751ff0	-5.7072555e-08
182	0x00055dcf	4.9283e-40
183	0x3d1dc0e1	0.03851402
184	0x3d012f90	0.0315395
185	0xbc888672	-0.016665671
186	0x3d9bcc2e	0.076073036
187	0xbc08314e	-0.008312536
188	0x00055d19	4.92575e-40
189	0x80068c8a	-6.01429e-40
190	0x80055fa8	-4.93492e-40
191	0x3d268f4c	0.040664002
192	0x3d3b94b1	0.0457961
193	0x3d1f9551	0.03896076
194	0x8e67588f	-2.8515588e-30
195	0x80055f05	-4.93264e-40
196	0xbadd9a89	-0.0016907017
197	0xbb3ac67a	-0.002849965
198	0xbc534689	-0.012895235
199	0x3b16f331	0.0023033137
200	0x3d0eccdf	0.03486335
201	0xbc05c073	-0.008163559
202	0x39b6dd56	0.00034878653
203	0xbb37de77	-0.0028056183
204	0x3a7a85b4	0.00095566665
205	0xbc19a223	-0.009377035
206	0xbcbc0fdf	-0.022956787
207	0xbd84b7f9	-0.064804025
208	0xbc69cea5	-0.014270459
209	0x3cde6578	0.027147993
210	0x3c918b88	0.017766729
211	0xbd2d41ac	-0.042298958
212	0xbdd2d8c7	-0.10295253
213	0x3dacc2e3	0.08435609
214	0xbc302889	-0.010751852
215	0x3dddfbd4	0.10839048
216	0xbb59629e	-0.0033170353
217	0xbbc3c224	-0.005974071
218	0xbcec4701	-0.028842451
219	0xbd610c23	-0.054943215
220	0xbd27c930	-0.04096335
221	0xbb9c0a75	-0.0047619888
222	0x3cfece02	0.031104092
223	0x3cdeafe1	0.027183475
224	0x3b03aebf	0.002009317
225	0x3c8dea1d	0.017323548
226	0x3cdd72b6	0.027032237
227	0x3d5fcc48	0.054638177
228	0xbd268d8b	-0.04066233
229	0xbc10111c	-0.008793142
230	0xbd5f1a16	-0.054468237
231	0xbc68db2e	-0.014212413
232	0xbc6cc3d2	-0.014450984
233	0x3d203a36	0.039118014
234	0x3c45ac9f	0.012065082
235	0xbd1357b7	-0.035972323
236	0xbd945894	-0.072434574
237	0xbcb0cb12	-0.021581206
238	0x3b46fa4c	0.003036159
239	0xbbef1e7b	-0.0072973347
240	0xbcaa06f1	-0.020755263
241	0x3dae7ea7	0.08520251
242	0x3c8e3b0a	0.017362136
243	0xbd3545ee	-0.044256143
244	0xbcd036c9	-0.025416749
245	0xbad8d508	-0.001654298
246	0xba686808	-0.00088655995
247	0xbc044c33	-0.008074808
248	0x3cb55803	0.022136694
249	0x3c1385dc	0.0090040825
250	0x3b2d18c9	0.0026412478
251	0xbaca37f9	-0.0015428058
252	0xbaf08ace	-0.0018351914
253	0x3c23cb23	0.009997162
254	0xbd338d76	-0.04383608
255	0x3c42fdfb	0.011901374

decoder.2.bias f4 [32]
0	0xbde32778	-0.110915124
1	0x3c75da92	0.0150057245
2	0x3e4b967f	0.19881628
3	0xbec688ea	-0.38776332
4	0x3e1d8e9e	0.15386435
5	0x3ed5eaee	0.417808
6	0xbe242ce6	-0.16032752
7	0x3d1544a8	0.03644243
8	0x3ee92cef	0.45542094
9	0x3e577771	0.21041657
10	0x3e3675c6	0.17818365
11	0x3e61e2d2	0.22059181
12	0xbdba1cae	-0.090875015
13	0xbea7bfb2	-0.3276344
14	0xbf2f316d	-0.6843479
15	0xbeeac0d4	-0.4585024
16	0xbf5bde4a	-0.8588606
17	0xbd0f012e	-0.034913234
18	0x3e92357f	0.2855644
19	0xbebafa87	-0.36519262
20	0xbd614c69	-0.05500451
21	0x3eda0bef	0.4258723
22	0xbd1fe58d	-0.039037276
23	0x3da94e6f	0.08266913
24	0x3d8eb471	0.0696801
25	0x3df09f1e	0.11749099
26	0x3e0ca4bf	0.1373472
27	0x3ddf55a2	0.10905005
28	0x3c15fef9	0.0091550285
29	0xbec5d1a6	-0.38636512
30	0xbaafc102	-0.0013408961
31	0xbdc51a95	-0.09624211
