02_Representations/model_weights/autoencoder_cnn_best.pth (torch, 852970 bytes, 15 tensors)

encoder.0.weight f4 [16, 1, 3, 3]
00000000: 7fa0 91be 101a a3bd d57a 40be 0204 67be
00000010: b1a4 04be 4fd4 95be b75e c83d 0a2e 2d3e
00000020: 66b5 523b d48d 1e3f ff2d e1bc 50d3 c1be
00000030: d09f 043f 89e9 7cbe 9d6f eabe c456 e43e
00000040: f0c5 b0be affa 9bbe 6c58 a53e 1126 293f
00000050: 5cce 173f a6ad 073e 7b88 aa3e f615 a23d
00000060: 94c8 f8bc 1588 513c b4d2 24be 69d3 14bd
00000070: 9afd 0abd 624e d03e 9c1d 4bbc 62b4 153f
00000080: e9cd 503f 996c 963d 27a9 a43e b8dd c93e
00000090: 9374 883e c79e df3e 9009 31bc b006 a33e
000000a0: c43e d33e ecdc d33e 386f 27be f13f 753e
000000b0: d601 ed3c 2f53 653e 3d81 2c3e 544c 87be
000000c0: 92b5 b83e fcc7 cf3e 1b08 00bf cced 963e
000000d0: 8268 353e 24fb 02bf 87bd 68bd a33f 6a3e
000000e0: 165c 8fbe 7708 423e 5a36 223e 1246 e2be
000000f0: 73be 8e3e 7f46 a53e 3aeb e4be 9f78 e8be
00000100: dfa5 663e 9312 cb3e b615 a3bd a10f fc3e
00000110: b394 893e 7e27 233e 50bc ca3e 08ac c33e
00000120: 25fc 9bbe 4681 78be 4396 0dbe 99be 7e3b
00000130: 6f03 2ebe b04e 8ebe 5a33 763e c4d7 4f3d
00000140: bd6e 24be f4a5 d03e 49a8 3a3f c2f6 343e
00000150: 26e5 093f 6143 253f 1003 1c3e 5829 b23e
00000160: 542e 653e 5983 793e 2a37 123e 6e05 823e
00000170: abd1 4b3d 1864 d33e 459c ea3e d8aa f23e
00000180: cecc c33d ae87 013f 70d2 603e 9f6e 41be
00000190: 7e03 abbe 0f24 b0be 8016 37be bd94 07bd
000001a0: 7846 6bbd d0c7 d33e 6f6a df3e 963e 9e3e
000001b0: 56c6 5a3e b499 58be d22f 8fbe a44b c03e
000001c0: 5d1d a9be eb53 fcbd fdd3 073e 0e5e e1be
000001d0: bb8e 57be 071d ec3d 5697 f5bc e129 c7be
000001e0: d196 bf3e 93e5 9cbd 8852 b9be eb9c a23e
000001f0: 533c f43d 589a a3bd 1c25 09bd a08a 7e3d
00000200: c59c 223e 1c6e d7be 2b33 6fbe c0fa 81be
00000210: 5353 5bbe 9f19 1fbe 390b b6be 2905 06bc
00000220: 9a12 5ebe ad4f 68be c08f 85bd 04aa dfbd
00000230: de94 443d 77de 9abe d357 f5bd a351 313c
-0.2844276 -0.079639554 -0.18796857 -0.22560123 -0.1295345 -0.2926354 0.097836904 0.16912094
0.003215158 0.6193516 -0.027487753 -0.3785653 0.51806355 -0.24698462 -0.4578828 0.44597447
-0.34526014 -0.30464694 0.32294023 0.6607371 0.59299254 0.13249835 0.3330725 0.07914345
-0.03036908 0.012788792 -0.16096002 -0.03633443 -0.03393326 0.406848 -0.012397196 0.5847837
0.81564194 0.07344932 0.32160303 0.3942697 0.2665144 0.43675825 -0.0108055025 0.3184104
0.41258824 0.41379488 -0.1635102 0.23950173 0.02893154 0.22395013 0.16846175 -0.2642542
0.36076027 0.40582263 -0.5001237 0.294783 0.17715648 -0.5116446 -0.056821372 0.22875838
-0.27999943 0.18948542 0.15841046 -0.44194084 0.27879676 0.32280347 -0.44710714 -0.45404527
0.22524212 0.39662609 -0.079631254 0.49230674 0.2687126 0.15933034 0.39596796 0.38217187
-0.3046581 -0.24268064 -0.13826852 0.003887093 -0.16993497 -0.2779441 0.24043027 0.05074288
-0.16057868 0.40751612 0.7291303 0.17672256 0.5386528 0.6455594 0.15235543 0.34797168
0.22380954 0.24366511 0.14278856 0.25394768 0.0497605 0.41287303 0.4582235 0.47395968
0.09560548 0.50597656 0.21955276 -0.18889855 -0.33401102 -0.3440251 -0.17879677 -0.033100832
-0.05744025 0.41363382 0.4363589 0.30907124 0.21364722 -0.21152383 -0.27966172 0.3755771
-0.33030215 -0.123206936 0.13264461 -0.4401707 -0.21050541 0.11528974 -0.02997939 -0.3889914
0.3741975 -0.07660975 -0.3619578 0.31760344 0.119255684 -0.07988423 -0.033482656 0.06214392
0.15880115 -0.42076194 -0.23359363 -0.2538662 -0.21418504 -0.15537117 -0.35555437 -0.008179941
-0.21686783 -0.22686644 -0.06521559 -0.109211 0.047993533 -0.30247852 -0.11979642 0.010822686

encoder.0.bias f4 [16]
00000000: 7d1f 8f3e f62f bcba 522e 023d 6c55 dcba
00000010: fb8d ab3a 397c f1ba 11eb 163d 7710 07ba
00000020: 2701 a93e 2ef0 2eba 3116 813b aa95 193e
00000030: c5e2 883e 95a1 d1ba 7a36 0e3f edef d43e
0.2795371 -0.0014357555 0.031782456 -0.0016810126 0.0013088578 -0.0018423862 0.03684527 -0.0005152295
0.33008692 -0.0006673363 0.003939413 0.14998499 0.2673551 -0.001599359 0.55551875 0.415893

encoder.2.weight f4 [32, 16, 3, 3]
00000000: f1aa 1abd 59ef cdbb d342 8abc 5890 e2b9
00000010: 07e7 ccbc 5684 cdbc 1dcf 173d 05a3 e43b
00000020: a0dd 023d 88ba afbc 411a a1b9 73d7 ec3c
00000030: 0510 5ebe 12a2 00be 69e2 24be d758 febd
00000040: d54f 83bd 6497 d1bd d6c1 f23c 9235 003e
00000050: e50d 8a3d 92cd 79bd 3efb ea3d c702 d23d
00000060: 465e 8fbd f042 71bd 09ea 20bd 7b83 0f3d
00000070: 92f3 c23d 0a35 c33d dec6 8dbd b18e 563d
00000080: 182d e43d 1c76 d7bd 72a4 0abe bc04 83be
00000090: 9e0e e33c 8bb3 9d3d 08cd 123b e508 30be
000000a0: 055e 963d 48d2 c03d 27ec bbbd d637 fcbd
000000b0: 48a4 fbbd d8c6 96bd 76a1 043d 686d b8bc
000000c0: 8943 77be a685 d6bd 0bb2 c3bd 9cb2 81bd
000000d0: c654 b2bd 7a9d a5bd 8559 77bc 655c 2b3d
000000e0: b3c6 0dbc 5c54 86bd 0e2d 9fbd d53f dfbd
000000f0: f248 91bc 0012 8cbd 55e9 86bd 4ea8 833a
00000100: 4568 063e b28d a83d 6162 e4b9 aa0a 903c
00000110: 4db0 8b3c 8615 84bd fd0e 05be 79eb 71be
00000120: ed76 cabc 1bb2 7d3b 227d ff39 d99b c33b
00000130: 71d8 98bc 76ee 02bd 9c9b 343d d297 953c
00000140: 29be e83b 4054 84bc 0f5c 293e 59dc c03d
00000150: 608f 97be a291 843d 2d1e b73d 5ade 16be
00000160: 59e0 4ebe 99be 31be b5db 21bd b6f3 a73d
00000170: 85ec 063c 5d7b 5cbe 7efe ee3c 40c4 a03d
00000180: b9a2 f9bd 7c84 32be ab2c 4abe fb49 6dbd
00000190: 0b72 633d fec7 903d 411f 96bd caf2 88bd
000001a0: 8d5d 303c f6fd 8cbb 4616 22bd 502a 803c
000001b0: ad00 b9bc 8f66 07bd 23a2 8bbd 0329 bcbd
000001c0: 0135 96bd 6383 b7bd 46dc 13bd 9ed8 c6bc
000001d0: cfdc 5bbd 90d6 483d 3ae1 d33d df86 b63d
000001e0: 1d30 1ebd bc19 efbc a6f1 77bd 0b04 0abd
000001f0: 0741 d4bc c43f 70bd 3199 a73d 0130 3a3d
00000200: e8b5 293d 1a52 e83d 8617 243d 4d88 1d3c
00000210: 8099 573d 3284 873d 86a6 823d 8463 333b
00000220: e323 59bd fdd8 a7bd c6a6 bfbc 5598 34bd
00000230: e00c 2abd 2d9a 76bc 22ea 82ba 9d1c b4bc
00000240: 79ce 113d 64bd 5d3c d250 fabd ea77 833c
00000250: e087 7d3c 4e55 f9bd 4dbc 8d3b 78fa f8ba
00000260: 28f0 17be 1ea7 f2bd 4d82 0abd 782a ad3d
00000270: 9a65 67bc a6a3 d4bc 3852 9a3d e78f f13c
00000280: 301c e83c ab37 8f3e 8b80 e53c e5e2 a3bc
00000290: 6db5 ae3d 5107 e1bd ecda b4bd 8775 233d
000002a0: 7b17 14bd d159 e5bd 9123 443d fb86 0bba
000002b0: f78b e3bd c21c 8e3e 5462 9cbd c586 12be
000002c0: c512 8f3e ede1 83bd 3bad cebc 18cc 853e
000002d0: 9794 d1bb f250 a2bd d6ab 973d 5523 ffbd
000002e0: 9cd6 02be da26 053d f31d 1cbd 05cd c9bd
000002f0: 8b47 923b 2803 d7bd c3bb a6bb 1648 103e
00000300: ec62 24bc 1082 f9bc 90f6 413e f204 353b
00000310: ab93 063e 6875 4d3e 387f 55bd 9cbd d6bb
00000320: da74 053e 4086 e63c e30c 453c ea26 b53d
00000330: 9682 9a3c 8123 aa3d cae8 de3d 391b 40bd
00000340: 4f7f d0bd 61e3 3d3e 1f5f 72bd 675b 08be
00000350: 59e4 4b3e 80c0 3cbd 5867 b1bd 509c 733e
00000360: 08ed 383d d4aa 283d b493 babd 52aa 483d
00000370: b643 3c3d 6d6a cdbd e336 803c 3f6d 52bb
00000380: 56dc 25be 3a1d 9cbd a5c6 8bbd a722 323d
00000390: e93a 06be 4f72 3dbe b313 a8bc 949a 93bc
000003a0: 9352 09be a2ba 833c 3765 66bd 11a3 d4bd
000003b0: 1277 823d 2e49 d5bd 6003 2abe 2d30 a03c
000003c0: 1687 3bbd 2ee7 e5bd 516b 283d 1a1a 2ebc
000003d0: 5619 c7bd e7b4 9bbc caba 823c 8051 4abd
000003e0: e2a8 b3bd 4878 9cbc 41e4 f13c 2e57 08bd
000003f0: 75d4 eabc e4a8 de3c a4de 0dbd 5247 053b
-0.03776068 -0.006284636 -0.016877567 -0.00043213624 -0.025012506 -0.025087517 0.037062753 0.0069774413
0.03194964 -0.02145125 -0.00030727874 0.028911328 -0.21685798 -0.12561825 -0.16101994 -0.124192886
-0.06411711 -0.102339536 0.029633444 0.12520435 0.067409314 -0.060987063 0.11473702 0.10254436
-0.07000403 -0.058901727 -0.039285693 0.0350375 0.095191136 0.09531601 -0.069226965 0.052382175
0.111414135 -0.105205745 -0.13539293 -0.2558955 0.027716931 0.07700261 0.002240004 -0.17190893
0.073421516 0.09415108 -0.09175902 -0.12315337 -0.122871935 -0.07362145 0.032380544 -0.022513106
-0.24146856 -0.1047471 -0.095554434 -0.06332895 -0.087075755 -0.08086677 -0.015097027 0.04183616
-0.008653331 -0.06559059 -0.077722654 -0.10900847 -0.017734978 -0.06839371 -0.06587473 0.0010044666
0.13125713 0.08230151 -0.00043560847 0.01758321 0.01705184 -0.06449418 -0.12993999 -0.23624982
-0.024714911 0.0038710895 0.0004873062 0.005969506 -0.018657895 -0.031965695 0.044093713 0.01826087
0.007102747 -0.016153455 0.16539024 0.09417028 -0.29601574 0.0647309 0.089413024 -0.14733258
-0.2020277 -0.17357863 -0.03951617 0.08200781 0.008235102 -0.21531434 0.029174086 0.07849932
-0.1218924 -0.17433351 -0.19743602 -0.05793188 0.05552868 0.070693955 -0.0733018 -0.06686933
0.010764492 -0.0043027354 -0.039572023 0.015645176 -0.02258333 -0.033056792 -0.068180345 -0.0918751
-0.073343284 -0.08960607 -0.03609874 -0.024273213 -0.053677376 0.049032748 0.10345693 0.08912443
-0.038620103 -0.029187076 -0.06053319 -0.033695262 -0.025909914 -0.05865456 0.08183516 0.045455936
0.041433245 0.11343785 0.040061496 0.009615016 0.052636623 0.06617011 0.06379418 0.0027372548
-0.05301274 -0.08195684 -0.023394953 -0.044090588 -0.041516185 -0.015051407 -0.000998799 -0.0219863
0.0355973 0.013533924 -0.122224465 0.01604839 0.01547429 -0.12174474 0.0043254257 -0.0018995544
-0.14837706 -0.11848281 -0.03381567 0.08455366 -0.014123345 -0.02595694 0.07535213 0.029487563
0.028333753 0.2797216 0.028015396 -0.020005653 0.08530698 -0.109877236 -0.088308185 0.039907005
-0.036155205 -0.11198772 0.04788548 -0.0005322543 -0.111106806 0.27756315 -0.07635942 -0.14309223
0.27944008 -0.06439576 -0.025229087 0.26132274 -0.006395887 -0.07925595 0.07405822 -0.12457911
-0.1277718 0.032507755 -0.0381145 -0.098535575 0.004464095 -0.10498649 -0.005088301 0.14089999
-0.01003335 -0.030457526 0.18941712 0.0027621356 0.13142268 0.20064318 -0.05212328 -0.006553365
0.13032857 0.028140187 0.012026998 0.08845313 0.018861096 0.08307553 0.10884245 -0.04690096
-0.10180532 0.1854377 -0.059172746 -0.13316117 0.19911326 -0.04608202 -0.086622894 0.23790097
0.045147926 0.04117854 -0.091102034 0.048990555 0.04596301 -0.10030065 0.015651172 -0.0032108573
-0.16197333 -0.07622762 -0.06824998 0.04349008 -0.1310841 -0.18500637 -0.020517206 -0.018018045
-0.13410406 0.016080204 -0.05624887 -0.10382665 0.06370367 -0.104143485 -0.1660285 0.019554222
-0.045783125 -0.11225735 0.04111797 -0.01062634 -0.09721629 -0.01900716 0.015958209 -0.04939413
-0.08772446 -0.019100323 0.029527785 -0.033286266 -0.02866576 0.027180143 -0.034636155 0.00203367

encoder.2.bias f4 [32]
00000000: ce39 b2bb 0ac1 153d 686c 2cbc 3e65 dc3b
00000010: 18a9 45bd 7221 6f3c ee78 3dbd 73e5 fbbd
00000020: 6aec d1bc bed2 20bc 46b0 46bc 1aa3 82bc
00000030: aa6d a13a 664b 0abd b545 a3bc 2073 dd95
00000040: d7d0 58bc 2fb4 ecbc 1baa 0dbd e11e 30bd
00000050: a733 3cbd 34d4 373c 8da2 d2ba f7a0 563c
00000060: 2088 4dbb 67b3 bd3d 421e 293c 82b6 113d
00000070: 272a 76bd a499 f33d 43b4 9fbd 9b52 d93b
-0.0054390198 0.03656105 -0.010523893 0.006725936 -0.048256963 0.014595376 -0.046257906 -0.12299623
-0.025625426 -0.00981587 -0.012126988 -0.015946914 0.0012316008 -0.03376331 -0.0199307 -8.9442824e-26
-0.013233385 -0.028894512 -0.034586053 -0.0429982 -0.045947697 0.011220027 -0.0016070172 0.0130999
-0.0031361654 0.09262734 0.010322155 0.035574444 -0.060098793 0.11894539 -0.07798054 0.006632162

encoder.4.weight f4 [64, 32, 7, 7]
00000000: 52d4 7eb0 dc0a 96ba a28f 7dba a668 75ba
00000010: c69d 81ba e084 53ba 7c4c a2ba 73db 9e39
00000020: bcf7 c43b 920d 86bb 82dd e43c 75d6 a43b
00000030: 8a0b 66bb 4649 7abb a8de 723c eb17 f1bb
00000040: 51a0 4bbc fa20 25bc 0d55 e63c 76c7 413d
00000050: da25 083c 1601 0e3b c3e9 9e3b 25a2 a23c
00000060: a3a1 9c3c fa5f 08bd 51b6 9f3c dc3b 84bb
00000070: d391 86bb e546 063d 0545 cbbb e221 133c
00000080: 6b26 0cbc 45f7 cc3c 6cc3 293b 4a84 f6ba
00000090: 4ea6 05bd d238 41bc 62c2 3dbd fd2d 27bd
000000a0: dac5 a1bc 5086 90bc aef7 c33a 278e b8bc
000000b0: 4ddc c7bc d29d 94ba 243d 23bc 4fa1 9abc
000000c0: 40bb 91bc fa72 0500 fcd0 173b 1567 123c
000000d0: ec04 0c3c 12df 19bc f158 a73b 7555 9732
000000e0: 6b05 923b 7a1e 0ebc bb85 483c a798 9d3a
000000f0: 2a66 fbbb 10e2 093b 2d09 b13a 996e 8bbb
00000100: 5048 e13a 9c6f 58bc 62cb ecbc 6145 013c
00000110: b525 bcbc fc01 9eb8 8ca6 90bc 603b 4cbb
00000120: c936 463c b280 093d 1883 773d 93a5 cdbc
00000130: 768a b5ba 558b d5bc 6b22 a0bb 94da 893c
00000140: a43a cf3c 0d90 c4bc 79ff d0bd 3054 2b3a
00000150: 68f4 adb9 9603 2bbd ad1c 55bc 428b a93c
00000160: 950d f3bc 6a0d 0bbc b3a4 d13a 4baf 5fba
00000170: 9704 0fbc ffbd 01bc a751 1b3b 8aa7 b73c
00000180: 4c00 f1bb 792b 0e3a ca58 0500 0b38 f83a
00000190: 5c00 a13b 959c 3e39 4405 8cbb 8160 3b3b
000001a0: 8d43 81b8 64d3 a23a 5dd4 5cbc 7e9d 00ba
000001b0: 21c1 643b 882b 7abb 4f40 703c 0246 3d3c
000001c0: 79ce 8fbb f780 4c3b 7bdd d73c 0670 34bc
000001d0: 2f47 debc b229 b33a ec38 5a3a 31de 283b
000001e0: 8cf5 74bc 4cf7 a7bc c9a8 c6bc 11bd 473c
000001f0: 4d67 aa3c 08ca a7ba e2a3 56bc 0b8c 18bc
00000200: dc1a 0bbd 1fba 8f3c 08a2 333b bafc 0f3c
00000210: 64df be3b ef1d c73b 5266 8d3c 8337 333d
00000220: 8922 3c3c e811 25bc 7771 a93c 155d dc3b
00000230: 0e46 49ba 939e 093c d537 483d e937 ea3c
00000240: ce41 81bc 6c99 b0bc bdab 15bc e10a 08bc
00000250: 519b 84bc 5fed 56bc cbe1 25bb 26d6 a1bb
00000260: 9e67 45bc e2ba 70bc a09a 5ebc 8c71 a0bc
00000270: df64 95bc e41a 9a3c f9b3 fbbc e255 27bc
00000280: 5b5b 47bc 4c66 23bc ded2 1cbd 138e c6bc
00000290: 9c8b cf3c 0066 7d3d 19fb 463c 4f9f 843c
000002a0: e8e3 14bc 240f cebc 1ddb 163d 2c08 243d
000002b0: fe72 3a3d 9ea7 873d bb66 2e3c 0a86 2cbb
000002c0: 4e88 90bb 9357 0b3d d0ff 04bd 3570 0a3e
000002d0: eb26 a73c 05e3 8fbc 7aa6 71bc f5d7 27bd
000002e0: 3be3 593a 04aa 05bc b0e9 353d 202b e2bb
000002f0: b98e 93ba fbb0 6cbc c910 82bc d212 5dbd
00000300: 3b7e b13c fc17 c63c d547 3bbc 356d 95bc
00000310: 1c5a 0500 4a54 90b1 93db 8d3b 2084 ca3b
00000320: 90a7 503c 82be 8ebb 7e55 233b 3c54 8438
00000330: 44bf 0e3a 0a49 9ebb 241f abbc dd8c 22bb
00000340: 883d 46bc 9f4e e63a 014e 1eb9 5bd9 d53b
00000350: 08a1 fdbb 7b36 bdbc bc2f 12bd c218 85bc
00000360: 2195 32bd 0e37 8db9 0c2d 1dba 79ad 073c
00000370: d3df dbbb 962c 4c3d 08f7 cdbc 3139 923c
00000380: 66b3 a4b9 3fa1 c7bc a2d9 e5bb 400d 0b3d
00000390: 1187 0cbc e6d7 ea3b 8615 e23c 2143 00ba
000003a0: 54e0 02bc 7eca 31bc bbdd b8bc 8866 e13c
000003b0: a75a 193d e39c 643b 69f8 deb9 05a0 9cb8
000003c0: 396e e5ba 7981 0dbc 3015 343d 3389 2b3d
000003d0: d96a 6f3b 3a5b 0500 676a 0500 814d 5b3a
000003e0: 472d 8d3b bfd5 2d3c 73b3 1fbc 9f29 573b
000003f0: 3062 0580 3817 ec3a 960e 913c e108 8d3c
-9.2706387e-10 -0.0011447328 -0.0009672587 -0.0009361602 -0.0009888939 -0.0008068811 -0.0012382413 0.0003029961
0.0060109776 -0.004090973 0.027937654 0.005030448 -0.0035102093 -0.0038190647 0.014823593 -0.0073575876
-0.012428359 -0.010078663 0.028116727 0.04730936 0.008309806 0.0021668128 0.004849644 0.019852707
0.019120043 -0.033294655 0.019496115 -0.004035456 -0.004106739 0.032782454 -0.006203296 0.008980246
-0.008554081 0.025020251 0.0025903834 -0.0018807736 -0.032629304 -0.011793332 -0.046327956 -0.040815342
-0.019747663 -0.01764217 0.0014951134 -0.022528721 -0.02439704 -0.0011338538 -0.0099633075 -0.018875746
-0.017789483 5.00423e-40 0.0023165336 0.0089357095 0.008546095 -0.009391563 0.005107038 1.7617575e-08
0.0044562123 -0.008674258 0.012238915 0.0012023643 -0.007672091 0.0021039285 0.0013506763 -0.0042551276
0.0017187688 -0.0132102035 -0.028905574 0.007890076 -0.022967199 -7.534397e-05 -0.01765754 -0.003116332
0.012098023 0.03357 0.060427755 -0.025103366 -0.0013850469 -0.026067415 -0.0048869154 0.016827859
0.025296517 -0.02399447 -0.102049775 0.0006535677 -0.00033179228 -0.041751467 -0.013007325 0.020696286
-0.029669562 -0.008487085 0.0015994519 -0.00085328956 -0.008729122 -0.007918834 0.0023699792 0.022418756
-0.0073547717 0.0005423348 4.91029e-40 0.00189376 0.004913373 0.00018178143 -0.0042730886 0.0028591456
-6.163782e-05 0.0012422618 -0.013478366 -0.00049062807 0.0034905153 -0.003817292 0.01466377 0.011552336
-0.004388627 0.0031204799 0.026350727 -0.011013037 -0.027133552 0.0013669042 0.0008324522 0.0025767202
-0.014951121 -0.020503663 -0.024250405 0.012191073 0.02080121 -0.0012801299 -0.013100596 -0.009310733
-0.033961162 0.017544804 0.002740981 0.008788282 0.00582497 0.0060765664 0.017260704 0.043754112
0.011482843 -0.01007507 0.020683987 0.0067249634 -0.00076779805 0.008399623 0.04888137 0.028591113
-0.015778448 -0.021557532 -0.009135184 -0.008303375 -0.016187342 -0.013118117 -0.0025311585 -0.0049388586
-0.01204863 -0.014692994 -0.01358667 -0.019585393 -0.018236576 0.01881165 -0.030725466 -0.010213347
-0.012167777 -0.00997312 -0.038287036 -0.024237668 0.025335126 0.061864853 0.012144827 0.016189246
-0.00908754 -0.025153704 0.036830056 0.040046856 0.04551982 0.06623767 0.01064461 -0.002632501
-0.00441078 0.034019064 -0.032470524 0.13519366 0.0204043 -0.017564306 -0.014749164 -0.040977437
0.0008311753 -0.008158211 0.044412315 -0.0069021136 -0.0011257745 -0.014446492 -0.015877144 -0.053973027
0.021666637 0.024181359 -0.0114307 -0.01824055 4.91503e-40 -4.200534e-09 0.004329154 0.0061803013
0.0127352625 -0.0043562064 0.0024922783 6.30994e-05 0.0005445371 -0.0048304843 -0.020888872 -0.00248032
-0.012099631 0.0017571038 -0.00015097113 0.006526155 -0.0077401437 -0.023097267 -0.035690054 -0.016247157
-0.04359925 -0.00026934635 -0.0005995787 0.008281105 -0.0067100315 0.049847208 -0.025142208 0.017849537
-0.0003141418 -0.02436888 -0.0070144692 0.033948183 -0.008577124 0.0071668504 0.027598154 -0.00048928155
-0.007988054 -0.010851501 -0.022566667 0.027514711 0.03743997 0.003488355 -0.0004252822 -7.4684656e-05
-0.0017504162 -0.008636826 0.04396552 0.04187889 0.0036532192 4.91903e-40 4.97347e-40 0.0008365736
0.004308376 0.010610043 -0.009747374 0.0032831205 -4.944e-40 0.0018012291 0.01770715 0.017216148

encoder.4.bias f4 [64]
00000000: 5703 42bc aca4 1fbb fa56 31b9 1c47 b9bc
00000010: c385 6f3c 10e3 adbb 8ac0 4ebb 30e8 b93b
00000020: 68c5 2aba e01e 713c 108e b0bc 5b00 31bb
00000030: 0fc0 0dbc 9f98 a2bc 2e73 ba3c f093 40bc
00000040: 1f74 9f3b 67dc a2bc 610a 9fbb 1594 053c
00000050: 6f2a 98bb 3f5c 793c 7a16 133c f021 4c3c
00000060: 3283 3dba 684e 43bc 9108 a83b 34cc b13c
00000070: 24ce 973c 00c5 893b ce26 f8bb 54fb b4bc
00000080: 3254 af3c 4d57 6ebc d06e b93c a123 2ebc
00000090: 1299 e6bb a941 c73a 6645 6a3b 796f b83c
000000a0: 0567 01bc 7812 0f3c 061e ad3c 01e2 293c
000000b0: 2cf1 9dbc aff4 9d3c 054f d73b 1c17 c13c
000000c0: 91d6 e7bb 9d5c 1d3c 99ec 703c 7dfa dcbb
000000d0: d110 aebc b541 1cbc a691 bcbb 5b12 9abc
000000e0: 2b7d aa3b bf2d 183c f8fb bd3c 1df4 983c
000000f0: f370 6db9 4afa d0bc 3427 f5ba bac6 993c
-0.011841617 -0.0024359627 -0.00016912437 -0.022616915 0.014619294 -0.005306609 -0.0031547868 0.005673431
-0.0006514401 0.014716834 -0.021552116 -0.0027008269 -0.008651747 -0.019848166 0.02276 -0.011754021
0.0048661376 -0.019880487 -0.004853532 0.008152981 -0.0046437304 0.015219747 0.008977527 0.012459263
-0.00072293275 -0.011920549 0.0051279743 0.021703817 0.018530913 0.0042043924 -0.0075729853 -0.022092499
0.021402452 -0.014547181 0.022635847 -0.010628612 -0.0070372904 0.0015202063 0.003574693 0.022514092
-0.007898097 0.008732431 0.02113248 0.010368825 -0.019280039 0.019281713 0.006570699 0.02357059
-0.007075139 0.0096046 0.014704847 -0.0067437277 -0.021248253 -0.00953715 -0.0057546673 -0.01880758
0.0052029095 0.0092882505 0.023191437 0.01867109 -0.00022644158 -0.025509972 -0.00187037 0.018771518

encoder.6.weight f4 [10, 64]
00000000: 163d 19be 74c9 923d 95fb a93e 55f9 903d
00000010: 7dd4 163c 856a 0fbe 9498 223e 88a1 1d3e
00000020: 8ca1 583e 56fb b93d e6db c8bd d3b2 fd3d
00000030: a2b9 9f3d 03fc 1c3e e3d5 1b3d 2432 503e
00000040: d9d2 273d 83b3 4d3e b09a 53bd c998 683e
00000050: b3ce b33d 14b2 03be ea13 2d3d c99c 673e
00000060: c991 743d 7d97 93be 94e0 5ebe 2f72 863c
00000070: 9130 c33d 59e8 9fbe bc6c 6ebe 9870 543d
00000080: ae4a c6bd 62b2 58be 1b0a 4abe 8d41 b3bd
00000090: 3672 5d3e dccc 98be b248 b2bd f7ec a9bc
000000a0: 37b3 0f3d 9e69 08be b841 e4bd a638 c73d
000000b0: 95d7 853d 4191 043d 9e75 c73d 8db1 213e
000000c0: b891 09bd 0184 e33d c440 1d3e 3696 86be
000000d0: 010f 9abe 697e c13a 45b6 db3e 93b7 95bd
000000e0: 3ebf d23d 8791 a53e 22a3 63be 9ef4 48bd
000000f0: f56e 11be e349 a9bd 79ca 573e 59f8 20bc
00000100: 0222 023e 2ccc 593d fc73 9cbe e545 ce3c
00000110: ba1a fbbd c501 993e f28a 1bbe 108c 8ebd
00000120: 0e34 103e 54b4 2cbe 7bf8 ed3d 0001 a33d
00000130: 0023 ddbd 2ded 833d 2a9c acbd a481 2fbd
00000140: fe83 0abd d459 233e ea36 90bd b782 80be
00000150: 2506 74be 6d09 56be 3ca6 9abd b584 67be
00000160: ae49 4bbe 9a2d 773d 85a5 473d a2a5 15be
00000170: 63ed c23d c147 56bd 2288 c9bd 49ec 0dbd
00000180: e466 30be 43cf 2dbd 82a4 4abe f3e6 3a3c
00000190: 65d1 a13d 93ad 92be 3f02 b8bd d74c 023c
000001a0: 9259 37bd 29dd 8e3e 71a5 f3bc 8ec4 60be
000001b0: a358 463e 86f0 6cbe 0410 7ebe 1b4d bf3d
000001c0: 9eb4 363e 2c62 e9bd 9297 72be bb21 82be
000001d0: d8b8 143e c7cc 673d f741 d33d ee08 a33e
000001e0: 1e44 3e3d f3d1 123e 4c49 223e 713f a1bd
000001f0: 7bfb 2cbe ab04 1ebd 2f04 43bb 6590 b4bb
00000200: 3f1c 0d3e e625 353e 3fb9 653e 0b5e acbe
00000210: f7d2 973e 81e2 f23d 3410 19bc 4c9a 07be
00000220: 3dfc 81be aa88 cb3b 18e3 36bc 77d4 79bd
00000230: 9f95 8a3e 2627 8dbe 9609 7abe edee 0cbe
00000240: a4f7 eabd 7e83 4bbe 5080 93bd 0d15 453d
00000250: dd90 16be 96e9 763e 600b 0bbe aab9 1d3e
00000260: 0305 a5be c7b1 d0bd 5477 87bd 254a c5bd
00000270: 8359 3d3e 14ed 7bbc 3cc3 f53b 735a 01bd
00000280: 719b 043e 79cb 94be f578 383e d5b8 ec3c
00000290: 6956 92be 5fec 64be cd95 3bbe 54aa 0b3e
000002a0: 9544 72bd 819a 1f3e 28ad 273a 1a36 5d3e
000002b0: 7ff7 aabc 5e82 6ebe 5c7a 33be c133 553d
000002c0: 3f70 f73d 49c3 3ebd 9718 3cbd fb96 173e
000002d0: 2139 1abe b0b8 55bd f6d7 1b3e fabe 9fbe
000002e0: d0d7 3b3d fa75 19be 9ad3 e63a b087 333c
000002f0: b420 5f3e 86d2 53bd 46ff 883d 486b 07bc
00000300: 1ce3 acbd fa96 c7bd 8510 0ebe ec68 cbbe
00000310: 9498 cebd 893a 703e 0650 ed3d 82bd 90bd
00000320: 5654 46be 383c 33bd 361d 9b3e e8b6 343e
00000330: 347e 7cbd 0c3d 45be 4a70 77be 97e4 873e
00000340: 4140 40be bb3d 01bd 5ea0 ecbd 71e7 8c3d
00000350: 8942 50be 888d 80be bb93 193e e460 9abe
00000360: a3da 913d 26cb 5e3e f9bd 1ebe 23ef 40bc
00000370: 0473 733d 4939 c33d 9144 d7bd c3be 28be
00000380: fb89 6b3e a69b 4dbe 16ce ad3d c6dc 26bd
00000390: 8013 623e 047b 473e 47f7 0a3e 5f23 1b3c
000003a0: 24a3 1bbd 3ec7 fbbd d714 013d 272f 5b3b
000003b0: 52fe a93d 0538 23bd 06b7 d03d 49ce 473e
000003c0: 107d 6dbe 1990 583d e97b 233e 646c 023e
000003d0: 1f27 77be a750 d23d 3a2f 1ebd 3e2a 04bf
000003e0: ef9d 743b 5345 5e3e 659d 8e3d 37e8 083e
000003f0: eb5f 60be 8632 f43d b697 2d3e 00bf 313d
-0.14964709 0.071673304 0.33199754 0.07078806 0.009205935 -0.14005478 0.15878516 0.1539365
0.21155375 0.09081142 -0.09807567 0.12387624 0.077990785 0.1533051 0.038045775 0.20331627
0.040972564 0.2008801 -0.051661193 0.22714533 0.08779659 -0.128609 0.04225532 0.22618403
0.059709344 -0.28826514 -0.21765357 0.016411869 0.09530748 -0.31231955 -0.23283666 0.05186519
-0.09682213 -0.21161798 -0.19730417 -0.08752737 0.216256 -0.29843795 -0.08705272 -0.020742876
0.035083022 -0.1332154 -0.11145347 0.09727602 0.0653526 0.032365087 0.097392306 0.15790386
-0.033586234 0.11109162 0.15356737 -0.26286477 -0.30089572 0.0014762405 0.42912498 -0.07310405
0.10290383 0.3233759 -0.22230199 -0.04906141 -0.14202483 -0.08266046 0.21073331 -0.009824836
0.12708285 0.05317323 -0.3055724 0.025179813 -0.12260957 0.29884163 -0.15189722 -0.069603086
0.14082357 -0.16865665 0.116196595 0.07959175 -0.10797691 0.06441722 -0.084282234 -0.042848244
-0.033817284 0.15952235 -0.07041724 -0.25099728 -0.23830469 -0.20902033 -0.07551238 -0.22609217
-0.19852325 0.060346223 0.048741836 -0.14613965 0.09517934 -0.052314524 -0.098404184 -0.034649167
-0.1722675 -0.04243399 -0.19789317 0.011407602 0.07901267 -0.28648052 -0.089848034 0.00795289
-0.044763155 0.27903107 -0.029741975 -0.2194998 0.1936975 -0.23138627 -0.24810797 0.093408786
0.17842337 -0.11395678 -0.23690632 -0.2541636 0.14523637 0.056591775 0.10315316 0.3184275
0.04645168 0.14337902 0.15848273 -0.078734286 -0.16892807 -0.03857867 -0.0029757132 -0.005510377
0.13780306 0.17690238 0.22433947 -0.336655 0.2965314 0.118596084 -0.009342242 -0.13242453
-0.25387755 0.00621136 -0.011162542 -0.060993638 0.27067277 -0.2756893 -0.24417719 -0.13763018
-0.11473015 -0.19874379 -0.07202208 0.04811578 -0.14703698 0.24112543 -0.13578558 0.15402856
-0.32230386 -0.10190158 -0.06614557 -0.096332826 0.18491177 -0.015376348 0.0075000804 -0.0315804
0.12949921 -0.29061487 0.18014891 0.028896729 -0.2858155 -0.22355793 -0.18318863 0.13639194
-0.059147436 0.15586282 0.0006396347 0.2160267 -0.020869968 -0.23291919 -0.17527145 0.05205131
0.12081956 -0.046572957 -0.04592189 0.14803688 -0.15060855 -0.052178085 0.15219101 -0.3120039
0.04586011 -0.1498641 0.001761067 0.010957643 0.21789819 -0.051714443 0.066893145 -0.008265324
-0.08441755 -0.09745593 -0.13873489 -0.39728487 -0.10087696 0.2345983 0.11587529 -0.07067396
-0.19368109 -0.0437586 0.30295724 0.17647898 -0.061643794 -0.19261569 -0.24163929 0.26541588
-0.18774511 -0.03155301 -0.11554025 0.068800814 -0.20337881 -0.2510798 0.14997761 -0.30152047
0.0712178 0.21757182 -0.15502156 -0.011775765 0.05943586 0.09532411 -0.10511125 -0.1647902
0.23001854 -0.20078906 0.084865734 -0.04073789 0.22077751 0.1948052 0.13570891 0.009468882
-0.03799738 -0.12293862 0.031514015 0.0033444853 0.08300461 -0.039848346 0.10191159 0.19512285
-0.23192239 0.052871797 0.15965237 0.1273666 -0.24136017 0.102692895 -0.038619258 -0.51626956
0.003732558 0.21706133 0.069636144 0.13369833 -0.2191159 0.11923699 0.16952404 0.043395042

encoder.6.bias f4 [10]
00000000: b53f d6bb e28f ddbc a6fb 3ebc dc10 01bd
00000010: 22b6 f3bb 3e47 c6bc 3a36 b4bc 289d 053c
00000020: bf62 ed3b 91b7 88bd
-0.006538356 -0.027046148 -0.011656677 -0.03151022 -0.0074374834 -0.024203893 -0.021998513 0.008155145
0.0072444375 -0.066756375

decoder.0.weight f4 [64, 10]
00000000: 3b92 8b3d df81 da3d ee9a 6bbd 62d0 883d
00000010: 4832 45be b1b3 df3c 0af0 8f3d 79f2 91bd
00000020: 03f0 37be 52c4 833b 6395 323e 9d3e bbbe
00000030: 9665 923e b8f0 a53e 5ed7 5c3e 392b ffbc
00000040: 507c bebc ed82 b53e 0298 953e aa5d debe
00000050: 45fd 7e3e 7100 efbd 11ba a0bc b331 efbd
00000060: 6e37 313c bde8 003f 0852 a3be 822c 563e
00000070: f605 653c 2602 bf3e 3ae3 bfbe c521 debe
00000080: f71d 013f 2fea 653e 76bd b4be 2595 073e
00000090: 3465 ff3e 9270 acbe 5c9b 6d3e a8c3 753d
000000a0: f552 953d b453 95bd 25e3 d63c 72c6 933b
000000b0: 3d8f 90bc 95ed 16bb 3c30 903c 1cf3 1d3d
000000c0: e9fa 09bd e45d b7bd 0491 823e 9e72 46be
000000d0: 6695 ebbd da57 23be 5a62 d8be 68f8 5c3e
000000e0: cbc7 a13e bf4c 683e dc7a 793d eabe 443e
000000f0: 51f9 26bd 4914 7bbe 8165 473d 66dd 96bc
00000100: 2324 263d a7c4 a7bd bc3e 233e af78 673e
00000110: 4355 69be 293e 4abe 82a5 af3e 799f 043e
00000120: 4d3d 383e 0055 403c 7401 cebd c9ae 58be
00000130: ccc9 3f3e 2843 04be a3a8 2b3e 0ee8 acbe
00000140: b91f 3b3e b3f5 07be b80c a23c 9084 003e
00000150: 07e7 7d3e f4b7 a3be 86d2 efbd 30f3 0ebe
00000160: c46d 943d 29b7 e83d 48a4 c8be 5b0c e53d
00000170: 5aba 4c3e ea2a 213d e41d 89be dc2a 77bd
00000180: e7d3 d8be d4c8 11be 526c f9bd 3325 73bd
00000190: 57c3 323e e912 a93d 0ba4 35be c3bc 7e3d
000001a0: 20be 3abd 38d3 15be e4aa 1a3e 8487 c2bd
000001b0: 7ebf 1fbe 3581 25bd 670c 48bc b838 2fbd
000001c0: 76b1 79bd ed16 183e 7597 143e d42a 693e
000001d0: 798b 6d3e 888e 9d3d 4f2f f43d de5c eb3d
000001e0: 2133 73be e6a9 8d3e 829f 1dbe a27e 263e
000001f0: 7cb4 bfbe 1eff 79be 00c6 23be c67f 343e
00000200: e824 97be 267e f13d b0b1 26be a4aa b13e
00000210: a394 023d 5482 b33d 6817 1b3e 6195 f3bd
00000220: dfc5 cd3c a56a a63e 84c3 98bd 5bcb c8be
00000230: 93ab 193e 5ff8 1e3e 8f78 b83e 4a5a d4be
00000240: 139d 5e3d 3f17 c0be 5cb8 a43d c099 293e
00000250: 1d24 a83e ca07 f63e 075e cf3c 2d92 8cbe
00000260: bcff 5cbe 90a8 423e cf8b 5bbe c6b4 e13c
00000270: 5237 50bd 38cd ab3e e78c 3a3e a724 8b3e
00000280: cb6e cdbd e92a 7abe 88a1 4e3e 892c 85be
00000290: f646 26be 2c24 a2be d728 c13d 4dce df3d
000002a0: b746 12bd ecfb 4bbe a533 583c bd00 8b3e
000002b0: c4c8 00be 8667 9abc 8d4e 52be b541 e03c
000002c0: b0bd b5be 4a40 623d 3e5a d43e 7ac8 4fbe
000002d0: 93f3 bd3e 1133 a13e 5a9d ed3e 62d5 8e3e
000002e0: 5c3e 2dbe 37e1 493d 081c 6a3c 7b99 76be
000002f0: 6133 a7be 80ab d23e 351e 1b3d 91e0 53be
00000300: 0792 943e 1a65 0d3e 9e23 74be 87b2 913e
00000310: fa64 823e b635 8f3d f995 a4be 37c0 933d
00000320: c09e 1a3e 9d48 0fbe 558d 07be 6c0e fe3d
00000330: eda7 d13d 55f1 28be 3f6d 433d a32f a43c
00000340: 2697 2bbe fdf0 14be 2a82 7abd 8f9b cbbd
00000350: 960a 93be b6d3 fcbd 6d70 543d 90c9 843e
00000360: f1b0 41be 92bd 293e 7a6e f63d b4f5 b4bc
00000370: f41c 4bbe d5cd 2dbd 5bbc 093e 7724 fabe
00000380: 0e7e d93d 9198 293c f44d e83e f98d 9e3b
00000390: bcdd 46be 3083 1abd d355 1a3e 903e 06be
000003a0: cf02 063e ce40 823e f921 babd 0034 a5be
000003b0: c3c5 7ebe 8760 983d 5c43 d73d 70f7 5fbe
000003c0: 5fda 89bc 8e4a 46bc 710a b4bc 562d c4bb
000003d0: 709c c03a 4000 9c3c 4ed2 523c 41a9 ae3b
000003e0: 37a0 c1bc 5035 3c3c 63b2 a6bd 9ec8 1fbe
000003f0: ea96 debd 4257 1e3d c298 bdbb c422 31bb
0.068150006 0.10669302 -0.0575208 0.06680371 -0.19257462 0.027307363 0.07028206 -0.07126326
-0.17962651 0.004021206 0.17439799 -0.36571208 0.2859313 0.32410216 0.21566531 -0.03114854
-0.023252636 0.3545145 0.29217535 -0.43430835 0.24901302 -0.11670006 -0.019619973 -0.11679401
0.010816438 0.5035513 -0.31898522 0.20915416 0.013978472 0.37306327 -0.37478048 -0.4338514
0.5043635 0.22452615 -0.35300797 0.13240488 0.498819 -0.33679634 0.23203796 0.060001045
0.072912134 -0.07291356 0.026231358 0.0045097405 -0.017646426 -0.0023029794 0.017601125 0.038561925
-0.033686552 -0.08953455 0.25501263 -0.1937966 -0.11503105 -0.15951481 -0.42262536 0.21579134
0.31597742 0.22685526 0.060908183 0.19213453 -0.04076511 -0.24519457 0.048680786 -0.018416118
0.040561806 -0.08191805 0.159419 0.22604631 -0.22786431 -0.19750275 0.3430596 0.12951459
0.17992134 0.011739016 -0.10058871 -0.21160425 0.18729323 -0.12916243 0.16763549 -0.33770794
0.1827382 -0.1327732 0.019781455 0.12550569 0.24795161 -0.31976283 -0.11710076 -0.13959956
0.07247499 0.1136306 -0.39187837 0.11183997 0.19992962 0.039347567 -0.26780617 -0.06034361
-0.4234917 -0.14236766 -0.121788636 -0.059361648 0.17457329 0.0825556 -0.17738359 0.062191736
-0.045591474 -0.14631355 0.15104252 -0.09498504 -0.15600392 -0.040406425 -0.012209988 -0.0427787
-0.060960256 0.14852495 0.14510901 0.22770244 0.23197736 0.07693201 0.11923086 0.114923224
-0.23749973 0.27668685 -0.15392879 0.16259244 -0.37442386 -0.24413726 -0.159935 0.17626867
-0.29520345 0.11791639 -0.1627872 0.347005 0.031880032 0.087650925 0.15145648 -0.11893726
0.025118766 0.32503238 -0.07459167 -0.39217648 0.15006857 0.15524434 0.3602948 -0.41475135
0.054349016 -0.37517735 0.08042976 0.16562557 0.32840052 0.48052818 0.02531339 -0.27455273
-0.2158193 0.19009614 -0.21440051 0.02755202 -0.050834008 0.33555007 0.18217812 0.271764
-0.10030898 -0.24430431 0.20178807 -0.2601054 -0.16238007 -0.31668222 0.09431618 0.109280206
-0.03571197 -0.1992032 0.013195907 0.27149 -0.12576586 -0.018848192 -0.20537777 0.027375082
-0.35496283 0.055237092 0.414751 -0.2029132 0.37099895 0.31484273 0.46409112 0.27897173
-0.1691832 0.049287047 0.01428891 -0.24081986 -0.32656386 0.4114647 0.037870605 -0.20691134
0.2901766 0.13808098 -0.23841712 0.28456518 0.25467664 0.069926664 -0.3214567 0.072143964
0.15099621 -0.13992544 -0.13237508 0.124050945 0.102371074 -0.16498311 0.047711607 0.020042246
-0.16756877 -0.14545055 -0.06115929 -0.0994178 -0.28719014 -0.12345068 0.05186503 0.2593503
-0.18915154 0.16576222 0.120327905 -0.022089817 -0.19835263 -0.042432625 0.13450758 -0.48855945
0.10619746 0.010351316 0.45371974 0.004838702 -0.19420522 -0.037722766 0.15071802 -0.13109803
0.13087009 0.25440067 -0.09088511 -0.32266235 -0.24880128 0.07440286 0.10510895 -0.21871734
-0.01682776 -0.012102736 -0.021977635 -0.00598685 0.001469506 0.019043088 0.012867523 0.005330235
-0.023635967 0.01148732 -0.08139493 -0.15603873 -0.10868628 0.038657434 -0.0057860324 -0.0027028779

decoder.0.bias f4 [64]
00000000: c5db 8f3d d4d3 713d 686e eabc b3ea 873d
00000010: fb20 f13c 38b9 373e 75a3 a6bd cb95 c9bd
00000020: d14b d23d 185d 12be 62ce 643c b4c8 1bbe
00000030: fa6f b93d 79fa 913d 9e09 bcbd c476 94bc
00000040: 5d54 ebbd e03d b0bd 4bb1 e3bd a15b 743d
00000050: e992 1b3e 2725 95bd dc38 8d3d efbb 9cbd
00000060: fa63 b8bc 709d 253d 82a3 e2bd e802 aa3d
00000070: 1270 85bd f90d 55bc 03fa 973c 039a 943c
00000080: 3433 fabd 3ce9 9cbd 2d8c dd3d e3b2 a8bd
00000090: b7bb e7bd 5517 c43d 10f9 54bd 9493 61bd
000000a0: d769 6f3d 5f06 923d cb03 89bc 96f4 273e
000000b0: 34e2 663e 4179 be3d d6e7 ecbd 5e2a b63d
000000c0: 592f 32be e1ee b83d 18cd 223d 8bc9 a73d
000000d0: a7dd 26be 4ed8 eabd df19 86bb d7b7 0b3e
000000e0: 0476 80bb f52c 853d 3524 d13c 4516 7b3d
000000f0: 6f4d a03c d346 fb3d a466 fabd 8561 a5bd
0.070243396 0.059039906 -0.028617099 0.06636562 0.029434672 0.17941749 -0.08136646 -0.09843024
0.10268367 -0.14293325 0.013965221 -0.15213281 0.09054561 0.07127852 -0.09181522 -0.018123038
-0.114907004 -0.08605552 -0.111178 0.059657697 0.1519276 -0.07282477 0.06895611 -0.07653033
-0.02250861 0.040433347 -0.11066343 0.083013356 -0.06515516 -0.01300382 0.018551832 0.018139845
-0.122167975 -0.076616734 0.10817752 -0.08237245 -0.11315101 0.09574763 -0.051995337 -0.055072382
0.058450546 0.071301214 -0.016725441 0.16401896 0.22547227 0.09300471 -0.11567657 0.088948
-0.17400874 0.090299375 0.039746374 0.08192738 -0.16295491 -0.11467038 -0.0040924395 0.13644348
-0.0039203186 0.065027155 0.02552996 0.061300535 0.019568173 0.12269368 -0.122266084 -0.08075241

decoder.2.weight f4 [64, 32, 7, 7]
00000000: 696e 0580 365e 0500 f758 0500 a15b 0500
00000010: 4764 0500 fe60 0500 5362 0580 4161 0580
00000020: 4662 0580 fffc cabb f889 833c 2653 99bc
00000030: aa0f 973b acb5 843c 2058 0580 407b b62f
00000040: 6561 0580 ac81 86bd 46f8 53bd 5121 ff3c
00000050: b925 e33c 6763 0500 8caa 463c 2968 29bd
00000060: fd32 fabc 209e 7d3c 0c84 09bc 41aa 803b
00000070: a060 0500 0d7d 6fba fa1a 583d 0c5c 0e3d
00000080: c4a9 f3bc 72d4 3a3a deaa 773d d95f 0500
00000090: 1022 8a3c f05c 0580 f55e 0580 cfc4 c4ba
000000a0: 08b0 d5bc 437b 203d 5459 0500 2f5c 0580
000000b0: 048c 253c c907 d13b 7aef 45bb af76 49bc
000000c0: 3265 0580 1e5b 22b9 9e86 1abb 49ea 023c
000000d0: 576e 28bb d881 dfbb 48c0 b9bb ccb5 e439
000000e0: b543 a0ba ca2b 7a3b 365f c73c 8438 a43c
000000f0: 995c 95bc a21d 1abd 3bc9 c8bb 8e48 453c
00000100: 6085 b539 e524 b9bb fe83 333c 3687 513b
00000110: 9906 403c 7181 103c 7fd5 d33b 89dd 353c
00000120: 3a22 cfbc 55c8 8939 4543 5a3d 026a 4f3c
00000130: 74f2 85bb 256b 9c3c 3c3c c63b 2f70 08bb
00000140: e147 babc d03a 9bbc 35cd 50bc ccab 273c
00000150: 07d6 25bc 956e 593c 6d65 36bd 3168 b0bc
00000160: b8a6 843c 0a68 cabb 1722 70bc 16ef 5a3a
00000170: 69a0 7b3c 75b1 74ba 83cb ce3b 6708 af3c
00000180: dc65 10bc b53b e8ba 02fe 92b9 504c 6c3b
00000190: f847 493b 4f75 13bc 471a 88bc 9aca 703a
000001a0: 0d58 fab9 437b 1739 1d1e b83c 1c8b f23b
000001b0: b821 43bb c380 89ba 64cb 24bc e0c2 98bc
000001c0: fd52 393c e73a 2c3d 981b 31bd 38c0 07bd
000001d0: 1597 83bb d769 02bd 4e84 323b 6b01 b63a
000001e0: 5ff8 3abd 1629 8ebb 8069 c538 8258 153d
000001f0: 0ab7 32bd e283 9ebc 52a0 85bb a2f0 e3bc
00000200: 48f2 c73c ff30 613c ca97 073c da24 773c
00000210: 7cd3 10bd 40b6 b7ba 3231 873c 6862 1abc
00000220: 9931 f8bc 2851 49bc ab31 133c 15ad 3fbc
00000230: a31c f939 ded8 2bbd 8385 333d 3d73 293c
00000240: 5391 1abb 850f 4cbc 5020 093c 15e5 5f39
00000250: 6545 39b8 35f3 b039 1e0a 01ba 0e3f 5c38
00000260: f3ca 4c38 6a7e 9fba 64f5 1039 e867 ef36
00000270: 35b5 51bc e14c 8d3c 9bfb c9bc 30af 723b
00000280: df50 2cbc 3bd1 183a 4e48 3f3a 9abb 8d3c
00000290: d732 30bd f905 82ba bdd4 0abc b0e6 4a3c
000002a0: 726d c2b8 fa76 a23b e40f c23c d012 003d
000002b0: 9b6c 18bc 5570 c7bc dcc7 9dbc 14b8 c7b9
000002c0: 701d 66ba 2089 a2bb 766e 97b9 24d8 423c
000002d0: 0a17 033c b216 86bb 2f67 74b6 8cac b9bc
000002e0: 2feb 11bc ff6f a7bc 861e 9a3c 6562 15ba
000002f0: 526f 0c3c 3011 90b9 486c 9db8 00c3 883c
00000300: ea7a 923c 5004 263c b556 923b 45c2 473b
00000310: a666 0580 b46f 0580 0b65 0580 3d78 be3b
00000320: 9452 61bc 5e68 91ba 958f 0500 8f5a 0580
00000330: 63e4 4bbc 084b d9bb 8f52 d1bb 4599 6cbc
00000340: cd30 7e3b 1812 f3ba 954b 979e f2bc acbb
00000350: 76dc 9e3c ae7d 99bc d94f a4bb 015a b2bc
00000360: bb19 c9bc eff8 9c3b 3894 1a3c 1000 dcb9
00000370: fa3d cabb a5f4 0dbd b6d5 df3c b3db 71bc
00000380: 7979 db08 eff3 bd3c d519 993c b80a a0bc
00000390: 764d 80bc c62a 27ba 849f 163c f392 b0b1
000003a0: 1bef 023d b6b0 69bc 638b 53bd 946e 89bc
000003b0: 6316 2bbd 0650 46b5 db2c 11b4 89a6 813c
000003c0: fd5f 4f3d cc04 c63b f4a1 633c 4c63 703b
000003d0: 185f 0580 2450 aab8 c777 a83b 0344 c2bb
000003e0: d452 1b3b 3038 28bc 402b 23bc 4eb3 053b
000003f0: 5947 b9b9 0e32 ae3b a06a 1b3d 3ec3 163d
-4.98785e-40 4.92974e-40 4.91092e-40 4.92048e-40 4.9515e-40 4.93972e-40 -4.9445e-40 -4.94066e-40
-4.94431e-40 -0.0061947103 0.016057 -0.018716406 0.0046100216 0.01619991 -4.90791e-40 3.3193182e-10
-4.94116e-40 -0.06567702 -0.051750444 0.031143816 0.027727949 4.94836e-40 0.0121256225 -0.0413591
-0.030541891 0.0154795945 -0.008393299 0.003926546 4.9384e-40 -0.00091357605 0.0527601 0.03475575
-0.029744036 0.0007126994 0.060465686 4.93561e-40 0.016861945 -4.92517e-40 -4.93242e-40 -0.0015012267
-0.026084915 0.03918005 4.91222e-40 -4.92247e-40 0.010104183 0.006379102 -0.0030202554 -0.012296363
-4.9548e-40 -0.00015483468 -0.0023578773 0.007990428 -0.0025700533 -0.0068208985 -0.0056686737 0.00043622998
-0.001222721 0.0038173073 0.024337392 0.02004648 -0.01823263 -0.037625916 -0.006127504 0.012041224
0.00034622382 -0.00565015 0.010956762 0.003197146 0.011720323 0.008819924 0.0064646597 0.011100181
-0.025284875 0.00026279935 0.05328681 0.012659552 -0.0040877406 0.01909406 0.006049661 -0.002081882
-0.022739353 -0.018948942 -0.012744238 0.010233831 -0.010121829 0.013270994 -0.04453032 -0.021534057
0.016192779 -0.006176953 -0.014656565 0.00083516666 0.015358069 -0.00093343045 0.0063108816 0.021366311
-0.008813348 -0.0017717989 -0.0002803654 0.0036056228 0.0030713063 -0.0090001365 -0.016614093 0.00091854634
-0.0004774932 0.00014446401 0.022475297 0.007401837 -0.0029774737 -0.0010490644 -0.010058258 -0.018647611
0.01131129 0.04204836 -0.043239206 -0.0331423 -0.004015813 -0.031839218 0.0027239504 0.0013885921
-0.04564702 -0.004338394 9.413343e-05 0.03646136 -0.04363159 -0.019349996 -0.0040779496 -0.027824704
0.02440752 0.013744592 0.008275935 0.01508447 -0.035357937 -0.0014016107 0.01650295 -0.009422876
-0.030297088 -0.012287416 0.00898401 -0.011698981 0.00047514317 -0.041954868 0.0438285 0.010342416
-0.0023585155 -0.012454872 0.00836952 0.00021352277 -4.4172066e-05 0.0003375054 -0.0004922467 5.251081e-05
4.88264e-05 -0.0012168412 0.00013824325 7.1348513e-06 -0.012799551 0.017248573 -0.024656108 0.003703069
-0.010517328 0.00058295176 0.0007296846 0.01730137 -0.043017235 -0.0009919993 -0.008473572 0.012384102
-9.271027e-05 0.004958031 0.023689218 0.03126794 -0.009303237 -0.024345556 -0.01926034 -0.00038093387
-0.000877819 -0.004960194 -0.00028883264 0.011892352 0.008001098 -0.004092061 -3.6418894e-06 -0.022665285
-0.00890617 -0.020439146 0.018813383 -0.0005698561 0.008571463 -0.00027478626 -7.506512e-05 0.016694546
0.017880876 0.010132864 0.0044659027 0.0030480784 -4.96001e-40 -4.99249e-40 -4.95425e-40 0.0058126734
-0.013752598 -0.0011093726 5.10685e-40 -4.91664e-40 -0.012444588 -0.006631259 -0.0063880156 -0.014440839
0.0038786412 -0.0018544821 -1.6019007e-20 -0.0052715475 0.019392233 -0.018736687 -0.0050144014 -0.021771433
-0.024548402 0.0047904174 0.009434752 -0.00041961716 -0.006171939 -0.03465714 0.027323585 -0.014761853
1.3209141e-33 0.023187606 0.018689075 -0.019536361 -0.015661936 -0.0006376918 0.009193305 -5.1389804e-09
0.03196631 -0.014263323 -0.0516466 -0.01677636 -0.041769397 -7.38772e-07 -1.3520496e-07 0.01582648
0.05062865 0.0060430523 0.013893593 0.003668028 -4.9329e-40 -8.121159e-05 0.0051412317 -0.005928518
0.0023700492 -0.010267302 -0.009959042 0.0020401063 -0.00035339108 0.0053160256 0.037943482 0.03680729

decoder.2.bias f4 [32]
00000000: 3857 31bf 5a29 143e 413c b23e d713 1f3e
00000010: 9eb4 4ebe 894b c53e 8952 06be 3712 993e
00000020: e021 3bbf c99a d63d 998d 11bf c2e9 c33e
00000030: 230b a63e 6f13 1abe b22b 603e e7d1 873e
00000040: 3066 13be 202c b1be f59a 10be d6f1 453e
00000050: 3bd6 a83c 4073 8b3d e198 973e 0194 be3e
00000060: 872e 4b3e 3b60 dfbe f148 27be 1fa1 7bbf
00000070: 5016 b13e 50ae 17bc bed4 133e d707 c73e
-0.6927371 0.144689 0.34811595 0.15534912 -0.20186087 0.3853419 -0.13117422 0.2989671
-0.73098564 0.10478742 -0.56856686 0.3826428 0.32430372 -0.15046476 0.21891668 0.2652733
-0.1439445 -0.34603977 -0.14121611 0.19330534 0.020609966 0.068090916 0.29608825 0.37222293
0.19841968 -0.43628106 -0.16336419 -0.98292726 0.34587336 -0.009257868 0.14436623 0.3887317

decoder.4.weight f4 [32, 16, 3, 3]
00000000: cd35 6ebd 5078 68bd b943 8f3d 4ba5 faba
00000010: b074 0cbc 6b1e e33c 8fbf 3b3d f5a4 f43c
00000020: 0881 163d 3f17 2a3c 1974 c7bd 26d1 5fbc
00000030: aabd 633d ece8 363d 09bf dfbd b63b 49bd
00000040: cfc1 5dbc 7963 1cbd 901f 3e3c 80ac 68bd
00000050: 95be 7dbd 3c9d 44bd 0f0c c1bd 5de2 59bd
00000060: 7b21 7d3b 4b8f 9f3b edd4 b7bd a66b 58bd
00000070: 891d c5bc f8a8 d3bb 1f60 febd 298c a1bd
00000080: f85c b83c efa2 53bd a018 54bd b1c8 8cbb
00000090: f8a0 193a 11ef 63bd e0bf 6cbd 2857 e23b
000000a0: dc23 c0bc acb3 043d 2d3e a9bd 1669 bcbc
000000b0: 5288 adbc 9e5b 15be 2a5c 69bc fc0a bebb
000000c0: 934d 57bd 14f1 cabd f084 90bd 57e6 473d
000000d0: 9c1f b33c d745 26bd d407 853d cbae b5bc
000000e0: e626 bcbd 890b d03c 91de 59bd 02f4 bbbd
000000f0: 8f12 a53c c229 8cbd 2810 a53c 7e05 a4bc
00000100: c841 143e 8e5b 80bc 89b2 333e a376 f63d
00000110: be0e 3fbd c992 b43c afd9 ba3d 8c4e 893c
00000120: eb98 46bd a844 433d 9d51 1bbd a395 b63c
00000130: bbbf c7bc ed75 56bd c1bd 0abd 1299 65ba
00000140: f7b4 4abb 76f2 2c3d 4095 a0bd a52f b9bd
00000150: fc44 3abd 7460 5bbd 1159 37be 5692 22bd
00000160: a818 0cbe 5a34 573d fbe4 c43d 0556 46be
00000170: 4882 543d 9a00 a33d 1ad1 0bbd 0fe1 8f3d
00000180: 0b47 993d 394b 02bd 5ef5 9ebd e910 cabc
00000190: 69a9 583d b878 ae3d 528d 65bd 60f1 513e
000001a0: a3bc 133c 3350 743c d6c9 823c ea9c d1bc
000001b0: 3c57 183d 7d7b 243c 488e 22bd 7e35 a63d
000001c0: 9ea8 403e 6414 7e3d 0abe 3abc 3e1f 6abc
000001d0: da16 0f3e bb1b 42be be28 0fbe e1e5 113d
000001e0: 17f6 28be 39a9 14be 230c e83d e4c3 01bb
000001f0: 2c33 863d daa9 f23d 185d 94bc c3cf 293d
00000200: 6963 efbb f945 9c3d 8e6f d13d b1eb 3cbb
00000210: a869 2c3d cdff 0b3d 6f2e b0bb 3f1c 98bc
00000220: 45a8 aebd e2dd 0ebd a6da a0bd 6a94 d0bd
00000230: db58 2a3c 4f2e 59bb f446 db3b c7dd e7bc
00000240: fc38 47bd 0c5a 593d ec8d 9e3d 4b4b 2bbe
00000250: 802c b5bd f30a 0dbb 40e4 babd 4da2 9ebd
00000260: d18c f33d 17b1 64bd a1b2 b03d b2fc 013b
00000270: bbdd cdbd f261 0e3e 38bd 75bc 0c81 aa3c
00000280: d0d7 b3bd e924 c53d 7ce7 713d b915 293e
00000290: 132f e13b 7028 e63d 9dce 613d 73b4 4c3d
000002a0: 5837 713b 7d89 1f3c 58f4 fe3c 4178 86bc
000002b0: cfb9 283d bc0d 51bd fc08 da3d f79f 153d
000002c0: ffe5 893d 8ca9 343d 0ec5 ce3c af3c 483d
000002d0: 6ccc 98bc 5383 58bc efc2 923d 0dc9 84bd
000002e0: 3a77 69bd 0f17 ee3d e3ae 593d 8026 22bc
000002f0: dfed a03d bd04 c13d 1308 b43d 590f 8fba
00000300: 8119 bfbb c1b7 603c 28fe a53d 7234 c83c
00000310: 8a13 febd b816 26bc 85c8 83bd 1e3d 06bd
00000320: f7bf a73d 8a67 b2bd fcd1 503d 4861 083e
00000330: fe29 aebd ad29 833d 94d7 e4bb 0fa8 9abc
00000340: d28f 96bd a60f a8bd 124a ae3d 2967 05bd
00000350: ed9f 44bd d9f9 893d 4a87 74be 39ba 5e3d
00000360: b280 7fbd 89c0 46bd 302b fc3d a772 b2bc
00000370: d0f9 c8bd c724 6d3d dd66 1e3d 4053 1fbd
00000380: 65f7 c13d 79d9 1ebd ac33 793d ec4c e03d
00000390: e5bb a9bd 2fb4 303e c48c 403e e3b7 c6bd
000003a0: f29d 343e 27f3 db3d 460c f1bb 1752 86bd
000003b0: fe9c f3bd 68c7 23bd a3c4 7abd 939a 2abd
000003c0: 06be ee3c b72a 833e b947 543b c30f e23c
000003d0: 43c3 b2bd 52bd 213c e4a2 0bbc 8c54 863d
000003e0: 94fb 0f3d faa3 49be 9f4c 21bc ea49 7ebd
000003f0: eb68 b8bd e66a c0bd ce9b 15bd f66c 213d
-0.058156777 -0.056755364 0.06995339 -0.0019122747 -0.008572742 0.027724465 0.04583698 0.029863814
0.036744148 0.010381519 -0.09738941 -0.013660705 0.0556008 0.044655725 -0.10925109 -0.04912921
-0.013534977 -0.038180802 0.011604205 -0.056805134 -0.06194933 -0.048001513 -0.09426128 -0.053194392
0.0038624692 0.004869377 -0.08976159 -0.052837037 -0.024061935 -0.0064593516 -0.124206774 -0.078880616
0.022505268 -0.051669057 -0.051781297 -0.004296385 0.0005860473 -0.055647913 -0.057800174 0.0069073625
-0.0234546 0.03239791 -0.08263812 -0.022999328 -0.021183167 -0.1458573 -0.014243165 -0.0057996493
-0.052564215 -0.09909263 -0.07056606 0.048803654 0.021865658 -0.04059395 0.06495634 -0.022178074
-0.09187107 0.025396125 -0.05319077 -0.091774 0.020150451 -0.06843902 0.020149305 -0.02002215
0.14478219 -0.015668657 0.17548575 0.12034347 -0.04664492 0.022042649 0.09123551 0.016761087
-0.048485678 0.047672898 -0.03791963 0.02228815 -0.024383416 -0.052358557 -0.03387237 -0.0008758466
-0.0030930617 0.042223416 -0.07840967 -0.090422906 -0.045475945 -0.05355878 -0.1790507 -0.039690338
-0.1368128 0.05254016 0.09613987 -0.19368751 0.05188206 0.07959099 -0.03413496 0.070253484
0.074842535 -0.03181002 -0.07761644 -0.024666267 0.052895937 0.08519119 -0.056042977 0.20502234
0.0090171425 0.014911699 0.015965383 -0.025587518 0.03719257 0.0100392075 -0.03968647 0.081156716
0.18814322 0.062031165 -0.011397848 -0.014289675 0.13973561 -0.18955891 -0.13980386 0.03561962
-0.16500126 -0.14517678 0.1133044 -0.0019800598 0.06552729 0.11848803 -0.018110797 0.041457903
-0.007305552 0.07630534 0.102263555 -0.0028827006 0.04209295 0.034179498 -0.005376629 -0.018568156
-0.085281886 -0.034879573 -0.07854204 -0.10184558 0.010397161 -0.0033139174 0.006691808 -0.028303994
-0.04863833 0.05306439 0.07741913 -0.1672794 -0.08846378 -0.0021521419 -0.091255665 -0.077458
0.11892093 -0.05583295 0.08627821 0.0019834456 -0.10052057 0.1390455 -0.014998727 0.020813487
-0.08781397 0.09626181 0.05905865 0.16512193 0.0068720668 0.112381816 0.055128682 0.049976777
0.003680667 0.00973737 0.031122372 -0.016414763 0.041192826 -0.05103849 0.10646245 0.036529507
0.067333214 0.044107005 0.025240447 0.048885997 -0.018652163 -0.013214904 0.07166087 -0.0648366
-0.05699847 0.11625492 0.0531453 -0.009896874 0.0785787 0.09424732 0.087906025 -0.0010914608
-0.0058318977 0.013715685 0.08105117 0.02443907 -0.124060705 -0.0101372525 -0.064347304 -0.03277313
0.08190911 -0.08711155 0.050981507 0.1331836 -0.08504103 0.064044334 -0.0069837067 -0.018878965
-0.0735165 -0.0820611 0.085102215 -0.032569084 -0.04800408 0.06737108 -0.23879734 0.054376815
-0.062378593 -0.04852346 0.12312925 -0.021783186 -0.09813273 0.0578964 0.038672317 -0.038897753
0.09471015 -0.038781617 0.060840294 0.10952172 -0.08287791 0.17256235 0.18803698 -0.09703042
0.17638376 0.10739737 -0.0073561994 -0.06558626 -0.11895178 -0.03998509 -0.061222684 -0.04165132
0.029143345 0.25618526 0.0032391383 0.027595406 -0.087286495 0.009871798 -0.008522723 0.06559095
0.035152033 -0.19691458 -0.009844928 -0.06208221 -0.090043865 -0.09395389 -0.03652554 0.039410554

decoder.4.bias f4 [16]
00000000: b390 0b3f 2658 5b3e 2c76 133f 9a84 f83e
00000010: 8760 8e3e cc22 2b3b ef4b dd3e 3b39 47bf
00000020: 58e6 003f c9cc 0b3f c258 b9be b185 8fbc
00000030: 9a24 91be 37bf 083f 8a30 25be a1cb 0a3f
0.5451767 0.21420345 0.5760219 0.48538667 0.2780802 0.002611327 0.43221995 -0.778217
0.50351477 0.5460935 -0.3620053 -0.017519804 -0.28348237 0.5341677 -0.16131797 0.54216963
