02_Representations/model_weights/autoencoder_best.pth (torch, 882882 bytes, 12 tensors)

encoder.0.weight f4 [128, 784]
00000000: 3eb3 0500 fac3 0580 73aa 0600 3a0c 0680
00000010: c357 0500 8367 0600 2d69 0580 a7c4 0580
00000020: 8b01 0680 a370 0600 7e91 0500 9fbf 0680
00000030: a502 ed2c b2d5 f92e 33ec 122f 850f 59ad
00000040: 9ea4 0580 4520 0680 d4d5 0580 9c01 0600
00000050: 38d8 0580 7459 0500 3c86 0580 36be 0500
00000060: a9f2 0500 14bc 0500 4ef8 0500 52b4 0580
00000070: 84fa 0500 a170 0580 0189 0500 0061 0680
00000080: ff98 0500 0b6c 0600 f2f8 51b7 88dc 8138
00000090: 1aef d7b9 f465 5bbb 7ff4 a3bb e951 80bb
000000a0: 8ab5 79bb 3f50 76ba 4faa 933a f19b 32bb
000000b0: 5a10 3e3a 2dd2 abbb f3c0 3ebb b368 abba
000000c0: b8ef f9bb d50e 6e3c 223c 303c b1c4 6929
000000d0: ab7f 0580 c79e 0580 e362 0500 f794 0600
000000e0: af04 0680 15ce 0500 8c1b 0680 c506 20b7
000000f0: 4fcd 0eb5 5b44 6ab6 cda4 8e39 add5 f7b8
00000100: 6079 72bb 1ca2 55bc 1680 ebbb c6ec 18bc
00000110: 8350 efbb fd0c e2bb 18f6 bfbb 53fa 303b
00000120: 7ff1 3cba 987e 08bc 1f22 11bb 0db2 65bb
00000130: 6c55 e53b 9ffb 173c 4e42 cf3b d7d1 84bb
00000140: ea46 8ab7 ab6d acb8 852d 0680 42a3 0500
00000150: f1a7 0680 2c8f 0500 b685 07b0 b726 80b5
00000160: e6c0 03b9 8af5 3eb8 5151 b6bb 8481 85bc
00000170: 8a60 78bc 1703 81bc bd3f 36bc f7cf 8fbc
00000180: b015 8ebc a865 1e3b d89d cc3c 10bc 1c3d
00000190: 795c 473d fed5 4a3d 33a9 3f3d 0f7c 013d
000001a0: d342 803c 1a05 723b f835 d4bb 7942 0fbc
000001b0: 4b34 32bb e193 c039 9ad0 0580 7da9 0580
000001c0: 9f45 0600 45dd 69a8 91af bd30 ee52 5dbb
000001d0: 0703 0ebb d0f9 ccbb 3a2a 35bc e9a6 97bc
000001e0: 7e6a 0ebd 2c98 26bd 8b83 4bbd c2d3 15bd
000001f0: fb41 f6bc dd97 173b 0ad5 9e3c 578f 443d
00000200: bf3b 753d ff0b 8e3d 85d6 9e3d 8230 7e3d
00000210: 765b 3f3d 5580 163d 151e ac3b 7b8f 15bc
00000220: c2cf e0bb 419a 14bb e406 de35 3d2a 7636
00000230: 0800 0600 5c05 0600 2eae 743a 9156 5dbb
00000240: 1362 093a a5b6 cfbb f2f3 b9bc 000f 3abd
00000250: 2fa6 7dbd 5713 69bd 4bbc e8bc 8c64 9fbc
00000260: 2b28 27bb a030 ce3b afc8 c73c e0e5 0a3d
00000270: 3dc9 333d 4a38 6a3d 1025 ac3d a1fa a53d
00000280: 2419 953d 9d96 523d 3d17 2e3d 0da8 b93b
00000290: d287 153c f239 d43a 4f28 053b 066f cdb7
000002a0: c3ac 0600 b967 50a9 b848 ddb9 f36b c73a
000002b0: 7d53 5f3b fa70 23bc 99a9 33bd c7bc 6bbd
000002c0: 884e 6cbd e107 cabc e74d c4bb 2826 ffbb
000002d0: cfd4 6a3b de83 5e3c d388 703b cd1e 9eba
000002e0: e9eb 6bba 6a67 bf3c db24 7f3d a6e3 9a3d
000002f0: 20db 8a3d 710a 513d eced 433d 863d 9c3c
00000300: 5fcb 2d3b 74c4 b2ba a4ce 473b aece 873a
00000310: 19cd 0500 df4a f6b8 fe19 9dbb 253f a6bb
00000320: e7de 31bc 5859 f1bc 7d3a 4ebd 1445 48bd
00000330: 8435 06bd 8e4e 2ebc 8b56 d53c b01f 063d
00000340: ad38 f43c 4193 ae3a 3396 45bc fc29 edbb
00000350: f953 d23a 7dad 643c 98ce 1d3d 8f55 7c3d
00000360: 91d5 7f3d 2d0c 713d 2f21 303d e8fc b23c
00000370: 025d 4f3c 0823 5a3c 703b 143c 7bd4 e83a
00000380: fc52 0680 8b64 5ebb a482 5cbc b64a 95bc
00000390: 5433 c8bc c6ff 2dbd 7905 3fbd 3dea 06bd
000003a0: e845 bfbc e62a 853c 48df de3c ca7d ee3c
000003b0: f951 e53c 2deb f03a f8bf a7bc 349f 92bc
000003c0: 4ddb 043c 9286 693c 706d 583c 8726 c63c
000003d0: ba7a 093d 5c7e 273d aaeb 5c3d 0ec5 0b3d
000003e0: df7e 9b3c 1c12 683c 0599 173c 6298 053b
000003f0: 6288 4bb0 8725 0ebc a032 46bc 34d7 afbc
5.23477e-40 -5.2948e-40 6.12159e-40 -5.55399e-40 4.9066e-40 5.88146e-40 -4.96907e-40 -5.29723e-40
-5.51566e-40 5.9142e-40 5.1137e-40 -6.19754e-40 6.7362387e-12 1.1361169e-10 1.3362537e-10 -1.2338468e-11
-5.18231e-40 -5.62589e-40 -5.35885e-40 5.5159e-40 -5.36742e-40 4.91267e-40 -5.07332e-40 5.27412e-40
5.46228e-40 5.26647e-40 5.48252e-40 -5.23864e-40 5.49046e-40 -4.99581e-40 5.08325e-40 -5.8581e-40
5.14062e-40 5.89771e-40 -1.2515333e-05 6.1922765e-05 -0.0004118614 -0.0033477517 -0.0050035114 -0.0039160145
-0.003810259 -0.0009396113 0.0011265966 -0.0027253593 0.00072503614 -0.0052435608 -0.0029106706 -0.0013077467
-0.0076274537 0.014529903 0.010756524 5.1906996e-14 -5.04976e-40 -5.16136e-40 4.94651e-40 6.04451e-40
-5.52693e-40 5.33106e-40 -5.60895e-40 -9.538319e-06 -5.3197886e-07 -3.4908505e-06 0.00027207137 -0.00011817678
-0.0036998615 -0.013039138 -0.0071869 -0.009333795 -0.007303299 -0.006898521 -0.005858194 0.0027004674
-0.00072076166 -0.008330964 -0.0022145582 -0.0035048753 0.0069987085 0.0092763 0.006325043 -0.004053335
-1.6483904e-05 -8.2220264e-05 -5.67342e-40 5.17743e-40 -6.11259e-40 5.10538e-40 -4.930273e-10 -9.548011e-07
-0.00012564994 -4.5528206e-05 -0.005563893 -0.01629711 -0.015159735 -0.015748544 -0.011123595 -0.01755522
-0.017344326 0.0024169479 0.02497761 0.038265288 0.048672173 0.049520485 0.04679222 0.031612452
0.015656864 0.003692931 -0.00647616 -0.008743876 -0.0027191814 0.00036731272 -5.3401e-40 -5.19978e-40
5.75988e-40 -1.2982078e-14 1.3801459e-09 -0.0033771354 -0.0021669285 -0.006255366 -0.011057431 -0.018512206
-0.034769528 -0.040672466 -0.049685996 -0.0365789 -0.030060759 0.002313129 0.019388694 0.047988262
0.05987143 0.06935882 0.0775576 0.06205798 0.046718083 0.03674348 0.0052526095 -0.009128447
-0.006860704 -0.002267495 1.6542294e-06 3.6681442e-06 5.51024e-40 5.52936e-40 0.0009333816 -0.0033773521
0.00052407495 -0.0063389116 -0.02269933 -0.04542446 -0.061926063 -0.05690321 -0.028410098 -0.019457124
-0.002550612 0.0062924176 0.024387686 0.033910632 0.043893088 0.057182588 0.084055066 0.08104444
0.07280186 0.051413167 0.04250263 0.005665785 0.00912662 0.0016191585 0.0020318215 -2.4489604e-05
6.12988e-40 -4.6275243e-14 -0.00042206584 0.0015214666 0.0034076863 -0.009975666 -0.043862913 -0.05755308
-0.05769208 -0.02466196 -0.005990732 -0.007786531 0.003583241 0.013581244 0.0036702647 -0.0012063623
-0.0008999692 0.023364741 0.062291007 0.07562952 0.06780076 0.05103535 0.04783432 0.019072305
0.0026518924 -0.001363887 0.0030488158 0.0010361278 5.32753e-40 -0.0001174414 -0.0047943583 -0.0050734454
-0.010856367 -0.029461548 -0.050348748 -0.048894003 -0.03276588 -0.010638846 0.026042243 0.032745063
0.029812181 0.0013319032 -0.012059736 -0.007237671 0.0016046754 0.013957378 0.0385271 0.061605033
0.062459532 0.058849502 0.043000396 0.02184911 0.012656452 0.013314016 0.009047374 0.001776352
-5.80782e-40 -0.003393444 -0.0134588815 -0.018224102 -0.024438538 -0.042480253 -0.04663608 -0.03293823
-0.023348764 0.016255807 0.027206078 0.029112715 0.02799319 0.0018380635 -0.02047728 -0.01789818
0.008108926 0.0142532755 0.013209686 0.024188293 0.033564307 0.04089199 0.053935684 0.034123473
0.018981395 0.014164474 0.009252791 0.0020385017 -7.404478e-10 -0.008675939 -0.012097031 -0.021464922

encoder.0.bias f4 [128]
00000000: 1e31 f23a f84b cab9 8c4e 60b0 b400 a6bc
00000010: c09f b8bc 3180 2b3e 1bd8 ccbc 1c51 e83c
00000020: 4811 013d 7cf5 633e 29ce e8bb 0364 98ba
00000030: 0827 d5bc 1844 a23e 38a9 bcbd 5c28 b7bd
00000040: 7161 ea3d 9b54 683d 19da 66b4 9d5d 4a3e
00000050: dc72 683e ffc5 333d 6ebc b4b5 0362 0b3c
00000060: 0ddb 4ebb bb2f 993c 5788 20b6 f91f 8dbd
00000070: 9f89 f23c 2cde 82ab addc bbb1 8a72 e53d
00000080: 703c 2cbc 0c9c 74bb 1155 04bd fef5 0abd
00000090: 0fb6 e33d a77c c83e a1bb 973e 6ce8 343d
000000a0: 25eb 4dbd 0204 173e 15a6 7b3e d735 d33d
000000b0: 3d08 dcba 1f34 57bd b3ba 2ebd 5dd8 c1bd
000000c0: ff80 c33d 6fa6 9f3d 2724 acac 0a05 bc3d
000000d0: aa10 3ebd e401 583e 86a2 9d3d 02eb ec3d
000000e0: 1c9a 89b7 aeb8 bb3d ff01 8d3e bf2b 4abd
000000f0: 6fa7 613d 7a4a 25bc a94f 63bd c09c d73d
00000100: ab4d 653d aee5 233e 7b2d 09be be82 8dbd
00000110: f9fb 4dbc f570 403d bc6a 3cbd c27e 463d
00000120: e43c b6bc b4fd dd3d 3238 2838 5ab8 7dbd
00000130: 36ed debc 030f 13be 388d b43d 53b7 873d
00000140: ec6d 323d d6d9 fc3d 77ac 0a3d 3450 22b0
00000150: 964a 3dbd b646 c43e 3a46 813d 1057 6d3d
00000160: 58bc 1f39 409a 36aa ac4b 94bc 99ba db3d
00000170: 3f1e 053e a32f 773e 2d1b bd3c 21a5 5cb1
00000180: f860 963d c884 d63d 4229 fb3d b7c6 153e
00000190: 5bc7 113d e7e0 dc3d 5830 f93c f45c e03d
000001a0: a414 743d a35f 0f3c 2d5b 1cbc 1425 72a4
000001b0: 0555 873d e93e aabc 6357 6e3d 9b15 4f3a
000001c0: 0599 423d 51ba 24be 2091 7ebd 1c25 56bd
000001d0: a57b 57bc 6c9e 8bbd 927d 143e e8c6 313e
000001e0: 87fe 773d ebb0 8a3e 051d c43e 6862 e73d
000001f0: c6c2 0ab4 f41d b5bc b3c8 02bd adea ab3d
0.0018477773 -0.00038585044 -8.1602347e-10 -0.020264007 -0.022537112 0.1674812 -0.02500539 0.028358988
0.03151062 0.22261614 -0.0071046543 -0.0011626486 -0.026019588 0.31692576 -0.092119634 -0.08943245
0.11444367 0.05672131 -2.1499763e-07 0.19762273 0.22700065 0.043889996 -1.3465885e-06 0.0085072545
-0.003156367 0.018699517 -2.3921218e-06 -0.06890864 0.029606638 -9.298721e-13 -5.4675042e-09 0.11203487
-0.010512456 -0.0037324456 -0.03230769 -0.033926003 0.11118709 0.39157602 0.29635337 0.044166967
-0.05027308 0.14747623 0.24575074 0.103130035 -0.0016787123 -0.05253994 -0.04265852 -0.09465096
0.095460884 0.077954166 -4.8925477e-12 0.091806486 -0.04640261 0.21094471 0.076970145 0.11568262
-1.6403435e-05 0.09166084 0.27540585 -0.049358126 0.055091318 -0.010088557 -0.05549589 0.105279446
0.055982273 0.16005585 -0.13396256 -0.06909703 -0.012572282 0.046982724 -0.046000227 0.04846073
-0.022245832 0.10839406 4.0106657e-05 -0.06194339 -0.02721272 -0.14361195 0.08815998 0.06626763
0.04356186 0.123462364 0.03385588 -5.904923e-10 -0.04621371 0.38335198 0.06312223 0.057944357
0.00015233585 -1.6218363e-13 -0.01810249 0.1072895 0.12999819 0.24139266 0.023084247 -3.2108078e-09
0.07342714 0.10474545 0.12263729 0.14626585 0.03559051 0.10785084 0.03041856 0.109552294
0.059589997 0.008750829 -0.009543222 -5.250679e-17 0.06608013 -0.020781951 0.058188807 0.0007899643
0.047509212 -0.16086699 -0.06215012 -0.052281484 -0.013152038 -0.06817326 0.14501026 0.17361033
0.06054547 0.27088103 0.3830339 0.112980664 -1.292311e-07 -0.02210901 -0.031929683 0.0839437

encoder.2.weight f4 [64, 128]
00000000: cd5a 94bd 2d7a 763b f0c8 7f36 cb04 113c
00000010: 05ff c7bd 25ab 603e 2b4e 6c3c d547 83bd
00000020: cf0b 033e 15a8 fe3c 9b4b 82bc 7f72 a23d
00000030: fb27 50bc 0b58 853e bd5f 013d b24a 36bc
00000040: d81b 593c c702 f73c db5f 05b4 fcfb 93bd
00000050: 9a7e f6bd f9b3 6e3d df6b e63a 09d6 90bd
00000060: fc8d d33c e17d de3d 6022 17b4 36f8 fc3d
00000070: 22b1 083d f2a2 0136 fc17 05b4 416f b83d
00000080: 355a d23c 9965 cf3d 50e5 0b3d c7fc d9bc
00000090: be37 ee3d 3fbb d03c 3a80 533d 1871 003d
000000a0: ab93 243d 55dc 203d 1877 29be dcb9 ad3d
000000b0: 5587 a83c 75fb a8bd c739 fa3d 180e 853b
000000c0: 837d 6abc 1bfb 04be bdeb a5b8 00ad 013e
000000d0: 5eb8 453b ce5e db3e b9e9 d63d 63e0 a53d
000000e0: 14b8 37b9 5238 663d 5f6f d93d 3df1 ce3c
000000f0: 0c5f c23d 41c6 07bd 35bb b43b 1c1d 823e
00000100: e577 8e3b c71e 0f3e e6b4 e5bc 0164 4a3d
00000110: 1aca 433c 0c68 81bd 75a7 8b3c eb66 123e
00000120: 1849 993b 5361 423e 66f1 5e3a c7cb 11bc
00000130: 77bc 1e3c cf0d f3bc ebcb a03d 1ed9 943d
00000140: e881 f23c 6b4b 5b3e 38f8 6e3d 14de 7eaf
00000150: 0341 b5bd 628f 2b3e 10a2 233d 660a d23d
00000160: c9db 833c c9db 6eba 896f 853d 9bf3 073d
00000170: ee78 923d a46b e73e 8981 a23d fddf d838
00000180: 65d5 c73d 0b63 f63d 8938 2f3e 95b3 cabe
00000190: 0210 7bbd ec8b ed3c 0844 59bd df4b 393d
000001a0: 1034 733d 854c 7a3e b155 1cbd 626f 1a36
000001b0: 824b fe3d 85e5 003e efb1 aa3d 4750 fc3d
000001c0: d8fb ab3d 3e0e 513c d89b ba3c 33a6 b33d
000001d0: 6862 d23c baf5 0dbd d3bd 933e fcf7 493b
000001e0: 2fb4 4bbc 9e8c 42bd 123f 483e 399d 733d
000001f0: daad 6037 e475 343c 2973 a63d 1e19 d83d
00000200: 936f 9f3d 2341 d9b9 73bf 7235 7460 813d
00000210: f9a0 0a3e d6d4 443e e414 993d 513e 883d
00000220: 745f e83d 9d02 b7bd 1b54 0abc 396f 843d
00000230: 3a10 a13c 338a 2bbe deab 263d 0193 a9bb
00000240: 5a28 063d 60ad 583e 75a8 ed32 f427 973d
00000250: 313c 3d3e e856 a93d 3e94 0eb8 5af1 0d3e
00000260: b857 073d ebbd 973b 5115 0936 b6d5 593d
00000270: a172 5b3c d59f 5837 dabb a738 0357 293d
00000280: be6f 5d3c 38e3 5a3d e8d2 40bd fb6d 0c3e
00000290: d487 873d f64a f5bc e452 22bc ff1d 0cbe
000002a0: 787a 753d 351d a13d 38bb 323e 6702 013e
000002b0: c5b8 043e 46d5 853e 3066 e63c 13fb b03c
000002c0: 5828 8bbd cb5e 4c3e 5f71 9936 feef 813d
000002d0: e82e cf3d b76d f73d 109f 823d 2f12 903e
000002e0: ecf5 b739 abd7 9d3d 535a a63d ca7c 813d
000002f0: fc4a 273e c436 413e 5c18 b5bd 6618 733e
00000300: b408 123e 5c1f 253e 8bc8 683c 730e b53d
00000310: b24a af3d 6a5d 953b ef8d dc3d 0f92 603e
00000320: 0282 9e3d dcd2 f63d 4619 7b39 e5df d2bd
00000330: fd5a f53b 0963 7bbc d6bd a53d a47a 123e
00000340: de44 493d 64c3 3abe 86dc 653e c05e 922e
00000350: 04ee 5b3e 47d5 2d3e f97e 893c dfff c43d
00000360: 26dd 533d 33c0 8439 9f89 423e 029f 583d
00000370: 40a8 bc3d 02ee 28be 66e9 57bd 1aee fa30
00000380: b98c 6e3d 718f c63d 02af 933e 59d1 583b
00000390: 6d59 e73b 2ed8 d43d b0c9 c23d 597c f3bc
000003a0: 0bdb 023e 4465 2c3d 3e8d e63c 7260 12b2
000003b0: afe0 73bd 28d6 57be ccab 8dbd 23dc 4a3d
000003c0: 00b6 ae3d 7cd8 5fbd a91a 99be d28b 993d
000003d0: e566 bbbc e4f1 943d 941f a13d ed42 3dbd
000003e0: df42 f1bc a023 dc3c 9964 9fbe 7eed e03d
000003f0: 8ac9 11b2 8fa2 3aba 0edd eb3c b805 833d
-0.072438814 0.0037609444 3.8114922e-06 0.00885124 -0.09765438 0.21940286 0.014422934 -0.06410185
0.12797473 0.031086007 -0.015905192 0.07931995 -0.012704845 0.26043734 0.031585444 -0.011126207
0.013251267 0.030152692 -1.2421462e-07 -0.072257966 -0.12035866 0.058277104 0.0017579756 -0.07072074
0.02582454 0.10863853 -1.4075476e-07 0.1235203 0.033372052 1.9317345e-06 -1.2395316e-07 0.09005595
0.02567778 0.101268 0.034154236 -0.026609791 0.11631726 0.02547991 0.05163596 0.031357855
0.04017989 0.039272625 -0.16549337 0.084827155 0.020572344 -0.082510866 0.122180514 0.004060518
-0.014312151 -0.12986414 -7.911723e-05 0.1266365 0.0030169706 0.42845768 0.10493798 0.08099439
-0.00017520814 0.056206055 0.106169455 0.025261516 0.09490785 -0.033148054 0.005515481 0.25412834
0.0043477886 0.13976584 -0.02804036 0.049411777 0.01195004 -0.063186735 0.017047623 0.14297073
0.004677903 0.18982439 0.0008504599 -0.008898682 0.009688488 -0.02966967 0.07851394 0.07267974
0.02960296 0.21415488 0.05834219 -2.3180063e-10 -0.088502906 0.16753915 0.039949477 0.102558896
0.016096013 -0.000911173 0.06515414 0.033191305 0.07151972 0.4519931 0.07934863 0.00010341404
0.09757499 0.1203061 0.1711141 -0.39590135 -0.061294563 0.028997384 -0.053043395 0.045238372
0.059375823 0.24443252 -0.03816766 2.3012622e-06 0.12416746 0.12587555 0.083347194 0.12319999
0.08397645 0.012759743 0.02277939 0.08771934 0.02568169 -0.03465817 0.28855762 0.0030817976
-0.012433096 -0.047497384 0.1955531 0.05947611 1.3391918e-05 0.011014435 0.08127434 0.10551666
0.07784953 -0.00041437996 9.043062e-07 0.06317225 0.13537969 0.19221815 0.07474688 0.06652511
0.11346331 -0.08936045 -0.008442904 0.064665265 0.019661058 -0.16751938 0.04069125 -0.005174995
0.032753326 0.21159887 2.7667037e-08 0.07380667 0.18479992 0.08268529 -3.39935e-05 0.138616
0.03304264 0.0046307943 2.0426999e-06 0.053182326 0.013394029 1.2911817e-05 7.9981706e-05 0.041342746
0.013515411 0.05343935 -0.047076136 0.13713829 0.06617704 -0.02994297 -0.009907458 -0.13683318
0.05993125 0.07866899 0.17454231 0.12598573 0.12961109 0.26139277 0.028124899 0.021604097
-0.06794804 0.19958036 4.5729535e-06 0.06344603 0.101163685 0.12081473 0.06377995 0.28138873
0.00035087706 0.07707151 0.08122697 0.0632263 0.16337198 0.18868548 -0.08842537 0.23739776
0.14261132 0.16125244 0.014207969 0.088406466 0.08559169 0.004558255 0.10769259 0.21930717
0.07739641 0.12051937 0.0002394664 -0.10296611 0.0074876533 -0.015343436 0.08092849 0.14304596
0.049137942 -0.18238598 0.22447404 6.656142e-11 0.21477515 0.1697589 0.016784178 0.09619116
0.051724575 0.00025320202 0.18997811 0.052886017 0.09211779 -0.16497043 -0.05271282 1.8257567e-09
0.058239672 0.09695328 0.28844458 0.0033083765 0.007060221 0.103927955 0.09511125 -0.02972238
0.12778871 0.042088762 0.028143521 -8.520248e-09 -0.059540447 -0.21077788 -0.06917533 0.049526345
0.085308075 -0.054649815 -0.29903153 0.07497372 -0.022876212 0.072726995 0.07867351 -0.046206404
-0.029450832 0.026872456 -0.31131437 0.10982798 -8.4859355e-09 -0.000711956 0.02879193 0.06397575

encoder.2.bias f4 [64]
00000000: dca1 773d 8b21 743d efa3 02bd 9c3f 0880
00000010: bb6b a6b5 3241 813d d151 80a1 d6f0 fcb7
00000020: a11b 1c3d 2063 0500 2102 0bba e118 12be
00000030: c638 4fbc 7ffd bb21 4f98 b9bc fc30 273e
00000040: d37b 64bd b8cb 7bbd b4f7 57bb f8b5 253e
00000050: d80f d03d df62 ecbb 8ffd aa21 713a 98b3
00000060: e4fb a73d 9dda 343e 4b77 19b4 3c83 653e
00000070: ef3c 0dbe 9c3a 869e 095a 403d 53fc 7d08
00000080: e4ff e33a bd08 f43d f920 323e 535e 423d
00000090: 40eb 973d 7c53 5c21 acf0 7c3d 039d 539f
000000a0: 33de 0580 6953 b03d 09d9 dfb6 0b31 263d
000000b0: a530 c6bb 076c e735 da7c e6bc c9a1 00bd
000000c0: 5167 0dbd 068e 8d1d e6f3 6f3d 1b0a 308a
000000d0: 7fc3 ff19 9c16 d2b5 3b7e 2a3e cf52 90bc
000000e0: 4008 433d 6f40 0cbd 199e 8fbb f15c 88b4
000000f0: 20e0 b3a7 0fef 91b5 7161 0d80 6990 933d
0.060457096 0.0596023 -0.03189462 -7.57503e-40 -1.2399317e-06 0.06311263 -8.695274e-19 -3.0152889e-05
0.038112286 4.94737e-40 -0.00053027464 -0.14267303 -0.012647813 1.2738713e-18 -0.022655634 0.1632728
-0.05578215 -0.06147358 -0.003295404 0.16182697 0.10159272 -0.007213935 1.1586764e-18 -7.088682e-08
0.08202341 0.1766152 -1.4292634e-07 0.22413343 -0.13792776 -1.4212042e-20 0.046960864 7.6431024e-34
0.0017394987 0.11915729 0.1739539 0.047453236 0.07417917 7.464939e-19 0.06175296 -4.4810865e-20
-5.38888e-40 0.08609659 -6.671184e-06 0.040574115 -0.0060482793 1.7242281e-06 -0.028135706 -0.03140429
-0.03452236 3.746924e-21 0.05858221 -8.4759924e-33 2.6445342e-23 -1.56528e-06 0.16649716 -0.017617611
0.04761529 -0.034241136 -0.0043828604 -2.5399598e-07 -4.9925477e-15 -1.0872917e-06 -1.228817e-39 0.072052784

encoder.4.weight f4 [10, 64]
00000000: 52fb 243e b40a d9bd 1eba 0cbe 74a5 35b6
00000010: a006 86b5 9ef9 1f3e faf0 9f00 4f60 66b9
00000020: 478c 99bd 0d13 2436 6b91 fb38 6e44 35be
00000030: 3d9a f63d fe90 c73b 1967 8a3d a245 e13d
00000040: f5a1 403e fa12 d33d 92bf 02bb c683 833e
00000050: 5b6f 2d3e 3555 ac3c 086a d2bb 6e5b 3235
00000060: dc2d d7bb 49ee 493e 99b2 b1b1 2017 9e3e
00000070: 0f8e 27be fe1d d237 9737 b33b 7881 8d3a
00000080: 342b 1cbe 424b a03d 726c c63d 572d a73e
00000090: 13b8 443e e62c 8dbb cf41 6f3d bd38 9cbb
000000a0: 3d98 763b a60d cb3e 75f3 10ba b268 b93d
000000b0: 50ed dbbb 7ba6 a63c fe76 45be 1836 313e
000000c0: 3be0 213e 0339 2cba ab55 d9be af2a 0c38
000000d0: fea2 0239 7fa5 cf3c b2f8 ba3e 2ac8 09be
000000e0: 2644 983e e8fb 713d dec7 2d3c 6c2c 782f
000000f0: b2aa 4f3a 8bdd 1abc 22c2 6dba 7c7b 33bd
00000100: 4d66 dfbd f23b f93d 83f1 e43d 48af 8b34
00000110: 600b 8435 9f6f 6e3c 9657 0580 4982 8137
00000120: ffaa 32be f19d 9c1b b07a 8938 e305 3bbd
00000130: ad22 47bd 6009 5739 6692 9bbe f37b 8d3e
00000140: 17ce 7dbe cb77 00be ef7e 883c 10b1 23bc
00000150: 30d0 4abd 5522 1d3c 6fa6 62bb b624 6fb4
00000160: cb46 333e 0447 5a3e 779f e8b0 2155 08bc
00000170: 17a8 e53d 42b2 8dbb b0f1 403e 88af 3033
00000180: d7a6 0d3e 6445 2a3e 9f5a 50bd 9938 a13e
00000190: 88d9 a4bc 1c7f 113c d142 943e da39 ec39
000001a0: 9dae ff39 5287 6bbe 95f2 ae38 3ea6 debd
000001b0: 9532 70bc 8cc4 d9bc 93d9 1a3d eb5b 5ebe
000001c0: ceda 9abb b50c 1d38 0158 91bc 1f46 45b9
000001d0: 757a d2b9 4005 8838 24a9 a23e 3c6c db3d
000001e0: 7c8f 013e 5f57 77bc 0af7 74bc 9685 0624
000001f0: c84e 0eb9 a89a 573b 3514 afb8 5ced 353e
00000200: 49a4 8f3e 63b0 1a3e 0113 de3d af40 5738
00000210: 1159 e0b4 792a 82bd de5f 0580 a4c7 c9b7
00000220: d6b4 a73e 70f8 e7ad 9b70 82b7 650a 27bf
00000230: 5982 403e cb76 4b39 8962 933d 5796 01bc
00000240: f84d 053e 8069 bd3c 7988 04bc 9e97 3abe
00000250: d791 ffbd 071f f5bc 6783 51bb d8ed 7cb4
00000260: 70d3 60bd 9d0b 5a3e 36f3 cb31 258d 963d
00000270: 855c 4cbc 3cb6 dcba 6421 e83d 541e 4136
00000280: 8c41 273e c7cf fcbc cfe2 893e 73f8 5ebe
00000290: 1ffb 3a3e 5db2 b83a 72ff f0bc 75d7 6bbb
000002a0: 4cfa 9d3b 0a10 11bc a01d f239 31e0 f43d
000002b0: d1dd 6bbc c2f2 97bc 4fa5 843d ede2 29be
000002c0: 2d63 d0bd 863b 0fb9 74ff a23e 7e0f b937
000002d0: 7213 1239 d835 17bc 8d93 af3e 851f 253e
000002e0: 3d0d e23d 796c a13d 7293 653c d5e8 8528
000002f0: 3d1f 7537 ea76 80bc 1ed2 6ab3 b361 963e
00000300: e567 12be 3d43 7d3e 5c9b 44bd bcb6 ce32
00000310: b39b 0235 979d af3e a014 588a 800e 5738
00000320: a633 573e 0cfd 85b0 a1ec ebb8 154d 1e3d
00000330: dd17 27bd 7c38 9b39 0d97 acbd 3575 dbbd
00000340: 508c 4dbe 2cc0 483e 0a29 1d3c 2202 063b
00000350: a276 9c3e 8ff3 b1bc e7b0 023b 2541 0935
00000360: ad49 383e 8d7a 873e 02db 81b2 26a7 a13d
00000370: e13f 803b 3eaf df3a e6c5 83bd 78a6 1c39
00000380: fcb7 ab3e 1a01 403e c47a 5f3e 423e 41bc
00000390: 1a33 63be 2b56 98b8 5732 40bd 5cfc 303b
000003a0: a90d b63a 6384 26bd 4a3d 443a 41b2 c93d
000003b0: d25b b9bc 3f29 f1bc 5662 7a3e 14ee bc3d
000003c0: 361c cebc 63fc 8839 07dc 1b3e 73ef 3bba
000003d0: 3c6e 84b8 4d96 a9bb 1b1c 31bd 1f6a 8a3d
000003e0: 1667 783e 8ebb 263e 85fb 40bd dd76 30b0
000003f0: e0ed 82ba b908 743c 3d01 3737 f8e7 483e
0.16111496 -0.105977446 -0.13742873 -2.7067408e-06 -9.985706e-07 0.15622565 1.468829e-38 -0.00021970387
-0.07497459 2.4448993e-06 0.00011995699 -0.17701885 0.12041137 0.0060902825 0.067579456 0.109996095
0.18811782 0.10306354 -0.001995061 0.25686473 0.1693701 0.021036724 -0.0064213313 6.6443215e-07
-0.006566746 0.19719805 -5.171682e-09 0.30877018 -0.16362785 2.5047917e-05 0.0054692733 0.0010796031
-0.15250856 0.07826854 0.09688653 0.3265178 0.19210844 -0.004308331 0.05841237 -0.004767506
0.0037627362 0.3965885 -0.0005529442 0.09053172 -0.0067116395 0.020343056 -0.19283673 0.17305791
0.15808193 -0.00065697747 -0.42448172 3.3418353e-05 0.00012458485 0.02534747 0.36517864 -0.13455263
0.29739493 0.059078127 0.010606734 2.257125e-10 0.0007921859 -0.009452234 -0.00090697606 -0.043818936
-0.10908184 0.12169637 0.11178877 2.6018301e-07 9.838077e-07 0.01455298 -4.90597e-40 1.5438667e-05
-0.17448042 2.5910102e-22 6.5555214e-05 -0.04565991 -0.048617054 0.0002050749 -0.3038513 0.27633628
-0.24785648 -0.12545697 0.01666209 -0.009990945 -0.04951495 0.009590705 -0.0034584065 -2.2271965e-07
0.17507474 0.21316153 -1.6925544e-09 -0.008321078 0.11213701 -0.0043242285 0.18842196 4.1137838e-08
0.13833176 0.16628033 -0.050867673 0.31488493 -0.020123258 0.008880403 0.28957227 0.0004505653
0.00048767487 -0.2300084 8.342151e-05 -0.10871552 -0.014660497 -0.026582979 0.03780515 -0.21714751
-0.0047257906 3.744355e-05 -0.017742159 -0.00018813506 -0.0004014556 6.485963e-05 0.3176967 0.107140034
0.12652391 -0.0150965145 -0.014951477 2.916977e-17 -0.00013571524 0.0032898579 -8.348414e-05 0.17766327
0.28055027 0.15106349 0.108434685 5.1320236e-05 -4.1788056e-07 -0.06355757 -4.93568e-40 -2.4054032e-05
0.32755154 -2.6371988e-11 -1.5549644e-05 -0.65250236 0.18799724 0.00019403842 0.071965285 -0.007909379
0.13018024 0.023121595 -0.008089178 -0.182219 -0.124789886 -0.029922022 -0.003196919 -2.3555856e-07
-0.054889143 0.21293493 5.9357275e-09 0.0735114 -0.01247323 -0.0016838978 0.11334494 2.8776894e-06
0.16333598 -0.030860795 0.26930854 -0.21774463 0.18259858 0.0014091242 -0.02941868 -0.0035986577
0.0048210975 -0.008853922 0.0004617991 0.119568236 -0.014396147 -0.018548373 0.064768426 -0.16590472
-0.10175166 -0.00013659717 0.3183552 2.2060933e-05 0.00013930889 -0.009229146 0.3429226 0.16125305
0.11037681 0.07882018 0.0140122045 1.4866941e-14 1.4610411e-05 -0.015681703 -5.467347e-08 0.29371414
-0.14297445 0.2473268 -0.047999725 2.4064654e-08 4.8655346e-07 0.3429992 -1.0403901e-32 5.12735e-05
0.21015796 -9.748944e-10 -0.00011249749 0.03864773 -0.040794242 0.00029605988 -0.08427248 -0.10715715
-0.20073056 0.19604558 0.009592304 0.0020448049 0.3055926 -0.021722583 0.0019941868 5.1131275e-07
0.17996855 0.26460686 -1.511717e-08 0.07893209 0.003913865 0.0017065776 -0.064342305 0.00014939334
0.33538806 0.1875042 0.21824175 -0.011794629 -0.22187462 -7.263975e-05 -0.046923008 0.0027005887
0.0013889569 -0.040653598 0.00074859394 0.09848452 -0.022626791 -0.029438613 0.24451575 0.09225097
-0.025159936 0.00026127984 0.15220653 -0.00071691646 -6.314783e-05 -0.005175388 -0.043239694 0.06758522
0.24258074 0.16282484 -0.047114868 -6.419734e-10 -0.0009989105 0.014894658 1.0907938e-05 0.19619739

encoder.4.bias f4 [10]
00000000: 1058 153e 1138 983e c9f7 213e 47b0 333e
00000010: 05b1 e1bc 3d25 8b3e 13c2 4a90 eb40 5ebe
00000020: 1969 4f3b 70e7 8dbc
0.14584374 0.29730275 0.15817179 0.17547713 -0.02755023 0.27176848 -3.9986985e-29 -0.21704452
0.0031648336 -0.017322272

decoder.0.weight f4 [64, 10]
00000000: c5de 85be 8bda a03e d58c 193e 9414 bc3e
00000010: b6e4 8cbe 16dc 2fbd 76a2 e700 17a8 cf3d
00000020: ec52 b13e c525 4b3d ce2b df3d b571 55be
00000030: 97dc 40be f40a bf3e e11b 4c3e 4309 5e3d
00000040: 4f84 0a00 0212 a53d 7a27 053e 98e6 99be
00000050: fe15 de9b c191 890d c69a fca0 e5b9 3da6
00000060: 5470 9015 510c 859e 515c 0500 63b4 a4a7
00000070: 8dd0 0a9a 6b05 f3a9 e4ce 4f3e e028 2f3e
00000080: a845 333e 691b 153e c19f 6cbe e260 3fbe
00000090: a2e6 a380 f4c4 2c3e 0628 a73e 5fdc 31be
000000a0: 7603 a4be 384a 683e 7491 a5bd 3066 c73d
000000b0: 0aa9 87be edc0 8d3e 4976 9100 d28f 2d3e
000000c0: ff47 193e 09af 4f3e f2f6 d8bd c973 ecbe
000000d0: be29 803e 226e ddbd 49c5 b33c d1df a83e
000000e0: a3d2 0d80 2b48 563e 49ba cb3e 0fab 9dbd
000000f0: 8ee3 893c 3b57 f6bb 4abd 1f3a 0383 893d
00000100: d99f c73d 78bb 64be a040 8080 b86a 6a3e
00000110: fc7a 95bd bc85 863d f16f 6bbe 72bb 2f3d
00000120: 048a 843e 4837 f73d 67f4 6bbc a6ee d43d
00000130: dac3 a180 8176 5dbd 5d45 4abd b99e b33e
00000140: b21e 493e 52d3 df3d 92ba 8a3e 2cf4 a0bd
00000150: af13 8b3d 8c62 72bd 5414 7880 6518 d93a
00000160: 2633 22be c63e 08bd 806c e0bb 6e62 f3bd
00000170: 4458 19be 1c56 59bc 8b35 1d3d e1b1 663e
00000180: a220 5e81 ccc4 bd3e 3f73 a9bd 1651 1d3d
00000190: ec38 4f3d 15e3 e63e a880 673e 5027 773e
000001a0: 6967 30be 95d9 be3e b61a 1100 e5bc a4be
000001b0: 34fb f3bd fc65 803d 8730 cf3d 6c79 873e
000001c0: 61b1 163d f2f2 7dbe 1312 ea3e d0b5 ac3e
000001d0: b713 6100 e3e5 b5bd 6232 903d 6c38 9dbd
000001e0: 72e7 603e 4ca9 ca3e 6873 cbbe 72e0 3e3e
000001f0: 1c4e 3ebe 9815 b9be 56a8 1200 467c 6f3e
00000200: 8269 b13e f123 4c3e 0e84 00be 3996 49be
00000210: f699 7e3e 8247 473e 75ba 8d3e 786f 9ebe
00000220: aa66 6900 5305 0bbf bab8 a23e b7d4 283e
00000230: f084 93be 0ad9 36bb f69a 6d3e 66f1 263e
00000240: 9f66 e13e 2b82 1bbc e76b 3780 03f6 3a3e
00000250: b780 1b3e b0cf 9bbe 0ec0 d13e f4cd 55be
00000260: 4525 0b3e 77d9 943e 123f cebe ee15 223e
00000270: 9785 3980 1be2 3f3e 4e85 ae3c 0618 86bd
00000280: 6a36 f33d 7db3 133e 6f8f 4ebd a091 c2bd
00000290: dffb 2d3d 0599 0b3e 10c5 ef00 95bc 033e
000002a0: 27a0 f73d 5bbd eebd 7423 b73d db65 493e
000002b0: f448 123e 12a1 ecbd 8b11 97bd 80a7 acbd
000002c0: 4e09 e580 4a65 71ba 6a77 6dbc 3099 423e
000002d0: 8de4 853e 884d 11be 3723 493e 9579 0fbe
000002e0: 7d6a 313e a771 5bbe 1fe5 6000 b3ee cebd
000002f0: 9510 37bd a7ba 8a3e 1592 ba3d 463e 14be
00000300: 54a7 81bd 6282 823e 5e66 9d3e b918 d13d
00000310: 4d6c 0500 ac7d 25be 8dff c53e b5d6 50be
00000320: da1d 913d 9069 1fbd f66d 373e 9499 15be
00000330: 50f2 943e cebf bd3d 8de9 5a80 5e5c 7b3d
00000340: 0ee4 c3bd 7f36 37bd b7ad 18a5 1ffe 4604
00000350: 18a8 8088 8310 40ae 0175 3ea8 70b6 0693
00000360: e299 0580 311e 87a9 6aab 5da5 dbf6 61a8
00000370: 5693 523e ed67 1a3c d45e 2e3e bc30 f33d
00000380: 9957 9b3c 0b85 373d dbab a200 f068 2bbe
00000390: 2464 0fbe fc39 783e 8a87 303e 620d 643e
000003a0: 889c 3e3d a29d cfbd efc5 fe3d 163e 913e
000003b0: fd88 3b01 44af 58bc 4d1f 193e 4fab 59be
000003c0: b87e 20be 0465 603d 275b 963c 3d90 d13d
000003d0: 2cd7 5bbb 7ca0 c4bd 2ffa ac80 d1ac a93d
000003e0: c4db 2f3e 1e4e ea3d 6ae9 f43d 0da1 b7be
000003f0: 8f79 9abe e21a 7f3e c653 213c 4f0d 593e
-0.26146522 0.31416735 0.1499513 0.3673445 -0.27518243 -0.0429345 2.127228e-38 0.101394825
0.34633577 0.049596567 0.10897027 -0.20844157 -0.18834148 0.37313044 0.1993251 0.05420805
9.65818e-40 0.08060075 0.1300334 -0.30058742 -3.6741031e-22 8.478366e-31 -4.279288e-19 -6.582448e-16
5.833836e-26 -1.4087017e-20 4.92294e-40 -4.571472e-15 -2.8706197e-23 -1.0792308e-13 0.20293766 0.17105436
0.1750704 0.14561237 -0.23107816 -0.18689302 -1.5051921e-38 0.16872007 0.32647723 -0.17369221
-0.3203389 0.22684562 -0.080843836 0.097362876 -0.26496154 0.27686253 1.335858e-38 0.16949394
0.1496887 0.20281614 -0.10593976 -0.46182087 0.25031847 -0.10812022 0.021944659 0.32983258
-1.269424e-39 0.20925967 0.39790562 -0.076986425 0.01683214 -0.007517723 0.0006093575 0.067144416
0.097472854 -0.22337139 -1.1778127e-38 0.22892272 -0.07298848 0.065684766 -0.22991921 0.04290337
0.25886548 0.12071091 -0.014401532 0.10397081 -1.4855773e-38 -0.054068092 -0.049382556 0.35082033
0.19640616 0.10928978 0.27095467 -0.07859072 0.06790864 -0.059176013 -1.1027552e-38 0.0016563056
-0.15839824 -0.03326299 -0.0068488717 -0.11884008 -0.14975077 -0.013265159 0.03838114 0.22528793
-4.0798373e-38 0.37064207 -0.082739346 0.038407408 0.050591394 0.45095125 0.22607672 0.2413609
-0.17226948 0.37275377 1.570786e-39 -0.32175365 -0.119131476 0.06269452 0.10116678 0.26459825
0.036790255 -0.24799708 0.45716915 0.33732462 8.915115e-39 -0.08881738 0.0704086 -0.07676777
0.2196329 0.39582288 -0.39736485 0.18640307 -0.18584484 -0.36149287 1.713426e-39 0.2338725
0.3465081 0.19935586 -0.12550375 -0.19686212 0.24863419 0.19460872 0.27681318 -0.3094442
9.679556e-39 -0.54305 0.3178156 0.16487394 -0.2881236 -0.0027900361 0.23203644 0.16303024
0.44023606 -0.009491484 -5.08966e-39 0.18257909 0.1518582 -0.3043189 0.4096684 -0.20879346
0.13588436 0.29072163 -0.40282494 0.15828678 -5.282546e-39 0.18738596 0.021303799 -0.06547551
0.11875613 0.14423938 -0.050429758 -0.09500432 0.04247653 0.13632591 2.2019376e-38 0.12864907
0.120910935 -0.116572104 0.08942309 0.19667761 0.14285642 -0.11554159 -0.07376393 -0.084303856
-2.1033667e-38 -0.00092085137 -0.014493803 0.19003749 0.26150933 -0.14189732 0.1964234 -0.14011224
0.17325778 -0.21430074 8.898401e-39 -0.10104122 -0.04469355 0.2709553 0.09109894 -0.1447688
-0.063307434 0.254901 0.30742162 0.102097936 4.98028e-40 -0.16161221 0.38671532 -0.20394404
0.07085772 -0.03891903 0.1791304 -0.14609367 0.2909112 0.092650995 -8.348977e-39 0.061367385
-0.09564982 -0.044729706 -1.3242755e-16 2.3391475e-36 -7.743238e-34 -4.367041e-11 -1.057249e-14 -1.7003126e-27
-5.1438e-40 -6.000442e-14 -1.9226772e-16 -1.2543537e-14 0.20564017 0.009424192 0.17028362 0.1187453
0.018962668 0.044804614 1.4939e-38 -0.16739249 -0.14003044 0.2424087 0.17239204 0.2227073
0.046536 -0.10137488 0.124400966 0.2836768 3.444476e-38 -0.01322538 0.14953347 -0.21256755
-0.1567334 0.054783836 0.018354012 0.102325894 -0.0033545 -0.096009225 -1.5885454e-38 0.08284915
0.17173678 0.11440681 0.11958583 -0.3586506 -0.30170867 0.24912599 0.009846633 0.21196483

decoder.0.bias f4 [64]
00000000: e23c 323f 39a6 e73e 776d 0500 52ca 2e3f
00000010: f137 483f 2d23 4a3d 7101 12bf da00 19bf
00000020: 40a6 123f 55f3 243f 955e fb3d 404a f03e
00000030: ecb1 2d3f 8aaa 923e 15fb e5be 2216 e13d
00000040: 0ac2 35bf 85c0 443f 7880 2e3f 3389 debe
00000050: 5014 093f a868 0500 af8b e03e e819 50bf
00000060: ebcd 43bf 7011 ecbe 4d8b 8197 530c b5bd
00000070: 7948 4dbe 15bc 85be bab7 868a 72bc 48bf
00000080: e1fd bdbe c3ff e93e 6a64 0500 e14d 45bf
00000090: b4a0 123f 8e0c efbe d20b 143f 1b04 303f
000000a0: b560 1fbf 7e21 ab3a b58b d73e b313 903d
000000b0: cb86 e4bd 003b c13e 3323 c53e 4dc3 d33e
000000c0: 38d9 493f ed9b 5cbe 599b 1d3f 0e2d b13e
000000d0: 2339 0bbe b0f3 6739 a83d 4dbf 5223 573d
000000e0: 5402 18bf 8be0 1f3f 5758 50bf 8978 f73c
000000f0: 785e 0500 10f7 9516 cd3c 46bf dd27 7b3e
0.6962415 0.45244005 4.98446e-40 0.68277466 0.7821036 0.049349952 -0.5703345 -0.59766924
0.5728493 0.64433795 0.122738995 0.46931648 0.6784961 0.28645736 -0.44918123 0.109905496
-0.70999205 0.7685626 0.6816478 -0.4346405 0.5354662 4.96721e-40 0.4385657 -0.8128953
-0.7648608 -0.46107054 -8.371594e-25 -0.08840241 -0.20047177 -0.26120058 -1.2972841e-32 -0.78412545
-0.37107757 0.45702943 4.95199e-40 -0.7707196 0.57276464 -0.46689266 0.57830536 0.68756264
-0.6225694 0.0013056246 0.42098776 0.07035007 -0.11158522 0.37740326 0.38503417 0.4135994
0.78847075 -0.21543856 0.61565167 0.34604686 -0.13596015 0.00022120657 -0.80172205 0.05252392
-0.5937855 0.62452 -0.81384796 0.030208843 4.93066e-40 2.4228167e-25 -0.77436525 0.24526925

decoder.2.weight f4 [128, 64]
00000000: 182d fc3c 8680 cc3c 9666 0500 dba8 c23c
00000010: b23b 0abd 99aa bf3d 8c96 09bd d560 84bd
00000020: ca15 44bd 7db8 86bd 922f 6e3d be77 563d
00000030: 6489 88bd a36a dd3c 481e 4b3d 619c df3d
00000040: 0e64 95bc 1767 a9bd e172 993d d899 9d3d
00000050: 1414 d6bb 1266 0500 2bfe 8e3d 187f f13c
00000060: dcde 7bbd ddef c73d c49f 0e88 3526 91bd
00000070: 4028 91bd 8c44 bbbd 870a e330 3cd5 873b
00000080: c078 b53d 891d d03c a06d 0500 554d adbd
00000090: 2faf 3fbd a1a2 053d 4f8b a93d 9c78 7f3d
000000a0: e5a2 25bd 7464 34be 0dc1 d439 f19e 35bd
000000b0: c529 613c c167 65bc 37ac 643d 0eb5 a43c
000000c0: 8bae 45bd d742 12bd a47c f43c 366c 30bd
000000d0: 36be 4dbc e72a c500 551a daba d17b 0bbd
000000e0: 4fa5 90bc 054b 033d 01c6 8d3c 1b3e 123d
000000f0: 6466 0580 7804 0711 5e8d 9bbc 33bf e1bd
00000100: 22ce e5a9 1052 579d 1b5e 0500 7903 e49d
00000110: d85f 1d0a 59cc b8a4 6502 0600 6888 8f9f
00000120: d423 730c 478d fb0a 1009 15a4 5bd1 12a4
00000130: bb58 d7a1 adb3 8195 6611 0ca5 bd19 dfa6
00000140: 0565 0500 445b 0500 717d 98a2 f929 6ea3
00000150: 14f1 b193 cd62 0500 689f 79aa 0ee6 aa98
00000160: df66 a303 74f9 c197 dc6d 0500 9353 2ea5
00000170: c24b 14aa 9abd d59b 6c8f 0580 1a04 27a9
00000180: f73f c699 f4af c89c b770 0580 55fd fe90
00000190: c79e 2680 ca72 7fa3 eebc 26a5 e24b 5ca0
000001a0: 5c59 0500 3165 0580 e4b3 07a8 46c8 3395
000001b0: fb84 03a5 1159 799c 7c06 01a2 cfc6 9397
000001c0: a7df ba99 c2ab 3694 adda b0a3 e916 f001
000001d0: e6a9 199a 5dac 0580 bba7 baa2 4abf 3bb2
000001e0: 944c 0100 7a1a e9a5 b0e3 390b 6ba3 1f9b
000001f0: eb80 0580 bd60 0500 a4b8 9ba3 2164 0580
00000200: 6261 0e3e eeba f83d 895c 0500 e329 a03e
00000210: b20f 1fbe 96da 413d 0648 24bd 9f56 01be
00000220: a103 4a3d 00bf 4cbe dfd3 17be 35bf 6ebe
00000230: af39 9c3e b6b3 7d3e 40d5 37be 1f6b b93d
00000240: 1e11 2cbe e5d8 1d3e 266e 9f3d ce61 ad3d
00000250: 7501 07be ed5b 0500 21ef bf3d 3d94 6ebe
00000260: fcb6 91bc 180c d0bc 7c23 89b3 5426 a63d
00000270: ec75 5b3e 2917 bd3d 5943 58b5 3cab 443c
00000280: 77f0 81bc 3eb5 103e 7466 0500 a6b4 53be
00000290: 92bc 94be b5d2 b1bd a64a 923e acc1 c23d
000002a0: cca4 c4be 096d a13d b14a 113d ff32 9a3d
000002b0: dc21 973d f24f cabd ae8c 41be 46c9 1cbe
000002c0: 3234 9fbe 16ae 5bbe 840d ef3c 2cf6 753e
000002d0: fc30 263e 2626 7601 9230 49bd 43ae 25bb
000002e0: b3ff 34bb 4a5c 58be d629 1fbd 4bb0 0cbe
000002f0: 2716 0200 1d85 8c26 b172 8dbd b2b1 f43d
00000300: f9ad 533c 6411 a8bd 1c7b 0580 3d3b 153e
00000310: fda5 8a3d f408 443d 8a17 0bbe 8c33 efbd
00000320: fff6 d13d f0ba 56bd 4c11 e93d dee6 a33c
00000330: 2319 093e 6318 013e 532f f6bd dde2 d53d
00000340: 38a3 d03c f2c8 1a3e 449d b83d 0212 96bc
00000350: 9857 cd3d 8364 0500 54c8 f4bb cf72 c53d
00000360: 7283 12be 6fbd edbd e69d e1a0 a591 52bd
00000370: e267 00bd 167b 06be 7eff 49af ced6 f8bd
00000380: 6ed5 463c 2946 083d e46c 0500 7504 efbd
00000390: 97bd d0bc 8222 a3bb c023 0d3d b486 2d3d
000003a0: b757 5bbd 9d14 9a3d 87be 7b3d fa5d 1a3e
000003b0: f562 e53c 8128 c63d 2bc2 bb3d b932 a5bc
000003c0: 7571 e63d aee2 25bd a88f 593d 7616 dd3d
000003d0: 3e99 ebbc e594 a880 92d3 62bd 4340 a1bd
000003e0: f2a1 cfbd 4d25 1ebe b736 a9bd cf03 27bd
000003f0: b85b 0500 71e6 6c20 71cb f3bd 5d03 e8bc
0.030783221 0.024963629 4.95978e-40 0.023762157 -0.033748336 0.09358711 -0.03359084 -0.06463782
-0.047872342 -0.06578157 0.058150835 0.05236029 -0.0666683 0.027028387 0.049589425 0.10918499
-0.018236186 -0.08271616 0.074926145 0.07695359 -0.006533155 4.95793e-40 0.069820724 0.029479548
-0.061491832 0.09762547 -4.2919374e-34 -0.070873655 -0.07087755 -0.09143934 1.6519416e-09 0.0041452926
0.08860922 0.025404708 4.98504e-40 -0.084620155 -0.046797927 0.032625798 0.08278524 0.06237088
-0.04043855 -0.17616445 0.00040579625 -0.04434103 0.013742869 -0.014001788 0.0558283 0.020105865
-0.04826216 -0.035708275 0.02984459 -0.043071948 -0.012557557 1.8106983e-38 -0.0016639928 -0.034053627
-0.01765695 0.032053966 0.01730633 0.03570376 -4.95908e-40 1.0650999e-28 -0.018988308 -0.110227965
-1.0205401e-13 -2.8497438e-21 4.92936e-40 -6.035469e-21 7.577301e-33 -8.014346e-17 5.51872e-40 -6.078852e-20
1.8730821e-31 2.4223563e-32 -3.23169e-17 -3.1836034e-17 -1.4592453e-18 -5.2386163e-26 -1.2148959e-16 -1.548071e-15
4.95416e-40 4.91917e-40 -4.13325e-18 -1.2910894e-17 -4.4918803e-27 4.9462e-40 -2.2170948e-13 -4.4176266e-24
9.603897e-37 -1.25353035e-24 4.98588e-40 -1.512041e-16 -1.3171324e-13 -3.536042e-22 -5.10628e-40 -3.7085007e-14
-2.0498555e-23 -1.3280373e-21 -4.99612e-40 -1.00575655e-28 -3.546707e-39 -1.3847885e-17 -1.4462217e-16 -1.8659832e-19
4.91234e-40 -4.95478e-40 -7.533013e-15 -3.630675e-26 -1.1407494e-16 -8.2502305e-22 -1.7486193e-18 -9.549839e-25
-1.9322282e-23 -9.222525e-27 -1.9174571e-17 8.819495e-38 -3.17769e-23 -5.2101e-40 -5.0592993e-18 -1.0928327e-08
1.19307e-40 -4.0436998e-16 3.5800997e-32 -1.3204975e-22 -5.05425e-40 4.9388e-40 -1.6883332e-17 -4.95097e-40
0.13904336 0.12145029 4.92373e-40 0.31281957 -0.15533331 0.0473276 -0.04010775 -0.126307
0.049319867 -0.19994736 -0.14826916 -0.23315127 0.3051276 0.24775586 -0.17952442 0.09053635
-0.16803405 0.1541477 0.07784681 0.084659204 -0.1318415 4.92154e-40 0.09371782 -0.23298736
-0.017787449 -0.025396392 -6.386014e-08 0.08112779 0.21431702 0.09232933 -8.0564274e-07 0.012003716
-0.015861733 0.14131638 4.95931e-40 -0.2067438 -0.29050118 -0.08682767 0.28572577 0.09509596
-0.3840698 0.07882125 0.035471622 0.07529258 0.07379505 -0.098785296 -0.18901321 -0.15311155
-0.3109451 -0.21453127 0.02918125 0.24019688 0.16229624 4.5210434e-38 -0.049118586 -0.002528087
-0.002761823 -0.21128955 -0.038858257 -0.13739125 1.91618e-40 9.750532e-16 -0.06906641 0.11947955
0.012919896 -0.08206442 -5.03341e-40 0.14573379 0.06769941 0.0478601 -0.13583198 -0.11679754
0.10252189 -0.05242437 0.11380252 0.020007547 0.13388495 0.12606959 -0.12020745 0.10443661
0.025468454 0.15115717 0.09014371 -0.018319134 0.10026473 4.95234e-40 -0.00747017 0.096410386
-0.14307955 -0.11608397 -3.822097e-19 -0.05140843 -0.03134907 -0.13132891 -1.8371613e-10 -0.12150346
0.012135847 0.033270035 4.9824e-40 -0.11670772 -0.025481028 -0.004978479 0.034457922 0.04236479
-0.05355045 0.07523463 0.061460998 0.15074912 0.028001288 0.09675694 0.09167894 -0.020165788
0.11252109 -0.04049938 0.053115517 0.107953 -0.028759595 -1.5481777e-38 -0.05537755 -0.07873585
-0.101383105 -0.15443917 -0.08262389 -0.040775117 4.9208e-40 2.0066224e-19 -0.11904038 -0.028321916

decoder.2.bias f4 [128]
00000000: 7478 2fbd d15b 0580 1d69 cb3d 322a b33d
00000010: c5b9 873e d65a 0580 9105 ab81 7036 8d3d
00000020: 1948 353d 8d18 43bd 2739 a1bc f12b 0a3c
00000030: bd14 ff3d 6b63 0500 9265 0580 1e0f d3bd
00000040: 258d 26bd c114 53bd 8ac0 a23c b564 0580
00000050: 864b 24be e695 093e b72f a03d 1e5b 0500
00000060: 00d0 803d d145 103e d946 073e 0126 483d
00000070: 3a97 15be b907 133d 8b72 033e 0f7e c33d
00000080: 1c83 3a00 d8a0 dabd 1dd3 d13e 4365 5dbc
00000090: af87 163e 3061 0a3d 4106 543e de55 c2be
000000a0: b2b5 053d 3d6b 813e 9ed9 903d 65f5 2bbf
000000b0: 8eb7 b5be f25e 0500 b111 1b3e 30a1 d43e
000000c0: 54c8 963e 9b2a f6bc 6a5e 0580 579f 123e
000000d0: 2ad5 1ebd d25c 0580 c68e 923e fbdf 4b3d
000000e0: bdcd 8f3e 2cb2 8fbb b04c 8abd 7115 973e
000000f0: 5a21 f83d 856d 103e 505f 0500 5285 5ebe
00000100: 7a7e 213e 4836 edbe bc4e e43d 9385 553e
00000110: 1c8b 0580 9063 0500 0466 0500 4660 0580
00000120: e883 4a3c 2692 383e 34ad 25be ac06 053e
00000130: 76e6 10be be49 67be 295b 43bd 4c64 0500
00000140: 1532 4c3e 6462 f0be 5459 0580 417c 603d
00000150: 1e9b 923e bbd6 fdbc bee2 a9bd 4ef1 7504
00000160: 6cab 1f3d 89ce 723e 1c26 8a3e 6c1b 183e
00000170: 47e5 0c3c dad5 333e eda9 46be 0ea9 543e
00000180: dd5f 0580 abbb 04bd f398 05bd 5b3d 76bc
00000190: c95e 673e dbe3 b53d 9f5a 0580 d4e0 e23d
000001a0: 825c 0580 e658 87be 2840 9cbd 58fd 873e
000001b0: af59 0580 7758 0580 1e63 47be fecd a73d
000001c0: b2ec 21be 7d64 0500 c368 473e 5e5f 0500
000001d0: fa65 29be b813 0680 ad4a 853e a473 1a3e
000001e0: 2c97 398a 6161 0500 d5c1 373d ebbd 74bc
000001f0: 7598 333e c8d5 263e f862 0580 8de4 693e
-0.042839482 -4.92115e-40 0.09932158 0.087482825 0.26508918 -4.91763e-40 -6.2823467e-38 0.06895149
0.04425821 -0.047630835 -0.019680573 0.008433328 0.124551274 4.94842e-40 -4.95614e-40 -0.10305618
-0.04066195 -0.051533464 0.0198672 -4.95304e-40 -0.16044435 0.13436088 0.07821601 4.91864e-40
0.06289673 0.14089133 0.1321062 0.04886437 -0.1460847 0.035896037 0.12836663 0.09545528
5.373492e-39 -0.1067521 0.4098138 -0.013512912 0.14700197 0.03378409 0.2070551 -0.37956136
0.03264398 0.2527713 0.07072757 -0.6717132 -0.35491604 4.93237e-40 0.15143467 0.41529226
0.29449713 -0.030049613 -4.93047e-40 0.14318596 -0.038777508 -4.92475e-40 0.28624552 0.04977415
0.28086653 -0.0043852534 -0.06752908 0.29508546 0.12115736 0.14104278 4.93369e-40 -0.21730545
0.15770903 -0.46330476 0.1114783 0.20851736 -5.0908e-40 4.94894e-40 4.95774e-40 -4.93714e-40
0.01236055 0.18024501 -0.16179353 0.12990826 -0.14150414 -0.22586724 -0.04769436 4.95157e-40
0.1994098 -0.46950066 -4.91222e-40 0.054805998 0.2863397 -0.03098618 -0.08295201 2.8910413e-36
0.03898184 0.237116 0.269822 0.1485421 0.008599586 0.17562047 -0.19400759 0.20767614
-4.93567e-40 -0.032405537 -0.032616567 -0.015029277 0.22594751 0.088813506 -4.91686e-40 0.11078039
-4.92363e-40 -0.26435012 -0.07629424 0.26560473 -4.9135e-40 -4.90913e-40 -0.19471404 0.08193587
-0.15812948 4.95226e-40 0.19473557 4.93389e-40 -0.16542807 -5.58087e-40 0.26033536 0.15083176
-8.935858e-33 4.9411e-40 0.044862587 -0.014937858 0.17538626 0.16292489 -4.94681e-40 0.22841091

decoder.4.weight f4 [784, 128]
00000000: e50a c3bb 627c 0580 9fe4 1abc dd9f d4bb
00000010: e5b6 c4bc 47cc 0580 46a9 0580 a9bd 45bc
00000020: a723 6fbc 4704 f9bc d5c4 a1bc 634e 09bc
00000030: ea50 5ebc b96f 0580 0088 0500 a3a8 ecbb
00000040: 98ae 5ebc 833c 20bc 6290 a1bb 5488 0500
00000050: 309b 7cbc 3f7c 1fbc 668e d6bc 998e 0580
00000060: 6485 96bc 25dd 52bc 8de7 67bc 1470 22bc
00000070: 4cb3 0fbc 44b9 1abc e978 1bbc 3bed 4bbb
00000080: b13c 0600 cb82 b5bb b254 a6bc 8cf4 1dbc
00000090: 6c4d bfbc be40 15bc f143 bebc 776a 8abb
000000a0: a83a 13bc 0cc1 eabc de91 93bc e3a6 07bc
000000b0: 6b52 b7bb bf7e 0500 0c34 8abc 2e42 92bc
000000c0: 8daa c2bc 7729 b3bc faa1 0580 17f9 86bc
000000d0: ab84 54bc c8a4 0500 202d c9bc 70ad 76bb
000000e0: 0402 afbc 80c4 98bc fc20 f3bb 5de1 dcbc
000000f0: 14ea c2bc 7566 86bc df67 0500 14e9 48bc
00000100: 8986 85bc 3dec 28bc 1594 0dbc cf09 12bd
00000110: dade 0580 2e84 0580 d1a3 0500 8394 0500
00000120: 78fa 89bc f1e7 a4bc 7325 b9bb 259f 00bd
00000130: 6e98 cabc 38b0 4bbc 196d 47bb f8bb 0500
00000140: 83e5 2ebd 1c76 e8bb 69a2 0500 405a e9bb
00000150: 84d3 ecbc cb5f 9cbb 4be8 e5bc ff2b 2f00
00000160: 788c 62bc fb73 73bc 97d0 56bc 5420 bdbc
00000170: e0d0 9cbc 17f4 37bc 226d ecbb 47a0 28bd
00000180: 2a9e 0500 5dc2 97bb 8120 37bc 0e66 53bc
00000190: 65ee bebc 3c8c d0bc 687c 0580 8ee2 1abc
000001a0: 3827 0600 60f4 70bc a036 2fbc c02e edbc
000001b0: ae94 0580 24c3 0500 6c1e 0cbc 7375 a7bb
000001c0: 0541 03bc 25c0 0500 9de4 99bc 6cc0 0580
000001d0: 792b 3abc 6a58 0500 a3bc 8abc dd57 14bc
000001e0: 8bd1 b587 0398 0500 e079 00bd 6e5f d9bb
000001f0: b1bc 40bc 23c6 3bbc 8560 0500 fd1a 59bc
00000200: 6df8 c3bb beaf 0500 266c 1bbc c903 d6bb
00000210: ebd9 c4bc ab82 0500 132b 0680 78f0 44bc
00000220: 5877 6ebc 6e82 f9bc 9881 a1bc 3da8 09bc
00000230: 56c7 5dbc eb83 0500 8b97 0600 474b ebbb
00000240: 2c55 5ebc 0a00 20bc 5f8f a4bb 2d67 0580
00000250: 6475 7bbc ac8b 1fbc 5666 d6bc ecc9 0580
00000260: 1e42 96bc c1d7 52bc 2f4f 68bc 03d3 22bc
00000270: a4aa 0fbc e416 19bc e72a 1bbc e752 4abb
00000280: 6c23 0600 896b b5bb 159e a6bc d7df 1dbc
00000290: bc4d bfbc eeeb 13bc 6c61 bebc ccf0 8bbb
000002a0: 2779 13bc 5584 ebbc 7e7c 94bc 54f7 08bc
000002b0: 0e37 b2bb 015f 0500 b1a8 8abc cc99 91bc
000002c0: 3ccf c1bc e503 b4bc 6e6d 0580 91d8 86bc
000002d0: 9e97 55bc a593 0500 54ae c9bc 3732 7abb
000002e0: 4be3 adbc 15b5 98bc 237d f4bb 77ba dcbc
000002f0: 3ddb c2bc fbdd 86bc 4e7c 0580 7490 48bc
00000300: 76c9 84bc cb23 29bc ae19 0dbc 4ad9 11bd
00000310: a9e0 0580 b3a7 0580 cf64 0580 f888 0500
00000320: 44c9 89bc f69a a5bc 8bcd b8bb 19d8 00bd
00000330: 0c8d cbbc 3c63 4dbc bd2c 44bb 9f8f 0500
00000340: 6e29 2fbd 38f8 e9bb bab8 0500 d1eb e7bb
00000350: c79b edbc 41d8 9dbb b2ad e5bc 497a 7a00
00000360: b66c 62bc 668f 73bc bbe9 55bc d132 bdbc
00000370: da52 9cbc 26c7 36bc a989 e8bb 60fd 28bd
00000380: 07d0 0500 93d4 95bb c14e 39bc 84f8 53bc
00000390: 1fc7 bebc b674 d1bc 2c6e 0500 7919 1bbc
000003a0: ca16 0680 26ff 6dbc d5e6 2fbc 19d5 ecbc
000003b0: 87d9 0580 ca69 0500 7795 0abc 74cb a6bb
000003c0: 0b32 05bc 6265 0580 fa70 99bc 9687 0580
000003d0: cddc 39bc 136f 0500 f190 8abc 90fe 13bc
000003e0: 5171 df86 96df 0580 f9ee 00bd 4bbf d6bb
000003f0: e8bf 40bc 567a 3cbc ec59 0500 2a1e 58bc
-0.0059522265 -5.03798e-40 -0.009453922 -0.0064887838 -0.024012992 -5.32458e-40 -5.19901e-40 -0.012069144
-0.0145959025 -0.030397547 -0.019747177 -0.008380505 -0.013569096 -4.99256e-40 5.07965e-40 -0.0072222515
-0.013591431 -0.009780052 -0.004930542 5.08083e-40 -0.015417859 -0.009734212 -0.026190948 -5.10332e-40
-0.018374152 -0.012870108 -0.014154327 -0.009914417 -0.008770775 -0.009443585 -0.009489276 -0.0031116742
5.72785e-40 -0.0055392734 -0.020304058 -0.009640824 -0.023352347 -0.009109674 -0.023225756 -0.0042241174
-0.008986153 -0.028656505 -0.01801389 -0.008279535 -0.005594542 5.04645e-40 -0.016870521 -0.017853823
-0.023762966 -0.021870358 -5.17284e-40 -0.016476197 -0.012971084 5.1829e-40 -0.02455765 -0.0037639998
-0.021363266 -0.018648386 -0.0074197035 -0.02696293 -0.023793258 -0.016406277 4.9644e-40 -0.012262601
-0.016299503 -0.01031023 -0.008641263 -0.035653885 -5.39122e-40 -5.06595e-40 5.17944e-40 5.12453e-40
-0.016843066 -0.02013013 -0.0056502162 -0.031401772 -0.024730887 -0.012432151 -0.0030430018 5.26608e-40
-0.04269935 -0.007094158 5.17439e-40 -0.0071213543 -0.028909452 -0.0047721616 -0.028064867 4.332051e-39
-0.013827436 -0.014859195 -0.013111255 -0.023086704 -0.019142568 -0.011227629 -0.007215158 -0.041168477
5.15916e-40 -0.004631324 -0.011177183 -0.01290275 -0.023307035 -0.025457494 -5.03806e-40 -0.009453429
5.65082e-40 -0.014706701 -0.010694176 -0.028952956 -5.12514e-40 5.29181e-40 -0.008552175 -0.0051104366
-0.008011107 5.28106e-40 -0.01878577 -5.28205e-40 -0.011362904 4.90894e-40 -0.016935652 -0.009054151
-2.7357011e-34 5.13709e-40 -0.03136623 -0.0066336906 -0.011763738 -0.011460814 4.93802e-40 -0.013251063
-0.0059805424 5.22222e-40 -0.009486234 -0.006531213 -0.024029693 5.06052e-40 -5.66465e-40 -0.012020223
-0.014554821 -0.030457702 -0.019715115 -0.008401928 -0.013536295 5.06501e-40 6.05376e-40 -0.0071806046
-0.013570111 -0.009765634 -0.005021974 -4.9619e-40 -0.015347812 -0.00973789 -0.026171844 -5.31613e-40
-0.018342074 -0.012868823 -0.014179035 -0.009938004 -0.008768711 -0.009343836 -0.009470678 -0.0030872168
5.6372e-40 -0.005536501 -0.020339051 -0.009635887 -0.023352496 -0.009028418 -0.023239814 -0.0042706486
-0.009001053 -0.028749624 -0.018125769 -0.008359749 -0.005438692 4.93258e-40 -0.016926141 -0.017773531
-0.023658387 -0.021974513 -4.98433e-40 -0.016460689 -0.013036637 5.12142e-40 -0.024619259 -0.0038176903
-0.021226546 -0.018641034 -0.0074612065 -0.026944382 -0.023786182 -0.01646327 -5.0377e-40 -0.012241472
-0.016209345 -0.010323475 -0.00861208 -0.035607614 -5.3977e-40 -5.19337e-40 -4.95341e-40 5.08313e-40
-0.016819604 -0.020215493 -0.005639737 -0.031456087 -0.02484753 -0.012535866 -0.0029933893 5.10699e-40
-0.04276412 -0.0071401857 5.25445e-40 -0.007077672 -0.029004944 -0.0048170392 -0.028036926 1.1247798e-38
-0.013819864 -0.014865732 -0.013056214 -0.02309552 -0.019082475 -0.011155879 -0.0070964885 -0.041257262
5.33804e-40 -0.00457246 -0.01131028 -0.012937669 -0.023288308 -0.025568347 4.987e-40 -0.009466522
-5.59188e-40 -0.014526164 -0.010736187 -0.028910207 -5.37212e-40 4.97127e-40 -0.008458487 -0.0050901715
-0.008129607 -4.95547e-40 -0.01873063 -5.07817e-40 -0.011344147 4.99023e-40 -0.016914817 -0.00903286
-8.404978e-35 -5.39385e-40 -0.031477902 -0.0065535656 -0.011764504 -0.011503777 4.91435e-40 -0.013190785
