02_Representations/model_weights/autoencoder.pth (torch, 882802 bytes, 12 tensors)

encoder.0.weight f4 [128, 784]
0	0x00061033	5.56824e-40
1	0x0006b52d	6.16007e-40
2	0x80057a7b	-5.03115e-40
3	0x0005c4f1	5.29827e-40
4	0x8006bc5a	-6.18581e-40
5	0x000559c1	4.91375e-40
6	0x0006bb49	6.18198e-40
7	0x80059479	-5.1244e-40
8	0x0005886b	5.08115e-40
9	0x0005f319	5.46384e-40
10	0x000633bb	5.6957e-40
11	0x8006ce64	-6.25052e-40
12	0xb0a44f30	-1.1955077e-09
13	0xb10eae50	-2.0762805e-09
14	0x8005e7ac	-5.42286e-40
15	0x0006b16a	6.14657e-40
16	0x800580b6	-5.0535e-40
17	0x8006071c	-5.53563e-40
18	0x80056cd6	-4.9822e-40
19	0x80056de1	-4.98595e-40
20	0x80064a12	-5.77584e-40
21	0x00068055	5.9705e-40
22	0x0005918e	5.11393e-40
23	0x80069031	-6.02739e-40
24	0x8005d9fd	-5.37377e-40
25	0x00061bf1	5.61036e-40
26	0x80057113	-4.99741e-40
27	0x8005e457	-5.4109e-40
28	0x8005bc82	-5.26801e-40
29	0x8005a414	-5.18038e-40
30	0x0005dd01	5.38459e-40
31	0x80058d8c	-5.09955e-40
32	0x38f3595b	0.00011603787
33	0xb85e782b	-5.304084e-05
34	0xb082ccce	-9.516954e-10
35	0x371b94a7	9.273331e-06
36	0x3ad894b5	0.001652381
37	0x3b6bd52e	0.003598522
38	0xb899f39d	-7.340985e-05
39	0x38769cd0	5.8797013e-05
40	0xb4307d21	-1.6436799e-07
41	0xbbc16267	-0.005901623
42	0xbc024a0a	-0.007952223
43	0xbc0b349c	-0.00849643
44	0xba851696	-0.0010153826
45	0xbb476d11	-0.003043
46	0xba2dcf86	-0.00066303497
47	0x392625c6	0.00015845065
48	0xb8c863d7	-9.55534e-05
49	0x357421a6	9.094605e-07
50	0x381b9e64	3.7102393e-05
51	0x2e546995	4.8296995e-11
52	0x8005e050	-5.39646e-40
53	0x800651d2	-5.80365e-40
54	0x0006c600	6.22042e-40
55	0x0005aa28	5.20218e-40
56	0x0005b071	5.22473e-40
57	0x80055fa8	-4.93492e-40
58	0xa051e967	-1.7780215e-19
59	0x395a63b6	0.00020827245
60	0x3753a667	1.2615324e-05
61	0xb990474a	-0.00027518935
62	0x3a85e1b5	0.0010214361
63	0x3a855ba9	0.0010174412
64	0xbadf6a94	-0.0017045313
65	0xbb8cec5e	-0.004300638
66	0x3af70fbc	0.0018849294
67	0x3b1c9baf	0.0023896506
68	0x3b19bd85	0.002345891
69	0x3ae7d305	0.001768679
70	0xbb9d35c7	-0.0047976705
71	0x3a455959	0.00075282675
72	0x3c478999	0.012178802
73	0x3c434f45	0.011920755
74	0xbc25c9bb	-0.010118897
75	0xbc58b8fb	-0.0132276965
76	0xbbcb8012	-0.0062103355
77	0x3a746d80	0.0009324178
78	0x3a932218	0.0011225371
79	0xb9ef02db	-0.0004558776
80	0x3824febd	3.933789e-05
81	0x3445d957	1.8426122e-07
82	0x8006091e	-5.54284e-40
83	0x00057b27	5.03356e-40
84	0x8006a293	-6.09334e-40
85	0x000639e2	5.71777e-40
86	0xa00f8e5f	-1.2159678e-19
87	0xbab1d020	-0.0013566054
88	0xbc2c2f43	-0.010509315
89	0xbaa3e446	-0.0012503944
90	0x3add60cd	0.0016889811
91	0x3b816ce6	0.0039497493
92	0x3baf2016	0.005344401
93	0x3ba7e8b0	0.005124174
94	0x3c3d4e4e	0.011554314
95	0x3c423db8	0.011855535
96	0x3b3b20aa	0.0028553405
97	0xb8cb7104	-9.700845e-05
98	0xba5a1eea	-0.00083206466
99	0x3bab4316	0.005226503
100	0x3a9ff35f	0.0012203268
101	0xbb73f641	-0.0037225636
102	0xbc1c5d14	-0.009543676
103	0xbbe7f77b	-0.0070790625
104	0xbc0bc413	-0.008530634
105	0x382f9a32	4.1866857e-05
106	0x3b0021b6	0.0019551343
107	0xbb67d263	-0.0035373203
108	0xbaae4e92	-0.0013298562
109	0xb8e8912e	-0.00011089664
110	0x237b0d71	1.3609584e-17
111	0x8006d57a	-6.27594e-40
112	0x00059a1d	5.14463e-40
113	0x38e2e5d4	0.000108193286
114	0xa3ce3bc6	-2.235988e-17
115	0x361dd417	2.3518276e-06
116	0xbbba126c	-0.0056784656
117	0x3b178af5	0.0023123596
118	0x3b8cb7d1	0.0042943736
119	0x3b46d70b	0.0030340578
120	0x3b85931b	0.004076374
121	0x3c1ec0e5	0.009689544
122	0x3c968f88	0.018378988
123	0x3c838856	0.016056221
124	0xba84dd74	-0.0010136799
125	0xbc1bdf05	-0.009513621
126	0xbc792670	-0.015206918
127	0xbbb9d068	-0.005670596
128	0x3b689832	0.0035491106
129	0xbbb40ee1	-0.0054949378
130	0xbb4e3ff6	-0.003147123
131	0xbbe2af45	-0.0069178664
132	0x3b1ffb10	0.002441112
133	0xbaed5832	-0.0018107949
134	0x3acecef7	0.0015778233
135	0x3bb4daff	0.0055192704
136	0x3bc3111d	0.005952968
137	0x3ab14832	0.0013525544
138	0x3b8bea8d	0.004269904
139	0x0a25e726	7.987935e-33
140	0x000563d5	4.9499e-40
141	0x000699e6	6.06221e-40
142	0xb90ddd9f	-0.00013529368
143	0x39b1d61f	0.00033919603
144	0xbbc3b972	-0.0059730345
145	0x3ab5d612	0.0013873002
146	0x3b9c3b54	0.0047678147
147	0x3c1080a8	0.008819737
148	0x3caeb097	0.021324439
149	0x3cd67caf	0.0261825
150	0x3ce940c5	0.028473267
151	0x3c340f05	0.010989909
152	0xbc2bcc13	-0.010485667
153	0xbcc59937	-0.02412091
154	0xbd05473f	-0.03253865
155	0xbd0df10d	-0.034653712
156	0xbd01f95d	-0.031731952
157	0xbc839ebb	-0.0160669
158	0x3bc0b3d2	0.0058808113
159	0x3c23dcbb	0.010001357
160	0x3c408057	0.011749349
161	0x3bac87ec	0.0052652266
162	0x39b57dc3	0.0003461671
163	0x3b1058c8	0.0022025574
164	0x3b9d86cb	0.0048073283
165	0x3b75348e	0.0037415358
166	0x3c1451fc	0.00905275
167	0xb744c55e	-1.17284635e-05
168	0x80058e39	-5.10197e-40
169	0xa773aaf4	-3.3815698e-15
170	0xb77003e4	-1.4306021e-05
171	0x3b8b7566	0.0042559383
172	0x3a13a50b	0.00056321983
173	0x3c09af5a	0.0084036235
174	0x3c2c72de	0.010525433
175	0x3ccdb3b3	0.025110101
176	0x3d050e24	0.03248419
177	0x3ce0c740	0.02743876
178	0x3cbc2a1a	0.022969294
179	0xbc093fd1	-0.008377031
180	0xbcc375f2	-0.023859952
181	0xbcee784c	-0.029110096
182	0xbcc60ee6	-0.024177026
183	0xbd0068ff	-0.031350132
184	0xbd061ff2	-0.03274531
185	0xbc5125a7	-0.012765325
186	0x3c9ccbf6	0.019140225
187	0x3ca750ef	0.020424334
188	0x3c92a52e	0.01790103
189	0x3bff83bf	0.007797688
190	0xba0b065b	-0.0005303376
191	0xbc12ffc4	-0.008972112
192	0x3bda0be5	0.00665425
193	0x3b3401db	0.0027466926
194	0x3b71775b	0.0036844823
195	0x3a83e342	0.0010062235
196	0x2a0801a5	1.2079797e-13
197	0xacd2077c	-5.96939e-12
198	0x3707c2e3	8.092003e-06
199	0x3bc2fd6f	0.005950622
200	0xbba0f685	-0.0049122
201	0x3c30a26c	0.010780912
202	0x3c8c5c4d	0.017133856
203	0x3cd4b4cc	0.025965117
204	0x3cbc0ee5	0.022956321
205	0x3c101da6	0.008796131
206	0x3bbd8175	0.0057832547
207	0xbbfdbb04	-0.0077432413
208	0xbbff37bc	-0.0077886265
209	0xbc0a81aa	-0.008453766
210	0xbc7aac1e	-0.015299825
211	0xbc70bc5d	-0.014693347
212	0x3b412e0e	0.0029476914
213	0x3ca90aa5	0.020634959
214	0x3caf6ed1	0.021415146
215	0x3c7c1922	0.0153868515
216	0x3c701854	0.014654238
217	0xbb5cd794	-0.003369783
218	0xbc53c8cd	-0.012926293
219	0xbc4d19df	-0.012518375
220	0x3ab90641	0.0014116244
221	0xbb13d47d	-0.0022557073
222	0x3a6a22d7	0.0008931583
223	0x3add9df2	0.0016908033
224	0x2b94490e	1.0536309e-12
225	0x35e4a96c	1.7036632e-06
226	0xbbc1f478	-0.0059190355
227	0xbb95e218	-0.0045740716
228	0xbbb2f8d2	-0.0054617906
229	0x3c0170fd	0.007900474
230	0x3c86a4fd	0.016436094
231	0x3c92ed1a	0.017935324
232	0x3c821267	0.015877916
233	0xb9fe5c90	-0.0004851562
234	0xbae463fd	-0.0017424818
235	0xbbc1906f	-0.0059071104
236	0x3b13fa3f	0.0022579578
237	0x3b457d83	0.0030134625
238	0xbc25f54d	-0.010129285
239	0xbbfc96b8	-0.0077083968
240	0x3c70a519	0.0146878
241	0x3ced9d9b	0.029005816
242	0x3bfff956	0.0078117056
243	0xbc39f5d0	-0.01135011
244	0xbca087a0	-0.019595921
245	0xbce274e9	-0.027643638
246	0xbce1cce3	-0.027563518
247	0xbccc7117	-0.02495627
248	0xbc8dd8fd	-0.017315382
249	0xbbdcd456	-0.0067391796
250	0xbb12578d	-0.0022330016
251	0xb7967c33	-1.7939228e-05
252	0xae1040c6	-3.279934e-11
253	0x38dab7bc	0.00010429273
254	0xbbe6c54a	-0.0070425617
255	0xbbd02697	-0.0063522565

encoder.0.bias f4 [128]
0	0x3d4963cf	0.04916745
1	0x3e0af28e	0.1356909
2	0x3dc5ec8f	0.096642606
3	0x3e81d44b	0.2535728
4	0xbdd3ef20	-0.10348344
5	0xaa01a2ef	-1.151403e-13
6	0x3d9e3177	0.077242784
7	0xbd694122	-0.05694688
8	0xbec3ffd6	-0.38281125
9	0xbdc5ad23	-0.09652164
10	0x3e117f31	0.14208676
11	0xb8ace2df	-8.243857e-05
12	0x3d3751db	0.044755798
13	0x3e171f59	0.14758052
14	0x3ddc8ede	0.10769437
15	0x3dd23d6d	0.10265622
16	0x3e1089ad	0.14115019
17	0xbc708af9	-0.014681571
18	0xbdf409b8	-0.11915916
19	0xbd60d3cb	-0.05488948
20	0x3d50f070	0.05101055
21	0xbd61aa7f	-0.05509424
22	0x3dc62880	0.096756935
23	0xbd012472	-0.031528898
24	0x3d5ed872	0.054405637
25	0x3de9eded	0.11422334
26	0x3dab3c1f	0.083610766
27	0xbde2758a	-0.11057575
28	0x3dd409d3	0.10353436
29	0x3dd8909e	0.105744585
30	0xbc81da3b	-0.01585113
31	0x3d09de5c	0.033659324
32	0x3e046b95	0.12931664
33	0x3d8c5c3e	0.06853531
34	0xbe54e225	-0.20789392
35	0x3b1f18e8	0.002427632
36	0xbdb5cf0a	-0.0887738
37	0x3e3bc8f8	0.18338382
38	0x3d378dad	0.044812847
39	0x3d4a7963	0.04943217
40	0xbb9cef3c	-0.004789261
41	0xa3de81cf	-2.4124264e-17
42	0xba8806b9	-0.001037798
43	0x3d99406d	0.07482991
44	0x3d957f14	0.07299629
45	0x3e0554dc	0.13020653
46	0xbc931d80	-0.017958403
47	0xbde1e355	-0.11029688
48	0xbc49cb79	-0.012316578
49	0x3e06a26b	0.13147895
50	0x3d5f5236	0.05452176
51	0x3d10a11f	0.035309907
52	0xbd1d50f5	-0.038407285
53	0x3ec633a5	0.38711277
54	0x3df9c5ef	0.12195956
55	0x3e3010dd	0.17193933
56	0x3df14450	0.11780608
57	0x3de9cfa0	0.114165545
58	0x3d831816	0.064010784
59	0xbba34043	-0.004982026
60	0x3de7949a	0.113076404
61	0x3de64414	0.112434536
62	0x3e2b7597	0.16744076
63	0xbde29c5d	-0.1106498
64	0xbe2e2c08	-0.17008984
65	0x3b84545a	0.004038376
66	0x3de90bf6	0.113792345
67	0xbdea8def	-0.11452853
68	0xbb8f38af	-0.004370771
69	0xbc40e097	-0.011772296
70	0xbda01707	-0.07816892
71	0xbc2aa3c9	-0.010415026
72	0x3de278c1	0.11058188
73	0xbe3b3919	-0.182835
74	0x3ed57757	0.41692612
75	0x3d59a498	0.053135484
76	0xa64e60c2	-7.160174e-16
77	0x3d996655	0.074902214
78	0x3dcf5413	0.10123458
79	0x3e301741	0.1719637
80	0x3ddb1738	0.10697788
81	0xbe07f027	-0.13275205
82	0xbb89383a	-0.004187611
83	0x3d3a016a	0.045411505
84	0x3e0c4bff	0.13700865
85	0x3d518c7a	0.05115936
86	0x3dd127db	0.1021268
87	0x3d1064e6	0.035252474
88	0x3d770bdd	0.060314048
89	0x3ddbae5d	0.107266165
90	0xbc035925	-0.008016859
91	0x3e5ce484	0.21571547
92	0x3d03796a	0.03209821
93	0x3db8c577	0.090220384
94	0xbddb7f3e	-0.10717629
95	0x3e094695	0.13405831
96	0x3bf1864e	0.0073707467
97	0xb89b2ad0	-7.3989504e-05
98	0xbcc0e73c	-0.023547761
99	0x3de9b02b	0.114105545
100	0xba9eaaad	-0.0012105309
101	0x3da00a90	0.07814515
102	0x3db2711a	0.08712979
103	0x3e22e893	0.15909033
104	0x3dfaebe9	0.122520275
105	0x3e6248ad	0.22098036
106	0x3dd69ae7	0.10478764
107	0x3cb493b3	0.022043085
108	0x3bac7e32	0.005264067
109	0x3ce8ab33	0.028401947
110	0xbe28331d	-0.16425748
111	0x3cfed4d4	0.031107344
112	0x3e04612c	0.12927693
113	0xbc855860	-0.016277492
114	0xbbab7edf	-0.00523363
115	0x3d5924f6	0.053013764
116	0xbd071b3f	-0.03298497
117	0x3d8c61d9	0.068546005
118	0x3d79f37d	0.061023224
119	0xbf10cbc7	-0.5656094
120	0xbe35e563	-0.17763285
121	0x3eadbcdc	0.3393315
122	0x3da514a4	0.080605775
123	0x3d9a6122	0.07538058
124	0x3cc39895	0.023876468
125	0xb80edb8d	-3.405991e-05
126	0xbcf861b6	-0.03032003
127	0x3de13271	0.10995949

encoder.2.weight f4 [64, 128]
0	0xb38022d3	-5.966799e-08
1	0x3340d914	4.4900915e-08
2	0x33a7e1b5	7.8175994e-08
3	0xb9b95c51	-0.0003535473
4	0x31b67114	5.3097526e-09
5	0x0006ae86	6.1362e-40
6	0xb4671bcc	-2.1523664e-07
7	0xb3b14ac5	-8.255805e-08
8	0xb955f382	-0.00020403977
9	0xb302f656	-3.0492025e-08
10	0xb5e15086	-1.6787242e-06
11	0x00057431	5.00859e-40
12	0xb45a4229	-2.0326901e-07
13	0xb75d3b78	-1.3186473e-05
14	0xb4827812	-2.430175e-07
15	0xb4544f98	-1.9772995e-07
16	0x34de856a	4.1447794e-07
17	0xb46bd6dd	-2.1964247e-07
18	0x3283f2bf	1.5360795e-08
19	0x320e7244	8.291469e-09
20	0x32638eac	1.3245579e-08
21	0xb38a3868	-6.436386e-08
22	0xb4389e8d	-1.7194016e-07
23	0xb2e9bc3c	-2.7210369e-08
24	0xb6c15b2c	-5.762462e-06
25	0xb373be67	-5.6751016e-08
26	0x34f3ce94	4.5412582e-07
27	0x3389cc33	6.416703e-08
28	0x33a44ec7	7.6511746e-08
29	0xb3bc4d17	-8.768455e-08
30	0x217d0392	8.572446e-19
31	0xb162e3e1	-3.3016863e-09
32	0xb3db5c43	-1.02147645e-07
33	0xb7274b06	-9.971443e-06
34	0x33807068	5.980911e-08
35	0x33614bd3	5.2455857e-08
36	0xb412ee9f	-1.368412e-07
37	0x34377361	1.7085178e-07
38	0x3400f5d5	1.2010362e-07
39	0x349d38ae	2.928477e-07
40	0xb1981e1b	-4.427205e-09
41	0x8005617c	-4.94148e-40
42	0x9b66ca55	-1.9090531e-22
43	0x339b0164	7.218003e-08
44	0xb3ed400c	-1.10478226e-07
45	0xb3a678c6	-7.751946e-08
46	0x314174f7	2.8151683e-09
47	0xb44bf952	-1.899655e-07
48	0xb1f47fca	-7.1158626e-09
49	0xb622e030	-2.4270375e-06
50	0xb32d3050	-4.032364e-08
51	0xb8968f2e	-7.179227e-05
52	0x33249974	3.832379e-08
53	0xb721817e	-9.626498e-06
54	0xb5a0b3d3	-1.1973265e-06
55	0xb3caab14	-9.437477e-08
56	0xb401f18e	-1.2101938e-07
57	0x3402c2a2	1.2178e-07
58	0xb3ddabb4	-1.0322347e-07
59	0xa9d72757	-9.5547424e-14
60	0x33c5af78	9.205445e-08
61	0xb3ae4d21	-8.116536e-08
62	0xb7af3cb3	-2.0889891e-05
63	0x33e57447	1.0684794e-07
64	0xb3a79a86	-7.804651e-08
65	0xb2d6d69f	-2.5010477e-08
66	0x32dbdced	2.5595421e-08
67	0xb433f631	-1.6760238e-07
68	0xa95c80e9	-4.8961625e-14
69	0xb521f45b	-6.033276e-07
70	0xb2e2cd5c	-2.640325e-08
71	0xb78737f2	-1.6119306e-05
72	0x33f0dbf1	1.1215878e-07
73	0x3341c4c1	4.511526e-08
74	0xb4a01102	-2.9814697e-07
75	0x345d6d90	2.0622088e-07
76	0x800630d6	-5.68532e-40
77	0x3306c26e	3.137614e-08
78	0x32c4f7a1	2.2930012e-08
79	0x33fc5211	1.1749592e-07
80	0x3370b940	5.604784e-08
81	0xb398857e	-7.102334e-08
82	0x330fbfab	3.3469103e-08
83	0x342e04d9	1.6206776e-07
84	0xb3e80b7c	-1.0805431e-07
85	0xb2304fca	-1.026269e-08
86	0x33ae470a	8.115428e-08
87	0xb22b909e	-9.986392e-09
88	0xb291a140	-1.695355e-08
89	0x32a445f6	1.9123927e-08
90	0xb3db4b7d	-1.02117134e-07
91	0xb30603fd	-3.1202934e-08
92	0x34321b10	1.6587387e-07
93	0x324d3558	1.19446995e-08
94	0xb325f8da	-3.8643385e-08
95	0x33411fc8	4.496522e-08
96	0xb05929e9	-7.90037e-10
97	0x000677c0	5.93971e-40
98	0xb2911b72	-1.6892702e-08
99	0xb0ad2053	-1.2596594e-09
100	0xb1f60ddf	-7.1611193e-09
101	0xb35690fe	-4.9957627e-08
102	0x34508b26	1.9422131e-07
103	0xb9b257ce	-0.00034016225
104	0xb385965f	-6.2206475e-08
105	0x337b57d5	5.8520374e-08
106	0xb789ed72	-1.6442242e-05
107	0x34bf979a	3.5686827e-07
108	0x32e9d6ef	2.722251e-08
109	0xb3a290ca	-7.57005e-08
110	0xb423a20e	-1.5239513e-07
111	0xb39ff911	-7.4493194e-08
112	0x333ccaac	4.395649e-08
113	0x000604c0	5.52717e-40
114	0xa76cfecf	-3.2889711e-15
115	0x333e659a	4.433023e-08
116	0xb3144dd5	-3.4529723e-08
117	0x34b2b1e2	3.328451e-07
118	0x3336ba0b	4.2544382e-08
119	0xb73df861	-1.1323108e-05
120	0x332fa6a5	4.0896925e-08
121	0xb277d0b0	-1.4424742e-08
122	0xb3486275	-4.6655675e-08
123	0xb83b9343	-4.4721422e-05
124	0xb3c75f12	-9.283953e-08
125	0x00059a97	5.14634e-40
126	0x330adae0	3.2329694e-08
127	0xb2ddcbe4	-2.5820505e-08
128	0x00056559	4.95534e-40
129	0x80056dd9	-4.98583e-40
130	0x9a3a1a33	-3.8485062e-23
131	0xb15565bb	-3.1053407e-09
132	0x000561dd	4.94284e-40
133	0x8005fdcc	-5.50223e-40
134	0x9c778def	-8.190889e-22
135	0x800558ae	-4.9099e-40
136	0xab12ef6d	-5.220189e-13
137	0x00055c1f	4.92224e-40
138	0xa862aad5	-1.25825635e-14
139	0x8005c7a3	-5.30794e-40
140	0x97af4bfc	-1.1328291e-24
141	0xa7600788	-3.1090327e-15
142	0x984f7853	-2.6814871e-24
143	0x9d2468cd	-2.17594e-21
144	0xa1a7eead	-1.1379537e-18
145	0x9e30e75e	-9.365208e-21
146	0x8005583d	-4.90831e-40
147	0x052a1296	7.996775e-36
148	0x0006b522	6.15991e-40
149	0x000567b6	4.96382e-40
150	0xa0803226	-2.171723e-19
151	0x80057595	-5.01358e-40
152	0xa831a4d5	-9.861216e-15
153	0x8047612e	-6.555182e-39
154	0x93ee0396	-6.0083183e-27
155	0x0b5e6afc	4.283613e-32
156	0x06bcf0e3	7.107169e-35
157	0xa61cdd68	-5.4423434e-16
158	0x8005e310	-5.40632e-40
159	0x000562a1	4.94559e-40
160	0x80052cd4	-4.75259e-40
161	0xa80aced3	-7.705387e-15
162	0x8026e426	-3.571593e-39
163	0x80055cf1	-4.92519e-40
164	0x80056024	-4.93666e-40
165	0x9b9d17b4	-2.598879e-22
166	0x89443efd	-2.3622259e-33
167	0x99f6781a	-2.5484312e-23
168	0x80057e3d	-5.04463e-40
169	0x0005e94f	5.42873e-40
170	0x00056229	4.94391e-40
171	0x0003d6c2	3.52547e-40
172	0x986a2cec	-3.026647e-24
173	0x054e75cb	9.7077086e-36
174	0x000576bf	5.01776e-40
175	0x80056268	-4.94479e-40
176	0x800557a9	-4.90624e-40
177	0xa71ea22a	-2.2014814e-15
178	0x800561d5	-4.94273e-40
179	0xaa345d7a	-1.6019643e-13
180	0x000567d8	4.9643e-40
181	0xaae5dfaa	-4.083377e-13
182	0xa53fc434	-1.6633085e-16
183	0x9007df22	-2.679595e-29
184	0x0bc224ca	7.4781436e-32
185	0x0aea997f	2.2591119e-32
186	0x88994489	-9.224465e-34
187	0x80060659	-5.5329e-40
188	0x0b32c631	3.4430656e-32
189	0x1439ec16	9.386673e-27
190	0xa9737c39	-5.4064585e-14
191	0x00056c48	4.98021e-40
192	0x800565d0	-4.95701e-40
193	0x00055831	4.90815e-40
194	0x0c78fe45	1.9181742e-31
195	0x9c478fd0	-6.602945e-22
196	0x80057826	-5.02279e-40
197	0xa52983f7	-1.4703125e-16
198	0x80057154	-4.99832e-40
199	0xa9cc86ed	-9.082826e-14
200	0x01b0a29d	6.488553e-38
201	0x000566a5	4.96e-40
202	0xa9693b6a	-5.1787926e-14
203	0x143b156e	9.4453136e-27
204	0x80060698	-5.53378e-40
205	0x1480b735	1.299696e-26
206	0x00036677	3.12264e-40
207	0x9c0bc6e1	-4.6248287e-22
208	0x1359b617	2.7479028e-27
209	0x80055b42	-4.91915e-40
210	0x00055c40	4.9227e-40
211	0x0b59d761	4.1954713e-32
212	0x11f4adb7	3.8603472e-28
213	0x80056584	-4.95594e-40
214	0x1470612f	1.21360696e-26
215	0x800576c6	-5.01785e-40
216	0x8041f878	-6.058441e-39
217	0x145b40a4	1.10694226e-26
218	0x00055ca9	4.92418e-40
219	0x9764831a	-7.3836247e-25
220	0x11f73b51	3.9006285e-28
221	0xa34efabb	-1.1220377e-17
222	0x80056967	-4.96989e-40
223	0x80057d54	-5.04137e-40
224	0x00055a84	4.91648e-40
225	0x80057050	-4.99468e-40
226	0x968c0aa2	-2.262493e-25
227	0xa00da775	-1.1998571e-19
228	0x800567ce	-4.96416e-40
229	0x88744b4f	-7.3514604e-34
230	0x9b7c03ed	-2.084622e-22
231	0xaeb44e3b	-8.199349e-11
232	0x01ec4fb6	8.680709e-38
233	0x80056417	-4.95083e-40
234	0xa83e60c8	-1.0568105e-14
235	0xa41e388e	-3.4308692e-17
236	0x00057487	5.0098e-40
237	0x843b28e5	-2.2000522e-36
238	0x9a9b875b	-6.4325176e-23
239	0x800568e9	-4.96812e-40
240	0x064b496f	3.8234007e-35
241	0x80069fb0	-6.08298e-40
242	0x00059909	5.14076e-40
243	0x12a8ed4f	1.0660792e-27
244	0x00055920	4.9115e-40
245	0xa1388fdc	-6.253202e-19
246	0x0c044df0	1.0192364e-31
247	0x9a08055b	-2.8128467e-23
248	0x069b5f59	5.844462e-35
249	0x9c7628fd	-8.144755e-22
250	0x0005684e	4.96595e-40
251	0xabb15e9d	-1.2602867e-12
252	0x000561cf	4.94265e-40
253	0x000575a9	5.01386e-40
254	0x80056282	-4.94515e-40
255	0x80055999	-4.91319e-40

encoder.2.bias f4 [64]
0	0x3428a95d	1.5707833e-07
1	0x90065200	-2.649001e-29
2	0x3dfa2a6e	0.12215124
3	0x8280412d	-1.8845319e-37
4	0xb63d10b8	-2.8172926e-06
5	0xbd08f753	-0.03343899
6	0x3dadd32c	0.084875435
7	0x3d954e86	0.07290368
8	0xbda379da	-0.07982226
9	0xbd96c320	-0.07361436
10	0x112f2005	1.3814933e-28
11	0x3dd55d39	0.104181714
12	0x37157fb9	8.91083e-06
13	0x00055741	4.90478e-40
14	0x33843400	6.156188e-08
15	0x3e03ec7e	0.12883183
16	0x3d879f6b	0.066222034
17	0x3dd4b5d8	0.103862464
18	0x3e05dc3d	0.13072295
19	0x3d5fb97a	0.054620244
20	0x004f258b	7.268472e-39
21	0x9ea6fdaf	-1.7680855e-20
22	0x21bb70d5	1.2701479e-18
23	0x3dbf4151	0.0933863
24	0x3e8d72a0	0.27626514
25	0xbd42adf5	-0.04752918
26	0x800558dd	-4.91056e-40
27	0x3daa302f	0.083099715
28	0x80055c8c	-4.92377e-40
29	0xb1f6bf11	-7.181264e-09
30	0x3d0a5af1	0.033778135
31	0xb14a1021	-2.9404037e-09
32	0x3d671e91	0.056425635
33	0x000558bf	4.91014e-40
34	0x3d605b79	0.054774735
35	0x17d2dba9	1.3626382e-24
36	0x13a8b18d	4.258424e-27
37	0x3e00bb28	0.12571394
38	0xb5075983	-5.0421676e-07
39	0xbbd0fb3b	-0.0063776053
40	0x3e2aa5bc	0.16664785
41	0x23bb495c	2.030565e-17
42	0xbcd278ad	-0.025692308
43	0xbb94ff99	-0.004547071
44	0x3e4fe94b	0.20303838
45	0x3dd79a8e	0.10527526
46	0x000569e8	4.9717e-40
47	0x3e23165a	0.15926495
48	0x8dbd8a06	-1.1681252e-30
49	0x3dd847b1	0.10560549
50	0x3ded5d21	0.115900286
51	0x3debd45c	0.11515114
52	0x3de85a92	0.113454
53	0xb6ad52c7	-5.1654383e-06
54	0x3e06c1ea	0.1315991
55	0x3dbd453c	0.09241721
56	0x3dbb1841	0.091354854
57	0x00033de1	2.97704e-40
58	0x3dc2da71	0.09514321
59	0xbdf3ab64	-0.118979245
60	0x306e3ec5	8.6673096e-10
61	0xbd8d14ff	-0.0688877
62	0x3cd65e6c	0.02616807
63	0x3e1c7b5c	0.15281433

encoder.4.weight f4 [10, 64]
0	0x00057799	5.02081e-40
1	0x00055db2	4.92789e-40
2	0xbcc16b1a	-0.02361064
3	0x00057fe2	5.05053e-40
4	0x1cf59f42	1.6253907e-21
5	0xbcd96e43	-0.026541835
6	0xbcb78ff5	-0.022407511
7	0xbcdebd4e	-0.027189877
8	0xbce6eb71	-0.02818844
9	0xbce6edce	-0.028189566
10	0x80056aef	-4.97538e-40
11	0xbce9acaa	-0.028524715
12	0xb3ccb430	-9.532266e-08
13	0x8005930a	-5.11925e-40
14	0xa82c8f0f	-9.578939e-15
15	0x3a907e37	0.0011023943
16	0xbc32dfb6	-0.010917595
17	0xbcccc042	-0.02499402
18	0xbcd4bfeb	-0.02597042
19	0xbcc0e622	-0.023547236
20	0x00055f0b	4.93272e-40
21	0x000563b4	4.94944e-40
22	0x00068bca	6.0116e-40
23	0xbcbb6e1c	-0.022879653
24	0xbcbaa6fe	-0.022784706
25	0xbcb66682	-0.022265676
26	0x80062eac	-5.67756e-40
27	0xbcb1d8b8	-0.021709785
28	0x00058b42	5.09134e-40
29	0x19adeddb	1.798385e-23
30	0xbc7d75d0	-0.015469983
31	0x000568a9	4.96722e-40
32	0xbc5f31cb	-0.013622711
33	0x0005692f	4.9691e-40
34	0xbcc089db	-0.023503235
35	0x00056544	4.95505e-40
36	0x8005a5e1	-5.18684e-40
37	0xbce5b63f	-0.028041003
38	0x80057373	-5.00593e-40
39	0x800558f3	-4.91086e-40
40	0xbcebf1e2	-0.028801862
41	0x00063423	5.69716e-40
42	0xbc3aa1b9	-0.011391097
43	0x0005d5e6	5.3591e-40
44	0xbcdfee70	-0.027335376
45	0xbcdde3a8	-0.027086094
46	0x00055f26	4.9331e-40
47	0xbce3a907	-0.02779056
48	0x00056478	4.95219e-40
49	0xbcd5e891	-0.026111873
50	0xbcc1afda	-0.023643423
51	0xbcc2e72f	-0.023791878
52	0xbcb9ef2b	-0.022697052
53	0x9b056a82	-1.1035917e-22
54	0xbceaeb3a	-0.028676618
55	0xbcb46b62	-0.02202386
56	0xbcce944b	-0.025217196
57	0x80056322	-4.9474e-40
58	0xbc97be62	-0.018523399
59	0xbc8cd039	-0.017189132
60	0x80056dc7	-4.98558e-40
61	0xbc72204c	-0.014778208
62	0xbcc79b6e	-0.024366107
63	0xbcdf2af8	-0.027242169
64	0x3c78b9aa	0.0151809845
65	0x3a83f764	0.0010068235
66	0x3e38f7b9	0.18063249
67	0x3bfb4992	0.0076686824
68	0x3ca55b7c	0.020185225
69	0xbe846e4f	-0.2586541
70	0x3e60789d	0.2192101
71	0xbb2c156a	-0.002625788
72	0xbd9f6e80	-0.07784748
73	0xbe8b7343	-0.27236375
74	0xba6a8735	-0.0008946539
75	0x3e227d78	0.15868175
76	0x383ad125	4.4540637e-05
77	0x85c08cf9	-1.8107378e-35
78	0x3ca619b3	0.020275926
79	0xbe588929	-0.21146072
80	0x3f2f4d83	0.6847765
81	0x3dca7927	0.09886389
82	0x3e777d3c	0.24168867
83	0x3e5382e4	0.206554
84	0xb7483278	-1.193268e-05
85	0xba64fe21	-0.0008735378
86	0x3a2a9b20	0.0006508101
87	0x3e23e59f	0.16005562
88	0x3eade236	0.33961648
89	0xbe19f03d	-0.1503305
90	0xba20ddc5	-0.0006136562
91	0xbe42cd0c	-0.19023532
92	0x381c5580	3.7272926e-05
93	0xb16e8d60	-3.471392e-09
94	0x3e6d082c	0.23147649
95	0x340d0c02	1.3136017e-07
96	0xbe9d7390	-0.3075223
97	0x39382455	0.00017561142
98	0xbdc9ad55	-0.098475136
99	0x3c2a9bbc	0.0104131065
100	0xbbb2e28d	-0.005459136
101	0x3d38e950	0.04514438
102	0x35e2e2b3	1.690429e-06
103	0x3d1ebe62	0.038755782
104	0x3e67ef84	0.22649962
105	0xbb15399b	-0.0022769931
106	0xbe12dada	-0.14341298
107	0xbbe20099	-0.006897044
108	0x3e6789a7	0.22611104
109	0x3dfd2678	0.12360853
110	0xb0b87409	-1.3420741e-09
111	0x3e58c391	0.21168353
112	0x3ad2e7af	0.0016090776
113	0x3e1210c8	0.14264214
114	0x3eb3705a	0.35046655
115	0x3d8ad803	0.06779482
116	0x3e5c3225	0.21503504
117	0xbd327c20	-0.043575406
118	0x3c8e30fb	0.01735734
119	0x3e99f387	0.3006861
120	0x3e1964f5	0.14979918
121	0x38012293	3.0788196e-05
122	0x3e7fdc33	0.24986343
123	0x3fab923d	1.3404003
124	0x3b131868	0.0022444967
125	0x3f67c249	0.9053083
126	0x3d96821f	0.073490374
127	0x3e80bbd9	0.25143316
128	0x8005942e	-5.12334e-40
129	0x000563c6	4.9497e-40
130	0xb715c3e7	-8.926704e-06
131	0x00056550	4.95522e-40
132	0x80067756	-5.93823e-40
133	0xb934bbb8	-0.00017236068
134	0xb76fbe2f	-1.4289791e-05
135	0xb9a7da8b	-0.0003201555
136	0xba473c9d	-0.00076002796
137	0xba72466f	-0.0009242063
138	0x00056e28	4.98694e-40
139	0xbb02690b	-0.0019899036
140	0x000584e6	5.06852e-40
141	0x8005609e	-4.93837e-40
142	0x00060db2	5.55926e-40
143	0x80055a46	-4.91561e-40
144	0x80056562	-4.95547e-40
145	0xb85431cb	-5.0591112e-05
146	0xb994c993	-0.00028378944
147	0xb9186806	-0.00014534601
148	0x80064209	-5.74702e-40
149	0x80058278	-5.05981e-40
150	0x80061800	-5.59623e-40
151	0xb77a38af	-1.4914359e-05
152	0xb6bb2763	-5.5776195e-06
153	0xb6845beb	-3.944607e-06
154	0x0005c810	5.30946e-40
155	0xb4ededea	-4.4317795e-07
156	0x0005a28b	5.17487e-40
157	0x000572e6	5.00395e-40
158	0xb4d1d0e5	-3.9081274e-07
159	0x000568f9	4.96835e-40
160	0xad80d500	-1.4646506e-11
161	0x000649ae	5.77444e-40
162	0xb728e0f6	-1.0065958e-05
163	0x80055ac1	-4.91734e-40
164	0x000577f1	5.02204e-40
165	0xb9b052a3	-0.00033630905
166	0x8005718c	-4.9991e-40
167	0x0005655d	4.9554e-40
168	0xbacc6748	-0.0015594745
169	0x80057bd2	-5.03596e-40
170	0xadf0d788	-2.7380556e-11
171	0x0006052e	5.52871e-40
172	0xb9215418	-0.00015385484
173	0xb9ab1ff2	-0.00032639463
174	0x80055e50	-4.9301e-40
175	0xbac3658a	-0.001490758
176	0x800564b1	-4.95299e-40
177	0xb79e0b95	-1.8840461e-05
178	0xb692a4e9	-4.370337e-06
179	0xb8095224	-3.2739845e-05
180	0xb6f1d9f5	-7.2077332e-06
181	0x00066eea	5.90801e-40
182	0xbae279dc	-0.0017278749
183	0xb80f892e	-3.4221615e-05
184	0xb86a6fa4	-5.589392e-05
185	0x800566cc	-4.96054e-40
186	0xac2503b1	-2.344996e-12
187	0xb160b89b	-3.2701226e-09
188	0x80057019	-4.9939e-40
189	0xb33aeb28	-4.3520373e-08
190	0xb73b725e	-1.1172697e-05
191	0xba252f79	-0.00063013245
192	0x3c4b6bda	0.012415851
193	0xb8718b55	-5.758864e-05
194	0xbd9f733f	-0.07785653
195	0xb8ba825f	-8.893455e-05
196	0x39c1f610	0.0003699516
197	0x3d0d4040	0.0344851
198	0x3e225102	0.15851215
199	0xbdfb637c	-0.122748345
200	0x3dad16a8	0.08451587
201	0x3dac447d	0.084115006
202	0x3a395d5c	0.00070711016
203	0x3e64efda	0.22357121
204	0xba1277ac	-0.00055872905
205	0x800565d0	-4.95701e-40
206	0x3b8a4dc4	0.004220696
207	0x3f1528d6	0.58265436
208	0x3cb8c12d	0.02255305
209	0x3d7c6059	0.06161532
210	0x3ea9e4c6	0.33182353
211	0x3d9496ca	0.07255323
212	0x36cfcb76	6.1927667e-06
213	0xbab79406	-0.0014005906
214	0xbb50b42b	-0.003184567
215	0xbdec8003	-0.11547854
216	0x3d296641	0.041357283
217	0xbe5e8177	-0.21729074
218	0x3921fc98	0.00015448255
219	0x3eefb3f2	0.46816975
220	0xb9932fb7	-0.00028073575
221	0xb15d53e0	-3.220741e-09
222	0xbd92d0b1	-0.07168711
223	0xb1dcd02e	-6.42651e-09
224	0x3ed135d7	0.4086139
225	0x3796f0de	1.7993556e-05
226	0xbdd5c8c0	-0.10438681
227	0xbb8766dd	-0.0041321353
228	0x3a98152b	0.0011602988
229	0xbd0c0a0e	-0.034189276
230	0xb887c60b	-6.47419e-05
231	0xbd057be7	-0.032588866
232	0x3e4cfef7	0.20019136
233	0xb907b966	-0.0001294367
234	0xbebc0113	-0.3671957
235	0xbbcdd138	-0.0062810443
236	0x3dbd5eae	0.09246574
237	0x3e23ceed	0.15996905
238	0x31efd15f	6.979618e-09
239	0x3e53c114	0.20679122
240	0x3ac02979	0.0014660797
241	0xbbb85531	-0.00562539
242	0xbd16cc1b	-0.036815744
243	0x3e89f488	0.26944375
244	0x3d885478	0.06656736
245	0x3c8601c0	0.016358256
246	0x3e465afd	0.19370647
247	0x3ec544d8	0.38529086
248	0xbccecd89	-0.025244491
249	0x0006d5e6	6.27745e-40
250	0xbefe80ee	-0.4970774
251	0x3d9ad9b5	0.075610556
252	0x3b4ca314	0.0031225132
253	0xbe9fedcd	-0.31236115
254	0xbec93109	-0.39295223
255	0x3e45a732	0.19302061

encoder.4.bias f4 [10]
0	0xbc107314	-0.008816499
1	0x3e10ad7d	0.1412868
2	0xa3b6a870	-1.9803816e-17
3	0x3ec5216a	0.38502055
4	0x3e39aaa6	0.18131503
5	0x91922954	-2.306021e-28
6	0x9c12f105	-4.861886e-22
7	0xb89e5b59	-7.551042e-05
8	0x3b1274a7	0.0022347362
9	0xbe4aa4d3	-0.19789438

decoder.0.weight f4 [64, 10]
0	0xbac9508f	-0.0015359091
1	0x3e9c9366	0.30581206
2	0xb7665660	-1.3729179e-05
3	0xbe181384	-0.14851195
4	0xbdacf8b2	-0.08445872
5	0xb4c9c324	-3.758115e-07
6	0x2efc902c	1.1485243e-10
7	0x00056070	4.93773e-40
8	0x3cc86810	0.024463683
9	0xbd127ef7	-0.035765614
10	0x3a53168f	0.0008052373
11	0xbc4a416a	-0.0123446975
12	0xb7339c26	-1.0705588e-05
13	0x3e9ca140	0.30591774
14	0x3de2c2e4	0.11072329
15	0xa33ea267	-1.0334311e-17
16	0x2488552e	5.91249e-17
17	0x0006d389	6.26897e-40
18	0x3eede300	0.4646225
19	0xbe54f77b	-0.20797531
20	0xbbcf1bfa	-0.0063204737
21	0x3e161bc0	0.14659023
22	0xba4d6e66	-0.000783658
23	0xbe339695	-0.17537911
24	0xbe761f66	-0.24035415
25	0xb53d1404	-7.0437113e-07
26	0x31b294c6	5.1973954e-09
27	0x80056c48	-4.98021e-40
28	0x3de1ad5b	0.11019393
29	0x3ea6e98e	0.32600063
30	0x379cd199	1.869425e-05
31	0x3e9a6aab	0.30159506
32	0xb51fe155	-5.9560017e-07
33	0x3e2e1d62	0.17003396
34	0xbd190cdc	-0.03736578
35	0xa90196d6	-2.8774583e-14
36	0x16ca95e3	3.2729452e-25
37	0x0005579b	4.90604e-40
38	0xbe43a096	-0.19104227
39	0xbd5461e1	-0.051851157
40	0x3aef1f82	0.0018243643
41	0x3ea51cfb	0.32248673
42	0x3a858fb0	0.0010189917
43	0xbda9b022	-0.08285548
44	0xbdd5985f	-0.10429453
45	0x3889763e	6.5546934e-05
46	0xb2211c4c	-9.377867e-09
47	0x00055b04	4.91828e-40
48	0xbd2b90b1	-0.041886035
49	0x3e3618e4	0.17782933
50	0xbadb1e3a	-0.0016717382
51	0x3d5dce6f	0.05415195
52	0xb7bf6ce1	-2.2819675e-05
53	0x3f03a395	0.5142148
54	0xbd7d80a9	-0.061890278
55	0x9c4ea6f2	-6.8375454e-22
56	0x130e63cb	1.7972121e-27
57	0x0005c837	5.31001e-40
58	0xbd0de92f	-0.03464621
59	0xbbe1f4e6	-0.0068956492
60	0x38234429	3.8925707e-05
61	0xbe8274f5	-0.25479856
62	0xb295f397	-1.7456655e-08
63	0x3d8a2f2c	0.067472786
64	0x3e8f1032	0.27942044
65	0x8fedaea6	-2.3437276e-29
66	0x2ab2a6b1	3.1734817e-13
67	0x0005602e	4.9368e-40
68	0xbe7af552	-0.24507645
69	0x3ec972e6	0.39345473
70	0xba194d78	-0.00058480306
71	0xbeb0530a	-0.34438354
72	0xb16ee5b6	-3.4764134e-09
73	0xbe6ac0df	-0.22925137
74	0xbeb57d4d	-0.3544716
75	0x12320e70	5.618469e-28
76	0xa6b197bb	-1.2322969e-15
77	0x800564d3	-4.95346e-40
78	0x3f296cf6	0.66181886
79	0x3e990640	0.2988758
80	0x39e16197	0.00042988054
81	0x3dbf5ade	0.093435034
82	0xb60ab734	-2.067024e-06
83	0xbd475617	-0.048666086
84	0xbe0fc091	-0.14038302
85	0xaf9960e0	-2.7899372e-10
86	0x2b8962a7	9.761817e-13
87	0x00056496	4.95261e-40
88	0x3e87462d	0.26420727
89	0xbdb5e5e8	-0.08881742
90	0xb9856c38	-0.00025448366
91	0xbd928852	-0.07154907
92	0xb66287bf	-3.375564e-06
93	0x3f05e90c	0.52308726
94	0xbe9042aa	-0.2817586
95	0x11c6eeb8	3.1386014e-28
96	0x80055c2d	-4.92244e-40
97	0x000560b1	4.93864e-40
98	0x3db136ed	0.086530544
99	0x3ea1d0b9	0.31604555
100	0xba6c86f0	-0.0009022793
101	0x3e50e9b0	0.20401645
102	0xb33a9036	-4.343766e-08
103	0xbe9f6054	-0.3112818
104	0xbdd2b069	-0.10287554
105	0x91bc5e35	-2.971923e-28
106	0x27fbba87	6.986873e-15
107	0x0005657a	4.9558e-40
108	0x3ed3b6ab	0.41350302
109	0x3e062faf	0.13104127
110	0x800660a2	-5.85678e-40
111	0xa213b0fc	-2.001591e-18
112	0x800584ee	-5.06864e-40
113	0x8e04b54d	-1.635755e-30
114	0xa02c0faf	-1.4574156e-19
115	0x8005662f	-4.95834e-40
116	0x80066bde	-5.89708e-40
117	0x0006d033	6.25701e-40
118	0xa45fe3c3	-4.854834e-17
119	0xa6743c6f	-8.473641e-16
120	0x00055b36	4.91898e-40
121	0xa70ad728	-1.9267984e-15
122	0x00056c50	4.98033e-40
123	0x95e8d70b	-9.404333e-26
124	0xa0406817	-1.6297473e-19
125	0x80055bc4	-4.92097e-40
126	0x00055ed8	4.93201e-40
127	0x00056083	4.938e-40
128	0xa7851a1a	-3.6943215e-15
129	0xa5f2148a	-4.1994226e-16
130	0xbb5cf663	-0.0033716194
131	0x3d9ec55a	0.077524856
132	0xbaa89ccc	-0.0012864112
133	0x3e9657b0	0.29363775
134	0x3cfc2b44	0.03078235
135	0xb777498e	-1.4739473e-05
136	0x30908cea	1.0517429e-09
137	0x00055d7b	4.92712e-40
138	0xbd45fe94	-0.048338488
139	0xbdc10fce	-0.09426843
140	0x3a0008cb	0.0004884123
141	0xbea5b2ae	-0.32362884
142	0xa3324b7a	-9.665382e-18
143	0x3ca74a32	0.020421121
144	0x3d1a85cf	0.037725266
145	0x924d7daa	-6.4841487e-28
146	0x0a15dbb4	7.2154106e-33
147	0x00056124	4.94025e-40
148	0x3ed73bd0	0.4203782
149	0x3e4ee370	0.20203948
150	0xb90f9bca	-0.00013695579
151	0x3de347bc	0.110976666
152	0xb8874c11	-6.45147e-05
153	0xbe093f1a	-0.13402978
154	0xbdd1b019	-0.10238666
155	0xb0be4c4b	-1.3846003e-09
156	0x312f51d9	2.5512377e-09
157	0x00055fd7	4.93558e-40
158	0x3e93af10	0.288445
159	0xbcf29659	-0.029612707
160	0xba9a044d	-0.0011750549
161	0xbe24b81c	-0.16085857
162	0xb9b32f2c	-0.00034176686
163	0x3e94aadf	0.29036614
164	0x3dac6bb3	0.084189795
165	0xb389f915	-6.4248674e-08
166	0x2146f24b	6.740568e-19
167	0x0005668b	4.95963e-40
168	0xbdeb80c4	-0.114991695
169	0x3e9b90a0	0.30383778
170	0x8005762f	-5.01574e-40
171	0xb37461e6	-5.6899715e-08
172	0x80056474	-4.95213e-40
173	0xab837285	-9.339895e-13
174	0xac6ee34b	-3.3948007e-12
175	0x000559e9	4.91431e-40
176	0x00056140	4.94064e-40
177	0x800676ff	-5.93701e-40
178	0xb12d9ca7	-2.526386e-09
179	0xb03a8ef4	-6.7869554e-10
180	0x3a3ecd08	0.0007278477
181	0x3e8a44ac	0.27005517
182	0x36d0a943	6.2185877e-06
183	0xbe10061e	-0.14064834
184	0x3e5bc146	0.21460447
185	0x9acc8f2d	-8.4603735e-23
186	0x80055875	-4.9091e-40
187	0x000567b2	4.96376e-40
188	0x3e840f0c	0.2579273
189	0xbe67d90b	-0.22641389
190	0x3883a1df	6.2767176e-05
191	0x3e646743	0.22305016
192	0x36e5941d	6.8419745e-06
193	0x3da15780	0.078780174
194	0x3e291b99	0.16514434
195	0x2d87f70c	1.5457434e-11
196	0x0007b94b	7.09319e-40
197	0x80055e47	-4.92998e-40
198	0x3e501c64	0.2032333
199	0xbe604b3c	-0.219037
200	0xb96e3ee2	-0.00022720874
201	0x3f07f942	0.5311471
202	0x2fd21417	3.8213052e-10
203	0x3deb1add	0.11479733
204	0xbecb87ac	-0.39751947
205	0x2ccdc71b	5.8485556e-12
206	0x80ad3b70	-1.5908863e-38
207	0x800564f1	-4.95388e-40
208	0xbda9ad1b	-0.082849704
209	0xbdb66dbd	-0.0890765
210	0x37014496	7.704968e-06
211	0xbe077ae7	-0.13230477
212	0xaef0a5d4	-1.09433934e-10
213	0x3e7ebd59	0.24876918
214	0xbe016dd0	-0.12639546
215	0x90397696	-3.6576172e-29
216	0x00194c16	2.323182e-39
217	0x000557b8	4.90645e-40
218	0x3e9ae837	0.3025529
219	0x3e77d3ab	0.24201839
220	0x3bae095e	0.0053111752
221	0x3da0bf5d	0.07849
222	0x3b062be4	0.0020472938
223	0x3da75039	0.08169598
224	0x3dae1aa5	0.08501176
225	0x39872976	0.00025780097
226	0xb6162ac5	-2.2376637e-06
227	0x80056055	-4.93735e-40
228	0xbd9032bf	-0.07040929
229	0x3eb10930	0.34577322
230	0xbb76a0c0	-0.0037632436
231	0xbd4c9ee0	-0.049956203
232	0xba0a1be7	-0.000526844
233	0xbde65c2d	-0.1124805
234	0x3ef38424	0.47561753
235	0xb8e39632	-0.000108521795
236	0x35007539	4.78543e-07
237	0x000559e1	4.9142e-40
238	0xbceddd40	-0.029036164
239	0x3de84339	0.11340947
240	0x3be80e0d	0.007081753
241	0xbf3bb9b0	-0.7333021
242	0xb51e40ef	-5.895408e-07
243	0x3dfce73e	0.123487934
244	0x3eb4432d	0.352075
245	0x925bb782	-6.9330406e-28
246	0xb2806185	-1.4945508e-08
247	0x8005f9dc	-5.4881e-40
248	0x3d36da34	0.04464169
249	0x3e9f90cd	0.31165162
250	0x3a34c378	0.0006895582
251	0xbde22f75	-0.11044208
252	0xb85113a6	-4.9847782e-05
253	0xbe111e29	-0.14171661
254	0xbe160272	-0.1464937
255	0xa381948f	-1.4049125e-17

decoder.0.bias f4 [64]
0	0x3f041ce2	0.5160657
1	0x3e89ff23	0.26952466
2	0x3f69c030	0.9130888
3	0x3f120cd9	0.57050854
4	0xbf336eae	-0.7009076
5	0x3ecb8efb	0.39757523
6	0x3eb0f6c1	0.34563258
7	0xbd7bdd5f	-0.061490413
8	0x3e847d83	0.25877008
9	0x3d0d2b02	0.034464844
10	0x3eb06056	0.34448498
11	0x000561ce	4.94263e-40
12	0x00055ebb	4.9316e-40
13	0x3f5791ec	0.84207034
14	0xbe3be159	-0.18347682
15	0x3edce563	0.43143758
16	0x3f37aec0	0.7175102
17	0x80055843	-4.9084e-40
18	0xbea47bc3	-0.32125673
19	0xbec9ec65	-0.39438167
20	0xbdb90cf5	-0.090356745
21	0xbd771623	-0.060323846
22	0xbf6aec96	-0.9176725
23	0x3f873e7f	1.0565947
24	0x3e416ca5	0.18889101
25	0x3f035051	0.5129443
26	0x3e3e8308	0.18604672
27	0x80055a8f	-4.91664e-40
28	0xbf09648c	-0.5366905
29	0xbda2dd69	-0.07952387
30	0xb8f9e96f	-0.000119167256
31	0x3f5e75f9	0.8689876
32	0x3f2be823	0.6715109
33	0x3e6c686b	0.23086707
34	0xbeff2828	-0.49835324
35	0xbe29daba	-0.16587344
36	0x3f527694	0.82212186
37	0x3e5dcb68	0.21659625
38	0xbea01df8	-0.31272864
39	0x3f1caf76	0.6120523
40	0x3d51539b	0.051105123
41	0x972ccc46	-5.5834027e-25
42	0x800563e7	-4.95016e-40
43	0xbf44c1a3	-0.76857966
44	0xbf5c3dac	-0.86031604
45	0x3e9a0de1	0.30088714
46	0x3e9da8f4	0.30792964
47	0x3f0ad359	0.5422874
48	0xbf1528ef	-0.58265585
49	0x3f8448ce	1.0334718
50	0x3f43dd2a	0.76509345
51	0xbdfea074	-0.12432948
52	0xa8931a6b	-1.6331735e-14
53	0x3f613006	0.879639
54	0xbf60f863	-0.8787901
55	0xbf2a2402	-0.66461194
56	0x3ecdd56e	0.40201896
57	0xb01408c1	-5.3854526e-10
58	0xbdf2ffdc	-0.118652076
59	0xbd429684	-0.047506824
60	0xbf823fea	-1.0175755
61	0x3ea4b0dc	0.32166183
62	0x3ca4f5bb	0.020136705
63	0xb7c1f9d5	-2.312373e-05

decoder.2.weight f4 [128, 64]
0	0xb4fdc0cb	-4.7265198e-07
1	0xbacc20b0	-0.0015573706
2	0xb70a9c1b	-8.261787e-06
3	0xb7cbd89f	-2.4300358e-05
4	0xb83d9b84	-4.5205947e-05
5	0xb9a8a458	-0.00032165903
6	0xb83c8404	-4.4945642e-05
7	0xb4b397a9	-3.3451695e-07
8	0xb03ef80c	-6.9474093e-10
9	0xba3740e9	-0.00069905684
10	0xb96bb25e	-0.00022477793
11	0x0006d5f0	6.27759e-40
12	0x00056983	4.97028e-40
13	0xb7b552be	-2.1615411e-05
14	0xb90f9f68	-0.00013696926
15	0xb5068612	-5.011399e-07
16	0xb9a317d1	-0.00031107527
17	0x80062b14	-5.66466e-40
18	0xb9e1a476	-0.00043037877
19	0xb9ff50d8	-0.00048697623
20	0xb71e8660	-9.4488205e-06
21	0xba376d00	-0.0006997138
22	0xba333d4b	-0.00068374415
23	0xba29393a	-0.0006455366
24	0xb6e125fe	-6.7099454e-06
25	0xb1c22347	-5.6501537e-09
26	0xb65bb15e	-3.2736784e-06
27	0x800596f5	-5.1333e-40
28	0xba03397b	-0.00050058187
29	0xb9808c2d	-0.00024518502
30	0x80055796	-4.90597e-40
31	0xb1a0d3fd	-4.680713e-09
32	0xb30b1dd0	-3.2390574e-08
33	0xb9ce8ff4	-0.00039398635
34	0xba2dca7a	-0.00066295976
35	0xb9e0021a	-0.00042726175
36	0xb6771c80	-3.6822457e-06
37	0xb9fa9ab0	-0.00047798967
38	0xb7ad0a3b	-2.0627971e-05
39	0xb9af70c7	-0.00033462627
40	0xb8a2394d	-7.735435e-05
41	0x80065796	-5.82433e-40
42	0x8005e7e4	-5.42364e-40
43	0xb7951103	-1.7770106e-05
44	0xb2857513	-1.5536477e-08
45	0xb70f04e3	-8.524602e-06
46	0xb803060c	-3.1238465e-05
47	0xb9509fe3	-0.00019895988
48	0xba5530c0	-0.00081325695
49	0xb9729639	-0.00023134881
50	0xb8876910	-6.456871e-05
51	0xb57e5f99	-9.4761486e-07
52	0x00055da9	4.92776e-40
53	0xb6259079	-2.467101e-06
54	0xba0ccac3	-0.000537079
55	0xb8343a1b	-4.296946e-05
56	0xb8148c89	-3.5416833e-05
57	0x80056b00	-4.97562e-40
58	0xb75472e6	-1.2662937e-05
59	0xb7d7bbae	-2.5717392e-05
60	0xb8fab06d	-0.00011953791
61	0xb9c5a3c7	-0.00037696792
62	0xba3a8623	-0.0007115325
63	0x80056910	-4.96867e-40
64	0x3934de60	0.00017248979
65	0xbc993e76	-0.018706542
66	0x3c50886d	0.012727839
67	0x3c6513ac	0.013981741
68	0xbd3cfb2f	-0.046137985
69	0x3d5d93de	0.054096095
70	0xbda30fc8	-0.079619944
71	0xbdfb4573	-0.12269106
72	0xbc82813e	-0.015930768
73	0xbbb035f4	-0.0053775255
74	0xbcf11c1d	-0.02943235
75	0x00055eaf	4.93144e-40
76	0x00055c0a	4.92195e-40
77	0x3da5ca80	0.080952644
78	0xbdb175cc	-0.08665046
79	0xbd0159f4	-0.031579927
80	0x3c4a744f	0.012356832
81	0x80055ad8	-4.91766e-40
82	0xbd52c3af	-0.05145615
83	0xbce9c5ef	-0.028536765
84	0x3cd0aa9d	0.02547198
85	0xbce03f25	-0.02737386
86	0xbc781915	-0.015142699
87	0x3dc7623f	0.09735536
88	0x3e504d47	0.20341979
89	0xbc555380	-0.013020396
90	0xbb8928be	-0.004185765
91	0x80055743	-4.90481e-40
92	0xbd796765	-0.06088962
93	0xbcfb83fc	-0.030702583
94	0x2941a783	4.2999902e-14
95	0x3cfb7a0e	0.030697849
96	0x3c0013cc	0.00781722
97	0xbd2bd060	-0.04194677
98	0xbcd3e3db	-0.025865486
99	0xbd43aa16	-0.04776963
100	0xbb8d7c17	-0.004317771
101	0x3c409ecb	0.011756609
102	0xbd2c1c33	-0.04201908
103	0x3d8bec03	0.06832125
104	0x3d3ccc38	0.046093196
105	0x956b3723	-4.7501367e-26
106	0x00055f0c	4.93274e-40
107	0xbd97a944	-0.07405332
108	0xbda0658f	-0.07831871
109	0x3d0018e2	0.03127373
110	0x3caf1900	0.021374226
111	0x3d2ca6c9	0.042151246
112	0xbd4d28fd	-0.050087918
113	0x3d48ec3d	0.04905342
114	0x3aae53e1	0.0013300144
115	0x3d352c8c	0.044231936
116	0x27435be5	2.7111502e-15
117	0x3ac5189a	0.0015037239
118	0xbcb93d41	-0.022612216
119	0xbd32bd7f	-0.04363775
120	0xbb57ac34	-0.0032909038
121	0x14ad854d	1.7521114e-26
122	0x3b8a7803	0.0042257323
123	0xbd3a668b	-0.04550795
124	0xbd6ef0fa	-0.058335282
125	0x3cdd7bd9	0.027036594
126	0x3973a617	0.00023236159
127	0xab9684f2	-1.0695041e-12
128	0xbdc1cdf9	-0.09463114
129	0xbc001a6d	-0.0078188
130	0xbe8ab3c4	-0.27090275
131	0x3d7b03a2	0.06128276
132	0x3ccacf7e	0.024757143
133	0x3d500a35	0.050790984
134	0x3ce69185	0.028145561
135	0x3e0c9fac	0.13732785
136	0xbe175ac7	-0.14780723
137	0xbd8c2cf7	-0.06844514
138	0xbe3516f5	-0.17684539
139	0x8005600f	-4.93637e-40
140	0x80055a56	-4.91584e-40
141	0xbda80baa	-0.0820535
142	0xbdadd718	-0.084882915
143	0xbe48070e	-0.19533941
144	0xbd326b28	-0.043559223
145	0x80055e0f	-4.9292e-40
146	0x3d14de7c	0.03634499
147	0x3db3732a	0.087622
148	0xbda78816	-0.08180253
149	0xbd3f3247	-0.046678808
150	0x3df3995b	0.118944846
151	0xbd3ab756	-0.045585
152	0xbe76563f	-0.24056338
153	0xbe9ee5dd	-0.31034747
154	0xbe3b5b49	-0.18296541
155	0x80056430	-4.95118e-40
156	0x3e247971	0.16061951
157	0x3c863cb6	0.016386371
158	0xbae14bef	-0.0017188768
159	0xbdf75af5	-0.120778956
160	0xbe2e8265	-0.17041929
161	0xbdd38b43	-0.103292964
162	0x3d893e35	0.06701318
163	0xbd96f4a6	-0.07370882
164	0xbca9fa95	-0.02074937
165	0xbd197a3d	-0.03747009
166	0xbd16e046	-0.036834978
167	0xbc3d1d4b	-0.0115426285
168	0x3da4398e	0.0801879
169	0x1788513b	8.809299e-25
170	0x80056189	-4.94167e-40
171	0x3de7b011	0.11312879
172	0x3df0bd91	0.11754907
173	0x3d9aad4a	0.075525835
174	0xbd682daa	-0.056684174
175	0x3daae4be	0.0834441
176	0x3da1bd63	0.07897451
177	0xbd52eecb	-0.051497262
178	0x3d0b980a	0.034080543
179	0x3b605a77	0.0034233609
180	0xa8f2d26d	-2.6958655e-14
181	0xbe5bcb3d	-0.21464248
182	0x3de7669d	0.11298869
183	0x3e12e380	0.14344597
184	0xbc444d2e	-0.011981292
185	0x9a405896	-3.977623e-23
186	0x3c588cea	0.01321719
187	0xbd09018f	-0.033448752
188	0x3e00b76d	0.12569971
189	0xbd175e79	-0.03695533
190	0x3d92a5d5	0.07160536
191	0x3a7b998d	0.0009597771
192	0x3cdc79ec	0.026913606
193	0x3dbfb212	0.09360136
194	0xbee50b42	-0.44735152
195	0x3e8ffc20	0.28122044
196	0xbd401fff	-0.046905514
197	0x3e0f92fa	0.14020911
198	0xbf26b653	-0.65121955
199	0xbd97c5d0	-0.074107766
200	0xbdd299a3	-0.1028321
201	0xbe923b63	-0.28560933
202	0xbe4a9d54	-0.19786578
203	0x0005e402	5.40971e-40
204	0x0005688d	4.96683e-40
205	0x3e9c462e	0.30522293
206	0xbd9fc11f	-0.07800507
207	0xbe13a8d1	-0.14419867
208	0xbe3a6899	-0.18203963
209	0x800562c0	-4.94602e-40
210	0x3e098e25	0.1343313
211	0x3e44f1b6	0.1923283
212	0x3e79b018	0.2438358
213	0xbeac2dc6	-0.33628672
214	0xbe58de25	-0.21178491
215	0x3c66e137	0.014091781
216	0xbe16dce1	-0.14732696
217	0x3d84237e	0.06452082
218	0x3da39932	0.07988204
219	0x00055a18	4.91497e-40
220	0x3dc0459a	0.093882754
221	0x3d9336a9	0.0718816
222	0xbb587b93	-0.003303264
223	0xbd4b19a0	-0.049584985
224	0xbd84da2b	-0.06486925
225	0xbe2e6e5b	-0.17034285
226	0xbdd330bd	-0.103120305
227	0x3ca7d8c8	0.020489112
228	0xbe6930be	-0.227725
229	0xbc64be00	-0.013961315
230	0x3d832237	0.0640301
231	0x3e1902f0	0.14942527
232	0x3e92fe7c	0.2870978
233	0x96ed73ac	-3.8362414e-25
234	0x00055f87	4.93446e-40
235	0xbdd7ce5e	-0.10537408
236	0xbcc3708b	-0.023857376
237	0x3e8cfc2e	0.27536148
238	0xbe36b516	-0.17842516
239	0x3ea68a01	0.32527164
240	0x3d75e883	0.060036194
241	0xbd046e91	-0.032332007
242	0x3e27cbff	0.16386412
243	0x3e86960e	0.26286358
244	0xa9f4f3ac	-1.0878047e-13
245	0xbecb168d	-0.39665642
246	0x3cd32a82	0.025777105
247	0x3de00def	0.109401576
248	0x3e9380c5	0.2880918
249	0x31016b76	1.8833055e-09
250	0xbd152e7d	-0.036421288
251	0x3ea4d677	0.32194874
252	0xbecada3a	-0.3961962
253	0x3d19f2ec	0.037585184
254	0xbd70358e	-0.058644824
255	0xbb0143ef	-0.001972433

decoder.2.bias f4 [128]
0	0x95161ab9	-3.031334e-26
1	0x3d96520e	0.073398694
2	0xbe35cbd1	-0.17753531
3	0xbb944228	-0.004524488
4	0x3d467203	0.048448574
5	0x3d81629e	0.06317638
6	0xbdcce2fc	-0.10004231
7	0xbe152cc0	-0.14567852
8	0xae3fb0f1	-4.3585528e-11
9	0x3e56d1ac	0.20978421
10	0x80055a1d	-4.91504e-40
11	0xbda10e14	-0.07864013
12	0x3e1c5a58	0.15268838
13	0x3e86b3f4	0.26309168
14	0x3e37b5db	0.17940466
15	0x3e1e9f95	0.15490563
16	0x80055d40	-4.92629e-40
17	0x3e5b1d4d	0.21397896
18	0x80055f2d	-4.9332e-40
19	0x800559ec	-4.91435e-40
20	0x3e73cb1a	0.23807946
21	0xbcba520d	-0.022744203
22	0x3e6c23b1	0.2306049
23	0xbb99ea6f	-0.004697136
24	0x3da5cc2c	0.08095583
25	0x3caa4e5a	0.020789314
26	0x3dba0619	0.09083194
27	0x3d5c8ad9	0.053843353
28	0xbc505e74	-0.012717832
29	0xbe050f88	-0.12994206
30	0x3e8d9971	0.2765613
31	0x3e9e5725	0.3092586
32	0xbe45e497	-0.19325481
33	0xbcfc7fca	-0.030822653
34	0x3d68768b	0.056753676
35	0xbde7b521	-0.113138445
36	0xbe62e4d3	-0.22157602
37	0x3d1dc5cc	0.038518712
38	0xbd8990d2	-0.067170754
39	0x3cf34b85	0.029699096
40	0xbd4ff7b6	-0.050773345
41	0x000566d6	4.96068e-40
42	0x3e3cb20b	0.18427293
43	0xbc89cd8e	-0.016821649
44	0x3e7dfa17	0.24802433
45	0x3e11a2b7	0.14222227
46	0x3e3cd3dc	0.18440193
47	0x80055f05	-4.93264e-40
48	0x80055cb4	-4.92433e-40
49	0x3ddc4811	0.10755933
50	0xbc932675	-0.017962674
51	0xbab4f14b	-0.0013804821
52	0x3ed48a45	0.4151174
53	0x3d2793fd	0.040912617
54	0xb58d3e6b	-1.0523485e-06
55	0xb399b912	-7.158282e-08
56	0x3e9a49e2	0.30134493
57	0xbd786664	-0.060644522
58	0xbe403243	-0.18769173
59	0x3e19bb3e	0.15012833
60	0x3dda0adb	0.10646602
61	0xbdc70d4f	-0.09719335
62	0x3ea20d76	0.31650895
63	0x3db44662	0.08802487
64	0xbe8eda58	-0.27900958
65	0x3dc8c222	0.09802653
66	0x80055bf9	-4.92171e-40
67	0xba17e798	-0.0005794703
68	0xbc8e37ae	-0.017360535
69	0x9be2a72c	-3.7496596e-22
70	0x3eaf84a5	0.34280887
71	0xbe86db62	-0.2633925
72	0x0227d4d2	1.2330299e-37
73	0x3dc16a40	0.09444094
74	0x3e47dc5b	0.19517653
75	0x3c5c34d0	0.013440326
76	0x3e413cd5	0.18870862
77	0x3c868b4a	0.01642384
78	0xbbace99a	-0.005276871
79	0xbcf66855	-0.030079046
80	0xbea03408	-0.31289697
81	0x3e3077b1	0.17233159
82	0x3e83e287	0.25758764
83	0xbdfc4372	-0.12317552
84	0x3cc76879	0.024341809
85	0xbebd392c	-0.3695768
86	0x3e98fbfc	0.2987975
87	0xbcbda0f5	-0.02314804
88	0x80056233	-4.94405e-40
89	0xbefdd6ee	-0.4957804
90	0x3d9bd67f	0.07609271
91	0x3e11648f	0.14198516
92	0x3e954cc9	0.29160145
93	0x3e3840f9	0.17993535
94	0x3c3342fa	0.010941261
95	0xb2fac6a1	-2.9194156e-08
96	0x3db222f5	0.08698074
97	0x000564e7	4.95374e-40
98	0xbd4fa904	-0.050698295
99	0x3c034f32	0.008014487
100	0xb0d0b404	-1.5185155e-09
101	0x3e24ca68	0.16092837
102	0xbd801d2f	-0.06255566
103	0x3d14c98c	0.036325023
104	0xbd932809	-0.071853705
105	0xba0fcd8a	-0.0005485645
106	0xb3d37e84	-9.848466e-08
107	0xbdea847c	-0.11451051
108	0x3cf5d03d	0.030006522
109	0xbd3dc590	-0.04633099
110	0x3d50972a	0.05092541
111	0xab768108	-8.7575823e-13
112	0xbe480bce	-0.19535753
113	0x3e919ab8	0.28438354
114	0x3c1b308d	0.009472025
115	0xb98fc1c3	-0.0002741945
116	0xbea25c9a	-0.31711274
117	0x3d5a5063	0.05329932
118	0x3e8acca2	0.27109247
119	0x00055765	4.90529e-40
120	0x3e432674	0.19057637
121	0xb00a58e4	-5.033043e-10
122	0xb19162b2	-4.2312758e-09
123	0x3ed752b6	0.4205529
124	0x3e7e50fb	0.24835579
125	0xbc769c02	-0.015051844
126	0xbc5dd1a8	-0.0135387555
127	0x3e0e6b92	0.13908222
