02_Representations/model_weights/autoencoder_best.pth (torch, 882882 bytes, 12 tensors)

encoder.0.weight f4 [128, 784]
00000000: 9668 0500 57b2 0680 a7a4 0500 d6a1 0580
00000010: 43c0 0500 10f8 0500 d431 0680 30bd 0580
00000020: c856 0680 af96 0500 f5be 0580 f4a3 0600
00000030: dc6d d2b5 f77d d4b5 7953 0930 102b 002e
00000040: a1b8 0500 21de 0580 a751 0680 c8d5 0600
00000050: a4fb 0500 eec1 0580 2fbe 0580 83da 0500
00000060: 3cf2 0580 e87d 0580 dcb2 0680 e5c3 0600
00000070: 7721 0600 3195 0500 fc6a 0500 218f 0580
00000080: 5cf5 0500 fd96 0500 1802 b23b 13f7 ab3b
00000090: aa52 fb39 b85d 353b ab7c be3b 1f0f c9ba
000000a0: 4590 d4bb b445 2c3b d76b f0ba 00e5 f5bb
000000b0: ec8d d4bb f038 e6bb c31e e9bb 4454 a93b
000000c0: 59db 183b d479 b7b9 2431 4b3b cf87 233b
000000d0: bfbf 0500 30bd 0500 0fc8 0580 58a9 0600
000000e0: 3e5e 0580 fe25 0600 3395 0680 2dd6 a1b0
000000f0: 0e96 5abc 1214 a139 90e3 dbbb f7e2 1bbb
00000100: 37d4 9e3b 8ad5 d13b edc4 973c d940 bf3c
00000110: 81ca 5a3c 9128 153c 8eef ccbb 337f a9bc
00000120: 0efb b2bc a80a d2bc d79b 9abc 821f eabb
00000130: 26c5 52bc 8742 52bc a497 15bc 4a2c 0dbb
00000140: b677 0ebb a84c 9339 e4ef 0500 cb77 0500
00000150: ce68 0500 127f 0600 c0fa cd31 7759 96b0
00000160: 1c70 353a d815 32bb 98f2 9fbb 426f 913a
00000170: 6d54 a03c e7a8 f13c 1c7f 1b3d 8595 1b3d
00000180: 1ad3 983c d9fc ee3b a08f afbb 4c69 55bc
00000190: 4d4e c1bc 5665 2dbc 8f9e 8ebc 37e1 5bbc
000001a0: bf49 aebc 6378 98bc 9872 8ebc 2305 22bc
000001b0: 1637 00bc c90e c8ba ccc7 0580 94da 0500
000001c0: 67b7 0580 ea0a d836 9a0e f1b4 cfaa 1c3c
000001d0: 72e7 d33a 4486 aabb d12a 70bb 5fb5 a33c
000001e0: 04a1 a33c 820f 373d efee 473d 476f 513d
000001f0: d7ef d03c 78ce 67bc 6566 2bbd a9cc 31bd
00000200: 17b9 1dbd 9d7a 89bc e0ca d5bb 6d6e b53c
00000210: 5c09 c93c 9ff3 8d3c 505c d33b 69d3 463c
00000220: 919e 1ebc 4ba8 1fbc 55aa 18bb d4e5 56b7
00000230: 19b1 0500 be9f 0600 3e10 3933 96e4 3f3c
00000240: 8bb6 023c 9c6d 083c 331c f73c 7d5a 043d
00000250: 7f3c 4e3d c630 863d d4a1 623d cf03 fb3c
00000260: 680f c03c 201b bdbb 9410 3dbd a2a1 28bd
00000270: a5a9 a0bc ddfa 77bb 8cf1 893c 1beb 143d
00000280: 8665 203d c90c c53c 07f5 3e3c 8933 9abb
00000290: bcd8 2bbb 99ee caba 1723 78bb 65db f837
000002a0: bea0 0500 700c 5539 2bb3 cabb c1e6 b43b
000002b0: 1a1b ad3c c63d 303d 0c4f 913d da08 ab3d
000002c0: fee9 843d d813 633d 94ca b73c 9bf3 193d
000002d0: 9dd2 403c 78d8 86bc c67d 7abd 0762 28bd
000002e0: 8072 123b 3705 e33c 9ea8 213d a32c 0a3d
000002f0: 0da9 183d 836a 023d b353 933c baf0 883b
00000300: 9cb8 a8bb 5130 343c 4ca9 613c 2fac 263c
00000310: d622 0600 1ca2 e8bb 3c78 27bc afda 433c
00000320: baa8 fb3c 1fbf b03d a892 da3d e8fc b33d
00000330: 7f7e 903d 761f 243d 3417 803c 2f95 2d38
00000340: 2449 96bc 8f2a 0fbd df43 42bd 7bd1 6dbc
00000350: 7e1f ea3c 9577 443d 08c3 683d 1c44 463d
00000360: b16a b53c e0b3 923c d01b 1c3c 6e92 14bc
00000370: 4b51 98bc 7869 4ebc 6131 273c 0ab2 3e3c
00000380: 1470 0500 77a8 4abc a6dd 003a fa3d c33c
00000390: 4beb 583d 1ac7 d93d 7385 e33d 48fd b13d
000003a0: 3b98 b73d 4b1b 633d 646f 413b b8c1 10bd
000003b0: df44 94bc 482c cfbc c1e0 c0bc d5df e53a
000003c0: 3c47 473d a8a2 4e3d 673a 6c3d ea15 523d
000003d0: 3138 823c 3e53 a03c 0078 a03c c6af b6bb
000003e0: d7c3 9ebb 642b f2bc ac5c 903a e29d 06bb
000003f0: 1930 63ae 805b 98bb 75c5 2e3c 1581 b93c
4.96696e-40 -6.14989e-40 5.18244e-40 -5.17233e-40 5.28148e-40 5.48166e-40 -5.68888e-40 -5.27045e-40
-5.82144e-40 5.13233e-40 -5.2768e-40 6.09828e-40 -1.5678193e-06 -1.5831891e-06 4.995893e-10 2.9142078e-11
5.2541e-40 -5.38862e-40 -5.80304e-40 6.27703e-40 5.49449e-40 -5.28746e-40 -5.27402e-40 5.37565e-40
-5.46075e-40 -5.04344e-40 -6.15176e-40 6.21287e-40 5.63018e-40 5.12697e-40 4.97556e-40 -5.10522e-40
5.47196e-40 5.13342e-40 0.0054323785 0.0052479594 0.0004793604 0.002767427 0.0058132014 -0.001533959
-0.006486925 0.0026286663 -0.0018342686 -0.0075041056 -0.006486645 -0.0070258304 -0.007114263 0.005167516
0.00233241 -0.0003499525 0.0031004632 0.0024952774 5.27963e-40 5.27045e-40 -5.30945e-40 6.11762e-40
-4.92985e-40 5.64642e-40 -6.04536e-40 -1.1775164e-09 -0.01334144 0.00030723267 -0.006710477 -0.0023786405
0.0048470753 0.0064036297 0.018526519 0.023346351 0.013353945 0.00910391 -0.006254143 -0.020690536
-0.021848228 -0.025639847 -0.018873138 -0.0071448693 -0.012864387 -0.012833244 -0.009130392 -0.002154129
-0.0021738834 0.00028095138 5.45234e-40 5.02151e-40 4.96774e-40 5.96597e-40 5.994792e-09 -1.0939364e-09
0.00069213076 -0.0027173664 -0.0048812144 0.001109578 0.019571507 0.029499484 0.037963018 0.03798439
0.018655349 0.0072933254 -0.0053576976 -0.013025593 -0.023596907 -0.010583242 -0.017409591 -0.013420395
-0.0212754 -0.018612092 -0.017388627 -0.00988892 -0.0078256335 -0.0015263195 -5.30851e-40 5.37589e-40
-5.2497e-40 6.438572e-06 -4.4900372e-07 0.009562208 0.0016166999 -0.005203994 -0.0036646614 0.019983945
0.01997424 0.044692524 0.04881185 0.051131513 0.02550499 -0.014148347 -0.041845698 -0.04340807
-0.038506594 -0.0167821 -0.0065244287 0.022147382 0.024540596 0.017328082 0.0064502135 0.012135365
-0.00968136 -0.009744714 -0.0023294885 -1.2808905e-05 5.22708e-40 6.08318e-40 4.308844e-08 0.011712214
0.007978092 0.008326914 0.030164814 0.03231286 0.050350662 0.065522715 0.055330113 0.030641465
0.023444846 -0.005771056 -0.04615839 -0.04116977 -0.019612143 -0.0037838735 0.016838811 0.036357027
0.03915932 0.024053948 0.011655099 -0.0047058505 -0.0026221713 -0.0015482485 -0.0037862712 2.9666067e-05
5.16841e-40 0.00020317896 -0.0061859093 0.005520672 0.021131087 0.04302766 0.07095155 0.08351298
0.06489943 0.055438846 0.022435464 0.037585836 0.011768964 -0.016460642 -0.061155103 -0.04110911
0.002234608 0.027712448 0.039467447 0.033733975 0.037270594 0.03183986 0.017984247 0.0041790875
-0.0051489603 0.010997848 0.013773274 0.010172888 5.6351e-40 -0.007099403 -0.010221537 0.011953994
0.030720104 0.086302035 0.10672504 0.087884724 0.07055377 0.040069066 0.015636064 4.1385352e-05
-0.018345423 -0.034952696 -0.04742801 -0.014515276 0.02857947 0.047965605 0.05682662 0.048404798
0.022145601 0.017908037 0.009528115 -0.009068115 -0.018593451 -0.012598388 0.010204644 0.0116391275
4.99384e-40 -0.012369267 0.00049158407 0.023833264 0.052958768 0.10633679 0.11109438 0.08690888
0.089645825 0.05544595 0.0029515857 -0.035340995 -0.018099247 -0.02528967 -0.023544671 0.0017538021
0.04865192 0.05044809 0.057672884 0.05129043 0.015895935 0.019570943 0.01958847 -0.005575153
-0.0048451233 -0.029561706 0.0011013946 -0.0020540883 -5.1656544e-11 -0.0046495795 0.010667195 0.022644559

encoder.0.bias f4 [128]
00000000: fa3f 893c 4848 6e3e ddde 5fbd 25ff ed39
00000010: eea0 9cbc 5e4d c83d fefc b8bd 23d6 dd3d
00000020: 58f8 083e 6fc8 acbd ff49 3bbc 98c8 463c
00000030: 9f00 803d 953a 56b9 2a74 d63c ed68 783e
00000040: 0816 19b6 7bce 8c3d 513d 993d 3976 84b9
00000050: db72 443d 6e87 163e 5353 0d3d a424 6c3d
00000060: faad 5a3e 8b20 393e fb31 153d 9e7d 3cba
00000070: b38e 573e 163f d93d 0396 debd d911 803d
00000080: 1b2e 923c 1bd7 643d 0e70 9f3d 9348 253e
00000090: 07df 763d 3975 5c3d d0a6 06bc b6f2 913e
000000a0: b464 5ebd 29e2 173e 009b afbc 1991 713c
000000b0: c783 e03d 224f 9e3c bb21 853e 747a 823d
000000c0: c3dd 743d 5572 193e a4be 123a aa25 863c
000000d0: 420d 3a3e 77db 86bd 4439 caae ed99 7f3d
000000e0: 9ea0 0ebe 5a4d 74b6 e6a6 3b3e 4e9a 773d
000000f0: 5420 8f3d 7398 873d 045a 97a8 d492 c33d
00000100: 4243 8eb1 972a 8c3d 6c50 873c d150 f4bd
00000110: f655 0998 65b1 7c3d a34d 6e3d 0c3f c9bc
00000120: d449 a03d 0e54 5bbc 9695 203e 21a1 b3ac
00000130: f581 863d 9065 aebc 8b69 c7ba a675 85b2
00000140: f6b5 173c 336d 3d3e 0928 023d 77e7 083d
00000150: 6a8e ab3d e1ea e63d ead6 69b8 d5ad 0c3e
00000160: 2b76 543d 5b87 623d 9363 90b8 3f40 d43d
00000170: 1b0e 5fb6 2416 a83d 5579 fc3c 424a 23a8
00000180: a16a a0ae 730b 0db5 dc49 84ba 1119 f23d
00000190: 9391 ad3d b3b6 87b8 c351 c93d eb49 39b6
000001a0: f30e 793d 9bbe 893c da07 6d3c f3d3 d0bd
000001b0: b549 753d 871a 87a9 9088 debd e29c 873c
000001c0: 3474 073e d7b6 82be b9af 6a3d c7bf 843d
000001d0: 8696 7fb9 7dfd a6bd 910e 083e 183e a5bd
000001e0: cd3a 843d 13d0 4f3d 2cd0 8f3d 8aa6 72b6
000001f0: e7b2 1fb3 3ff7 5dac 8df3 423d c4fd 2bbb
0.01675414 0.2326976 -0.0546559 0.0004539426 -0.019119706 0.097803816 -0.090326294 0.10831859
0.13375986 -0.08436667 -0.011431216 0.012132786 0.062501185 -0.00020430454 0.026178438 0.24258776
-2.28116e-06 0.068753205 0.07482398 -0.00025265085 0.047961097 0.147001 0.034503292 0.05765213
0.2135543 0.1807882 0.03642462 -0.0007190349 0.21050529 0.10607736 -0.10868456 0.06253404
0.01784425 0.055869203 0.077850446 0.16140966 0.06027129 0.05382273 -0.008218482 0.28505486
-0.054295257 0.14832367 -0.021436214 0.014744067 0.109626345 0.019324843 0.26002297 0.06371012
0.0597818 0.1498502 0.00055978657 0.016375381 0.1816912 -0.06584828 -9.196069e-11 0.062402654
-0.13928458 -3.6403858e-06 0.18325385 0.06044989 0.06988588 0.06620874 -1.6803406e-14 0.095494896
-4.1403903e-09 0.06844061 0.01651784 -0.11929477 -1.7750234e-24 0.061692614 0.05817951 -0.024566196
0.078265816 -0.013386739 0.15682063 -5.105375e-12 0.06567756 -0.021288663 -0.0015213949 -1.5536738e-08
0.009259691 0.18498687 0.03177646 0.033423867 0.08376773 0.11275268 -5.5751683e-05 0.13738187
0.051870506 0.055304866 -6.885002e-05 0.103638165 -3.32378e-06 0.08207348 0.030819574 -9.06442e-15
-7.294899e-11 -5.2543254e-07 -0.0010092813 0.11821187 0.08475032 -6.471332e-05 0.09830048 -2.7610174e-06
0.060805272 0.01681452 0.014467204 -0.10196676 0.059884746 -5.999806e-14 -0.10865891 0.0165543
0.13227922 -0.2553012 0.05729649 0.06481891 -0.0002437477 -0.08153818 0.13286807 -0.08068484
0.06456528 0.050735544 0.070221275 -3.6157749e-06 -3.7182783e-08 -3.1543238e-12 0.04759555 -0.0026243785

encoder.2.weight f4 [64, 128]
00000000: a267 18bd 66ef b93c 06ed 3bbd 3ca5 4abe
00000010: 41be 6dbd b91c 8eba c8be 4fbe 94fb a2bc
00000020: 018f 2c3e 5fed 353e 6907 9f3c 6e8c 133e
00000030: 7245 66be 3728 02b9 0589 76bd 3ac2 b43c
00000040: 32d1 f336 70ac a53c add0 b33d 3249 25b9
00000050: 6fae 683d ff98 d13d 87e8 3e3d c7d8 b73c
00000060: 55a3 e63c d89e 653d 8d7c b33d d72d 983c
00000070: 3666 8f3e b1cb a73e 0dac dbbd 3e7c 9f3d
00000080: 1efe efba 7de3 3b3d 58da 3cbe 6c4c 593e
00000090: 056a d23c a49a 0f3d 7222 a9bc 8df6 fe3d
000000a0: 2e7f ae3d d7ee 543e 4d71 62bd 2112 2a3d
000000b0: 9331 113e ff19 b13d f804 e23d 6c8d e93c
000000c0: c36e 923c 6af7 bb3e 112e cdbc 20c3 c13d
000000d0: 1d44 8bbd 836c 673e e2b4 0636 6d95 903e
000000e0: bc50 f5bd 283b a134 4ae2 283e 58f0 1b3c
000000f0: 947b a43d 7a57 d43c 8f81 7f38 b4d4 cb3d
00000100: 9b0a 23b8 8e60 743d 9a02 4ebe 22f5 37be
00000110: 6626 042e 3560 1bbd 1772 4b3d faa9 0e3e
00000120: 7426 9e3d 6e87 aebc 7856 c33d 0c13 c0b7
00000130: e55f 983d 7bdd 02be 6752 35bb ae3b 3237
00000140: 918f a23e 2c46 8d3e f131 46bd fb68 1f3d
00000150: 28e1 1e3c 2dd0 e73d b530 853d f5f1 213f
00000160: 14fd a63d f6f1 c63d 552c aeb7 aaf6 ad3d
00000170: 7941 f6b8 bb7d a53e ede1 723d ebbc 21b3
00000180: b51e a52c 7dc1 c6b4 bd30 b63a 16f9 ed3d
00000190: b5e7 303d 1e98 10b8 9d4c 523d 8edb e538
000001a0: 3430 5c3d b8c0 913c 5409 653e 2037 2bbd
000001b0: 4ac6 51bd 4d12 59ba de2c 9cbe d598 603d
000001c0: fbf9 9d3d d846 68bd 9383 06be c961 f7bb
000001d0: bf6b 3e39 8809 70be 1f02 80bc 40a7 743e
000001e0: c8eb 343d bd73 5b3c 357e 1e3e 0817 8ebb
000001f0: 581f 9238 6fd6 bfb0 efd7 c63c aabd 5c3b
00000200: eb08 e53c 9f50 98bd 6360 0cbe 5f50 94be
00000210: 108b f4ba 02a4 953d 8116 b0be 2b23 8cbd
00000220: a00c 103e c284 853e dcca 9f3a 9746 943b
00000230: 97c3 9cbe f41e 86b9 e201 9d3d a86c 8e3d
00000240: 180b e936 6ff5 093d da8e 353d eda3 c0b8
00000250: 4897 9bbb dd9a 5b3e a15c 463d e42c b83d
00000260: 6522 01be c5a5 823e 8132 433e 8ecb e8bd
00000270: b449 563e db61 c83e f7be 313e 5fb0 a13c
00000280: 24d1 0e3d b156 6b3d 5dab 56be 7557 9a3e
00000290: 38a9 713d fbe8 913d 267d c7bd 3843 3f3e
000002a0: fe31 f03d d5bf 153e 4647 813d 7acd 863c
000002b0: 541c 8bbd 4535 2e3d 242a 60be 2614 823d
000002c0: 3e8a ecbb acb3 983e be8e 803c e0d9 ebbd
000002d0: 04be 26be 9059 0c3e ac52 2e34 02fd a63d
000002e0: c668 0d3e 7bdf b834 af50 8c3d 4996 da3d
000002f0: aefd b63c 0858 803d 5bce 6837 aa28 393d
00000300: cf2e 89b7 d8bd 8a3d 0ada 59be bfd7 b9bd
00000310: 5edb 1e13 55dc d83c 5ef2 633d de73 ae3c
00000320: 5239 8c3d 72a8 553d 8b9b 83bd bcad 4bb7
00000330: fedc d13d 1e00 b0bd ac3b 193b 4794 d235
00000340: a139 9f3e 01c0 973d 2ae5 c33d 90cc 813c
00000350: 0240 453c bbff 193e 6713 ffbb c2af 2b3f
00000360: 94ed bcbb c115 2d3d 6c05 fdb5 6c23 1e3d
00000370: ba02 d8b8 cfb5 bc3d c43d b63d 7ad8 0db4
00000380: 151e 6533 3615 cb33 e1ef 853b 2f7d 193d
00000390: d14a 893d 6564 7fbc 7c6a a33c 5416 e5b9
000003a0: 0657 093d f665 553d ff26 8dbd 9a56 e93c
000003b0: c354 09bd c29e 72b9 ee30 c2be 908c e1bc
000003c0: 5f17 5a3c fcf1 233e 0ad5 563c a6eb 9e3d
000003d0: 0173 9bba 42b5 2dbe 1e5a 9dbd a5bf 1c3c
000003e0: 7d0b 333d f824 3fbe ce33 a1bd 5c67 88ba
000003f0: 4684 973a 35b5 09b2 ecfd 9b3d 365e 803b
-0.037208207 0.022697162 -0.04588034 -0.19789594 -0.05804277 -0.00108423 -0.20287621 -0.019895352
0.16851427 0.17766331 0.019412713 0.14409038 -0.22487429 -0.00012412747 -0.060189266 0.02206527
7.266318e-06 0.020223826 0.08780036 -0.00015762894 0.056806978 0.1023426 0.046608474 0.022442235
0.028154055 0.05605969 0.087639906 0.018576546 0.28007668 0.32772592 -0.107261755 0.07787369
-0.0018309986 0.045871247 -0.18442667 0.21220559 0.02568532 0.035059586 -0.020646308 0.124493696
0.08520351 0.20794235 -0.055283833 0.041521195 0.14179067 0.086475365 0.11036104 0.028509818
0.01787508 0.367122 -0.02504638 0.09461045 -0.06800101 0.22599988 2.0072844e-06 0.28239003
-0.119782895 3.003163e-07 0.16492572 0.009517752 0.08031383 0.025920618 6.09174e-05 0.09952679
-3.8872106e-05 0.059662394 -0.2011818 -0.17964604 3.004743e-11 -0.037933547 0.04966935 0.13932028
0.07722178 -0.021304812 0.09537977 -2.2897053e-05 0.074401654 -0.127798 -0.0027667524 1.0623522e-05
0.31750157 0.275926 -0.04838747 0.038918477 0.009697236 0.11319003 0.06503431 0.6325982
0.081537396 0.09714119 -2.076306e-05 0.08494313 -0.00011742389 0.32322487 0.05929749 -3.7657554e-08
4.6929912e-12 -3.7021155e-07 0.0013900023 0.11619775 0.043189723 -3.4473946e-05 0.051342595 0.00010960466
0.053756908 0.01779209 0.2236684 -0.04180062 -0.051214494 -0.000828062 -0.3050298 0.054833252
0.077136956 -0.056708187 -0.13136129 -0.0075494987 0.0001815995 -0.23441136 -0.015626011 0.23891926
0.04417017 0.013394293 0.15477832 -0.0043362416 6.967661e-05 -1.3958025e-09 0.024272887 0.0033682385
0.027958354 -0.07437252 -0.13708644 -0.28967568 -0.0018657167 0.07306673 -0.3439217 -0.06842645
0.14067316 0.2607785 0.0012191194 0.0045250165 -0.30617973 -0.00025581534 0.07666375 0.06954318
6.9452326e-06 0.03368133 0.044325687 -9.185807e-05 -0.0047482587 0.21445794 0.04842818 0.08992937
-0.12610777 0.25517097 0.19062234 -0.1136695 0.20926553 0.39137158 0.17358004 0.01973742
0.03486742 0.057455722 -0.20963807 0.3014485 0.05899927 0.071245156 -0.09740667 0.18677986
0.11728285 0.1462396 0.063124225 0.0164554 -0.067925125 0.04253127 -0.21891075 0.06351499
-0.007218628 0.2982458 0.015693065 -0.11516166 -0.16283423 0.1370604 1.6235089e-07 0.08153726
0.13809499 3.4435274e-07 0.06851327 0.10673196 0.02233776 0.06266791 1.38763235e-05 0.045204796
-1.635347e-05 0.06774491 -0.21274582 -0.090743534 2.005056e-27 0.02647225 0.05565106 0.021295484
0.068468705 0.052162595 -0.06426152 -1.2140194e-05 0.10247229 -0.08593772 0.0023381514 1.5689374e-06
0.31098655 0.07409669 0.09565194 0.015844613 0.012039186 0.1503896 -0.0077842954 0.6706506
-0.005765626 0.042257074 -1.8851547e-06 0.038608 -0.000103001905 0.09214365 0.088984996 -1.3210402e-07
5.3345577e-08 9.4567824e-08 0.0040874337 0.0374729 0.06703723 -0.015587901 0.019948237 -0.0004369492
0.033530258 0.05209919 -0.068922035 0.028483678 -0.0335281 -0.0002313806 -0.37927955 -0.027532846
0.013311236 0.16010278 0.013112316 0.0775979 -0.0011859835 -0.16963676 -0.07683204 0.009567176
0.043712128 -0.18666446 -0.07871209 -0.001040678 0.0011559806 -8.015651e-09 0.07616791 0.003917481

encoder.2.bias f4 [64]
00000000: 6ee5 873d 1af0 203d f431 a13b f3dd bc04
00000010: 48cf f03d e26d 843d 52b2 89af 04c5 a833
00000020: 095d 0580 63e0 043d a1ed 87af f72d ea9e
00000030: 8755 fc3c 19a5 629b fc63 c81c 4d49 ee3d
00000040: 29da 08a4 d0f4 803d 6056 a23c 02ac a5b7
00000050: b50c a6bc 5a6e f43c 7e9b 733d d9e0 473d
00000060: 9119 723c b13a 62b7 54af 2a3d 9cce 4c2c
00000070: fb69 b021 d3de 2c3d e779 7f99 f872 a114
00000080: 8d62 59b1 445c a2b3 3736 e13d ff4e 87ba
00000090: 0747 00b6 ccc2 ac9c 84bb 83b3 c839 1d38
000000a0: 4582 b7b4 4ad5 bd3d 3861 363d 578d cb26
000000b0: a7ce 1cb8 016e 243d cce9 653d ed21 3b3d
000000c0: 1642 2cb9 9de9 89b6 3e80 c73d 622a a09d
000000d0: 19fd 8199 1372 233d 3ee1 0d3d 60e6 d7a0
000000e0: 8925 9a3d fdfc 4500 7d08 02b3 4aa1 2c39
000000f0: 6bfa 8dbd bbd6 0e3e 9eb9 2f3a e794 e63c
0.06635557 0.03929148 0.004919285 4.4402416e-36 0.11758286 0.06466271 -2.504686e-10 7.8589466e-08
-4.92552e-40 0.032440554 -2.4725202e-10 -2.4794724e-20 0.030802501 -1.8747628e-22 1.3260735e-21 0.11635075
-2.9675088e-17 0.06296694 0.019816577 -1.974963e-05 -0.020269731 0.029837776 0.05947446 0.048798416
0.014776603 -1.3484315e-05 0.041671112 2.9104835e-12 1.1954277e-18 0.04220469 -1.3207809e-23 1.6302193e-26
-3.1633676e-09 -7.560496e-08 0.10996669 -0.0010323225 -1.911483e-06 -1.1432359e-21 -6.134272e-08 3.748553e-05
-3.418119e-07 0.09269197 0.04452631 1.4124265e-15 -3.738576e-05 0.04014397 0.05613117 0.04568665
-0.00016427817 -4.1101143e-06 0.09741257 -4.239547e-21 -1.3440513e-23 0.03990371 0.034638636 -3.6574866e-19
0.075266905 6.427404e-39 -3.0275704e-08 0.00016463283 -0.06932529 0.139491 0.00067033793 0.028147174

encoder.4.weight f4 [10, 64]
00000000: d54e 173f 6dbd 143f 78ca 663e 1532 76bb
00000010: 1839 5d3e babb 663e 4b3a 013a 2342 0f35
00000020: a644 79b7 bfa0 cc3c 80ce 063c e5d8 84ba
00000030: 7766 a23d f50f 163c d74b 8039 cf0e 963e
00000040: c1b1 8639 bd72 a33d 0a5c 2b3e 6eec 5abc
00000050: 6ff1 9a3c 98c3 783b db9a a53e 0d20 adbd
00000060: e161 41be 0d92 bbb7 0931 1d3e 14f0 0cbc
00000070: b9e4 c9bb fba9 6fbd c02c 94ba 7782 123b
00000080: f2fd c5b9 5bfa 80b5 3d4a 94be 09c5 c4b9
00000090: 9bcf d835 be26 a2b8 57dc ddb9 1dc9 61bb
000000a0: f5e6 93b6 1271 163e 8646 0c3e 0781 32bb
000000b0: 38db 6f39 7512 583e f125 af3e 710b 8e3e
000000c0: 0b2e 72bc ab7c 6835 5fa6 b03c 3298 3b3a
000000d0: addf c6bb 5f9b c83b e5bf 743e 0659 13b9
000000e0: 4ddf 07be d5b8 303a c60b e3b4 8a57 87bc
000000f0: 8976 c73e 5994 7c3e d56d edbb 27f7 99be
00000100: 21e7 693c acb1 02be 64da 46be 3efe a73a
00000110: 736d ef3e 8ced 093e 7664 813a 8bef c034
00000120: 3008 1e35 ce0a 2bbe 457f 1d3c 8064 17b9
00000130: 8d3f d93e d9cb 73bb 7b9d 30b7 cd97 3f3e
00000140: fdaf 173a 604a 84be 4d79 d3be e9e7 743c
00000150: 7ea9 243c ce41 cc3d ee07 f1bd 79fe 433e
00000160: 222a 093e 4f7b a5b6 0fdd 613e 8017 bbb9
00000170: 19c3 a33b 2941 ab3d a4a6 21bb 7362 4bb8
00000180: 4338 2c3b 2a6c 15b7 16bc 5c3c c06c 1dbb
00000190: 9865 2136 8d2b 1bb7 4e00 863a f2af 0eba
000001a0: 0720 8137 eff9 853e b990 15be a70f f939
000001b0: 2c1e 2c3b bfb1 d03e ff98 873e 157f 583e
000001c0: 900f e8bb be84 1134 0b74 a0be 73a5 c9b9
000001d0: aa76 28bb 7a20 b23e 2c0d ac3e 35e1 c838
000001e0: 0a7d 123f f0f0 6eb6 9d91 f3b4 4412 f4ba
000001f0: 3381 88be 5544 95be e10f e4bb 0df8 743e
00000200: c551 b5b2 ab01 1fb4 6de9 94b1 e56d 0500
00000210: e27b b7b5 4275 6db3 f9c0 0600 d3a1 0580
00000220: 8b78 0500 be78 d5b2 7f19 0600 e27c 0500
00000230: 0c4c 0bb2 de7b 0580 2b5f 0500 be35 9eb3
00000240: f65b 0580 f951 62b6 362e 54b2 e86e 0500
00000250: 9c66 0580 b9c9 4fb5 aa84 47b5 671d 34ae
00000260: 1df2 60b4 37d7 0580 6fb7 4fb5 0414 0680
00000270: 7d6b 0580 1762 cdb4 eefd 0500 f0a0 0500
00000280: 20d3 0680 ebb6 0600 4a76 c1b6 5778 0580
00000290: acce 0580 415c 0500 9cf1 0580 3a78 0500
000002a0: ee65 0580 a6b6 52b1 fc7e b9b4 c7b9 0500
000002b0: 68c0 0600 868b d1b1 9b73 19b5 cbcd 61af
000002c0: fb5a 0580 3eb1 0500 1534 190f c35f 0580
000002d0: e953 0680 0c89 eaaf 7300 a8b0 fb5c 0500
000002e0: 4f51 6da4 9fdd 0680 f45e 0580 1718 0680
000002f0: a526 7a9e fb8a d2b6 7f76 0580 07f6 02b2
00000300: 4deb 17be f363 cf3d d207 373e 0e42 95b9
00000310: 9081 34be 3e50 8f3d 3438 a639 05fe e2b4
00000320: 4565 5a3a 3e2b 0b3e 1004 c4bb bf8d 353a
00000330: 258c 3f3e 8197 39bc fed3 04b9 d5cd 5bbe
00000340: dc43 2eba f8dc cd3d 9931 803e 3bd1 aa3c
00000350: bf83 c23c 4ec3 bb3e 1207 023e 3de7 8d3d
00000360: 5825 ba3e 14a2 ff37 89f7 993e 6061 dcba
00000370: 3027 643c 66fb b13e 1a0a 483b ebd4 90b7
00000380: 1844 b23b 0e50 32b4 25df 8a3c acd2 76ba
00000390: d624 94b7 1e69 60b5 9f1e 943a 2bc5 c93a
000003a0: c416 81b7 3e45 923d 67dc 1a3e 0f67 b73a
000003b0: 8213 34b9 6087 43bd 7032 173e 270f 523e
000003c0: 7066 8d3b 2f08 bcb4 2356 0bbf 8a26 03b9
000003d0: 2ce7 733b 176e ba3d e307 4b3c fecc deba
000003e0: 36f2 37be 2f67 70ba 05bd 1fb1 0a21 bc3b
000003f0: 3664 f1be fc43 d63d 47a7 f4bb 565d 963e
0.59104663 0.5810154 0.22538173 -0.0037566472 0.21603811 0.2253255 0.0004929646 5.3367893e-07
-1.485754e-05 0.024978993 0.008227944 -0.001013544 0.079297 0.009159078 0.00024470568 0.29308173
0.0002569091 0.07980869 0.16734329 -0.013362033 0.018913953 0.003795838 0.32344708 -0.08453379
-0.18884994 -2.2360147e-05 0.15350737 -0.008602161 -0.006161299 -0.058511715 -0.001130484 0.0022355595
-0.00037763972 -9.609606e-07 -0.2896289 -0.00037530836 1.6153675e-06 -7.731978e-05 -0.0004231657 -0.0034452148
-4.4078283e-06 0.1469157 0.13698778 -0.002723755 0.00022874482 0.21100791 0.34208634 0.27743104
-0.014781485 8.660815e-07 0.021563707 0.0007156163 -0.0060691447 0.0061220373 0.23901327 -0.00014052176
-0.13268776 0.00067414093 -4.229061e-07 -0.016521234 0.38957623 0.24665965 -0.007245759 -0.30071375
0.014276297 -0.12763089 -0.19419247 0.0012816859 0.4676319 0.13469523 0.0009871859 3.5937077e-07
5.88715e-07 -0.1670334 0.009612863 -0.00014437921 0.42431298 -0.003720036 -1.0527084e-05 0.18710251
0.0005786417 -0.25837994 -0.41303483 0.01494787 0.010050176 0.09973489 -0.117690906 0.19140042
0.13394979 -4.931738e-06 0.22056983 -0.00035684928 0.0049976227 0.08362038 -0.0024665976 -4.849066e-05
0.0026278652 -8.906276e-06 0.013472578 -0.002402112 2.4050005e-06 -9.24886e-06 0.001022348 -0.0005443088
1.5392912e-05 0.26167247 -0.14605989 0.00047504643 0.00262631 0.4076061 0.26483914 0.21142228
-0.0070819333 1.3552469e-07 -0.31338534 -0.00038460977 -0.0025705495 0.34790403 0.336038 9.578691e-05
0.57222044 -3.5605008e-06 -4.5368225e-07 -0.0018621166 -0.2666107 -0.29153696 -0.0069599007 0.23922749
-2.1108358e-08 -1.4808636e-07 -4.3339043e-09 4.986e-40 -1.3670617e-06 -5.5287508e-08 6.20239e-40 -5.17229e-40
5.0242e-40 -2.485137e-08 5.60159e-40 5.03977e-40 -8.108156e-09 -5.03613e-40 4.93317e-40 -7.367224e-08
-4.92167e-40 -3.3724339e-06 -1.2350531e-08 4.98963e-40 -4.95987e-40 -7.7407054e-07 -7.432633e-07 -4.0953376e-11
-2.0949706e-07 -5.36382e-40 -7.738044e-07 -5.58193e-40 -4.97737e-40 -3.8255595e-07 5.5027e-40 5.16911e-40
-6.2675e-40 6.16632e-40 -5.765619e-06 -5.02347e-40 -5.33317e-40 4.92272e-40 -5.4585e-40 5.02307e-40
-4.95743e-40 -3.0662846e-09 -3.4551329e-07 5.25822e-40 6.20035e-40 -6.0985625e-09 -5.716517e-07 -2.0536743e-10
-4.91815e-40 5.2276e-40 7.553513e-30 -4.9353e-40 -5.81114e-40 -4.266173e-10 -1.2223736e-09 4.92533e-40
-5.1460054e-17 -6.30516e-40 -4.9324e-40 -5.59655e-40 -1.3242881e-20 -6.274667e-06 -5.01686e-40 -7.622936e-09
-0.14835854 0.10126486 0.17874077 -0.0002846871 -0.17627549 0.06997727 0.00031703862 -4.2280604e-07
0.00083311304 0.13590714 -0.0059819296 0.0006925724 0.18705805 -0.011327625 -0.00012667474 -0.21465237
-0.0006647685 0.10051912 0.2503784 0.020851722 0.023744462 0.36672443 0.1269801 0.06928871
0.36356616 3.0473842e-05 0.30071667 -0.0016813688 0.013925359 0.34762114 0.00305236 -1.7265285e-05
0.0054402463 -1.6606666e-07 0.016952107 -0.0009415548 -1.7660128e-05 -8.359947e-07 0.001130063 0.0015393844
-1.53886e-05 0.07142113 0.1512314 0.0013992506 -0.00017173405 -0.047736526 0.14765334 0.20513593
0.00431519 -3.5023683e-07 -0.5442831 -0.0001250749 0.0037216647 0.09103029 0.012392017 -0.0016998348
-0.1796349 -0.0009170649 -2.324499e-09 0.0057412433 -0.47146767 0.10462186 -0.00746623 0.29368085

encoder.4.bias f4 [10]
00000000: 9750 d53d 70e5 883e b465 0500 3771 18be
00000010: 3db4 02b0 fcf4 a63d 8530 853d 8e7c 923e
00000020: 5926 68bb 075c 0580
0.10415762 0.26737547 4.95662e-40 -0.14886938 -4.754986e-10 0.08152196 0.06503395 0.28610653
-0.0035423248 -4.9219e-40

decoder.0.weight f4 [64, 10]
00000000: f6cf f8bc 4c56 00bd 0e67 0580 6632 e7bc
00000010: 885a 8690 68c4 96bc 96db dcbc d05b 08bd
00000020: 804f 0680 fd69 0500 7ceb d8b9 c1b5 d9bc
00000030: 62c3 d534 9fd4 e93d a68d 5c31 ba2b 6abd
00000040: 4d57 8d3d 59c3 22bd 43b9 e7ba 8614 7db8
00000050: 9f13 443e d881 61bd 0ab5 0e2b b679 2cbe
00000060: e692 5731 ea3b 113d 1ecf 763e 4577 9bbd
00000070: 238e 97bc 04a6 86b7 0b90 af3d 881c 1bbe
00000080: 8357 0580 7be6 7f3e e89b fcaf 9d2b 7abe
00000090: 7e66 9e3d 3446 993e 6b5e 793c 455f 0500
000000a0: a191 c33e 27be 793e f7a3 28af f683 623e
000000b0: 9709 92b0 6058 ffbe 4b80 8a3d 9571 0ebd
000000c0: 42e5 b43b dc51 1831 1126 ccbd 878f f63c
000000d0: 95a3 f0b0 ecbb 223e 7fde 09b1 89c7 993e
000000e0: 8d0e b33d 10e0 37bd 77fe aeba 16c4 c136
000000f0: 1fd5 ad3c c84d 0a3e 9866 0580 d000 5d3e
00000100: 5b2d 1330 09d5 85be 80b9 9a3d 2aec 2b3e
00000110: de7c 9c3b 671e 1680 7e2b 28be c4ae 663c
00000120: a7be 16b4 b223 433e 3357 0eb1 11f8 883e
00000130: 5e84 443e 74a3 82bd 4848 e3b9 42f3 5938
00000140: e2ba 823e e262 e3be 4067 0500 5251 48bf
00000150: d1c7 65af b569 debe a8c3 ba3e 6bff 263f
00000160: 31bb 293c 3ed6 ce90 e44f 58be f798 0abf
00000170: 8466 0500 98f9 583e 6cae a930 e250 a13d
00000180: e4f5 dc3e 86e3 3f3e e084 c73b a535 0080
00000190: c68d 8e3d b5e8 acba a753 0eaf 5890 523e
000001a0: 2f89 32b1 ab54 233e d575 8ebd ac67 8c3c
000001b0: c191 1dbb 0558 e536 1ddc 9d3e 2e8c 02be
000001c0: 7066 0500 25d6 85be 54e3 9f30 b6ba 973e
000001d0: de90 4d3e e3e2 f33d 8054 2cbc 4ec1 ccae
000001e0: 5757 3e3d 2647 02be fa4f a9ad 6236 573b
000001f0: a3ad 00b1 a8c2 303d 6a12 5b3e dd42 a1bc
00000200: bce4 82bb 62f7 8f2f 8b52 72be e8e4 ed3d
00000210: 5cbf c7b5 19da 1bbe f58b 2fb1 0461 583e
00000220: ddc1 d03e 8024 be3e d471 593c 6503 7038
00000230: c6e7 e23e f110 24bf 7162 0580 96b3 933c
00000240: 16ea 8a30 a4cf e13d 2cfc d33e e0aa c7be
00000250: 165e b73c 06ef e3b0 1426 063d a18f 373c
00000260: 7530 32ae ce07 febe 8626 3331 3b2b 80be
00000270: 8b99 a03e b96c 263f be4d c5bc a6cf dd35
00000280: 3420 ce3e 750d 04bf 6eab 2113 06b2 993e
00000290: de4f ef30 3c3d 013e 5636 1ebe f12f c93d
000002a0: f01b 05bd f8a3 9228 38e5 063e 1aab 55bc
000002b0: 9c50 db36 8e5e b73d 489a 0031 53e4 5f3d
000002c0: c55e 8bbe 4984 863e 3f6f 02bb e036 c5b6
000002d0: e38c 0c3e 8d5a 423e f2ea aab0 0e88 113d
000002e0: 04a2 a2b0 f073 53bd 9914 363e c5ff 53be
000002f0: f85c 133c d11a ae31 d2d8 bcbd 1f7a 86be
00000300: a0eb 1f17 f05a e43e 400a 7730 a470 59be
00000310: 6ba3 aabd c502 033f d13f ae3c 5dfa b12a
00000320: ad20 383e eb61 8d3e b37e 0531 a179 eb3d
00000330: 8e87 0e31 a92a dabd 480f 903d 7b39 11be
00000340: 0d5c a8bb d109 d1b8 e3a7 3abe 9a2e db3e
00000350: 904a 0400 c4b8 8a3d 2cc3 d930 1977 d63d
00000360: 4b06 ac3e d84c 3fbe 6c34 273c 2e80 96b3
00000370: 7201 e13e ab9d a2bd f264 0580 f87a b6bc
00000380: 43ee 6b2f c714 9cbd 8f58 8b3e e033 4ebe
00000390: d4eb 81bc 9da7 c0b2 22c1 9d3e 7aea 51be
000003a0: 9e57 0500 4205 803e 412b 4e31 2eab 46be
000003b0: a320 d03e 1967 3bbe 7787 8ebc 2822 21b4
000003c0: c29b c1be 933e 853c b390 652f 10b6 413e
000003d0: dada 3f31 ff39 af3e 363a bc3d 0fba 443d
000003e0: c3aa 25bc 688a 8b28 c8c5 a33e c9b1 8b3e
000003f0: ba5f 0580 91b3 0fbe 0d6f 0330 9588 6a3e
-0.030372601 -0.0313323 -4.96147e-40 -0.028222274 -5.2993166e-29 -0.0184042 -0.026960175 -0.033290684
-5.79532e-40 4.97199e-40 -0.0004137418 -0.026575925 3.98165e-07 0.114175074 3.2094731e-09 -0.057170607
0.06901417 -0.03973708 -0.0017679114 -6.0339014e-05 0.1914811 -0.05505547 5.0699776e-13 -0.16843304
3.137012e-09 0.03545753 0.24102446 -0.07591108 -0.018500393 -1.6051352e-05 0.08572396 -0.15147603
-4.90571e-40 0.24990265 -4.594931e-10 -0.244307 0.077343926 0.29936373 0.015220265 4.93354e-40
0.38197044 0.24388944 -1.5337763e-10 0.22120652 -1.0625624e-09 -0.49872112 0.06762751 -0.03477629
0.0055204937 2.2165443e-09 -0.09968198 0.030097736 -1.7508791e-09 0.15891999 -2.0062598e-09 0.30035046
0.0874301 -0.044891417 -0.0013350983 5.7746756e-06 0.021219788 0.13506234 -4.95981e-40 0.21582341
5.354274e-10 -0.26139095 0.075549126 0.16789308 0.0047756275 -2.031287e-39 -0.16422841 0.014079753
-1.4039198e-07 0.19056585 -2.0713287e-09 0.2675176 0.19191119 -0.063788325 -0.00043350668 5.1963383e-05
0.25533205 -0.4441138 4.96217e-40 -0.78249085 -2.0898418e-10 -0.43440023 0.364774 0.65233487
0.010359571 -8.1582766e-29 -0.21124226 -0.54139656 4.95953e-40 0.21188962 1.2345942e-09 0.07876755
0.4315635 0.18739137 0.006088838 -1.9244e-41 0.06960635 -0.0013191911 -1.2944544e-10 0.20562875
-2.598039e-09 0.15950267 -0.069560684 0.017139278 -0.0024043175 6.8349786e-06 0.30831996 -0.12748787
4.95925e-40 -0.26139942 1.1633383e-09 0.29634637 0.20074794 0.119085096 -0.010518193 -9.311184e-11
0.046470013 -0.12722453 -1.9248592e-11 0.0032838811 -1.8725153e-09 0.04315439 0.21393743 -0.019685203
-0.0039945524 2.6187325e-10 -0.236643 0.11615926 -1.4882348e-06 -0.15219916 -2.5545408e-09 0.21130759
0.40772906 0.37137222 0.013271768 5.722362e-05 0.44317454 -0.6408835 -4.94492e-40 0.01802997
1.0107353e-09 0.110259324 0.4140333 -0.38997555 0.02238373 -1.6584358e-09 0.032751158 0.011203677
-4.0515553e-11 -0.4961533 2.6069826e-09 -0.25032982 0.31367144 0.6500965 -0.024084922 1.6526217e-06
0.40258944 -0.51583034 2.0405578e-27 0.30018634 1.7412238e-09 0.12621015 -0.15450415 0.09823597
-0.032497346 1.6280366e-14 0.13173378 -0.013041282 6.5360928e-06 0.08953582 1.871415e-09 0.054661106
-0.2722074 0.262728 -0.0019902734 -5.877446e-06 0.13725619 0.18979855 -1.2435903e-09 0.035530142
-1.1833099e-09 -0.05162424 0.17781295 -0.20703037 0.008994333 5.067115e-09 -0.09221043 -0.26265046
5.167307e-25 0.4460063 8.987264e-10 -0.21234375 -0.08331951 0.511761 0.021270664 3.161524e-13
0.17981215 0.27613768 1.9426067e-09 0.11497808 2.0740774e-09 -0.10652668 0.07034165 -0.14182083
-0.0051379264 -9.967725e-05 -0.18228106 0.42808992 3.9409e-40 0.067735225 1.5844299e-09 0.10471935
0.3359855 -0.18681657 0.010205369 -7.008235e-08 0.43946415 -0.07940229 -4.9539e-40 -0.022275433
2.1457773e-10 -0.076211505 0.27216002 -0.20136976 -0.015859522 -2.2427963e-08 0.3081141 -0.20499602
4.90609e-40 0.2500401 3.0001532e-09 -0.19401237 0.406499 -0.18301047 -0.017398579 -1.500672e-07
-0.37814146 0.01626519 2.0878836e-10 0.18917108 2.791856e-09 0.34223935 0.0919079 0.048029
-0.010111514 1.5492124e-14 0.31986833 0.27284077 -4.93518e-40 -0.14033343 4.7815335e-10 0.22903664

decoder.0.bias f4 [64]
00000000: dcef 85ba 8526 823f c3d7 253f 0499 d0bd
00000010: 88f0 15bf 14e5 4bbf a0ed a33e 8765 6bbf
00000020: ca65 6c3d e1f3 743e 779a 55bf a442 003e
00000030: 61f3 25bf c9bc 6dbf 0f1f 283e 9f52 14be
00000040: 9214 233d 308f 8f3f e509 4ebf d5d1 823e
00000050: 5662 5c3f 0c77 0a3f f7c8 2bbe e7a1 483e
00000060: f973 603f bc8f 753e 7163 859d f359 0500
00000070: 4f13 34bf 1685 463f 89d3 013e 42b8 91bf
00000080: fae2 76be cd41 66bc c2dd 87bf 338b fabe
00000090: 2e82 2abe f31f 2a3f f2f8 f03e 0ec5 31bf
000000a0: 4b00 c7be b4da 2c3f f687 bb3e 2d04 153f
000000b0: 0f5f 0580 9fd0 8f3f fed1 af3e 3a5e 5d3e
000000c0: 0c8d 0480 5965 aa3e 986a 9fb6 6da4 e33d
000000d0: 6990 21bf 50f0 bf3e 33b0 32bf 121d 1a8b
000000e0: ed0e 723f bcb2 20be 4014 023e 99a3 5a3e
000000f0: 57ae 463e c33c 61be 6567 403f 1f89 4f3f
-0.0010218578 1.0168005 0.6478235 -0.101854354 -0.58570147 -0.7964642 0.3201723 -0.91951793
0.05771426 0.23921157 -0.8343882 0.12525421 -0.6482449 -0.9286619 0.16418098 -0.14484642
0.03981454 1.1215572 -0.8048385 0.25550714 0.8608755 0.540879 -0.16775881 0.19593011
0.8767696 0.23980612 -3.5307627e-21 4.91445e-40 -0.7034196 0.77546823 0.1267835 -1.1384356
-0.24110022 -0.014053774 -1.061455 -0.48934326 -0.16651222 0.66455 0.4706493 -0.69441307
-0.3886741 0.67521214 0.36627167 0.58209497 -4.93278e-40 1.1235541 0.343399 0.21617976
-4.1794e-40 0.33280447 -4.7509784e-06 0.11115346 -0.6311098 0.3748803 -0.6980011 -2.968119e-32
0.94554025 -0.15693182 0.12703037 0.2135147 0.19402443 -0.21995835 0.7515777 0.81068605

decoder.2.weight f4 [128, 64]
00000000: 0ca5 c2bb e73d 1d3e 4114 fa3c ff08 e9bc
00000010: b5f1 f5bc a939 0abe 836a aabc bbde 0bbe
00000020: 089a 463e ff21 ea3c 6577 15be f6d0 a23d
00000030: b764 fdbd 0a10 27be 3c0a 8ebd c198 393e
00000040: 0801 ae3d 89ba 123e 6fed d3bd 5f08 e1bc
00000050: 8d80 083e ae4d 9a3d 5830 4c3d cbb7 2f3d
00000060: 3f02 f63d 5209 a3bc 294e 9635 3d5d 0500
00000070: 9a36 f8bd 43fb 3d3e 703f ad3c 4b69 68be
00000080: e33f 3dbd 38ef 00be b543 50be b016 f8bd
00000090: 5927 533c a23a 7c3c ba8a b13d 35cb 87bd
000000a0: f347 e2bc 8bfe c63d 0b22 363b 26ae ae3d
000000b0: 09fa 7326 9609 7f3e 2f9f d13d 1bdc c2bb
000000c0: 6a28 692b 212f 4a3d 684a 863b 5673 2ebd
000000d0: 48f2 f3bd aa5d b13d b6de 3ebd f2b0 6d36
000000e0: 6e76 8c3d ef29 d13c 5c55 263d 546d 9dbd
000000f0: 7fa8 673d 8d21 72bd 410b a63d ad84 113e
00000100: 4650 edb8 4308 ba3d 4179 253c 5b77 cabc
00000110: aa4f 31be b8e8 88bd f97e 1b3d a3e8 c4bd
00000120: ae89 a0bc a496 83bc 8bf0 96bd 29fc 233c
00000130: b2f8 e5bd caed 96bd 6958 223d c318 ba3c
00000140: b5ac 5dbb 3b9a 2e3e 9915 c4bd 0031 ce3c
00000150: f7e6 5a3d 4125 613c 1f6c 333d fd96 893d
00000160: a1f5 ddb9 df0b 113d 05d6 83af 2e62 0500
00000170: 7f01 9cbd 8eab 653d 33ac 493d 6d2e 11be
00000180: 1687 873d 0ea3 48bd 09e7 1bbe fd22 17bd
00000190: 9773 2bbd 085e 84bc 2ed4 e73c 43b6 e1bd
000001a0: c821 3f3c 2635 f53c 559b a03d 2ee8 9ebc
000001b0: 40fa 6f02 8f00 fb3d cd84 9f3d d95c 863c
000001c0: caae 7aa8 e52c 333d 7aa8 b639 341c 08bd
000001d0: 700a cfbd 990e ee3d 29be 39be 4d50 1d2f
000001e0: aef7 b63d 604b 29bc 8613 b53c 1690 30bc
000001f0: da05 903d f3e5 18bc f460 8b3d ba37 7b3d
00000200: 1eb6 a039 1eeb fd3d b1ae 533e 1ea3 e9bb
00000210: db32 55be 2b0e 94bd 5ddc 32bd c409 f7bd
00000220: eade 74be 3606 643e 3b5d 34be ea8e 913d
00000230: 7a4d cd3d 147e 763d 6a8a 673e 494a 6ebe
00000240: 9345 1bbd 1b99 373d 2778 dabd 3911 043d
00000250: cc9f 1abc 4007 a13d 2cc7 6c3d b190 943d
00000260: 6016 bc3c 5bc8 07bd 0e58 d221 be57 0500
00000270: 94dd 0fbe b8fa 28bd 64dc 803d 141f 54be
00000280: 4697 cc3d 4036 ca3d 5bf4 7bbe 40ca 3fbe
00000290: f1ad c1bd d5fe 063d ebc1 413e 8741 05be
000002a0: 1305 3d3a 9092 dd3d 9ba9 973d 0e8f 2c3e
000002b0: 035f 0580 c872 223e e505 b2bd b86c 8dbd
000002c0: b901 0b31 bdb2 e83d 04c7 0337 8f09 003e
000002d0: db35 8ebd a36e b3bd c16a e2bd 2381 298e
000002e0: 0519 3a3e 3376 11bd 8526 4ebe 979c 3f3e
000002f0: f1dd 0b3e 60fa 3ebd f08f 16bd c95d 96bd
00000300: 7570 0580 605e 0580 7c49 8a90 ebc8 94a4
00000310: ecfd b6a9 02ce a9a6 0e2d d3a9 df5d 94a3
00000320: a45b 0500 6017 1c93 9179 1ea3 6b34 9caa
00000330: 9a6f 0600 4137 a0ae b064 0500 64e9 b892
00000340: e476 99a1 1ac1 3ba3 61a0 a890 8cae 38ae
00000350: 9adb 84a9 63f8 fbad 9c5f 4ba1 0868 95a1
00000360: a666 8aa1 ea6e 73ae 575f 0580 6a85 0600
00000370: ea71 9a9d 0efc 0495 99b7 779c 6381 d580
00000380: 207f e3a9 9f60 0580 ca34 8ca3 ba53 86b3
00000390: 033f 3cab ea66 d99a fa1d 0f9a 68e0 7c9c
000003a0: 4366 6ba0 52c2 e0a9 c972 fdac 53ac a7a7
000003b0: 8576 0500 6504 f7a1 d39b 8fab 85b8 91a9
000003c0: a981 0500 a284 07a9 7f93 0500 1e45 6fa9
000003d0: 7792 b4a4 716f 9da6 9952 5395 ae89 0600
000003e0: e901 a49b bb85 7f9b df1f 14ad f589 24af
000003f0: 44d1 29a6 9aad 1caf 98b8 6caa d6c6 40aa
-0.0059400853 0.15355645 0.030527236 -0.028446672 -0.030022481 -0.13498558 -0.020802742 -0.13659184
0.19394696 0.028580664 -0.14596327 0.079500124 -0.123727255 -0.16314712 -0.06935546 0.18124677
0.084962904 0.1432897 -0.10348021 -0.027469812 0.13330288 0.075343475 0.04985079 0.042899888
0.12012147 -0.019901905 1.1198618e-06 4.92625e-40 -0.121197894 0.1855288 0.021148413 -0.22696416
-0.046203505 -0.12591255 -0.20338328 -0.12113702 0.012887799 0.0153948385 0.08669038 -0.066305555
-0.027622199 0.09716519 0.0027791287 0.0852931 8.464642e-16 0.24906 0.1023544 -0.005946649
8.2834314e-13 0.049361352 0.0040982254 -0.04259046 -0.11911446 0.08660443 -0.046599112 3.5418748e-06
0.06858526 0.02553269 0.04060875 -0.07686868 0.056557175 -0.059114028 0.08107615 0.14210768
-0.00011315993 0.09083607 0.01009971 -0.024715116 -0.17315546 -0.066850126 0.037962887 -0.096146844
-0.0195969 -0.016063042 -0.07370099 0.01000885 -0.112290755 -0.073695734 0.039635096 0.022716885
-0.0033824865 0.17051022 -0.09574432 0.02516985 0.05344292 0.013741792 0.043804284 0.06718252
-0.00042335413 0.03541171 -2.398083e-10 4.94398e-40 -0.07617473 0.05607181 0.049236488 -0.14177866
0.066175625 -0.048983626 -0.15224852 -0.0368986 -0.041858282 -0.016158119 0.028299417 -0.11021092
0.011665769 0.02993257 0.07842127 -0.019397821 1.7630765e-37 0.12255966 0.077890016 0.016401695
-1.3915689e-14 0.043743987 0.0003483927 -0.03323002 -0.10109413 0.11623878 -0.18138947 1.4307595e-10
0.0893396 -0.010332912 0.022104036 -0.01077654 0.07032366 -0.009332168 0.06805602 0.061332442
0.00030653266 0.12398361 0.20672108 -0.007130041 -0.20820181 -0.07229265 -0.043667186 -0.120624095
-0.2391316 0.22267994 -0.1761369 0.07107337 0.10024543 0.06017883 0.22611395 -0.23270525
-0.037908148 0.044823747 -0.106674485 0.032242987 -0.009437513 0.07862711 0.057807133 0.0725416
0.022959888 -0.03315006 1.4253461e-18 4.90653e-40 -0.14049369 -0.04125473 0.06292036 -0.2071498
0.099897906 0.098736286 -0.24604933 -0.18729496 -0.09457005 0.03295787 0.1892163 -0.13013278
0.0007210534 0.1081897 0.074053966 0.16851446 -4.93261e-40 0.15864098 -0.086925305 -0.06905502
2.0228141e-09 0.113622166 7.854545e-06 0.12503646 -0.06943866 -0.08761337 -0.11055518 -2.0893035e-30
0.18173607 -0.035513114 -0.20131882 0.18712078 0.13658883 -0.046625495 -0.036758363 -0.07342107
-4.9952e-40 -4.93033e-40 -5.4544623e-29 -6.452514e-17 -8.126472e-14 -1.1782569e-15 -9.378098e-14 -1.6085948e-17
4.92052e-40 -1.9701493e-27 -8.59094e-18 -2.774754e-13 5.91048e-40 -7.285773e-11 4.95297e-40 -1.1669568e-27
-1.0399153e-18 -1.0178181e-17 -6.651142e-29 -4.1991785e-11 -5.9000724e-14 -2.8645702e-11 -6.8905613e-19 -1.012417e-18
-9.378415e-19 -5.5350315e-11 -4.93379e-40 5.98873e-40 -4.0881245e-21 -2.6856024e-26 -8.196274e-22 -1.9607376e-38
-1.0102878e-13 -4.93839e-40 -1.5201187e-17 -6.255091e-08 -6.6878463e-13 -8.991536e-23 -2.9595922e-23 -8.3669844e-22
-1.993911e-19 -9.9813075e-14 -7.203436e-12 -4.6538646e-15 5.01694e-40 -1.6738534e-18 -1.0204011e-12 -6.4713026e-14
5.05691e-40 -3.0091062e-14 5.12089e-40 -5.312861e-14 -7.831068e-17 -1.092427e-15 -4.267627e-26 6.00403e-40
-2.7132759e-22 -2.1136316e-22 -8.419903e-12 -1.4964725e-10 -5.891726e-16 -1.4249793e-10 -2.1025055e-13 -1.7122011e-13

decoder.2.bias f4 [128]
00000000: 6a02 9d3e 6bbe 283e 1015 1f3e ab5c 0500
00000010: ad72 07bc 4b32 0600 5f6c 023e 6164 0500
00000020: afeb 12bd f8a0 903d 5d33 ee3b 2b5f 0500
00000030: c53f 1b3c 2a78 a53b 6d38 b03d ac6b 2903
00000040: 0673 9f3e 9188 833e 126f 433e 81a2 363d
00000050: 2f73 833e 0f18 3f3d 7788 c2bd 136b 8b3d
00000060: 3b12 fcbe de3f 33be 13f9 933e 1785 18b7
00000070: 4cdd cdbc feae 10bd 7e66 c63e 2e68 e0bd
00000080: e345 9dbd 5b63 ae3e d781 b7bd 665f 0500
00000090: 9d7c 87bb 8c58 0500 20bd 08bf 66fa 99be
000000a0: c881 163d eeac a6bc f7c5 ef3d 0e63 0580
000000b0: ca62 923d e641 c03d c80a 1f3e 4f82 6b3e
000000c0: 1c5c 0580 fd02 2299 d059 0580 89e7 b93d
000000d0: a85d 0500 cb5c 0500 9362 0500 c7f6 a03c
000000e0: 66cb 5c3d 9863 833c dda4 17bd 8b38 393c
000000f0: 27ca 0d3e df4e 9f3d 29bc e13c 6a30 6e3d
00000100: f062 0500 37be 913d b6e7 c7be f495 a03d
00000110: 2563 0580 9bdf 82bd 4720 0c10 6659 423d
00000120: e1f2 7c3b c260 0580 42b8 9e3e f76c 513e
00000130: 01b9 ac3c bd60 0500 eafd f43d 25e5 19bd
00000140: 4df5 9f3d 05e9 a1be e142 0a3e 4b08 29be
00000150: a7f4 533e dac2 5a3b 9659 023e 406a 613e
00000160: edf1 8f3d 6cf0 563b 9b78 31bf cb4a eb3c
00000170: 1db0 c63e 94bc 6b3d 8e7c 34be 954a 483d
00000180: 3045 ee3d 9665 f43d d638 863d 737b 8f3d
00000190: 3292 81bd 870a b4bc 7a65 0580 cd52 0680
000001a0: 3735 9dbd 6eb2 8d3d 5464 0580 6e63 0500
000001b0: 56ec 92bd 9cf8 03bf d776 7d3d 831e 0abd
000001c0: 2c6f 8cbc 17b1 933e 19e3 223e 565c 0500
000001d0: 01ae 30be a3a5 96bd 3bcc 683d 4127 25be
000001e0: e659 0580 9f3d 85bd 22c6 113d c2fb 2dbd
000001f0: 689c 6481 bc6a 2c3d 1a03 5306 7057 0580
0.30665904 0.16478889 0.15535378 4.9242e-40 -0.008267087 5.69055e-40 0.12736653 4.95187e-40
-0.035869297 0.07061952 0.0072693066 4.93317e-40 0.009475653 0.005049725 0.08604512 4.9788238e-37
0.31142443 0.2569013 0.19085339 0.04458857 0.25673816 0.046653803 -0.09498685 0.06807532
-0.4923266 -0.17504832 0.28900966 -9.090893e-06 -0.025129937 -0.035323136 0.3875007 -0.10957371
-0.076793455 0.34060177 -0.08960312 4.934e-40 -0.004134728 4.90942e-40 -0.5341358 -0.3007385
0.036744863 -0.020346131 0.11707681 -4.94712e-40 0.07147749 0.09387569 0.15531456 0.22998928
-4.9222e-40 -8.375807e-24 -4.91396e-40 0.09077365 4.92775e-40 4.92465e-40 4.94539e-40 0.019648923
0.053904913 0.016038701 -0.03702246 0.011304985 0.13846646 0.07778715 0.027555542 0.05815164
4.9467e-40 0.07116359 -0.3904397 0.07841101 -4.94744e-40 -0.063903056 2.7634997e-29 0.04744854
0.0038596916 -4.93888e-40 0.30999953 0.20451723 0.02108431 4.9388e-40 0.11962493 -0.037572045
0.07810459 -0.31623092 0.13502075 -0.1650707 0.20698796 0.00333803 0.12729487 0.22013187
0.070285656 0.0032797111 -0.69324654 0.028722188 0.3880624 0.05755289 -0.17625639 0.048899252
0.1163429 0.119334385 0.06553809 0.07005968 -0.06326713 -0.021977676 -4.9558e-40 -5.80716e-40
-0.076761656 0.069187984 -4.95168e-40 4.94846e-40 -0.07173984 -0.5155122 0.061880913 -0.033720504
-0.017142855 0.28846046 0.15906943 4.92301e-40 -0.17253877 -0.073558114 0.056835394 -0.16128255
-4.91427e-40 -0.06505894 0.035589345 -0.042476423 -4.1989202e-38 0.042093977 3.9686968e-35 -4.90544e-40

decoder.4.weight f4 [784, 128]
00000000: 19d9 80bc 7f59 18bc a27f 72bc 5ac1 0600
00000010: 62d8 ccbc 2d8e 0680 1c10 babb 1fc9 0680
00000020: 6caf d2bc 70d6 a8bc b312 ebbc 1ebd 0680
00000030: 1b98 4dbb b659 61bb d41d 27bd 6de2 0580
00000040: c66a 06bd 7ee7 59bc 79e4 6abd 73ef 32bc
00000050: 2257 58bc 941f 4bbb 53e8 05bb ef9a 20bd
00000060: 2cd7 47bc bf4a 04bb 1c54 5ebc 744e b621
00000070: d03d c7bc 5679 31bb e9a7 96bc a15e 8fbb
00000080: 115c 1fbc 238b 8ebc 50e0 9bbc f34e 0600
00000090: d60e 48bc c2eb 0500 54a1 febb 72f0 39bc
000000a0: eb7d 41bb c404 89bb b94b 9cbc 80cf 0580
000000b0: 503f 4bba aff8 13bc 852f 97bb 5c56 6fbc
000000c0: cc98 0500 7595 0500 16c1 0680 7184 babc
000000d0: e7f6 0500 0d8d 0580 a361 0500 900e 1ebb
000000e0: bc33 00bc cbc7 15bd dff7 97bc 8f16 c4bc
000000f0: c627 c9bc d9ac 04bd 297c b6bc b362 50bb
00000100: dcca 0500 3072 92bb f345 0cba ffcf 83bc
00000110: 8416 0600 312d e4bb 2b20 0680 022e 77bb
00000120: 7187 27bc a10b 0600 7184 c6bc 62f3 94bc
00000130: ad51 0abc 5dc7 0500 1765 67bb 5d5d 2cbd
00000140: c387 d2bc a92d c6ba a89f b9bc 85b7 11bc
00000150: 40f5 3fbc 3262 61bb 1954 7fbc 7ff3 40bc
00000160: a8fd 36bc 5cf3 7fbc 5690 ceb9 ecb8 98bc
00000170: 406b 96bc a00c 7dbc 6f98 acbb 79bd b1bc
00000180: 2870 eabb 17f3 efbb 4f0a 95ba 46c2 27bc
00000190: 9e16 e9bb 2f59 0abc f0d1 0580 77e1 0580
000001a0: 7d5d a5bb 0478 1cbd dabe 0500 4f8d 0580
000001b0: f508 37bc 5ff9 38bc f695 09bc c7db de39
000001c0: d9c3 7fbc e1a0 42bc 5027 a9bc e1f2 0500
000001d0: 9ed4 5dbc e1c7 75bb 780f 8fbc a349 11bc
000001e0: 6dc5 0680 1c01 4dbc 4b22 53bc 0e05 caba
000001f0: 31aa 0580 3b29 08bc daae 0580 fde6 0500
00000200: 45be 80bc 8aec 17bc e268 72bc 85ae 0580
00000210: 01ba ccbc 7c73 0500 b25a babb 481e 0680
00000220: 1790 d2bc bf3a a8bc 9202 ebbc 0bd5 0500
00000230: abc0 4fbb 0b3a 61bb 440d 27bd acfa 0580
00000240: 9661 06bd 47b0 59bc 7cdb 6abd c8d6 32bc
00000250: c474 58bc 4c03 4bbb 83dd 04bb 2187 20bd
00000260: 76a4 47bc f58a 03bb 1618 5ebc e29b b721
00000270: 0e1d c7bc 9460 31bb ce84 96bc 1831 8fbb
00000280: 7435 1fbc c875 8ebc 819b 9bbc 2d88 0500
00000290: 58d7 47bc a3d4 0500 6a05 febb 56d2 39bc
000002a0: b12f 3dbb c492 89bb 573b 9cbc ec28 0680
000002b0: ab02 5aba 408e 13bc 0618 97bb 3f44 6fbc
000002c0: ca58 0580 f76c 0500 2eb3 0500 694f babc
000002d0: 8709 0600 65c6 0600 1464 0680 64a7 19bb
000002e0: a122 00bc 97ba 15bd 44f2 97bc 0e02 c4bc
000002f0: 8c05 c9bc 8997 04bd 176d b6bc 692e 50bb
00000300: ca5d 0580 dfb7 94bb 039a 0bba a6b4 83bc
00000310: acef 0580 6924 e3bb 2cfd 0580 47b8 73bb
00000320: 2c9d 27bc 52ed 0500 ac88 c6bc 63e2 94bc
00000330: 612b 0abc 6e5d 0500 9e2a 6abb 3a56 2cbd
00000340: 507b d2bc 450f c5ba ec90 b9bc df90 11bc
00000350: 36f7 3fbc c93f 61bb 2dd7 7ebc ce58 40bc
00000360: eae4 36bc cff0 7fbc a590 cdb9 d3a3 98bc
00000370: d648 96bc 8aea 7cbc 56f9 abbb a9a8 b1bc
00000380: fabb e9bb 4a54 efbb 7baa 98ba 0cb2 27bc
00000390: 83e8 e8bb f15a 0abc 9e9f 0500 7403 0680
000003a0: 8da2 a4bb 9166 1cbd bd02 0680 bce0 0500
000003b0: c7ff 36bc 61de 38bc ae56 09bc 2d5e e439
000003c0: a9c8 7fbc 123e 42bc 5714 a9bc d889 0500
000003d0: 5fb2 5dbc 11ae 74bb 53ef 8ebc 95cc 10bc
000003e0: 6cb1 0500 9f17 4dbc 7502 53bc c02d ccba
000003f0: b4b9 0580 dc25 08bc e8bd 0580 0b14 0600
-0.01572852 -0.009298681 -0.014800938 6.20374e-40 -0.025005523 -6.02016e-40 -0.00567819 -6.23162e-40
-0.025718413 -0.020610064 -0.02869544 -6.18855e-40 -0.003137118 -0.0034385747 -0.04079993 -5.40404e-40
-0.03281667 -0.013299821 -0.057346795 -0.010921347 -0.013204368 -0.0030994164 -0.0020432665 -0.039210256
-0.012197297 -0.0020186154 -0.013569858 1.2353566e-18 -0.024321467 -0.0027080378 -0.018390613 -0.0043752943
-0.00972654 -0.01740033 -0.019027859 5.79335e-40 -0.012210568 5.43751e-40 -0.0077706967 -0.011348831
-0.0029524516 -0.0041814763 -0.019079076 -5.33614e-40 -0.000775327 -0.009031459 -0.004613819 -0.014607992
5.1399e-40 5.12793e-40 -6.20279e-40 -0.022768231 5.4775e-40 -5.09777e-40 4.94203e-40 -0.0024117567
-0.007824834 -0.03656749 -0.018550811 -0.023936538 -0.024555098 -0.032391403 -0.022276001 -0.003179711
5.3195e-40 -0.0044691786 -0.00053509994 -0.016090391 5.5909e-40 -0.006963395 -5.62553e-40 -0.0037716632
-0.010225163 5.55185e-40 -0.024233075 -0.01818246 -0.008442325 5.30696e-40 -0.0035308057 -0.042081226
-0.025699502 -0.0015119809 -0.022659138 -0.008893852 -0.011716187 -0.0034390804 -0.015584015 -0.011776804
-0.011168875 -0.015621986 -0.0003939892 -0.018642865 -0.018361688 -0.015444905 -0.005267195 -0.021696793
-0.0071544833 -0.0073226797 -0.001137087 -0.0102391895 -0.007113292 -0.008444115 -5.34489e-40 -5.40059e-40
-0.005046545 -0.038200393 5.27642e-40 -5.0987e-40 -0.011171569 -0.011289923 -0.00839757 0.00042506887
-0.015610659 -0.011879177 -0.020648628 5.46306e-40 -0.013539461 -0.003750317 -0.01746343 -0.008867654
-6.21836e-40 -0.0125124715 -0.012886594 -0.0015412883 -5.2023e-40 -0.008310611 -5.21902e-40 5.4204e-40
-0.015715728 -0.009272704 -0.014795514 -5.21783e-40 -0.024991037 5.00605e-40 -0.0056870813 -5.61876e-40
-0.025703473 -0.020535825 -0.028687749 5.35603e-40 -0.0031700532 -0.0034366872 -0.040784135 -5.49102e-40
-0.03280791 -0.013286657 -0.057338223 -0.010915466 -0.013211433 -0.0030977307 -0.0020273633 -0.03919137
-0.012185207 -0.0020071839 -0.013555547 1.2441824e-18 -0.024305847 -0.0027065622 -0.018373873 -0.004369866
-0.009717334 -0.017390147 -0.018995048 5.08028e-40 -0.012197338 5.35457e-40 -0.0077521103 -0.011341652
-0.0028867538 -0.004198404 -0.019071264 -5.65693e-40 -0.00083164376 -0.009006083 -0.004611018 -0.0146036735
-4.91029e-40 4.98267e-40 5.23455e-40 -0.022742944 5.54431e-40 6.22184e-40 -5.86914e-40 -0.002344572
-0.007820756 -0.0365549 -0.018548138 -0.023926761 -0.024538778 -0.032371078 -0.022268815 -0.0031765944
-4.92823e-40 -0.0045385207 -0.0005325379 -0.01607735 -5.45156e-40 -0.0069318307 -5.49998e-40 -0.0037188695
-0.010230344 5.44312e-40 -0.024235092 -0.018174356 -0.008433194 4.92694e-40 -0.0035730968 -0.04207442
-0.025693566 -0.0015034458 -0.022652112 -0.008884638 -0.0117166545 -0.0034370294 -0.015554232 -0.011739923
-0.011162976 -0.015621378 -0.00039208416 -0.018632805 -0.018345278 -0.015436778 -0.005248229 -0.021686869
-0.0071330043 -0.007303749 -0.0011647487 -0.010235321 -0.0071077957 -0.008444534 5.16437e-40 -5.52252e-40
-0.0050242604 -0.038183752 -5.51995e-40 5.39797e-40 -0.0111693805 -0.011283488 -0.008382482 0.00043557715
-0.015611806 -0.011855619 -0.020639582 5.08627e-40 -0.0135312965 -0.0037335197 -0.017448103 -0.008837839
5.22824e-40 -0.012517839 -0.012879004 -0.0015577599 -5.25795e-40 -0.008309808 -5.27303e-40 5.58203e-40
