02_Representations/model_weights/autoencoder_cnn.pth (torch, 852870 bytes, 15 tensors)

encoder.0.weight f4 [16, 1, 3, 3]
000000 b9 62 1c be ce e9 3b 3e 49 a9 19 3a 1b b9 f3 3e
       -0.15272035 0.18350908 0.0005861712 0.47602162
000010 bc fd f9 3e 8f 99 0a 3f c4 16 d0 3e 27 b9 0d 3f
       0.48826396 0.5414056 0.4064237 0.55360645
000020 8b 4e e8 3e 41 10 87 3c d9 bc ca 3e aa c3 b2 3e
       0.45372424 0.016487243 0.39597204 0.34914905
000030 b7 a1 1b 3e 01 40 1c 3f 6b e3 21 3f db 85 83 bd
       0.15198408 0.6103516 0.6323764 -0.06422015
000040 b2 d7 f7 3e 10 a0 d9 3e 6a 00 48 be da 93 0d be
       0.4840675 0.4250493 -0.19531408 -0.13825932
000050 c4 70 a7 be 3d f8 94 be d2 0c 93 be b3 ea 6e be
       -0.3270322 -0.2909564 -0.2872072 -0.23331718
000060 5f e0 79 3e 27 c6 c0 3e 6e 32 90 3e 7a da 96 3e
       0.24401997 0.37651178 0.28163475 0.2946356
000070 87 94 7e 3e 43 c1 d7 bd c3 30 fd 3e 37 83 88 3e
       0.24861346 -0.105349086 0.49451265 0.2666261
000080 6e 33 38 be 21 a5 3b 3f 54 84 ee 3e 04 b1 4d 3e
       -0.17988369 0.7329884 0.46585333 0.20087057
000090 a7 d3 ab 3e a0 4b b0 3e ad 7d eb 3e d1 81 48 be
       0.33559915 0.34432697 0.4599432 -0.19580771
0000a0 3c 44 64 be 21 e9 3a bb ef f9 a6 be a5 96 d6 be
       -0.22291654 -0.0028520303 -0.3261256 -0.41911808
0000b0 3d cc 5b be e9 5a 05 00 8c 65 05 80 4c 66 05 80
       -0.2146463 4.9179e-40 -4.95606e-40 -4.95875e-40
0000c0 0d 61 05 80 04 66 05 80 c5 64 05 00 a6 60 05 80
       -4.93993e-40 -4.95774e-40 4.95327e-40 -4.93848e-40
0000d0 8c 5f 05 00 4b 5c 05 00 e9 5b 91 3e e4 c6 6f 3e
       4.93453e-40 4.92286e-40 0.28390434 0.23415715
0000e0 22 ac c9 3e 20 44 5a 3e bb 8a eb 3e 70 fd a6 3e
       0.3938914 0.2131505 0.4600428 0.32615232
0000f0 42 ca c3 3d cf 38 8d 3e f0 60 89 3d a3 a8 ef 3e
       0.09560062 0.27582404 0.067079425 0.46808347
000100 a9 d0 ec 3c da bf da be 6b 0a d8 3e 9f 98 47 be
       0.02890809 -0.42724496 0.42195448 -0.19491814
000110 9b d9 d9 be 19 ce 5e 3e 82 f6 8a be 8d fc 90 be
       -0.42548832 0.21758308 -0.27141196 -0.2831768
000120 73 b6 f6 3e 36 b1 25 3f 9d e9 a9 3e 0f f7 f5 3e
       0.48186073 0.6472353 0.33186045 0.48040053
000130 c9 b8 af 3e 78 08 ab 3e 4b 28 61 3e 7c 6d fa 3d
       0.34320667 0.334049 0.21988027 0.12227914
000140 24 40 31 be f2 5b 58 3e 35 1f c3 be 45 98 7a bd
       -0.17309624 0.21128824 -0.38109747 -0.06118037
000150 83 df 13 3e 89 26 cb be ae 42 4a bd a3 9d a0 3e
       0.14440732 -0.39677837 -0.049379997 0.31370267
000160 0d 93 65 be d7 1b 74 be be 51 8d 3e 0e a5 b7 3e
       -0.22419377 -0.23838745 0.27601427 0.35868114
000170 01 5c 91 3e 6c e8 b1 3e 07 6b 32 3f d4 46 93 3e
       0.28390506 0.34747636 0.6969456 0.28764975
000180 6e 9f b0 3e 9b 92 40 3e e1 38 72 3d 71 48 7e be
       0.34496635 0.18805926 0.059136275 -0.24832322
000190 47 07 aa bd 62 8f 2b be 2d df e9 bd df a5 fa bc
       -0.08302169 -0.16753915 -0.114195205 -0.030596672
0001a0 ac e4 0a be 00 30 ab bd 29 41 8a 3b b2 d8 4a be
       -0.13563794 -0.08358765 0.0042191935 -0.19809225
0001b0 7e 7b 17 be b9 06 f8 bd 4b 0c 6e be 5f 7e e0 bd
       -0.14793202 -0.12110657 -0.23246877 -0.109616034
0001c0 54 22 c9 bc c4 0c e2 bd d6 82 59 be 2c ac 74 bd
       -0.024552502 -0.11037591 -0.21241316 -0.05973451
0001d0 82 c7 37 be 81 f3 21 bd 11 3c 7c 3d 28 98 05 bc
       -0.179472 -0.039538864 0.06158072 -0.008153953
0001e0 88 c4 94 be ec 77 f1 bd 8d c0 6e be da 86 6d be
       -0.2905619 -0.117904514 -0.2331564 -0.23195973
0001f0 da 96 4f bd fa 37 76 be 82 91 39 be c7 9d 0f be
       -0.050680973 -0.24044791 -0.18121913 -0.14025031
000200 11 fa 86 3e 05 32 3a be 90 4b aa be 46 bb 5c 3e
       0.2636266 -0.18183143 -0.33260775 0.21555814
000210 6d 2e a4 bd 0f 3c 77 be c4 ed b8 3e 86 d1 83 be
       -0.080166675 -0.24144004 0.361189 -0.2574579
000220 4a 5b dd bd f1 05 5b be bf 82 f1 bd b0 4f ea bc
       -0.10808428 -0.21388985 -0.11792516 -0.028602451
000230 43 2c ec bd 8b f2 06 be 81 2e 7f bd d5 11 6c be
       -0.1153188 -0.1317846 -0.06230021 -0.23053677

encoder.0.bias f4 [16]
000000 f8 f4 92 3a cc f2 07 3b db b6 60 3e fd 69 1e 3d
       0.0011211922 0.0020744083 0.21944754 0.038675297
000010 ee c9 76 3e 20 84 8c a8 a1 89 41 3e ac f1 7d 3e
       0.24100468 -1.5600422e-14 0.18900158 0.24799222
000020 2b aa eb 3a 04 9d a5 3e e9 fe 25 3a b6 81 a2 3e
       0.0017979791 0.32346356 0.0006332235 0.31739587
000030 be 28 9a 3e e4 92 dd 3e 37 e3 96 3e dd fb b6 3e
       0.3010921 0.4327613 0.29470226 0.3573903

encoder.2.weight f4 [32, 16, 3, 3]
000000 94 1e 9a bc 8d 73 13 be 67 7d c0 3d cc cc 45 bd
       -0.018813409 -0.14399548 0.093989186 -0.048291013
000010 4e 76 11 be 47 75 bb 3d c8 c1 1a be 7e bc 34 3d
       -0.14205286 0.09153228 -0.15112984 0.044125073
000020 29 fb 9c 3c 30 8a 90 bd 6b 58 75 be c8 ed 73 3e
       0.019162731 -0.07057607 -0.2395951 0.23821175
000030 08 74 e1 bc f6 13 27 be e1 d8 5c 3e bc 72 cd bd
       -0.027521148 -0.16316208 0.21567108 -0.100316495
000040 73 ff bc 3c 52 23 57 3d 6c 45 59 3d ac 46 cf 3c
       0.023071026 0.05252392 0.05304472 0.025302254
000050 62 d5 a1 bd b6 06 e4 bb 8d 42 dd bc b2 85 2b be
       -0.07902028 -0.006958808 -0.027009273 -0.1675022
000060 d6 d8 a7 bc 17 0e ca 3b 36 4c 9c bd db 17 8b bd
       -0.020489138 0.0061662304 -0.076317236 -0.067916594
000070 6d 65 8b bd 2e 9d eb bd cd 7b f1 bc f4 68 c8 bd
       -0.06806455 -0.11504589 -0.029477978 -0.09785643
000080 e5 2f 5c bd 39 c5 22 be 32 86 0e bc ee dc 9d 3d
       -0.053756613 -0.15895547 -0.008698987 0.077081546
000090 08 a4 82 bd de 8f 6a bd ba 5f 8e bb 07 4f fc 3b
       -0.06378943 -0.05726611 -0.0043449076 0.0076998505
0000a0 37 51 83 bc f3 ed bc bd fa 70 d1 3a 4c a2 1d be
       -0.016029937 -0.09225073 0.0015979104 -0.15393943
0000b0 df df 20 be 86 94 05 00 af 7f 05 80 15 34 06 80
       -0.157104 5.12458e-40 -5.04982e-40 -5.69696e-40
0000c0 8c 6f 05 00 6e 9f 05 80 52 30 06 80 3c a6 05 00
       4.99193e-40 -5.1637e-40 -5.68347e-40 5.18811e-40
0000d0 fc 5e 05 80 50 a1 05 00 73 2c a3 bd 51 77 27 be
       -4.93251e-40 5.17046e-40 -0.079674624 -0.1635411
0000e0 e2 cd ab 3d ed 4b 3b bd 09 8a 99 bd 1a 9a 02 3e
       0.083888784 -0.045726705 -0.07497031 0.12754098
0000f0 51 da 97 bd 51 ca 27 3d 02 1f 5f 3d 5a 19 4f bd
       -0.074146874 0.04096443 0.05447293 -0.050561287
000100 4b 3c 48 3d 7d f7 2e 3c bf 47 fc 3b 05 ad 36 3d
       0.048885625 0.010679123 0.0076989825 0.044598598
000110 e0 1b ac 3d b7 5b a6 3c 5f ce 47 3a 10 42 75 3e
       0.08403754 0.020307405 0.0007621999 0.23950982
000120 6d 01 2a be a9 27 5a be c0 2d d4 bc e2 1f b0 bc
       -0.16602106 -0.21304192 -0.025900722 -0.021499578
000130 a9 ba e6 bd b2 88 d2 3d 81 90 da bd 5c 7f 8b bd
       -0.11266071 0.10279979 -0.10672093 -0.06811401
000140 12 b1 9e 3d 6f 94 52 3c e9 64 37 3d 08 60 e5 bc
       0.07748617 0.012852772 0.04477397 -0.027999893
000150 3a 3f 0f bb 48 66 e6 3c f5 6f d5 bc 48 3f 23 bb
       -0.0021857754 0.028124943 -0.026054362 -0.0024909545
000160 00 da ae bc 77 26 7f 3d d5 19 db bd 83 5e 44 be
       -0.021344185 0.062292542 -0.106982864 -0.19176678
000170 17 52 b4 3c 05 4d 17 bd 57 b9 0e be e7 46 c9 3d
       0.0220118 -0.036938686 -0.13937889 0.09827977
000180 44 2f 04 be 85 06 b3 bc 70 03 49 3d 18 cd 75 3d
       -0.12908655 -0.021853695 0.049075544 0.060010046
000190 10 03 26 3d 2c fd 82 bd 91 a0 2d 3c b5 a3 6b 3c
       0.040530264 -0.06395945 0.010597364 0.0143822925
0001a0 61 9c 9f bd 20 4b 6d 3c ec 5b cf bb e5 26 88 bd
       -0.07793499 0.014483243 -0.0063280966 -0.066480435
0001b0 fa 82 43 3d 95 4e 1c 3d 03 6c 42 bd 4e d5 a6 3a
       0.04773233 0.03816088 -0.04746629 0.0012728365
0001c0 1c bc c8 3c 3d 46 3f bd 11 ee d5 3c 6f 5d 94 3b
       0.02450376 -0.046697844 0.026114495 0.0045277397
0001d0 85 ca 5e bd 4a 08 ad 3c c0 40 1d 3d cb f1 c3 bd
       -0.054392356 0.021122117 0.03839183 -0.09567603
0001e0 8e 01 a8 3c 1e 9b d4 3c 54 3b ce bd e7 a6 c1 3c
       0.020508554 0.025952872 -0.1006991 0.023639156
0001f0 15 4c 17 bd 89 63 af bd 4f f2 04 3d 39 dd a8 3c
       -0.03693779 -0.08563907 0.032457646 0.0206133
000200 37 84 46 3e 8e 0d 2a 3c b7 cd 1d 3d 54 66 fc 3d
       0.19386373 0.010379208 0.038526263 0.12324205
000210 0a dc 28 3d 58 a7 e4 3c 1f 98 b8 3c 72 d6 75 3d
       0.04122547 0.027911827 0.022533474 0.060018964
000220 ef 68 3d 3d 38 e7 6a bd 0f 4e b5 3b 9a 15 d7 3c
       0.04624265 -0.057349414 0.005532987 0.026255418
000230 eb fe 86 bd 84 d0 aa 3c 39 67 3c b8 66 c2 89 bd
       -0.065915905 0.020851381 -4.4918826e-05 -0.06726532
000240 e9 9e 7f bd 99 c6 d6 bc 23 17 ad ba 1b e6 9a 3d
       -0.062407408 -0.026217746 -0.0013205748 0.075634204
000250 3c 34 49 3d 6c 7b 01 3d db 90 47 bc 97 de 16 bd
       0.04912208 0.031611845 -0.012180532 -0.036833372
000260 6d eb 2a 3b 0e 43 7b bd 89 8f 9d bc ef e8 11 3c
       0.0026080266 -0.061343245 -0.019233482 0.008905633
000270 9d a1 5d 3d 2a a1 e8 3c 6c f5 48 3d b7 a6 61 bc
       0.054109205 0.028397162 0.049062178 -0.013772658
000280 0c 44 ab bb ce 3d f2 bb 46 90 35 bb 89 62 ca 3c
       -0.0052266177 -0.0073926216 -0.0027704402 0.024705188
000290 07 aa cd bc 12 d1 2d 3d 89 c3 30 3c 7e 35 e8 3b
       -0.02510549 0.042435713 0.010788807 0.007086455
0002a0 27 13 1b 3c f9 43 d1 3c 29 2a ea bc 1b a3 90 bc
       0.0094650155 0.025545107 -0.028584557 -0.0176559
0002b0 70 02 17 bd 01 d4 ef bc 0f a1 d6 3c 50 fe 84 bb
       -0.03686756 -0.029275896 0.026199846 -0.0040586367
0002c0 df 37 91 3c 12 f8 1d bd b5 c9 7f bd a5 bf 27 bc
       0.017726837 -0.038566656 -0.062448222 -0.010238563
0002d0 d6 c1 14 3d 04 97 89 3c 5b 80 58 bd 31 a6 d0 3c
       0.03631767 0.016795643 -0.052856784 0.025469871
0002e0 d4 97 91 3d 56 e1 0b bd 00 7e 8a 3d fe 3e b6 3c
       0.07109037 -0.034150444 0.06762314 0.022246834
0002f0 c5 50 3a 3d a6 7b 05 80 68 8e 05 80 72 7e 05 00
       0.045487184 -5.03534e-40 -5.10263e-40 5.04538e-40
000300 5d 86 05 00 b3 65 05 80 96 59 05 00 17 65 05 80
       5.07378e-40 -4.9566e-40 4.91315e-40 -4.95442e-40
000310 50 72 05 00 c3 6c 05 80 f2 45 8a bd 23 47 a1 3b
       5.00185e-40 -4.98194e-40 -0.06751622 0.0049218102
000320 99 34 5b 3d 99 b4 42 3c 2a 8e 71 3c 02 e0 fc 3c
       0.053516958 0.011883878 0.014743367 0.030868534
000330 d2 27 40 3b 96 1e 8c bc bc fa cd 3c ec 09 48 3d
       0.002932061 -0.017104428 0.025143974 0.048837587
000340 32 fd 52 bd fe fc 43 bc d9 e8 93 bd 0b 55 61 bd
       -0.051510997 -0.0119621735 -0.072221465 -0.055012744
000350 af b6 a1 bd ba ea d9 bc d2 59 76 bd 82 67 17 be
       -0.07896172 -0.026601184 -0.060144253 -0.14785579
000360 82 8e 95 bd 1f 85 98 bd 64 05 25 bc 8e 13 8d 3c
       -0.07302572 -0.07447266 -0.010072086 0.017221238
000370 d8 00 93 3c bc 5f c3 3b a3 bb 4f bb e3 1f 3a bc
       0.017944738 0.00596234 -0.0031697534 -0.011360141
000380 b2 a6 49 3c b1 c8 23 3d 56 fe 1b bc 16 e8 a0 bc
       0.01230781 0.039986316 -0.009521088 -0.019641917
000390 ad 8a 7a bd d1 a4 23 bd 70 53 5c bd 3c 1e c0 bc
       -0.061167408 -0.039952103 -0.05379051 -0.023451917
0003a0 0c cb ae bc 2b 6e 4c bd 13 3f 66 bd 6a 46 ee bc
       -0.021337055 -0.04990975 -0.056212496 -0.02908631
0003b0 57 df d8 3b 13 64 53 3d 20 fc 39 3d d9 b3 f8 3c
       0.006618421 0.05160911 0.04540646 0.030359196
0003c0 44 20 a4 3a 1e be d8 bc fb 98 2b 3d d3 e9 12 3c
       0.0012521823 -0.026457842 0.04189394 0.008966881
0003d0 c0 b5 90 3c 45 87 2c 3c 97 88 13 bd 37 62 b9 bc
       0.01766479 0.010530298 -0.036018934 -0.02262984
0003e0 f1 08 d0 b9 1e e3 ad 3c 7e e7 56 3d 22 77 1f 3c
       -0.00039679513 0.021226462 0.052466862 0.009732993
0003f0 3d cc a8 3b 53 8a a1 3c cd dc d2 3c ff a3 25 bd
       0.0051513 0.019719278 0.025740052 -0.040439602

encoder.2.bias f4 [32]
000000 d9 38 05 3d 82 7a 7e bc b0 c0 5d bd c6 de 06 bd
       0.032524917 -0.015532138 -0.05413884 -0.032927297
000010 bb 2c b3 3c bf a3 10 3d f2 63 d5 bb 45 48 6b 3d
       0.021871915 0.03531241 -0.0065121586 0.05744197
000020 20 09 b4 3c b4 74 93 bc b3 cb 52 bc dc d4 b1 bc
       0.021977007 -0.017999984 -0.0128659485 -0.021707945
000030 99 76 2b 3d 81 08 26 bc 7d 19 dd b9 14 3b cc bc
       0.04186115 -0.010133863 -0.00042171395 -0.024930514
000040 bf 66 63 bd 25 16 fc 3d d4 4a 8f bc 2d f5 b9 bc
       -0.05551791 0.12308911 -0.017491736 -0.022699917
000050 5f b6 9a ba 42 23 27 3d cc ab b2 bc 38 79 14 bd
       -0.0011803618 0.04080511 -0.021810435 -0.036248416
000060 9f a6 fc bb 3e 24 1c bc 52 41 90 bd 45 60 ac 3c
       -0.0077102925 -0.009530125 -0.07043709 0.021041999
000070 bb 71 a2 bc 9c cc 24 b9 59 cf 05 bd f3 4d 1f 3c
       -0.019829622 -0.00015716482 -0.032668445 0.009723174

encoder.4.weight f4 [64, 32, 7, 7]
000000 84 60 05 00 e7 32 93 bb a5 d4 7d 3b 62 72 df 3b
       4.93801e-40 -0.004492152 0.0038731482 0.0068190554
000010 64 41 f9 3b fa c7 cb bb a1 95 f5 2f a6 5a 1f 3a
       0.007606672 -0.0062189074 4.4671558e-10 0.00060788763
000020 60 5c 6d 3c aa ad 9c 3c c7 5a f1 3a 8b 42 4c bc
       0.014487356 0.019125778 0.0018413895 -0.012467037
000030 fd 41 5a bc a0 47 4d 3c a4 0a 0d 3c cb 00 ce 3b
       -0.013321397 0.012529284 0.008608494 0.0062867156
000040 49 70 89 3c af b5 7f bc f7 83 de bc 74 05 68 bb
       0.016777175 -0.015607282 -0.027162535 -0.003540364
000050 a7 7a 01 bc c3 87 a7 3b a2 e6 ed 3c 44 bb 6d 3c
       -0.007902778 0.0051126196 0.029040638 0.01450998
000060 1d dc fe bc 1a b2 fd 3b 95 ef a0 3c 1c 10 91 ba
       -0.031110818 0.0077421786 0.019645492 -0.0011067423
000070 03 c5 03 3a 28 ec e4 3c 11 69 bc bc 86 74 e5 bc
       0.00050266105 0.02794464 -0.022999318 -0.028009664
000080 ec 75 f5 3c f9 8e bb 3d f3 5a 82 37 d6 5d 80 3b
       0.029963456 0.09158129 1.553956e-05 0.003917436
000090 41 b9 43 3c 58 31 e1 bc f9 cf f3 3c 3f 52 3e 3d
       0.011946023 -0.02748935 0.029762255 0.046465155
0000a0 f8 0d ca bc 45 b6 07 bb f3 bc 8f 3b 53 e2 2e bb
       -0.024664864 -0.0020708006 0.004386538 -0.0026685193
0000b0 d0 68 a1 ba 1e e4 c9 3c 79 c8 52 3c a0 97 f4 3b
       -0.0012314562 0.024644908 0.012865179 0.007464364
0000c0 c7 11 68 b9 60 9b 05 80 1f c1 47 1e e6 2f 08 b9
       -0.00022131867 -5.14916e-40 1.0574909e-20 -0.00012987814
0000d0 80 eb e7 39 f7 03 29 2f b3 29 9e 99 e9 57 05 80
       0.00044235215 1.5371869e-10 -1.635366e-23 -4.90714e-40
0000e0 17 6c 00 b8 77 fc c7 3a 16 29 83 ba 45 45 bc 3a
       -3.0618245e-05 0.0015257736 -0.0010006751 0.0014363906
0000f0 a1 84 0b 3c 3e 6c a3 bb 1c 3c 2e bb 5b 79 2a bb
       0.008515508 -0.0049872687 -0.002658612 -0.0026012275
000100 3d 95 af 3b 37 80 1d 3c d5 fc 05 3c 5a 46 b3 3c
       0.0053583668 0.009613088 0.008177956 0.021884132
000110 c6 15 79 3c 0f 34 80 bc eb 78 a9 bb 47 7e 8b 3a
       0.015202945 -0.015649823 -0.0051718852 0.0010642492
000120 fe 7c 35 3c 2b d5 c2 bb be aa 4a bd c7 88 ca 3a
       0.011077164 -0.0059458218 -0.04947924 0.001545214
000130 8a 05 1e bc 0b 5b 2b 3b 11 28 a8 b9 0e 07 fb 3b
       -0.009644875 0.0026146795 -0.0003207331 0.007660753
000140 3d 8b 05 3c 5c 8e 8e 3b 78 9f ea 3a cc 6d 71 bb
       0.008150873 0.0043504667 0.0017900309 -0.0036839126
000150 3f dc 31 39 67 ee dc 3a 6b 2e 84 39 df 59 4c bb
       0.00016962083 0.0016855717 0.00025211586 -0.0031181497
000160 d2 1a 8d bc 60 5e 24 bc b5 c9 95 bc 7b c9 67 39
       -0.017224703 -0.010032266 -0.018284658 0.00022104934
000170 5c 8f ec 3b c5 1c 4f bc 55 e6 20 bb 34 48 c8 3c
       0.007219238 -0.012641137 -0.002455135 0.024448492
000180 ce e1 c7 bb 76 4a a9 3a 3e bf 36 a1 b3 58 05 00
       -0.006099916 0.0012915868 -6.1917105e-19 4.90997e-40
000190 d9 62 05 80 aa fe e1 ba 3a e7 7d 3a 51 ac fa b9
       -4.94637e-40 -0.0017242034 0.00096856395 -0.00047812102
0001a0 25 cf f4 38 69 d8 8b a4 e5 dc 30 bc 98 a0 bd bb
       0.0001167341 -6.0648254e-17 -0.010794853 -0.0057869665
0001b0 93 e6 a2 3a d7 78 b8 3b 47 87 92 3b 76 51 f4 3b
       0.0012428336 0.0056296396 0.0044716927 0.007456
0001c0 7e 93 94 3a 8c de f0 3b f4 9d 57 3c 4b d7 09 3d
       0.001133546 0.0073507484 0.013160218 0.033652585
0001d0 ca c0 8d 3c c4 6f 75 bb 40 4e 84 bb ad 6c d0 3a
       0.017303843 -0.003745065 -0.0040376484 0.0015901529
0001e0 31 89 0b bb ba c7 15 3d 35 5a 8e 3d a4 b2 2c bd
       -0.002129149 0.036567427 0.069507994 -0.042162552
0001f0 52 2e 77 bc e7 9d 55 3c 4c 1d 37 bb ed 7f da bb
       -0.015086727 0.013038135 -0.0027941046 -0.006668082
000200 08 36 d0 3c 82 08 ed bc 33 8e 42 bd 5f 80 81 3c
       0.02541639 -0.02893472 -0.047498893 0.015808282
000210 79 25 5e 3c af 75 8b 3b bb 1c 0d bc bd de e7 bb
       0.013558739 0.0042559723 -0.008612807 -0.007076113
000220 65 db 52 bd fa ee 15 3c 19 45 a7 3c 21 09 35 bb
       -0.051478762 0.009151215 0.02041869 -0.002762385
000230 d2 55 7d 3b 66 e7 2c 3c fe 5d 8f 3c 0d f1 9b 3c
       0.003865589 0.010553217 0.017500874 0.01903584
000240 ac 3d 96 3c 2f 93 95 3c a3 95 a6 3b 32 58 05 80
       0.018339954 0.01825866 0.005083756 -4.90816e-40
000250 8d 3c 06 80 21 3f 22 35 27 07 09 31 6f 04 11 28
       -5.72735e-40 6.044157e-07 1.994019e-09 8.050078e-15
000260 8c 5d c4 15 d5 ad 05 80 cb 6f 05 80 1f 67 c3 3a
       7.931136e-26 -5.21537e-40 -4.99281e-40 0.0014908052
000270 0d 65 c0 bb ae 51 2d bb 14 dd f9 3b ea ac 28 bb
       -0.005871421 -0.002644639 0.0076252315 -0.002573783
000280 38 b8 9d 37 b4 f9 13 b7 d8 86 01 3c c8 b0 91 3c
       1.8801642e-05 -8.820021e-06 0.007905684 0.017784491
000290 ba ca cf 3c 89 20 ed 3b cb 62 63 3c df 0e 90 bb
       0.025365222 0.0072365445 0.013878535 -0.004396304
0002a0 47 e3 96 ac 3d 6a 35 3c eb 59 f2 3c 36 c7 db 3c
       -4.2884893e-12 0.011072692 0.029583892 0.02682839
0002b0 e6 f5 3c bd a4 7e c7 3c f5 c2 03 bb 40 b3 2c 9b
       -0.046132945 0.02435238 -0.0020105217 -1.4285425e-22
0002c0 03 77 7f bb 11 a5 dc 3c 7e 3f d4 bc 4c bd bd bc
       -0.0038980849 0.026934179 -0.025909182 -0.023161553
0002d0 ba 3d aa 3b 6a c0 4d bb ff 51 25 06 aa 5f be 3a
       0.0051953467 -0.0031395205 3.1093292e-35 0.001452436
0002e0 59 1f 6c 3c 32 92 bf 39 c8 1e 7d 3a da 9e 02 bc
       0.014411771 0.00036539283 0.0009655771 -0.0079724435
0002f0 10 90 15 3a 8c ba 05 00 ab ea 8c ba ad 7a f7 3a
       0.0005705366 5.26098e-40 -0.0010751089 0.0018881165
000300 04 bf 9a 3c eb e8 1d 3c 9e 5a 44 3b df eb ba ad
       0.018889911 0.0096380515 0.0029961239 -2.12505e-11
000310 18 37 c4 38 99 5c 69 ba 64 77 96 3c 04 0c 12 3d
       9.35627e-05 -0.0008902043 0.018367477 0.03565599
000320 7a d8 2a 3c b4 17 ee 3a 35 71 76 b9 bf 1f 60 3b
       0.010427589 0.0018165023 -0.00023502561 0.003419861
000330 32 b6 67 3c 59 55 e9 bb ae 54 5e bc 93 56 14 3b
       0.01414256 -0.00712077 -0.013569994 0.002263461
000340 2b d7 af 3c 69 0d 0c 3c 80 0e 13 3b 55 c8 be 3b
       0.021464905 0.008548119 0.0022439063 0.0058222213
000350 55 70 bd 3c 19 bc 24 bd 9a 99 ab 3c 51 cc 62 3d
       0.023124853 -0.040218446 0.020947266 0.055370633
000360 2d c7 ce 3c 48 0f 26 ba 5c 07 ee bc 73 4e 9c bd
       0.025241459 -0.00063346745 -0.029056244 -0.076321505
000370 8f d8 0a 3d 8f c8 6d 3c fe 8f 00 bd 2b 63 e5 bc
       0.033897933 0.014513149 -0.03138732 -0.028001389
000380 1d fb 24 3b 7c b1 48 3c 53 5b f8 3c 86 f9 e5 3c
       0.002517409 0.012249347 0.030316984 0.028073084
000390 5f 24 45 3c 5b dd 8f bd a3 c5 5d bb eb 7b 9b 3b
       0.012032597 -0.07024642 -0.0033839724 0.004744997
0003a0 0c 0b b9 3a 20 c9 16 bc 66 12 c9 bc e5 a8 e0 3c
       0.0014117672 -0.009203225 -0.024544906 0.027424285
0003b0 6c 39 73 bd 30 dd 0e 3c f8 dc 15 3b 64 9c 83 3c
       -0.059380934 0.008719727 0.0022867303 0.016065784
0003c0 af a4 1b 3c 73 78 d7 3a 5d a8 a6 3b 8b 30 ba 3c
       0.009499713 0.0016439095 0.0050859884 0.022728225
0003d0 64 cb 47 3c dd c9 f3 b8 bd d8 05 bb 83 48 3b 3c
       0.012194488 -0.00011624743 -0.0020423376 0.011430862
0003e0 1f 45 89 3c a5 12 0d bb b2 0b 8d 3b 2b 51 38 3b
       0.016756592 -0.0021526006 0.0043043727 0.0028124552
0003f0 59 57 61 3a 85 09 ac 3c c3 c6 84 3d 4d 54 57 3d
       0.00085960847 0.021000633 0.06483223 0.05257063

encoder.4.bias f4 [64]
000000 50 86 83 3c 8c b3 80 bc 7b 0f 07 3c c8 66 a2 bc
       0.016055256 -0.015710615 0.008243437 -0.0198244
000010 a7 2c 86 bc 93 48 4e bc 71 99 69 3c 48 5a 5f 3c
       -0.016378714 -0.012590545 0.014257775 0.013632365
000020 ba d4 61 bb 8f 70 4c bb ef a8 4b bc d8 02 6d bc
       -0.003445907 -0.003119502 -0.012430414 -0.01446601
000030 26 0e 8f 39 38 e5 37 bc 17 40 af bc 8c 36 b9 bc
       0.00027285627 -0.011224084 -0.021392865 -0.022609018
000040 5f 24 c8 3b be 54 14 3c 13 fe 3e bc e3 9e 6b 3c
       0.0061078514 0.009053407 -0.011657256 0.014381143
000050 ec 9b dc bb 70 96 d7 3b 35 bd 86 ba 2a 04 a5 bc
       -0.0067324545 0.006579213 -0.0010279777 -0.020143587
000060 7d 3a cc bc 34 7f 9c 3c cc 71 90 3c 60 c4 5e bc
       -0.024930233 0.019103624 0.017632388 -0.013596624
000070 47 bf 85 bc 3a f6 02 3a 0d cd 9a 3c 4a 6e 7d bc
       -0.01632656 0.0004995797 0.018896604 -0.0154681895
000080 2f 2b 9f 39 7f ee 94 bb c5 d4 d8 bb 72 d3 95 3b
       0.00030359018 -0.0045450325 -0.006617161 0.0045723254
000090 27 b6 85 bc c8 05 bc bc 37 61 94 3b c4 f2 a1 bc
       -0.016322209 -0.022951975 0.0045281905 -0.01976908
0000a0 f5 e6 7d 3a 99 5d 86 bc a2 a1 57 bc 60 38 62 bb
       0.00096855994 -0.016402053 -0.013161095 -0.0034518465
0000b0 8a 40 81 3b 68 d4 8f bc 54 26 ae 3b b5 28 4c bc
       0.0039444612 -0.017557338 0.0053146277 -0.012460877
0000c0 34 b2 26 3c f6 3c 2d 3c 3a 15 54 bb 8b 02 f4 bc
       0.010174323 0.010573616 -0.0032361285 -0.029786369
0000d0 d2 1a 96 bb dc 85 5f 3c 49 55 6a 3c 52 75 bc 3b
       -0.004580834 0.013642754 0.01430256 0.0057512904
0000e0 d2 3b 4e 3c ab b7 0a bc f0 a9 12 3c 63 73 28 bb
       0.012587504 -0.008466641 0.008951649 -0.0025703541
0000f0 26 35 71 bc 6d 3a 62 3c 9c 32 1b 3c 98 42 4d 3c
       -0.014722144 0.013807875 0.009472515 0.012528084

encoder.6.weight f4 [10, 64]
000000 c5 06 fd 3d f3 c6 45 bb 4d 44 99 3c 97 a4 45 be
       0.12354807 -0.0030178397 0.018709326 -0.19301067
000010 58 f2 bf be b7 ca 4e be 04 81 49 3d 43 07 25 be
       -0.3748958 -0.20194517 0.049195305 -0.16116051
000020 d2 42 8b bc 16 31 09 be 6d c6 4b be 49 00 a4 bd
       -0.016999636 -0.13397631 -0.19899912 -0.08007867
000030 c1 0a f7 3d 07 02 04 bd de 05 e8 bd ce c5 0a bc
       0.12062598 -0.032228496 -0.11329244 -0.008470012
000040 e4 89 68 be a4 42 c1 bd d0 88 64 3d fc 34 b2 3d
       -0.22708851 -0.09436539 0.055794537 0.08701512
000050 e7 29 73 3c 3a 78 bc 3d 4e 9a 7f bd 69 89 de 3b
       0.014841533 0.09202619 -0.062403016 0.006791283
000060 c3 c5 e5 bd a2 be 83 bd 94 1d d8 bd 22 78 cf 3c
       -0.11219361 -0.06432845 -0.105525166 0.025325838
000070 bd 4e a8 bd 30 28 1c 3d 7f ce 31 3e 51 ce e1 bd
       -0.08218143 0.038124263 0.17363928 -0.1102568
000080 b3 3c 82 3d be 1f bf be 61 ea db bd 19 f2 4d be
       0.06359234 -0.37328905 -0.107380636 -0.20111884
000090 6e 88 a2 3b 5a 38 c5 3d 5b 30 8f 3d 70 05 22 be
       0.0049601113 0.09629889 0.06991645 -0.15822387
0000a0 4e 5b 6d be f9 0d 79 b9 42 dd ea 3d 6e 41 90 be
       -0.23179361 -0.00023751696 0.11467983 -0.2817492
0000b0 a6 f8 d4 3d 26 23 47 3e 38 fb c8 3e 96 76 5f bd
       0.103989884 0.19447002 0.39254165 -0.05455645
0000c0 cc 25 e5 3b 11 8b 56 bc ab 11 a1 3e 64 62 9e be
       0.006993031 -0.013094679 0.31458792 -0.3093444
0000d0 0a 35 93 3e 15 1a 6c bd 05 3c 14 3e cf 8e 47 3e
       0.28751403 -0.05764206 0.1447602 0.19488071
0000e0 39 d7 42 3e 21 f4 22 3d 1b 36 93 bd e2 85 63 bc
       0.19027413 0.0397836 -0.07188054 -0.013886901
0000f0 ad dc 4a bd 52 09 a7 3d 74 ed 93 3d 53 85 ce bd
       -0.04952686 0.081560746 0.07223025 -0.10084023
000100 87 52 0e 3e c7 79 0f 3e 2c d3 5a be f5 9f 8e 3e
       0.13898669 0.14011298 -0.21369618 0.27856413
000110 5b 1c 29 be 15 7f 86 3d cb 09 2a 3d e1 ea 80 be
       -0.16514723 0.06567208 0.041513246 -0.25179198
000120 77 1b 3a bd c6 c7 42 be 26 bf 72 3e c1 05 a0 bd
       -0.04543635 -0.1902152 0.2370573 -0.078135975
000130 3f a8 c4 3d b8 0a 18 3e 5c 52 93 3c 07 f2 4d bd
       0.09602403 0.14847839 0.017983608 -0.050279643
000140 9f 38 2b 3d 55 2a 73 be 15 28 de 3d 3a 20 ef bc
       0.041802045 -0.23746617 0.10847489 -0.029190172
000150 ec 8c 27 3d 5b c2 c4 bd e5 b3 3f be 3c 83 83 3e
       0.040905878 -0.09607383 -0.18720968 0.2568606
000160 d8 9f 50 3d 68 69 ba bd a0 0c 64 be 7d 0a 10 3d
       0.05093369 -0.09102136 -0.22270441 0.035166252
000170 eb 5a 8b bd 9c 6d 29 be 87 1d 01 3e 37 24 8c 3e
       -0.068044506 -0.16545719 0.1260892 0.2737138
000180 2b 70 5a be da 45 12 bd e7 53 3f 3e 8c 39 01 3e
       -0.21331851 -0.035711147 0.1868435 0.12619609
000190 a6 00 11 be 9c 9d 75 3e 59 fb 1e 3e b2 bf 6e bc
       -0.14160404 0.23985904 0.15525569 -0.014572071
0001a0 7a 1d 27 be 7b d0 50 bd 12 11 1a 3e d2 db 20 3e
       -0.16319838 -0.050980072 0.15045574 0.15708855
0001b0 da c4 de bd f1 76 6d 3e 19 7a 0e be 1b fa 6b bd
       -0.1087739 0.23189904 -0.13913764 -0.057611566
0001c0 9b b0 7c be 28 b4 bb bd 34 d3 28 be fc a7 8b 3e
       -0.24676745 -0.091652215 -0.16486818 0.272766
0001d0 b2 89 33 be 98 04 65 3d 01 5f 4c be a9 5b d3 3d
       -0.17532995 0.055912584 -0.19958116 0.10320217
0001e0 72 38 e6 3d ac 20 a1 3d da 83 05 3e 19 ac 05 bd
       0.11241235 0.0786756 0.13038579 -0.03263483
0001f0 99 5a 23 be e4 da 47 be b3 f0 61 3e 13 de a6 be
       -0.15952529 -0.19517094 0.22064476 -0.32591304
000200 1a 54 0e be 4a 06 87 3d 83 cb 30 3d ff 0f 76 3e
       -0.1389927 0.065929964 0.043162834 0.2402954
000210 72 37 7f 3e 0a 6c 09 be 85 07 24 3d a1 a3 3c be
       0.24923494 -0.1342012 0.040046234 -0.18421794
000220 c9 18 7b 3d 2f 85 3a 3e cd 3d 0d be d9 a4 4f 3e
       0.061302934 0.18214868 -0.13793106 0.20277728
000230 b2 e2 52 3e 6d f5 28 3e a6 50 01 3e 02 00 05 3e
       0.2059429 0.16499873 0.12628421 0.12988284
000240 e8 a7 83 3e 98 31 14 be 25 79 27 be 6a e2 94 bd
       0.2571404 -0.14472044 -0.16354807 -0.072697476
000250 84 5d d0 3b b7 9b db bc a9 cd 1e be 7a ae 88 bd
       0.006358804 -0.026807649 -0.1550814 -0.06673904
000260 f1 ba 2a be 14 4c ba bd be d5 eb 3d dc 88 9b 3d
       -0.16672875 -0.09096542 0.115153775 0.07594463
000270 c4 33 3e be 60 fe 18 3e fe ef ec bd 7d ef 45 3e
       -0.18574435 0.14940786 -0.115692124 0.19329639
000280 8e bf 5d bd e6 f7 81 3e c8 e6 29 bd b3 b6 d9 bd
       -0.05413776 0.25384444 -0.041479856 -0.1063055
000290 3d b6 7a be 5e 87 cd 3c 05 76 c0 bd 80 79 59 3e
       -0.24483581 0.025088962 -0.093975104 0.21237755
0002a0 c7 5b 21 3e 82 d1 e1 3d 96 4f b4 3c 0a b8 33 be
       0.15757667 0.110262886 0.022010606 -0.17550674
0002b0 68 af 9b 3d 4f ed c4 3d 0c 71 71 3e 04 4a 5e 3d
       0.076018155 0.096155755 0.2357828 0.054269806
0002c0 39 30 62 3b 8c 15 03 3e fe fb 86 3d 39 5f 44 be
       0.0034513606 0.12801188 0.065910324 -0.1917695
0002d0 fc 53 42 3e 28 36 35 3e 5a ba b7 be 2e 1c 94 be
       0.1897735 0.1769644 -0.35884362 -0.2892775
0002e0 fb ba 04 be 77 1c 85 be 4b e7 a4 bd c7 b2 d5 bd
       -0.12961952 -0.2599828 -0.08051928 -0.1043449
0002f0 f5 41 64 3d 92 0a 5b be 2a 4b e6 bc 04 86 3e be
       0.055726964 -0.21390751 -0.028112013 -0.1860581
000300 18 a1 36 bd e0 87 a3 bd 03 cc 6b 3e 4b 86 6e bc
       -0.044587225 -0.079849005 0.23027043 -0.014558385
000310 6e 51 9e 3e d7 9c 2e 3d 70 7c a6 39 52 db d1 bc
       0.309215 0.042630043 0.000317547 -0.025617275
000320 b3 2e ba bd ca e4 83 3e 37 ea 60 3e ae 97 8e 3d
       -0.090909384 0.2576049 0.21964346 0.06962524
000330 b0 00 3c be ee d5 15 bd 33 9e 36 3e 94 b7 c8 bd
       -0.18359637 -0.036580972 0.17833786 -0.0980064
000340 e7 89 bb bd 70 0e 84 3c 82 e8 03 3e ea 79 1d 3e
       -0.09157162 0.016120166 0.12881663 0.15378538
000350 77 4a 08 bd 53 db 87 3c 2e 50 f8 bd 58 85 80 bd
       -0.03327414 0.016584074 -0.12124668 -0.06275433
000360 fc 57 74 3c 72 4a ba bc 05 c7 fe 3d e0 f8 2d be
       0.014913555 -0.022740576 0.12440304 -0.1698947
000370 a9 c8 f5 bd a0 7d 7c be c6 3e 59 3e 83 4d 7c be
       -0.120011635 -0.24657297 0.21215352 -0.24638943
000380 58 f8 79 3e fe d8 30 be d4 23 0c 3e 39 07 7d be
       0.24411142 -0.17270276 0.13685542 -0.24709786
000390 a2 5e 32 be 48 fe 56 be 29 3f af 3d 28 91 3e 3e
       -0.17418912 -0.20995438 0.08556969 0.1861006
0003a0 d0 f9 7d bd b9 ee 38 be 23 a8 b8 bc 6b 19 14 bc
       -0.062005818 -0.18059815 -0.022541111 -0.009039263
0003b0 ef aa 35 3e 23 b2 9b 3d 31 67 49 3e 73 7a 10 be
       0.17740987 0.07602336 0.1966827 -0.1410921
0003c0 68 22 19 3e 59 07 ce 3d db 00 b0 3d fe fe b7 3d
       0.14954531 0.10059995 0.08593913 0.08984183
0003d0 45 b8 1d 3a c4 5c 15 bd a1 09 29 be 1e 15 b3 3d
       0.0006016533 -0.03646542 -0.1650758 0.08744262
0003e0 bd 18 be 3d a7 fc a2 bc bf 36 2a 3e 3f 83 04 be
       0.09282062 -0.019895865 0.16622446 -0.12940691
0003f0 65 e4 9b 3d 1c ab 2e bd 1b a4 04 3c 1b f6 8a bd
       0.07611922 -0.04264365 0.008095766 -0.06785222

encoder.6.bias f4 [10]
000000 d5 cb 7d 3d 83 56 87 3c f6 55 29 bd 13 eb 9a bd
       0.061961967 0.016520744 -0.041341744 -0.07564368
000010 ba ec fa 3c 56 15 f2 bc 2d bc 7a bc dd 06 90 bd
       0.030630458 -0.02955119 -0.015303654 -0.07032559
000020 e4 33 ad bd ee ee af 3c
       -0.08457163 0.021476235

decoder.0.weight f4 [64, 10]
000000 5b 3c 6b 3e c6 3b 7d 3d 0c a0 87 3d f9 ec 8b 3b
       0.22972243 0.061824583 0.066223234 0.0042701927
000010 a0 59 a2 be 10 ea a0 3e 8c e5 b5 be d8 03 24 be
       -0.31709003 0.31428576 -0.35526693 -0.16017091
000020 d1 3c ef bd 23 c7 05 3e 60 44 5e be 5c 7d eb 3d
       -0.11681522 0.13064246 -0.2170577 0.1149852
000030 13 2d da 3d 14 f9 9a bd fc eb cd bc 8b a0 81 3d
       0.106531285 -0.07567039 -0.02513694 0.06329449
000040 7f 99 5e be 50 9d e0 bd 3c 9f 6d be 53 90 23 3e
       -0.21738242 -0.10967505 -0.23205274 0.15973024
000050 a3 e1 35 3d b6 c1 93 3e 1d 8c 5a be 25 6a a7 be
       0.044404637 0.28858727 -0.21342511 -0.3269817
000060 49 f7 99 3e 84 dd 21 3e 13 6f 18 3d d3 10 d5 bd
       0.30071476 0.15807158 0.037215304 -0.104035996
000070 59 13 b4 bd a9 c2 62 3c 64 d7 6b 3c 14 7e 09 be
       -0.08792753 0.013840356 0.014394615 -0.13427001
000080 b0 8c 99 3d ba e2 52 3e a1 c0 c1 be 83 01 8b be
       0.07497537 0.20594302 -0.37842277 -0.2714959
000090 64 06 7d bc c3 77 ad be 8e c1 a2 3e 61 39 94 bd
       -0.015443418 -0.33880433 0.31788296 -0.07237507
0000a0 d3 75 88 3e f4 47 75 3e f1 f0 80 3e 6a 3d bf 3e
       0.26652393 0.23953229 0.25183824 0.37351543
0000b0 76 7f a9 3e c6 c4 d7 bd 02 96 41 be 46 30 08 be
       0.33105057 -0.105355784 -0.1890488 -0.13299665
0000c0 d7 2c e5 bd 0e 1f e2 be 4d e6 37 3e b0 cf a4 3d
       -0.11190193 -0.44164318 0.17958947 0.08047426
0000d0 e0 f2 d4 3e ea 17 23 be d1 ae 7b be 44 ee 84 3e
       0.4159155 -0.15927091 -0.24578406 0.25963032
0000e0 00 5d 31 bc 56 07 4e be 24 8f 31 be f7 70 09 be
       -0.010825396 -0.20119986 -0.1733976 -0.13421999
0000f0 e2 fd 3e be 52 9a 0a 3e ed 7d 16 be 5f 02 8a be
       -0.18651536 0.13535431 -0.14696474 -0.26954934
000100 bc 1a 35 be 86 27 f4 3d 5f 71 d1 3d 17 82 4e be
       -0.1768598 0.11921601 0.10226702 -0.20166813
000110 cf 60 6a 3e b3 4a fc 3d 43 5b 44 3e 2b 30 25 be
       0.22888492 0.12318935 0.19175439 -0.16131656
000120 d9 07 25 be b4 15 b0 bd 69 65 2a be a6 a5 70 be
       -0.16116275 -0.085978895 -0.16640247 -0.2350069
000130 9b 6a e7 3d 0d 01 db 3d 78 5c 1d be 1d e2 9e 3e
       0.1129963 0.1069356 -0.15367305 0.31031886
000140 04 22 83 3e 4a 70 ec 3d 5b 29 32 3e ed 2b 80 be
       0.2561189 0.11544855 0.17398588 -0.25033513
000150 60 0f cc 3d a2 09 28 bd f0 4e 78 bc ab b2 9e 3d
       0.0996387 -0.04102481 -0.015155539 0.07748922
000160 5b ca 3b 3e fc 4e 6f be 1a 64 77 bd f1 02 6c 3e
       0.18338911 -0.23369974 -0.0603982 0.23047997
000170 1d 94 76 be 1f 28 db bd 94 6a 39 be 03 82 9e b9
       -0.24079938 -0.10701012 -0.18107063 -0.00030232975
000180 90 09 a1 3d 41 7d 0c be de 60 d3 bd ec 59 47 be
       0.07863152 -0.13719656 -0.1032121 -0.19467896
000190 20 9c 7f be 97 8e 8f bc 8b 2f 7c 3e 4c 92 92 3e
       -0.249619 -0.017524047 0.24627511 0.2862724
0001a0 ea 22 24 3e 3f 9b 5e 3e bc 47 29 3e a7 d0 8c be
       0.16028944 0.21738909 0.1653127 -0.2750294
0001b0 82 8d b5 3e 82 e5 90 be c8 87 80 3e c4 63 f4 3d
       0.35459524 -0.283001 0.25103593 0.11933091
0001c0 fc 06 eb 3d cf 3f 06 3e bd a9 ba be 5c 4f 54 3d
       0.114759415 0.13110279 -0.36457625 0.051833495
0001d0 50 44 b1 bd c9 59 cd 3d cb e3 49 bc b7 69 8e bd
       -0.08655608 0.10026891 -0.0123223765 -0.06953757
0001e0 b6 85 8d 3e 70 21 f3 3d 7a 01 72 bc b4 9e 41 bd
       0.27641076 0.11871612 -0.01477086 -0.04727049
0001f0 82 b4 52 3e 38 51 1b 3d ed bc ad 3e 0b a7 a6 3e
       0.20576671 0.037919253 0.339332 0.3254932
000200 55 83 3b be 1c 65 e9 3d 63 37 b0 be 8a eb 3d be
       -0.18311818 0.11396238 -0.34417257 -0.18546882
000210 f8 b5 06 3e 44 4b aa 3e 1b d6 fd bd e1 52 7f bd
       0.13155353 0.33260548 -0.12394353 -0.0623349
000220 0e 58 9a 3e 60 e2 80 be 45 32 1d be bd dc 8f bd
       0.30145305 -0.2517271 -0.15351208 -0.07024524
000230 10 28 8d 3e 63 53 8c be ee f1 ef be 8b 98 76 3e
       0.27569628 -0.2740737 -0.46864265 0.24081628
000240 a4 28 24 3d e5 41 cc 3e c1 dc 77 3d 13 1f 77 be
       0.04007782 0.39894024 0.06051326 -0.24132948
000250 06 da a1 be d5 6f e8 bd 2b 5b 87 3e 0f b2 bf be
       -0.3161165 -0.11349455 0.26436743 -0.37440535
000260 10 cc 12 be c2 a8 7a bd 65 6a 99 be 4b 12 96 be
       -0.14335656 -0.061196096 -0.29963985 -0.2931083
000270 04 05 b8 3d 2e 6c 93 be 8b 21 bb 3e c2 bd 8d bd
       0.08985332 -0.28793472 0.3654903 -0.06920959
000280 7f 98 f2 bd 39 32 16 3e c5 d5 2a be 46 f5 21 be
       -0.118454926 0.14667596 -0.16683109 -0.1581622
000290 9f dd e5 bd be a0 16 be df ec 4a be 78 ed bb bd
       -0.112239115 -0.14709756 -0.19816922 -0.09176153
0002a0 9c b9 18 be f1 4f f5 bd 79 95 0e 3e 42 24 43 be
       -0.14914554 -0.11978138 0.13924207 -0.190568
0002b0 10 ad f4 bd 13 17 39 bd 66 6d 58 3d 8c cd c1 bd
       -0.119470716 -0.04518802 0.052838705 -0.09463033
0002c0 b3 32 dd bd 62 08 54 3d 13 d5 76 bd cb 61 81 3d
       -0.10800686 0.051765807 -0.060261797 0.06317481
0002d0 c8 f1 29 3e 7d 31 b4 be 21 dd 65 be df ed 8d 3e
       0.16596138 -0.35194007 -0.22447635 0.27720544
0002e0 5e b8 2f 3e f1 0f c1 3d cb bc 81 be f7 54 6d 3e
       0.17160174 0.09426869 -0.2533935 0.23176943
0002f0 d0 2a 72 bd 61 d2 cb bd a2 bc 0e be 3d 4f 02 bd
       -0.05912286 -0.09952236 -0.13939145 -0.03181385
000300 30 43 98 3d 1b f3 08 3d 7b 91 ed bd 2a 45 1a 3e
       0.0743469 0.03343497 -0.11600014 0.15065446
000310 90 25 c1 bd 41 5d 8b 3d 62 ff 35 be cb fd 63 3d
       -0.094309926 0.06804896 -0.17773202 0.055661958
000320 43 bf 4e be 26 fe ad 3d 3b e8 8f 3d de 9e 1f bd
       -0.20190148 0.084957406 0.07026716 -0.038969867
000330 6a d4 b3 3e ce 4b 91 be 3b 50 3e be 59 3c a8 be
       0.35122997 -0.28378147 -0.18585293 -0.32858542
000340 ad 31 8a be 04 51 77 3e 07 ab 51 be 4b 1e a8 be
       -0.26991025 0.24151999 -0.20475398 -0.32835612
000350 6a c4 63 be 84 c4 52 3d a9 11 92 3e bd 27 64 3e
       -0.22242895 0.051456943 0.285291 0.22280784
000360 c5 db 19 3d 09 f5 08 bd a3 4f 24 bd 95 50 98 3e
       0.037563104 -0.03343681 -0.04011501 0.2974898
000370 6e 9a bc 3d 2d f0 34 be 7b 57 69 be 38 7e 1c 3e
       0.092091426 -0.17669745 -0.22787277 0.15282524
000380 2a 43 9b 3d b0 8e c0 bd e4 e8 2b be 20 c3 4d be
       0.0758117 -0.094022155 -0.1678806 -0.20093966
000390 78 97 6a 3d 86 0f 9a 3d 25 8f 47 3e e4 c8 4d be
       0.057273358 0.07522492 0.19488199 -0.20096165
0003a0 6b 2a 08 3e 0f be 98 be b4 8a 55 3e f6 18 23 3e
       0.13297431 -0.29832503 0.20853692 0.1592749
0003b0 02 82 8a be d3 4d 58 3e 54 b7 01 3e 6d 30 be bc
       -0.27052313 0.21123438 0.1266759 -0.02321645
0003c0 f3 74 3c 3d 85 b6 12 bd 8c 47 71 bd 3c 1f b1 bd
       0.04600997 -0.035818595 -0.058906123 -0.086485356
0003d0 2f 9e 48 bc 3f 47 9b bd b8 02 c2 bd a6 f4 db bd
       -0.012244745 -0.075819485 -0.09473175 -0.10740022
0003e0 28 e0 1c 3d 07 3c 12 bb c5 c3 4f 3e 71 d8 43 be
       0.03829971 -0.002231361 0.20289524 -0.19125535
0003f0 8c 71 2c 3b 0c 71 8f 3e 0b 0d 4e 3e 10 56 9d be
       0.0026312796 0.28015935 0.20122163 -0.30729723

decoder.0.bias f4 [64]
000000 ed fc e8 bb 41 a6 16 bb 9a 0c c4 3d a4 54 97 3c
       -0.007110229 -0.0022987279 0.09572716 0.018472977
000010 1c 99 13 be 93 eb 36 3d 16 40 f2 3d 65 7d 7c 3d
       -0.14413875 0.044658255 0.1182863 0.061643023
000020 ff f7 c3 3d 50 fb c3 bd 05 cb bb 3c 6e ee 21 bd
       0.09568786 -0.095694184 0.022923956 -0.039534025
000030 3f c7 26 bc c1 48 24 3e 48 d8 e7 bc ac fe 2b 3e
       -0.01017934 0.16043378 -0.028301373 0.16796368
000040 33 dd 11 bd b6 8d 56 3e 80 d0 14 be e7 31 cf bd
       -0.035611343 0.20952496 -0.14532661 -0.1011694
000050 9b 8a 09 be 8f 4b 1b 3e 2b 7c 23 be 41 fb fe 3d
       -0.1343178 0.15165542 -0.15965335 0.12450267
000060 b2 68 fd bd bd bf 86 3d aa 02 56 3d 5f 65 df 3d
       -0.12373485 0.0657954 0.052248634 0.10908007
000070 f3 9f f9 3c 78 52 e4 3d 59 a2 6b bd e5 d1 1e 3d
       0.030471778 0.11148542 -0.057527874 0.03877439
000080 4d a2 da bd 49 dc 41 bc 28 c9 cd bd 90 1c 30 be
       -0.10675488 -0.011832305 -0.10048133 -0.17198396
000090 eb fc 84 3e 74 53 ec 3d f2 e2 7d 3d 39 0f d9 3d
       0.2597421 0.11539355 0.06198401 0.105986066
0000a0 81 48 98 3c 68 af 8c bd 99 59 b8 bd 69 25 18 3e
       0.01858926 -0.068693936 -0.090014644 0.14858021
0000b0 87 85 14 3e bd ad 2b bd b3 f5 e0 bd df 7e 6e 3d
       0.14504062 -0.041913737 -0.109843634 0.058226462
0000c0 65 64 ca 3d 42 91 57 3c 61 e0 d5 bc 88 01 f1 bd
       0.0988243 0.013157191 -0.026107969 -0.1176787
0000d0 e2 6b 8e 3d 2c 5a 7d bd 46 9a 21 be 52 e4 ae 3d
       0.06954171 -0.061853573 -0.15781507 0.085396424
0000e0 fe 63 8d bc d9 b7 21 bc 88 d8 06 3e fd 34 f5 bc
       -0.017259594 -0.009870493 0.13168538 -0.029932493
0000f0 07 c0 8b 3c 99 a2 20 bd 9a 20 be bd b8 a5 1e be
       0.01705934 -0.039217565 -0.09283562 -0.15492904

decoder.2.weight f4 [64, 32, 7, 7]
000000 f8 d4 43 3b 11 61 a9 bb bd bd a4 3a e7 dd ae ba
       0.0029881578 -0.005169042 0.0012568753 -0.0013341279
000010 dd 64 42 3c 29 e1 40 3c c9 dd 57 bb 11 8e f8 3b
       0.011864868 0.011772432 -0.003293859 0.007585295
000020 82 65 43 bb 66 81 cb 3c 09 81 d6 bb ce cf 90 bc
       -0.0029815142 0.024841975 -0.006546144 -0.017677214
000030 b6 36 13 3d 75 57 dd 3b f8 02 1f bc 59 03 35 3d
       0.03594085 0.0067548105 -0.009705298 0.044192646
000040 ff 78 ef 3c 09 37 35 bb 6c e5 07 bd d9 46 9d bd
       0.0292325 -0.0027651212 -0.033177778 -0.07679529
000050 04 73 0a 3d 06 d5 f3 3b 70 4f 13 3d 3d 5a cd bc
       0.033801094 0.007441166 0.03596443 -0.025067443
000060 2c a0 42 bd a1 d0 c9 3c f7 23 74 bd 6d e0 03 bc
       -0.047516033 0.024635615 -0.05960461 -0.008049113
000070 d1 a3 03 bc 2a 31 33 bc 53 13 a3 bd 28 0a c3 bd
       -0.008034662 -0.010937015 -0.0796267 -0.095234215
000080 b6 b0 cc bd ad 7e 6b bd ff 79 56 3b 07 27 2f 3c
       -0.099946424 -0.057493854 0.0032726524 0.010690457
000090 9d fa cb 3a e5 a6 96 ba 83 bb 04 3d 20 d4 c5 3b
       0.001556236 -0.001149383 0.032405388 0.00603725
0000a0 1c 53 ab 3d 29 8a b3 bc 3c c9 16 3c a6 de a1 3d
       0.08365461 -0.021916466 0.009203251 0.07903795
0000b0 4e af d1 3d a3 6a de 3d 28 90 f7 bc 1c 0a 9c 38
       0.10238515 0.10860183 -0.030220106 7.440543e-05
0000c0 d1 9f 7a 3c 65 12 96 3b 14 93 93 bb 06 7a 70 3a
       0.015296892 0.0045798295 -0.004503617 0.00091734563
0000d0 5f 18 1c 3c b0 59 6e bc bb d6 e2 3c 85 55 ec 3b
       0.009527295 -0.01454775 0.027690282 0.007212343
0000e0 a2 bd ed 3b 36 8f 3c b9 9f af 1c 3c 6c 0f ec bb
       0.007255272 -0.00017982427 0.009563356 -0.007203987
0000f0 79 e1 6a 3c a4 3f c8 bc d6 ff 45 bd af cf 3a 3c
       0.014335983 -0.024444409 -0.048339687 0.011402055
000100 94 e7 cc bb 28 3b 06 bd 92 c9 d1 3b 0b 2e ec bd
       -0.006253192 -0.03277126 0.006402203 -0.115322195
000110 28 2b 0e bd d8 71 65 3c 89 b5 f8 3b 29 86 db bb
       -0.034709126 0.014004193 0.00759 -0.0066993427
000120 d5 bd b4 bd 72 e8 72 3c f3 fe 60 bc ee 46 b1 bd
       -0.0882527 0.014825927 -0.01373266 -0.08656107
000130 84 90 a0 bc e2 01 53 3c b0 13 41 bd 17 21 cc bd
       -0.01960016 0.012878867 -0.047137916 -0.09967249
000140 84 7c 6a bd ad 98 b2 bd 45 22 89 3c bd dc 19 3c
       -0.057247654 -0.08720527 0.016739974 0.009391007
000150 73 25 50 3c 26 32 5c 3d d0 56 86 bc 9b e6 cb 3b
       0.012704241 0.053758763 -0.016398817 0.0062225587
000160 0a c2 2d bc 61 85 8f bc 57 11 43 3d a4 db 57 3c
       -0.010605345 -0.017519655 0.04762396 0.013174925
000170 4c b5 a2 3d 76 0a c5 bd 4f af f3 bd a5 72 af bb
       0.07944736 -0.09621136 -0.11898672 -0.005354243
000180 87 bb 1b bd 78 7b e6 3a 03 ac 49 3b b4 40 86 3b
       -0.038020637 0.0017584404 0.0030772693 0.0040970687
000190 55 ba ad 3b a8 09 21 3b ee 8e 69 bc 7d 34 9f 3b
       0.0053017535 0.0024572406 -0.0142552685 0.004858552
0001a0 78 14 f2 3b af 3d a7 3a f9 88 cc b9 61 39 72 3b
       0.007387694 0.0012759472 -0.00039011965 0.003696047
0001b0 7f 21 54 3d 06 7a cb 3c 1c 20 8e 3c 48 7d 87 3b
       0.051789757 0.024838459 0.017349295 0.0041348077
0001c0 4e 31 25 bb f9 f4 20 3c 12 d7 1e 3d a2 d7 d8 bc
       -0.002520639 0.009824031 0.038779326 -0.02647001
0001d0 9d 18 47 3d 75 dd 25 bd 21 c1 f5 bb cf 07 b0 bc
       0.048607457 -0.0404944 -0.0074998294 -0.021488098
0001e0 4b 08 d0 3b 34 9b 0d bd 38 b5 7f bc cf 80 86 bb
       0.006348645 -0.03457184 -0.015607171 -0.0041047106
0001f0 e7 fa d0 bc 77 ec 85 bd cc 65 67 bc aa fc 14 bd
       -0.025510265 -0.06539243 -0.014123391 -0.03637377
000200 f6 98 b4 bd 3e 74 40 3c 7a 8b 2b bd 32 f6 d1 bd
       -0.088182375 0.011746464 -0.041881062 -0.10252036
000210 17 ec 1e bc 06 54 8c bb c0 ee 25 bc 6c f9 03 3b
       -0.009699843 -0.0042824773 -0.010127723 0.002013768
000220 f6 f6 b3 bd 4b 7e b6 bd a3 ae 17 bd 50 45 a6 3c
       -0.087873384 -0.08910807 -0.03703178 0.020296723
000230 b9 15 6c 3b d0 0d 1e bc 2b 88 3c 3d 84 88 50 bc
       0.003602369 -0.009646848 0.046028297 -0.01272786
000240 b9 1c ac bd 23 76 24 3d 61 ea 4e 3c e7 84 05 00
       -0.08403916 0.040151726 0.0126291225 5.06854e-40
000250 87 5a 05 00 aa 5e 05 00 42 4b fb bb 4d 5a 05 80
       4.91653e-40 4.93137e-40 -0.0076688835 -4.91571e-40
000260 bc 58 05 80 7a cc 06 00 ed 81 05 80 37 59 05 80
       -4.9101e-40 6.24365e-40 -5.05786e-40 -4.91182e-40
000270 07 58 05 80 a0 cd b9 bc 78 32 67 bd 5b 61 05 00
       -4.90756e-40 -0.022681057 -0.056444615 4.94102e-40
000280 68 63 05 00 bc a4 06 80 b4 61 05 00 b1 1e 56 bd
       4.94838e-40 -6.10109e-40 4.94227e-40 -0.052275363
000290 89 62 a0 3d 73 14 9d 3d 1e 66 a9 bd 81 5a 05 00
       0.07831294 0.07669916 -0.082714304 4.91644e-40
0002a0 bf 5c 05 80 a5 5d 05 80 bc 9d 9b 3c 08 7d 01 3c
       -4.92449e-40 -4.92771e-40 0.018996112 0.007903345
0002b0 82 9b b6 3d 83 c2 0d bd bf 63 05 00 a2 57 05 80
       0.089163795 -0.03460933 4.9496e-40 -4.90614e-40
0002c0 a8 c9 00 be f2 b6 1f 3d 17 2f 91 3b 66 b9 81 3d
       -0.12576926 0.03899283 0.0044306624 0.0633419
0002d0 be be b8 bc 27 77 37 bd bf 5a 06 80 d8 5f 05 80
       -0.02255189 -0.044791367 -5.83567e-40 -4.9356e-40
0002e0 94 d7 a8 3c 2a 43 9e 3d df bb f2 3d 0b 49 3e 3c
       0.020610608 0.07727654 0.1185224 0.0116140945
0002f0 a2 5f 05 00 86 58 05 80 19 5a 27 bc 9c b7 90 bb
       4.93484e-40 -4.90934e-40 -0.010214352 -0.004416419
000300 fe 31 0f 3e 84 08 fb 3d ef 03 a1 3d ff 66 05 00
       0.13983914 0.122574836 0.078620784 4.96126e-40
000310 00 b8 87 3b 92 37 9f 3b 0e 0c 9b ba 1d bd dc 3c
       0.0041418076 0.0048589194 -0.0011829154 0.026945645
000320 68 e2 18 3d 99 d6 6f 3c 05 ca 56 3c c2 ec b3 3b
       0.037325293 0.014638566 0.013109689 0.00549087
000330 35 f7 2e 3c de 07 da bc 9a 56 ca bb d4 df be 3b
       0.010679056 -0.02661508 -0.0061748745 0.0058250222
000340 0d ff d3 bd 5b 5a 0a 3c 38 83 3d 3a 8c 03 5e bc
       -0.103513815 0.008444394 0.0007229331 -0.01355065
000350 f6 8e 85 bb 91 cf 8b bd 43 d7 1a b9 f4 92 33 bd
       -0.00407588 -0.068266995 -0.00014766776 -0.043841317
000360 3c 41 8b bd 4e 3a 0c bc a9 47 55 3c 3e eb ea bd
       -0.06799552 -0.008558823 0.013017573 -0.1147065
000370 3c cd fc bd f4 eb 70 bc 4b f8 5f bd f8 6e e4 3c
       -0.12343833 -0.014704693 -0.05468015 0.027884945
000380 18 76 7f bb 98 1a 27 bd 3c 90 46 bc b1 6e 52 bd
       -0.0038980301 -0.040796846 -0.012119349 -0.051375095
000390 b5 ca c5 bd de 9f ca bd 95 4a b3 3c 10 52 8a bb
       -0.09657804 -0.098937735 0.02188615 -0.0042212084
0003a0 4e 30 a1 3c 31 3f 0f bc f7 6c 4a bc f4 49 f9 bc
       0.019676354 -0.008743093 -0.012355081 -0.030430771
0003b0 fa f0 1d 3b 81 5b 84 bc 15 37 84 3c 27 b7 30 3d
       0.0024099932 -0.016156914 0.016139546 0.043143418
0003c0 17 9a c1 bd 36 18 31 bc 7c 34 8c bd f1 79 84 bd
       -0.094532184 -0.010808995 -0.06845948 -0.06468571
0003d0 47 44 1d 3c 81 5c 05 80 2b 61 05 80 1a 61 05 00
       0.009598798 -4.92362e-40 -4.94035e-40 4.94011e-40
0003e0 a8 5d 05 80 cb 59 05 00 ec 5c 05 00 49 57 05 00
       -4.92775e-40 4.91389e-40 4.92512e-40 4.9049e-40
0003f0 79 17 66 00 12 5f 05 00 61 58 05 00 d7 9b 97 8b
       9.375641e-39 4.93282e-40 4.90882e-40 -5.8397566e-32

decoder.2.bias f4 [32]
000000 d3 e4 3c 3e 80 b1 d1 3e da ce 4a 3e c7 72 21 bf
       0.18446665 0.40955734 0.1980547 -0.6306576
000010 e9 60 66 3e 9a 34 73 be 8b 20 1f 3e 23 6d 52 bf
       0.22497906 -0.23750535 0.15539758 -0.8219778
000020 f3 88 a4 3e 54 eb fb be 1c 35 d6 be 2d c6 98 3e
       0.32135734 -0.4920298 -0.41837394 0.29838696
000030 48 23 d7 3d 23 8f c4 bd 97 e3 ff be f1 c7 94 be
       0.10504776 -0.09597614 -0.49978325 -0.29058793
000040 0f b3 c0 3e 2c ee 06 bd 76 4b 13 3d 55 af 72 3e
       0.3763661 -0.032941982 0.035960637 0.23699696
000050 e8 40 67 3e 25 72 0b be a2 0f 0b bf c2 cd 64 3c
       0.22583354 -0.13617761 -0.5432073 0.013965072
000060 3b d4 c0 bd b0 6d 7a 3e c3 dd 9e 3d a5 73 08 3e
       -0.0941548 0.24455905 0.077571414 0.13325365
000070 5e 24 34 bd e9 06 1d bf 10 4c 2d 3d 80 1e 36 3e
       -0.043979995 -0.6133867 0.042308867 0.17785072
