02_Representations/model_weights/autoencoder_cnn_best.pth (torch, 852970 bytes, 15 tensors)

encoder.0.weight f4 [16, 1, 3, 3]
000000 5e 4d d3 3e 4a 3a 99 3d 65 7e 03 3d 34 bf c3 3e
       0.41269964 0.07481821 0.03210296 0.38231814
000010 77 00 a7 bd c4 f2 17 3e 01 1e 0d be 1a 97 87 3d
       -0.081543855 0.14838701 -0.13780977 0.06620617
000020 0a 46 b4 3d e0 ab e8 3d 91 c1 b6 3e 3c b2 e1 3d
       0.088024214 0.113609076 0.35694554 0.11020324
000030 ff b9 be bd 26 0c f5 3d 6f e8 18 3e 79 b5 16 bd
       -0.0931282 0.11965208 0.14932416 -0.03679416
000040 f0 33 a9 3e e2 f4 9b 3e 65 77 1c 3d aa 1f 68 3e
       0.33047438 0.30460268 0.0381998 0.22668329
000050 a3 3f de 3e 92 29 e5 3e 42 7e 51 3f cf c6 6f 3e
       0.43407926 0.44758278 0.8183328 0.23415683
000060 a2 2d d4 3d 5c 4e fe 3e 0d f9 01 3e 3d 5b 81 be
       0.10360266 0.49669158 0.12692662 -0.25264922
000070 a7 dd d9 be de 7c 88 be d7 ec 1d be 32 75 cf bd
       -0.4255192 -0.26657766 -0.15422378 -0.10129775
000080 56 7c 71 3d f2 e5 e2 3e 79 69 b6 3e bb 02 b8 3e
       0.058956467 0.4431606 0.35627344 0.35939583
000090 e0 82 dc bc e4 18 11 3e d5 27 cd 3d e7 52 1a 3f
       -0.026917875 0.14169651 0.10017363 0.6028275
0000a0 bc c4 85 3e 17 b4 74 3e 9a 57 db 3e 8f 5a 83 3e
       0.2612666 0.23896824 0.42840272 0.25655028
0000b0 f3 43 80 be dc 0b 55 bd 87 f3 a6 3e ad d7 e3 3e
       -0.2505184 -0.052013263 0.32607672 0.44500485
0000c0 8b 6d 86 3e 7f 40 10 3f 0f 11 ff 3e 13 aa 61 3e
       0.2625545 0.56348413 0.49817702 0.22037534
0000d0 c5 d9 9b 3e 05 48 55 3e bc 79 e8 3e 49 97 7f 3c
       0.30439582 0.20828255 0.45405376 0.015600034
0000e0 01 71 4f be ed 9e e2 3e ba 6d dd 3d 31 2a 74 be
       -0.20257951 0.44261876 0.10811944 -0.2384422
0000f0 fc f4 ec 3e c9 21 a3 3e a8 7f 30 3e d7 57 88 be
       0.46280658 0.31861714 0.17236197 -0.26629516
000100 60 bb be bd 11 db 1a be 99 9a 93 bc 2e c3 86 bd
       -0.09313083 -0.1512263 -0.018018054 -0.06580196
000110 0f d1 f8 bd 3c 0f 0c bd 2f 74 09 bc d0 c6 40 be
       -0.1214925 -0.034194216 -0.008389517 -0.18825841
000120 3a 7c bf 3e 14 e4 56 3e 6b 4d 39 3e 2b ba 56 3e
       0.37399465 0.20985442 0.18095939 0.20969455
000130 aa f8 17 3d 0f 78 a4 bd aa 09 07 be 83 07 25 be
       0.03710238 -0.08030712 -0.1318728 -0.16116147
000140 5e d3 5b be 3c 4b 92 3e 82 06 1f bb 16 ab 65 3d
       -0.21467349 0.28573024 -0.0024265354 0.056071363
000150 ca 98 34 bd cf 55 81 be 47 25 98 be 18 03 0b be
       -0.044091024 -0.2526078 -0.2971594 -0.13575399
000160 1f 9d 6d be 38 5c 3f be 7d 42 41 3d 71 50 27 be
       -0.23204468 -0.18687522 0.04718255 -0.1633928
000170 6e 62 bb bd d4 a3 ba bd ca 59 f7 bd f2 ce 60 bd
       -0.09149633 -0.09113279 -0.12077673 -0.05488486
000180 f8 e9 b4 bc fc 33 74 bd d2 70 67 be ee 32 f4 bd
       -0.022084221 -0.05961989 -0.22601631 -0.119237766
000190 c9 e1 9d be 4e 3b 97 3d 01 13 23 be db 36 33 be
       -0.30836323 0.07384358 -0.15925218 -0.17501394
0001a0 17 00 a7 3c ea 51 25 be ef a4 4c be 25 75 8b 3e
       0.020385785 -0.16144529 -0.19984792 0.27237812
0001b0 41 4e 9f bd 21 a5 e2 3d 7f 5a 2f be 30 04 da 3d
       -0.077785976 0.11066652 -0.17124365 0.1064533
0001c0 fe 29 08 be 93 31 43 bc 85 fe 2e 3e e3 c6 36 3e
       -0.13297269 -0.011913675 0.17089279 0.17849307
0001d0 93 b7 b8 bb 77 48 df 3e a4 83 09 3f fd ee 2b 3f
       -0.005637118 0.43609974 0.5371649 0.6716154
0001e0 18 ab ba 3e 67 79 16 3f f2 97 24 3f 2a 85 db 3e
       0.3645866 0.58778995 0.6429435 0.42875034
0001f0 f8 25 d6 3e 4b 7c 0b 3f fc 62 ba bd ee 3f 99 3e
       0.41825843 0.5448653 -0.09100911 0.29931587
000200 12 09 23 3e 8f 69 f2 bd ab 72 99 3e 28 f0 9d 3e
       0.15921429 -0.1183654 0.29970297 0.30847287
000210 89 1c 65 3e 28 17 81 3e b9 3c 95 3e c6 a8 6d be
       0.22374167 0.2521298 0.2914789 -0.23208913
000220 d8 39 af bc b7 ec 2d 3d ef 53 66 be a4 2f 28 be
       -0.021389887 0.042462077 -0.22492956 -0.16424423
000230 3f ce 80 be 54 ed ed bd c1 37 fa 3b d8 86 87 be
       -0.25157353 -0.11617532 0.007636041 -0.26470065

encoder.0.bias f4 [16]
000000 1a bb 4b b9 59 fd 03 3a 00 a0 b3 3a cc fe 72 ba
       -0.0001942929 0.0005035005 0.00137043 -0.0009269535
000010 67 4e 63 ba 7b e4 0a 3b 98 36 8b ba ed 2f 85 3e
       -0.00086710457 0.0021193314 -0.0010621129 0.26013127
000020 79 b8 96 3e 2b e3 b9 3e ea bd 91 3e a2 52 ac 3e
       0.29437616 0.36306128 0.28465205 0.33656794
000030 7a 5f ab 3e 67 93 19 3b 23 20 ec 3a 45 9e d5 3e
       0.3347128 0.0023433806 0.0018014949 0.41722313

encoder.2.weight f4 [32, 16, 3, 3]
000000 92 35 7b 3d f1 ac 56 bd 3f 71 76 bc 0d ea 99 3c
       0.061330386 -0.052411024 -0.015041648 0.018788362
000010 05 d2 3f bd af a5 3b 3d 4f 20 bb bc e9 f0 57 3a
       -0.04683115 0.045812305 -0.022842554 0.00082374975
000020 30 a5 40 3d c5 52 ba bc f0 ee d6 bd 52 80 6f 3c
       0.047032535 -0.022744546 -0.104947925 0.014617996
000030 54 81 62 bd fc b4 62 bd 5a f0 81 3d f0 e6 50 bd
       -0.05529912 -0.05534838 0.063446715 -0.05100149
000040 83 be 92 3c e4 fc fe 3c 8d 27 b0 3c 67 42 7a be
       0.017913109 0.031126447 0.021503234 -0.24439393
000050 45 4c 3f bd 90 bd ab bd 1e f5 67 be 52 d7 10 3e
       -0.046703596 -0.083857656 -0.22652099 0.14144638
000060 e5 36 53 be b9 30 84 bd d6 b8 c2 3d 53 e9 65 bc
       -0.2062641 -0.064546056 0.09507911 -0.01403268
000070 0a 14 4c bc 4c c1 e4 3d 15 ac ed bc f1 ec 29 bd
       -0.01245595 0.11169681 -0.02901272 -0.04148573
000080 14 24 ad 3d 7a 76 96 bd 59 b9 37 bd 7e f0 0d be
       0.08454147 -0.07346816 -0.044854496 -0.13861272
000090 6f 9d ed 3d dd 59 ed bd 67 73 ae bd 0a b9 b8 3a
       0.11602294 -0.11589406 -0.08518105 0.0014093232
0000a0 d0 5f e2 bd 0b a9 92 3d e8 52 30 be 5e 29 54 bc
       -0.11053431 0.07161149 -0.17219126 -0.012949316
0000b0 df dd a5 3d f7 bd 1a bb 4a 32 79 be c2 c5 85 3d
       0.08098959 -0.0023611763 -0.2433559 0.0653186
0000c0 d4 eb da bd f5 61 4a be 81 de 51 3e de 52 44 be
       -0.10689512 -0.1976393 0.20495035 -0.19172236
0000d0 b8 15 32 bd 12 e3 03 3e f9 a2 0e 3e fd 05 43 bd
       -0.043477744 0.12879589 0.13929357 -0.047613133
0000e0 1e 27 0f be 8f c8 94 3d 53 c4 fb bd 8b 52 ae bd
       -0.13979766 0.07264816 -0.12293305 -0.085118376
0000f0 bb 91 ea bd b7 8d 93 bd 3b 7a 90 3c 9e 71 97 3c
       -0.11453577 -0.07204764 0.017636409 0.018486794
000100 b5 a4 8f 3d bf 58 ab bc 84 94 63 bc d9 72 e3 3c
       0.07013837 -0.02091634 -0.013890389 0.027764725
000110 54 8f 9b bd b6 04 10 3c e2 ee 82 3c d0 65 6e bd
       -0.07595697 0.008790186 0.015983049 -0.058202565
000120 74 cf 94 3d a6 ec ec bc 6d df d7 bd b2 8a 65 3d
       0.07266131 -0.028921437 -0.10540662 0.056040473
000130 e6 1f 9d bb 8b 90 23 bd 6a 60 09 bb d3 62 dd bc
       -0.0047950624 -0.03993277 -0.0020962008 -0.027024662
000140 70 1e 3d 3d 5b 33 3c 3d 5c 16 4a 3d dc 84 cb bd
       0.046171606 0.045947414 0.04933773 -0.0993745
000150 7b 1d bc 3d ea 4e 38 3c 10 48 20 bd 98 d0 72 3d
       0.091853105 0.011249283 -0.039131224 0.05928096
000160 2a 86 a4 bc c2 c8 bf bd b0 89 c4 3c 40 58 8b 3d
       -0.020083506 -0.093644634 0.023991436 0.06803942
000170 ca f3 02 bd ba f1 e6 3c 60 1e be 3c c0 b7 8d bd
       -0.031970777 0.028191436 0.023207843 -0.06919813
000180 b1 47 86 3c fa 03 e1 3b 5f 6d 4e bd b6 2c 3a 3b
       0.016391607 0.006866929 -0.050397273 0.0028407997
000190 39 8e 85 3d 08 19 43 3e 31 38 3d 3c ed a3 8c 3d
       0.065212674 0.19052517 0.011549042 0.06867204
0001a0 78 85 2a 3d 0f dd 9a 3d 51 0c 97 3d 1e 46 67 3d
       0.041631192 0.07561695 0.07375396 0.056463353
0001b0 67 ad 8e 3d b6 08 6a bc 8c cd da ba 7f a4 0f bc
       0.069666676 -0.014284303 -0.0016693338 -0.008767246
0001c0 ce 1c 27 3c 2c 07 5d bb da e0 53 bd c9 01 a3 bc
       0.010199739 -0.0033726199 -0.051728107 -0.019898312
0001d0 ec 1b 1e 3d 8b fb 41 3d 54 de 99 be 73 22 ad 3d
       0.038600847 0.04735903 -0.30052435 0.08453836
0001e0 be 09 ae bd 91 a4 66 be 57 3e 73 3e 36 c3 4a be
       -0.08497952 -0.22523715 0.2375425 -0.1980103
0001f0 20 7d 1c bd 8a 0c 37 3e 9d 1f c2 bc 6b 26 f1 bd
       -0.038205266 0.17875877 -0.023696715 -0.11774906
000200 0d 3f 75 3d 45 88 85 bd d8 9e 85 bd c4 37 ed 3d
       0.059874583 -0.06520132 -0.06524438 0.11582902
000210 89 6b b4 bd ec d6 e9 3c d6 bd af 3d f2 ec 96 bb
       -0.08809573 0.028544866 0.0858113 -0.004605883
000220 35 d6 75 3d 28 ce 37 bd 64 84 c3 bc df f3 24 3d
       0.060018737 -0.04487434 -0.02386684 0.040271636
000230 9f 7d b2 bd 9f 95 01 3d 69 2e b3 3b 4c 52 00 be
       -0.087153666 0.03163683 0.005468179 -0.12531394
000240 60 7c 10 be 99 7e bc bb db c1 38 3d a3 e2 b0 bd
       -0.14109945 -0.0057523963 0.04510675 -0.086369775
000250 01 67 8c bd 97 35 a5 bc 27 36 1f 3d eb 47 dd 3c
       -0.06855584 -0.020167155 0.038870003 0.027011832
000260 23 3b 67 3d 83 cd 12 bd fe 74 78 bd 4d 8c 71 3d
       0.05645288 -0.035840522 -0.060658447 0.058971692
000270 b2 c1 1d 3c 00 79 04 bd 90 f2 27 bd d2 0a 02 3d
       0.0096287 -0.032341957 -0.04100281 0.0317486
000280 d4 49 57 3d 6d e0 e9 3d 51 6b 03 be 44 be c5 bd
       0.052560642 0.11419759 -0.12833907 -0.09655431
000290 9c 2c 36 3b 11 e5 06 be a2 3e 45 be 9c 79 6c be
       0.0027797585 -0.1317332 -0.19262174 -0.23093265
0002a0 a2 5c 2d 3d 95 fe ee bd 3e 7e 1a 3e 59 c3 d0 bc
       0.04232467 -0.116696514 0.1508722 -0.025483774
0002b0 9a 86 37 bd e2 28 b8 bd c9 00 09 3e 85 0b e2 3d
       -0.0448061 -0.08992173 0.13379206 0.110373534
0002c0 b0 df a4 3d c5 50 b8 3d 3d 48 b4 3d 9c 03 6c 3e
       0.080504775 0.089997806 0.08802841 0.23048252
0002d0 a2 d8 da bd 13 8d 2e bd bf 6a 59 bd 99 10 9d bd
       -0.10685851 -0.042615008 -0.053080317 -0.076691814
0002e0 09 51 d3 bd 80 76 4d be 80 c8 a1 3d 47 e4 99 bb
       -0.103181906 -0.20064735 0.078995705 -0.0046964022
0002f0 83 88 19 3d 59 66 a2 bd d6 78 a3 bd 41 df bd 3d
       0.037483703 -0.079296775 -0.07982032 0.09271098
000300 00 84 9a bd 05 2f 3f be e0 f2 f3 bd f0 14 77 3d
       -0.07544708 -0.1867028 -0.11911559 0.060322702
000310 9a e9 e2 bd 1b 33 46 3e 8a a7 34 be d0 11 8a b7
       -0.11079712 0.19355433 -0.17642036 -1.6459177e-05
000320 de e4 59 3d 27 a7 ad 3b b7 9b 50 3d b9 78 92 bd
       0.05319678 0.005299467 0.05092975 -0.07151932
000330 4d bf f7 3d df 81 c1 3d c7 ac 55 3d 24 e3 05 3e
       0.120970346 0.09448599 0.052166726 0.13074929
000340 59 71 68 3d e7 22 c9 3c 93 49 26 3d 68 8f 17 3c
       0.05674872 0.024552776 0.04059751 0.009250499
000350 6b 4a 18 bd 03 5e ab 3c 0b cc 34 3c 90 e2 a9 bd
       -0.037180346 0.020918852 0.011034976 -0.082951665
000360 61 42 9f bc 77 25 61 3d df f5 1f 3d cb 37 6c bd
       -0.019440832 0.05496737 0.03905284 -0.057670396
000370 af 21 08 bd 46 44 88 3a eb 19 be 3c 44 66 56 3c
       -0.03323525 0.0010396324 0.023205718 0.013085905
000380 b7 37 49 bd 9f b1 60 3c 59 7c 7e 3d 26 18 93 3c
       -0.0491254 0.013714223 0.062130306 0.01795585
000390 76 47 85 3c 1e 06 8c 3d 5a 33 09 3b 86 88 16 3d
       0.016269427 0.06837104 0.002093515 0.036751293
0003a0 3b e5 9f bb 69 cc b1 bd 43 a1 9b 3d 91 12 0b 3d
       -0.0048796213 -0.08681566 0.075991176 0.033953253
0003b0 82 4f 80 3d 51 97 04 3d f6 e0 06 3d 76 87 8f 39
       0.06265165 0.03237087 0.032929383 0.00027376012
0003c0 b0 21 6d 3c e3 a1 68 bb 33 ef c1 bd fd 3a ea 3d
       0.014473364 -0.0035496883 -0.09469452 0.11437032
0003d0 fe 64 ab 3d a8 5e a8 3d 90 36 2c 3d 5c e9 11 3c
       0.08368872 0.08221179 0.042044222 0.008905735
0003e0 f8 f0 ce 3d 96 4f 02 3d 98 ea 9e 3c 92 df d2 3d
       0.10104555 0.03181418 0.019398972 0.10296549
0003f0 1e 7c 23 3d 4a 92 c4 3b eb ea 83 3d 84 40 55 3d
       0.03991329 0.0059988843 0.064412914 0.05206348

encoder.2.bias f4 [32]
000000 01 c6 24 3d 8f c8 b6 3c ba e5 f7 3c 21 8e b7 3c
       0.040227894 0.02231243 0.03026091 0.02240664
000010 c2 e9 5d 3d 3e 82 61 bc 6f a3 97 b8 65 85 e6 3d
       0.054178007 -0.013763962 -7.230683e-05 0.11255912
000020 3e 8c 06 bd 87 93 c1 3c ad aa ad bc 5a 07 b4 bb
       -0.03284859 0.023629917 -0.021199549 -0.0054940404
000030 fe 2c 13 3d 8e e8 79 bc b8 19 3d 3d f7 d9 61 bd
       0.03593158 -0.015253199 0.046167105 -0.055139508
000040 aa 5b 88 bd 66 d4 17 3c 85 ec d4 3c 4d 55 06 3d
       -0.066581085 0.009266948 0.025991688 0.032796193
000050 15 d7 18 3e 6b 69 59 bb a1 d0 95 bc df a7 5f bc
       0.14925797 -0.0033174406 -0.018287959 -0.013650863
000060 c1 e4 e9 3c 70 e5 4e bc 4b 32 10 bd f1 4d a2 3c
       0.028551461 -0.012627944 -0.035204213 0.019812556
000070 0f f8 ed bc bb 8d 14 3c 06 83 dc bc 01 65 05 bd
       -0.029048948 0.009066994 -0.026917946 -0.032567028

encoder.4.weight f4 [64, 32, 7, 7]
000000 26 66 2b 39 13 31 a2 ba 8e 14 d1 bb b6 82 90 3b
       0.00016345884 -0.0012374244 -0.006380624 0.004410113
000010 f5 d7 33 bb 9c a9 0e 3c 44 19 93 3b 55 eb cd 3b
       -0.0027441953 0.00870743 0.004489096 0.0062841573
000020 27 61 cc bc 31 a4 df bc 42 f6 b4 bd 5d f5 36 bd
       -0.02494867 -0.027299972 -0.088360325 -0.04466759
000030 74 d5 a3 3c 9d 28 8d bb 2a 06 93 3c 03 85 b9 bb
       0.019999243 -0.00430782 0.017947275 -0.005661608
000040 9c 55 06 bd 10 6c a5 bd 9e 76 11 3d c8 e0 14 3d
       -0.032796487 -0.08077252 0.035513513 0.03634718
000050 a7 1f 80 bb 2b a0 c5 3c e4 a8 3b bc 8e 2b 01 bd
       -0.0039100233 0.024124226 -0.011453841 -0.031535678
000060 4c e7 4a bb d9 f0 16 3d d1 32 d2 3c a3 21 2c bc
       -0.0030960618 0.036850784 0.025658997 -0.0105060665
000070 80 c6 a8 3b e8 47 fe 3b 21 b6 f5 3b 43 23 65 bc
       0.005150616 0.0077600367 0.007498518 -0.013985458
000080 f6 96 43 bc fe dd 1a bd 1b 3d 05 bd 6d f4 d5 ba
       -0.011937847 -0.037809364 -0.032528978 -0.0016323455
000090 46 f5 57 3c 45 c2 4a 3c 88 de 53 3d 05 d6 6c ba
       0.013181036 0.012375419 0.051725894 -0.0009034577
0000a0 b4 f3 41 bd d3 69 84 bc a8 c8 2d 3b aa 1f c6 3b
       -0.047351554 -0.016163742 0.0026517306 0.006046255
0000b0 a4 ac 06 3d ef 66 a0 3d 27 e3 57 bc 15 6e da bc
       0.032879487 0.07832133 -0.013176716 -0.02666382
0000c0 15 e5 d3 ba 2a 24 c0 b9 35 a6 98 bb b6 19 85 bc
       -0.0016166294 -0.00036648038 -0.0046584853 -0.016247611
0000d0 fa 2d ad ba a9 6b 79 bc 99 2e 09 bc 12 ea 58 bb
       -0.0013212555 -0.015223422 -0.008372926 -0.00330985
0000e0 4a 31 12 b9 3c c4 32 bc b7 01 9b bb 55 94 b8 3c
       -0.00013942007 -0.010911044 -0.004730429 0.022531668
0000f0 a9 11 3c 3d b2 cf 17 3d 4c 87 9e bb 9c a2 58 3a
       0.04591528 0.037063308 -0.004837906 0.0008263977
000100 14 3d 73 bc dc a9 02 bd 89 da 01 3d c0 44 4a 3d
       -0.014846105 -0.03190027 0.031702552 0.04938197
000110 ef fd 91 bd 8c 87 0a bd 6a ee 49 3b 4b 98 c1 bc
       -0.07128512 -0.033820674 0.0030812272 -0.02363219
000120 57 31 57 bd 59 98 f6 3c aa 87 8a bc e9 70 15 bb
       -0.05253729 0.030101942 -0.016910393 -0.0022802895
000130 73 fd b6 bb 62 ab 78 bb 57 09 c5 bc e9 3c f2 3c
       -0.0055844127 -0.003794395 -0.024052305 0.02957006
000140 7d cc 26 bb a1 8a a4 3c 88 f3 92 3c d7 a2 86 3c
       -0.0025451474 0.020085635 0.01793839 0.01643507
000150 20 87 8e bb cb e5 12 3c f1 41 83 3c 1f 80 59 3b
       -0.0043496042 0.00896592 0.016022654 0.0033187938
000160 9f a8 f5 bd 79 9b b1 3d 63 21 a1 3b 10 03 2c bb
       -0.119950525 0.08672232 0.00491731 -0.0026246943
000170 45 fa 51 bc 0e 52 49 3a e9 00 f9 bb c9 d1 29 3d
       -0.012816017 0.00076797686 -0.0075989855 0.041459832
000180 1d 0a 76 3c 83 e1 25 bc d2 e6 12 b7 2e bc 72 bb
       0.01501706 -0.010124567 -8.75602e-06 -0.0037038433
000190 32 ca 4d bc cf 4d 83 bb 9a d8 0e bc c9 0b 04 3b
       -0.012560414 -0.0040070782 -0.008718634 0.0020148626
0001a0 41 41 21 ba 67 5f ac 3a f6 5c 4c ba 4d 84 f5 ba
       -0.0006151386 0.0013150991 -0.00077958347 -0.0018731445
0001b0 63 38 9a bc be 95 0f bd 2d ca 8a bb 05 f9 8b bc
       -0.018825715 -0.035054915 -0.004235527 -0.017086515
0001c0 fa 1a db 3a 18 b3 1f ba f1 a1 bd bc 46 45 a4 bc
       0.0016716414 -0.00060920557 -0.023148509 -0.020052563
0001d0 98 20 21 bc 2b 0f a4 3b 68 00 c1 3c fa b3 44 3a
       -0.009834431 0.005006691 0.023559764 0.0007503625
0001e0 d5 8c 16 bb 2c 02 74 3c 52 85 0f 3c 33 fc 88 bc
       -0.0022972126 0.014893096 0.008759813 -0.01672182
0001f0 5d 67 80 3d 50 ea 5d 3d 59 b8 75 bb db e8 f8 bb
       0.06269715 0.054178536 -0.0037493913 -0.007596118
000200 4a 4a 89 3c 44 85 f8 3a 44 3c 07 3d 11 12 ba 3c
       0.016759057 0.0018960615 0.03301646 0.022713693
000210 5e 82 5d 3c d4 95 b1 ba 20 e8 1e 3c 0b b1 6d 3d
       0.0135198515 -0.001354868 0.009698898 0.05803017
000220 10 8b 9e 3d d1 20 40 bd d9 33 10 bd 98 fe fd b9
       0.07741368 -0.046906296 -0.035205696 -0.00048445608
000230 8c 9f e6 b9 b3 62 58 3b 40 a2 7d 3d 99 12 7d bc
       -0.0004398789 0.0033017814 0.06192231 -0.015446329
000240 bd 6f 1d bd c3 f1 13 bd b9 41 45 3b ac 2a 4c 1a
       -0.03843664 -0.036119234 0.0030098988 4.222068e-23
000250 22 f7 95 2a f4 09 53 bc cb 71 52 bc f6 e8 e3 3b
       2.66392e-13 -0.012880791 -0.012844513 0.0069552613
000260 e4 59 23 39 3a 7d c2 ba a1 46 66 25 f4 65 26 3a
       0.00015578378 -0.0014838346 1.997325e-16 0.00063475897
000270 fe 32 0d bd bc 13 31 bd 16 b2 0e bc 8c ab cb bc
       -0.034472458 -0.04323171 -0.008709451 -0.024862073
000280 98 3a 06 bb 57 ba 25 34 8a 86 96 bb 39 7d e6 bb
       -0.0020481702 1.5434613e-07 -0.004593675 -0.0070339707
000290 11 8c 06 bd 6d e3 be 3d fc f2 50 3c ba 91 44 3c
       -0.03284842 0.09320722 0.0127532445 0.011997635
0002a0 9d 6e 0b 35 13 31 86 3c c5 7e 2d bd 3b b8 b9 bd
       5.19425e-07 0.016380822 -0.042357225 -0.09068342
0002b0 a4 60 ee 3b 59 13 b1 bb d1 7d d2 bd f5 cb 00 26
       0.007274704 -0.0054039177 -0.10277904 4.4685334e-16
0002c0 1c 3f 6b 3b 31 71 84 bc 3d 65 2d 3d f7 d4 82 bd
       0.003589577 -0.016167255 0.042332876 -0.06388276
0002d0 14 ae 7e bd 8e 95 ad bd 14 d3 11 a4 6b 09 b4 b9
       -0.062177733 -0.08475791 -3.1620653e-17 -0.00034339292
0002e0 04 3b ab bc 9c 24 c0 3c 97 88 91 3c 45 fc 10 bc
       -0.020902164 0.023454957 0.017765326 -0.008849208
0002f0 4d 56 19 bd b0 c0 96 26 61 8d c6 b9 5d 7f cb 3c
       -0.03743582 1.0460569e-15 -0.00037870838 0.024841005
000300 ad f2 dc 3d c9 ed 0d 3d 1e 26 07 3b 65 dc 9d bc
       0.10788474 0.034650598 0.0020622085 -0.019270131
000310 5d 60 05 80 98 8e 9e ba 07 e1 6e bc 17 0d 22 bc
       -4.93746e-40 -0.001209694 -0.014580018 -0.009890816
000320 ef bb 24 bc f6 9f 5b bb 7c 41 b1 ba 02 9a a7 b9
       -0.0100545725 -0.0033512092 -0.0013523544 -0.00031967467
000330 fd f9 bf bb 9f 25 3b bd 62 dd fd bc d9 01 af bc
       -0.0058586583 -0.045690175 -0.030989353 -0.021363186
000340 5c 6c bf bc a8 01 09 38 eb 7b 9f ba 77 f3 28 3d
       -0.0233671 3.2664888e-05 -0.0012167668 0.04124781
000350 d7 4e 63 3c 2c 5f 0a bd e9 18 02 3c ba e5 65 3c
       0.013873777 -0.03378217 0.007940509 0.014031822
000360 6b cd 9c 3b eb ed af 3b 5e 0d a0 3c e5 28 88 3c
       0.00478523 0.005368938 0.019537624 0.016621063
000370 e4 47 c1 3b 40 f9 76 bb 90 c5 a4 bc b9 de 9d 3b
       0.0058984626 -0.0037685186 -0.020113736 0.0048178104
000380 0e 55 10 bb 2d 27 0b bc b2 f0 6d 3c a1 aa 8a 3c
       -0.0022023353 -0.008493227 0.014522718 0.016927065
000390 e3 97 bd 3c c9 0d 4d 3d 26 86 01 3d 42 5a 69 3b
       0.023143714 0.050061975 0.031622075 0.0035606776
0003a0 2b d5 e5 3a 92 86 bf 3c f4 c3 39 bc f9 e6 84 3b
       0.0017534842 0.023379598 -0.011338223 0.0040558544
0003b0 4e 0c 10 bd ee 2f e1 3b 7c 03 94 ba 0e c1 1d bc
       -0.035167985 0.0068721687 -0.0011292542 -0.009628547
0003c0 34 23 25 bd a0 40 aa bd 21 d9 97 bd eb 70 7a 3c
       -0.040316775 -0.083131075 -0.07414461 0.015285711
0003d0 e3 ef a2 ba 8b 9b 58 3b 85 c0 78 3b d2 15 98 3c
       -0.0012431111 0.0033051695 0.0037956547 0.018565092
0003e0 2e e7 ee 3c 17 84 da 3c a5 4a 8b 3c f6 52 af 3b
       0.02916297 0.026674313 0.017003367 0.005350466
0003f0 37 0b 36 3b 03 41 47 bb 91 94 a5 bc 7c 3e d7 3c
       0.002777768 -0.003040374 -0.020212444 0.026274912

encoder.4.bias f4 [64]
000000 88 83 31 bb 10 c6 03 3b 0b 9b a0 3a ab 19 eb 3b
       -0.0027086455 0.0020107068 0.0012253238 0.0071746907
000010 f7 11 0d 3a d8 6b 1d bc 46 d0 02 3c df 56 f4 bb
       0.00053814 -0.0096082315 0.007984227 -0.007456645
000020 4a dc 61 3b 7b 6f ab 3a cf 06 0b 3b 2e 94 2a 3c
       0.0034463578 0.0013079488 0.0021213775 0.010411305
000030 93 32 2e bb fc 3f cf b8 e6 43 d7 3b 8b ce 7c 3b
       -0.0026580438 -9.882447e-05 0.0065693734 0.0038575258
000040 9e f6 0a 39 73 a1 cb 3b 1a bf 60 bb 17 c9 38 3c
       0.00013252578 0.0062143146 -0.0034293593 0.011278412
000050 d7 8b 8f bc c2 ff a7 bb 30 dd dd 3b 69 90 fd ba
       -0.017522736 -0.0051269243 0.0067707524 -0.0019345406
000060 1f 11 f1 b9 6b 45 66 3c f6 15 21 3c fc 55 af bb
       -0.00045979858 0.0140546365 0.009831896 -0.0053508263
000070 4c 86 d7 3b a8 ca 20 bb f0 e5 d0 3b a3 2e 95 3b
       0.0065772887 -0.0024534855 0.006375067 0.0045526787
000080 2e d9 8e bb 04 82 5d 3c b8 92 bc 3a 05 ec dd 3b
       -0.004359386 0.013519768 0.0014386987 0.0067725205
000090 cd 05 e9 ba df 43 64 bb 27 0b 09 bc a9 44 8c ba
       -0.0017778218 -0.0034830493 -0.008364475 -0.0010701615
0000a0 49 bf 47 bc b9 1d 98 3c 07 be f8 bb 7c 8c 6a bb
       -0.012191602 0.01856886 -0.0075910124 -0.0035789302
0000b0 02 c5 2f bc 44 9d 5d bb 95 16 63 3b b6 55 b1 b7
       -0.010728123 -0.0033815661 0.003465091 -2.1139957e-05
0000c0 51 81 17 bb fe 63 8d bb 24 3c c4 bb 0f 59 d3 3b
       -0.002311785 -0.0043148985 -0.0059886146 0.0064498256
0000d0 2d b0 b7 bb 22 d8 46 bb ec e4 81 ba 11 10 82 3c
       -0.0056057186 -0.0030341228 -0.0009910143 0.015876802
0000e0 ef 52 59 3b 58 b5 18 3c ea 82 08 bc 5f 69 4f bb
       0.0033161005 0.0093205795 -0.008331994 -0.00316485
0000f0 f8 23 ec bb 51 84 10 bc 66 70 6d bb 95 e4 06 3c
       -0.0072064362 -0.008820609 -0.0036230325 0.008233209

encoder.6.weight f4 [10, 64]
000000 1f dd 04 be 6e bf 53 3c 70 4f 58 bd ab 04 73 3a
       -0.12974976 0.012924058 -0.052810133 0.000927041
000010 2d 66 b6 3c e7 94 70 be 78 71 5d 3e 53 ce 3a be
       0.022265518 -0.23494302 0.21625316 -0.18242769
000020 e7 3a cc bd 6a f2 38 bd 80 a6 0f 3e 31 c9 c8 bd
       -0.09972172 -0.04515306 0.14028358 -0.09803999
000030 09 3f 5c be 20 ab 56 3e c2 90 c7 bd 24 c3 d1 3c
       -0.21508421 0.20963717 -0.09744407 0.025605746
000040 d3 b2 b9 3d f8 a7 d8 3b ad b2 d0 3d ee 13 81 3e
       0.09067311 0.0066118203 0.1019033 0.25210518
000050 4b 3f ae be 3b 40 6c 3e 01 f0 1b bd c8 83 15 be
       -0.34032664 0.23071377 -0.038070682 -0.14601052
000060 92 33 35 be d9 1a 4f 3e e8 49 30 3e 06 10 bf 3d
       -0.17695454 0.20225085 0.17215693 0.09329228
000070 6c 3e db 3d 4a 9d 9c be 8f 66 bf 3d 22 15 d3 3d
       0.107052654 -0.30588752 0.093457334 0.10306765
000080 85 6c 2a 3e 31 c3 81 3d 53 44 81 bd 78 ba 97 bd
       0.1664296 0.06336058 -0.0631186 -0.07408613
000090 d4 50 4e be 9b c2 b6 bd 12 50 aa bc 3b d0 9f bd
       -0.20148021 -0.08923837 -0.020790134 -0.07803389
0000a0 9b e1 46 bb 57 b3 99 3e ca e1 89 bd 87 29 a1 3c
       -0.0030346874 0.30019638 -0.06732519 0.019673122
0000b0 2c 24 60 be fe d6 bc bd 18 34 5e 3d d4 bb b3 3d
       -0.21888798 -0.09220694 0.0542489 0.0877606
0000c0 6c 34 87 bd 63 fc b0 3d 54 40 8e be f3 86 ec bd
       -0.066017956 0.08641889 -0.27783453 -0.11549177
0000d0 fb 29 a9 3d 4e c7 c2 3c 93 d1 59 bd 23 8c e2 3d
       0.0825996 0.023776677 -0.05317838 0.11061885
0000e0 d0 59 50 bd 88 46 0b be 63 45 75 be d0 a0 57 be
       -0.050866902 -0.13601124 -0.2395225 -0.21057439
0000f0 af 61 9f bc f4 b5 eb 3d 8c 9a 45 be 19 62 05 3e
       -0.019455759 0.11509314 -0.19297236 0.13025703
000100 eb 2d 1b 3e 49 46 37 be 81 67 05 3b de 42 d8 3d
       0.15154235 -0.17897905 0.0020355883 0.10559629
000110 52 b3 2e bd b6 0b 7c 3d 50 5f 90 3e e0 0c 1e 3d
       -0.042651482 0.061534606 0.28197718 0.038586497
000120 6e 46 b2 3d 30 1a ad bc 06 e1 10 be 0f cc df bc
       0.0870484 -0.021130651 -0.1414834 -0.027318982
000130 98 32 ec 3d 62 40 99 3d f6 a5 d9 3d fe 53 ad 3d
       0.115330875 0.07482983 0.10627358 0.08463286
000140 0a 25 4c 3e 86 0b 66 3d ec 83 8a bd 04 9c 1e be
       0.19936004 0.056163333 -0.06763443 -0.15489203
000150 19 9e d6 3d 4f 82 4a bb 38 fc e6 3d 14 56 be bd
       0.104793735 -0.0030900424 0.11278576 -0.09293762
000160 b5 58 c2 bd dd 9a 39 3e ff 18 42 be 28 6c 42 39
       -0.09489576 0.18125482 -0.18954848 0.00018541573
000170 e7 ad af bd e1 5a 8f 3d 26 cd 83 3e 84 6e 48 be
       -0.08578091 0.06999756 0.25742453 -0.19573408
000180 da 77 c6 3d a6 47 99 3d 69 c1 79 3c 63 a9 6e 3e
       0.096908286 0.07484369 0.0152438665 0.23306803
000190 db b7 da bd d6 6b 53 3e 91 47 85 bd c4 02 0d bd
       -0.10679599 0.20646605 -0.06507791 -0.034426466
0001a0 ed 4e 2b be 20 9c 92 3e fc 93 21 be 6a d2 a1 bd
       -0.16729327 0.2863474 -0.15779108 -0.079014614
0001b0 d9 77 e4 bd fa 9b de bd 16 67 0a be 3b a2 35 be
       -0.111556716 -0.10869594 -0.13515887 -0.17737667
0001c0 15 7e 2c bd 08 f5 da bd b6 8c 47 be d5 aa 71 3e
       -0.04211243 -0.10691267 -0.1948727 0.23600323
0001d0 8d 0a 40 3c 4a 13 7b 3e 81 d4 0d 3d b9 d7 35 3e
       0.0117212655 0.24519077 0.034626488 0.17758073
0001e0 3c 3a d1 3d 1c 23 f0 3d 06 a8 dc bd 81 bb 80 bd
       0.102161855 0.117254466 -0.107742354 -0.062857635
0001f0 16 bf 72 be 0b 2c 1b be d9 07 fc bd c0 11 a0 3d
       -0.23705706 -0.1515352 -0.12306184 0.078158855
000200 5d a3 02 3e 33 f8 55 3d 62 34 c9 3d 77 29 46 3e
       0.1275763 0.052238654 0.09824444 0.19351755
000210 c3 47 d1 3d 27 ea 2f 3e 35 cd 79 3d 58 52 d7 bd
       0.102187656 0.17179166 0.060986716 -0.10513753
000220 9f f1 87 3d 04 0f 6b bd f3 4f a0 bb 59 d9 e7 bd
       0.066378824 -0.057387367 -0.004892343 -0.11320753
000230 8e 8e 38 3e a1 b6 b2 3d f7 6d 3f 3d 36 5a c2 3d
       0.1802313 0.0872624 0.04673573 0.094898626
000240 5d 67 ad 3d d8 c9 0b be a4 bc f1 bd 28 f0 36 3e
       0.084669806 -0.13651216 -0.118035585 0.1786505
000250 f0 23 7b bd 8b d9 29 be 86 8a 97 3c 82 0b 2e 3e
       -0.06131357 -0.16586892 0.01849867 0.16996577
000260 d8 cc 49 3d e4 12 1d be 09 a9 10 3e 41 9c 11 be
       0.04926762 -0.15339237 0.14126982 -0.14219762
000270 0d 8b cf bc 38 28 12 be 3c 33 a0 3e 39 cf 77 3e
       -0.02533486 -0.14273155 0.3128909 0.24200143
000280 32 75 52 be 24 15 db 3d 27 16 55 3b a0 c0 04 be
       -0.20552519 0.10697392 0.0032514425 -0.12964106
000290 8b df c3 3c fe f3 41 3e 6f d5 38 be 58 00 4f 3d
       0.023910305 0.18940732 -0.18050168 0.050537437
0002a0 ae 6f 92 3d d4 c0 0e be 52 13 36 be 33 6b 1b 3e
       0.071502075 -0.13940746 -0.17780808 0.15177612
0002b0 e9 c6 7c 3c c3 5c 39 3b e6 9a df bd 66 24 62 bd
       0.015428283 0.002828405 -0.109182164 -0.055210494
0002c0 0a c2 fa bd c9 1f 90 bd 34 44 6e 3e 8b df 62 bd
       -0.12244041 -0.070373125 0.23268205 -0.05538897
0002d0 f1 83 32 be 3d 1f 31 be 42 f0 69 3d 06 0e 17 3e
       -0.17433144 -0.17297073 0.057113893 0.14751443
0002e0 c1 d6 d4 bd de 38 9a 3e 6e 16 12 3c 5e 9d cb 3d
       -0.103925236 0.3012151 0.0089164805 0.09942125
0002f0 49 2e 35 be d0 51 b8 3d 80 94 4d 3e d2 02 3c 3e
       -0.17693438 0.089999795 0.2007618 0.18360451
000300 53 0b 3c 3e a5 d8 59 be 3b 98 e9 bb de 2c 58 be
       0.18363695 -0.2127405 -0.007128743 -0.21110865
000310 b7 5f 1d be b2 62 29 3d 9e ee 3f 3e 06 80 08 be
       -0.15368544 0.04135389 0.18743369 -0.13330087
000320 7d 14 e3 bd f7 ee dd bd e7 5e 61 3d 1d e2 59 be
       -0.11087892 -0.108365946 0.055022147 -0.21277662
000330 9a 60 b9 bd da 50 2a 3e 38 32 4e be a3 89 17 be
       -0.090516284 0.16632405 -0.20136344 -0.14798598
000340 5f 4f 1c 3e bf e7 44 be 33 f5 47 be 4f 0b ee bb
       0.15264653 -0.19229029 -0.1952713 -0.0072645317
000350 ce b9 89 3d 94 01 f0 bd b9 8b 21 be 0d 34 03 bd
       0.067248926 -0.11719051 -0.15775956 -0.03203206
000360 2d 38 1b 3e 82 e6 ba bd 65 bc 96 bb 60 b6 84 3e
       0.15158148 -0.09125997 -0.004600095 0.2592039
000370 66 4d 32 be 7d ba b7 3c 29 e3 a4 bd 01 fd 15 3d
       -0.17412338 0.022427792 -0.0805114 0.036618236
000380 1c 19 f5 3d 03 da b3 bd 22 22 b9 bd df 65 76 bd
       0.1196768 -0.08781817 -0.090397134 -0.060155746
000390 58 a7 01 3e bb 24 16 ba 8a 4f 85 bd 6e c0 6a bd
       0.12661493 -0.0005727519 -0.065093115 -0.05731242
0003a0 79 d4 b7 3c 63 3f 9b bc 01 a4 25 be a7 bd 2a 3e
       0.022440182 -0.018951124 -0.16175844 0.16673909
0003b0 ef ba f5 bd 0b 18 c5 3d bf 4e 2a 3e 47 52 2d 3e
       -0.119985454 0.096237265 0.16631602 0.16925918
0003c0 3f 14 1a bb d8 6b 17 bc ed 9b 34 3e 14 bc e3 bd
       -0.0023510603 -0.009242021 0.17637606 -0.111198574
0003d0 56 1a 10 3e 3b 86 2f 3e 63 92 81 bd ed e5 0a be
       0.14072546 0.17141049 -0.06326749 -0.13564272
0003e0 39 13 db 3c e2 8f 2a 3e 5c 38 1b 3d 24 75 21 3e
       0.026742565 0.1665645 0.037895545 0.15767342
0003f0 3f 6f 87 3d d9 65 2e 3e dc a8 1f be d1 57 69 3d
       0.066130154 0.1703104 -0.15591758 0.056968514

encoder.6.bias f4 [10]
000000 ed ac 3e 3c e9 d8 1c bc 67 01 9a 3d 0f 74 7b 3c
       0.011637908 -0.0095732 0.07519799 0.015347495
000010 fc 8d 90 3c c2 0c 8e bd 72 6e 26 bc 82 4f 91 bd
       0.017645828 -0.06936027 -0.010158168 -0.07095243
000020 bb 36 52 3c c5 66 8e 3d
       0.012830432 0.069531955

decoder.0.weight f4 [64, 10]
000000 f2 a5 a7 be 07 a1 5f 3e c9 80 3a 3e 4d 56 8b be
       -0.32743794 0.21838771 0.1821319 -0.2721428
000010 0b 28 1f 3e 7a 85 1e be 7f 20 86 3e 4d f3 04 3e
       0.15542619 -0.15480605 0.26196668 0.12983437
000020 b7 8e e0 bd b5 0d b0 3e dd 9d 5a 3d 72 01 0e 3d
       -0.10964721 0.34385458 0.053373206 0.034669347
000030 59 ec a9 bd 2e 3e 56 3e 45 b8 91 be 69 7d db 3d
       -0.08297033 0.20922157 -0.284609 0.107172795
000040 06 e0 6c 3d 6f 3a 82 3e 2c 3a c0 3d bd 8f c0 3b
       0.057830833 0.25435206 0.093860954 0.00587651
000050 b6 30 39 be 36 ae ae 3e fd d4 f6 bd b7 54 9d be
       -0.18084988 0.34117287 -0.12052343 -0.30728695
000060 37 a9 67 3e 34 87 a6 be 99 bf 9c be f9 12 84 be
       0.22623144 -0.32525027 -0.30614927 -0.25795725
000070 cb 70 c4 3e 57 79 dd bb d7 ab 39 3e 02 a3 30 3e
       0.38367304 -0.0067588496 0.18131958 0.17249683
000080 15 1b a5 3e 9a 60 d3 be d5 29 dd be c1 2b 7d bd
       0.32247224 -0.4128464 -0.43195978 -0.061809305
000090 f6 6c 06 3d 85 91 5e 3e cb 32 33 3e 0e f4 71 3e
       0.032818757 0.21735199 0.17499845 0.23628256
0000a0 7f b4 47 3e b3 fb cb 3d 2e 4b ae 3c da 83 81 3e
       0.19502448 0.09960117 0.021276083 0.25295907
0000b0 1e f1 16 3e 85 f5 e8 bd 2d 98 54 be a0 5d 50 be
       0.14740416 -0.11374954 -0.20761175 -0.20348215
0000c0 34 1a 71 be c2 1f 74 3e cd 4c b2 bd e6 3f 97 3c
       -0.23545152 0.2384024 -0.08706055 0.018463086
0000d0 40 b3 4c bd 3d 81 51 3e b9 58 10 be e7 6c 99 3e
       -0.049975634 0.20459457 -0.14096345 0.29965898
0000e0 77 db eb bd ed b4 f8 3c 2b 2f 10 3e ce 1b 89 3e
       -0.11516469 0.03035971 0.14080493 0.26779026
0000f0 c4 26 2b be 73 3f bd bd d0 99 16 bc 46 96 05 be
       -0.16714007 -0.092406176 -0.009191945 -0.13045606
000100 e7 de 57 bd dd eb a0 3e 61 a8 51 bd 07 ef de 3c
       -0.05270281 0.3142995 -0.05118597 0.027213586
000110 b9 0a cf bd 9d 76 65 3d fd 7c cc 3d 7d e0 80 3e
       -0.10109467 0.05602132 0.09984777 0.2517127
000120 ba 72 3c 3e f6 7b 8b 3d 37 0e 8a bd 9f 49 50 3e
       0.1840314 0.06810753 -0.067409925 0.20340584
000130 6d c2 ec bd 21 49 42 be 9a 81 64 be 16 d4 ad bd
       -0.11560521 -0.18973209 -0.22315064 -0.08487718
000140 b2 40 12 be 68 54 6f 3e d1 c2 40 be f6 14 c1 3d
       -0.14282492 0.23372042 -0.18824317 0.09427826
000150 ee dd d3 bd f7 81 f4 3d 2d e8 fa 3d 90 12 80 3e
       -0.10345064 0.11938851 0.12251315 0.25014162
000160 f1 a8 8c bc 57 67 1d 3d 20 12 d7 3d e6 71 d4 bd
       -0.017170401 0.03842863 0.10501504 -0.10373287
000170 88 81 12 be 88 6c 45 be 74 bb 4a be e4 4b 1e bd
       -0.14307225 -0.19279683 -0.1979807 -0.038646594
000180 75 43 c4 bd 2f 77 63 3e 9f d8 29 be b1 01 54 be
       -0.09583179 0.22213434 -0.1658654 -0.2070377
000190 45 49 81 be f5 96 d3 3c 9c db 09 be 92 b6 38 3d
       -0.25251213 0.025828818 -0.1346268 0.045095988
0001a0 6d 06 00 be 28 30 85 3e c9 45 61 3e 1e 27 49 be
       -0.12502451 0.26013303 0.21999277 -0.19643828
0001b0 0b ec ed bd c6 7b e0 bd 7e 80 a2 3e cf 53 5a 3e
       -0.11617287 -0.10961108 0.31738657 0.21321033
0001c0 26 00 d7 3c 34 f0 91 bd 27 79 ee 3d 23 da e4 ba
       0.026245188 -0.07125893 0.11644202 -0.0017460029
0001d0 67 65 56 be 25 d9 0a 3e c5 73 50 bd 47 e3 1a be
       -0.2093712 0.13559397 -0.050891656 -0.15125762
0001e0 6b 72 7b be 38 0e 26 be 9d 40 83 3d df 2a 97 3e
       -0.24555366 -0.16216362 0.064088084 0.29524896
0001f0 33 52 3f be 77 8b 80 be b5 44 26 be 37 6f 82 bb
       -0.186837 -0.25106403 -0.16237147 -0.003980543
000200 fa 60 64 be 32 ed 9f be 40 4b 4b 3e 36 58 d5 bc
       -0.22302619 -0.31235653 0.19852924 -0.026043039
000210 a0 9c 50 3e ba 4c 4c be f5 18 57 bd b6 98 50 3e
       0.20372248 -0.19951144 -0.052514035 0.20370755
000220 d0 32 cd be 69 6e 85 3e 6b 1a 55 3e a3 bb 90 3e
       -0.4007783 0.260608 0.20810859 0.28268155
000230 55 df 67 bd 5a 8d 1b 3e cd c4 8d bd 5d e3 be ba
       -0.05660947 0.1519064 -0.069223024 -0.0014563609
000240 fb 6f a3 bd 1e 3d f4 3d 84 f8 ed bc 94 b9 29 3e
       -0.07980343 0.1192572 -0.029049166 0.16574699
000250 dc a6 a7 3d 44 5c 2b 3e 9b d2 74 bd 03 7c e0 3d
       0.08186123 0.16734415 -0.05977116 0.10961153
000260 1a f0 56 be 2f 42 08 bd 26 c4 54 be fa 43 86 3d
       -0.20990029 -0.033266243 -0.2077795 0.06555934
000270 4b 6a 5d 3e 66 a9 12 3e 34 62 c9 3d b0 98 b9 bd
       0.21622579 0.14322433 0.09833184 -0.09062326
000280 1a 07 8f bd d7 aa b6 be 33 77 92 3e 7f 96 6e 3e
       -0.069837764 -0.35677215 0.28606567 0.23299597
000290 1d 2e bc 3c 22 30 a7 be f9 bb 83 be 27 c4 37 3e
       0.022971207 -0.3265391 -0.2572935 0.1794592
0002a0 19 2e c1 3d 12 28 6f 3e cc 63 fc 3c 49 7a b2 bc
       0.094326206 0.2335513 0.030809306 -0.021786826
0002b0 0e b7 a3 be 80 95 85 3e 47 13 e6 3d c8 ff 82 bd
       -0.31975597 0.26090622 0.112341456 -0.06396443
0002c0 b2 79 9f 3e 08 f7 3f 3e c5 89 b9 3d 2d 39 7a be
       0.31147534 0.18746579 0.090594806 -0.24435873
0002d0 ef 77 ee bd 16 7d 93 3e 92 1a 4b 3e d1 84 89 bd
       -0.11643969 0.2880637 0.19834355 -0.06714786
0002e0 75 87 ee bc 5e df b5 3e ee 51 7c be 80 bc 80 3d
       -0.029117325 0.35521978 -0.24640629 0.062859535
0002f0 14 b5 2f be 45 a6 70 3e 6b 3b 97 3d cd 95 9d 3e
       -0.1715892 0.23500927 0.0738438 0.3077835
000300 1b a7 4c bd 4c c7 f5 bd e2 08 02 3e b7 e8 de 3d
       -0.04996405 -0.120009035 0.12698701 0.108842306
000310 e6 c6 3a bd 07 c9 48 be 61 3d 1d be 33 12 fc bd
       -0.04559984 -0.19607936 -0.15355445 -0.12308159
000320 a8 39 b0 ba ec cc 09 3e 48 54 a2 3e 01 a4 d0 3e
       -0.0013444917 0.13457078 0.31704926 0.40750125
000330 bc dc aa be fe 6a 1e be 37 7e cc be 5e a3 d5 3d
       -0.33371532 -0.15470502 -0.39940044 0.104315504
000340 22 96 69 3e 45 08 a1 bc 3d 47 01 bd 82 d4 8e be
       0.22811177 -0.019657264 -0.03156208 -0.27896506
000350 97 50 82 3e 72 69 10 3e 7e b6 64 bd f1 3f 09 3e
       0.2545211 0.14102724 -0.0558381 0.13403298
000360 1c fc 88 3e db 9a 53 bd 8b 7c 76 be 88 bf 25 3e
       0.26754844 -0.051661354 -0.24070947 0.16186345
000370 94 f3 f6 bd 7e c6 08 3c ca 70 76 bc 1f b4 90 be
       -0.120581776 0.0083481055 -0.015041539 -0.2826242
000380 f6 6b da bd 19 d6 29 3e 11 de 78 be e9 20 83 3e
       -0.10665123 0.16585578 -0.24303462 0.25611046
000390 54 02 e6 bd d2 64 4e be bb d7 b4 be c3 68 97 be
       -0.11230913 -0.20155647 -0.3532084 -0.29572114
0003a0 0d 16 87 3e f0 d9 b1 bd 32 88 ac bd af 94 d7 3c
       0.2638401 -0.086841464 -0.08424415 0.026316015
0003b0 30 ee 95 be 61 a7 56 3e 33 b4 5c 3c 20 d8 5e be
       -0.29283285 0.20962287 0.013470697 -0.21762133
0003c0 e0 88 d8 bc ea a3 82 be de 0c 03 bc 26 b5 04 be
       -0.026432455 -0.25515682 -0.007998673 -0.12959728
0003d0 8d 04 dc 3c e2 8f da 3d 37 7a 4a bd e1 e0 83 bd
       0.026857639 0.10671975 -0.04943296 -0.064393766
0003e0 61 42 c6 3d 14 8b 9d 3d 8d 8f 9c 3c 9b 8d 6e 3e
       0.096806295 0.07692543 0.01911142 0.23296206
0003f0 83 35 44 be 62 71 f3 3d 36 04 01 3e 38 a6 63 3d
       -0.19161038 0.118868604 0.12599263 0.05557844

decoder.0.bias f4 [64]
000000 68 0b 0d 3d e1 dc 11 3c 1a 41 1a be 34 a7 10 be
       0.034434706 0.008902759 -0.15063897 -0.14126283
000010 75 2f 28 bd 7f e9 ca bc d3 f2 9e 3b 8f 30 a7 3d
       -0.041060884 -0.024769543 0.0048507242 0.08163559
000020 27 fb d1 3c c3 70 8c bb 13 2f ee bd f6 a6 3a 3e
       0.025632454 -0.004285903 -0.116300724 0.18227753
000030 e4 24 30 3e 68 ca 12 be af 9a 28 bd dd 5c 82 bd
       0.17201573 -0.14335024 -0.041163143 -0.063653685
000040 10 e5 2c 3d 0a bf 4d 3d f7 59 fc 3d 90 86 2f bd
       0.04221064 0.050231017 0.12321847 -0.04285294
000050 8f a9 a7 3d 3d 52 6e bd e6 06 14 3d 34 68 94 bd
       0.081866376 -0.058183897 0.03613939 -0.07246438
000060 1e a8 50 3d 36 08 5f 3d 9c 03 ca bd c5 44 0d 3e
       0.05094158 0.05445119 -0.0986397 0.13795765
000070 84 5d 18 bd 88 ef d7 3b 74 9f b1 3d 30 0b e0 bd
       -0.03719856 0.0065898336 0.086729914 -0.10939634
000080 55 38 52 3d 9e b2 87 bd 0c 59 e2 bd 7c cd fc 3d
       0.051323254 -0.066258654 -0.110521406 0.123438805
000090 78 3f d3 3d 6a 55 8e bd 25 20 cb bd 65 ef c4 bd
       0.1031484 -0.06949885 -0.099182405 -0.096159734
0000a0 f9 0b bc 3d c9 7c 41 bc 2c 44 1f be e9 bc f9 bd
       0.09181971 -0.011809536 -0.1555335 -0.12194235
0000b0 78 17 c0 39 0b d9 87 3a 79 64 03 3e b0 c4 c2 bd
       0.0003663858 0.0010364366 0.12831296 -0.095101714
0000c0 1b 8e d1 bd 06 90 13 be be e5 30 be e1 da dc 3d
       -0.102321826 -0.1441041 -0.1727514 0.10783935
0000d0 0b a2 41 bd fe 26 75 3d bc 2a 6b 3d 64 65 d1 bd
       -0.047273677 0.05985164 0.0574138 -0.10224417
0000e0 2e 8f 29 bc 31 82 a7 bc 9b ff c4 bd 3b 19 12 3e
       -0.010349078 -0.020447822 -0.096190654 0.14267437
0000f0 23 f9 8e bd 2e 74 f5 3c 7e e3 44 be 86 3d c4 3d
       -0.06981113 0.029962625 -0.19227406 0.09582047

decoder.2.weight f4 [64, 32, 7, 7]
000000 28 fb 10 3c df 1d b9 3c 99 2c 10 bc af 52 2b 3b
       0.008848943 0.022597251 -0.008799695 0.0026141813
000010 b6 2b f5 3b 2c a5 cb bb e7 ef 1b 3c 48 56 05 3c
       0.0074820174 -0.0062147584 0.009517646 0.008138247
000020 e9 8a cc bc 78 67 d0 bb 25 ab a0 bc 32 50 bc bd
       -0.024968581 -0.0063599907 -0.019612858 -0.091949835
000030 10 b4 e6 bd ab c7 49 3b 3a 2f e9 3c aa 73 9d bc
       -0.11264813 0.0030789177 0.028464902 -0.019220192
000040 ed 73 0b bd 6d 4c f6 bb 95 14 c5 bc 92 16 35 bc
       -0.034046102 -0.007516435 -0.024057666 -0.011052744
000050 e1 6f b1 bc 7c 81 85 3c e0 fc 9d ba 04 0d c5 bd
       -0.021659793 0.016297095 -0.0012053512 -0.09621623
000060 99 2d 69 bd 0a 90 96 3c b5 b1 b9 bb 5d eb 03 bc
       -0.05692825 0.01837923 -0.0056669363 -0.00805172
000070 c1 ca ce 3c 6a 27 cf 3b d5 70 28 be 6f c2 d3 bb
       0.025243165 0.006321837 -0.16449292 -0.0064623873
000080 b4 e8 ae bb f1 f9 9a bd 0a 18 92 bc 05 39 b8 bc
       -0.005337799 -0.07567204 -0.017833728 -0.022488127
000090 30 3b 82 bb 8c d3 88 bc c7 da af bc 0f 57 c4 bc
       -0.003974341 -0.016702436 -0.021466626 -0.023967294
0000a0 ba 20 ca bc e7 f8 7c bc 01 81 06 3d b5 af 18 bc
       -0.024673808 -0.015440202 0.03283787 -0.009319236
0000b0 0f aa fa 3c 4d 58 d2 bd 61 83 68 bd cd a9 b8 3c
       0.030598668 -0.10270748 -0.056765918 0.022541905
0000c0 ad 2f 39 3c 84 5b 05 80 54 70 05 80 0b fb 7f 9c
       0.011302871 -4.92007e-40 -4.99473e-40 -8.469689e-22
0000d0 f5 f6 ab 35 fa 44 94 b5 6c 7f a0 a8 b8 8f 86 9a
       1.2812367e-06 -1.1046934e-06 -1.7818829e-14 -5.565329e-23
0000e0 db 70 05 80 73 1b e4 ba c8 9d c2 a0 b3 b9 73 b9
       -4.99662e-40 -0.00174032 -3.296929e-19 -0.00023243464
0000f0 f5 27 54 b8 08 12 db bc 80 58 05 00 d7 5d 05 00
       -5.058195e-05 -0.026741996 4.90925e-40 4.92841e-40
000100 91 bd f9 3b b9 94 fa 3c f3 6f 92 a7 80 31 c9 3c
       0.007621475 0.030588495 -4.0644516e-15 0.024559736
000110 5d f9 19 ba d5 99 be 9f 24 47 3b 98 51 5e 71 bd
       -0.0005873645 -8.0722624e-20 -2.42051e-24 -0.058927838
000120 a4 9f f6 bb 90 6b 75 bd 15 4b ee 3d e8 28 a2 3d
       -0.007526355 -0.059917033 0.116354145 0.079179585
000130 b7 4c 06 3d 97 a1 05 80 2f 02 c0 b3 cf 96 30 3c
       0.032788005 -5.17145e-40 -8.941094e-08 0.010778143
000140 13 5e 23 3d 35 23 ad 3b 9f 91 98 bc 62 3c 12 3d
       0.039884638 0.005283738 -0.018624125 0.035702117
000150 96 65 05 00 55 84 df bb c4 00 67 3d 3b ed c9 3c
       4.9562e-40 -0.006821195 0.056397215 0.024649253
000160 4b 61 05 80 fa 77 4d 3d a3 e9 75 35 2e 52 b5 2c
       -4.9408e-40 0.050163247 9.16096e-07 5.153453e-12
000170 ff 10 fa 3c 42 40 f2 3c 4e eb 68 3d c2 03 8c 3d
       0.030525682 0.029571656 0.05686503 0.06836654
000180 12 86 4e 3d db 32 00 3d 89 bb 69 3b f6 e1 1a 8b
       0.05042083 0.0312985 0.0035664758 -2.9829315e-32
000190 bd cc fd b9 75 01 69 3b 0b bf bc bb fa 9d 05 80
       -0.00048408462 0.0035553847 -0.005760079 -5.15849e-40
0001a0 17 48 64 b7 6e 2c a3 3b a5 af 9c bc be d5 47 3c
       -1.3606644e-05 0.0049796617 -0.019126723 0.012196956
0001b0 4d bc 05 80 4c 1c 8d bc 42 9d 05 00 8b 2f 9b bc
       -5.26727e-40 -0.017225407 5.15591e-40 -0.018943569
0001c0 9c 75 35 37 c0 c4 a9 b3 f6 a3 ef bd 23 2d e4 bd
       1.0815824e-05 -7.9054644e-08 -0.11701195 -0.11141422
0001d0 62 9e 05 00 9f fc ad bb de b5 1a 3d 72 c7 fb 3b
       5.15995e-40 -0.005309656 0.0377711 0.007683688
0001e0 8b 5d 05 00 17 23 80 bc b1 79 05 00 10 52 35 bb
       4.92734e-40 -0.015641732 5.02832e-40 -0.0027667321
0001f0 87 e1 f7 3c a2 b9 3f bd ad 8f 69 3b a8 92 05 80
       0.030258907 -0.046807893 0.0035638616 -5.11788e-40
000200 b0 60 07 3c 57 0f 81 bd d3 4a 17 be c6 2b 65 3d
       0.008262798 -0.06301754 -0.14774637 0.05594995
000210 48 c2 18 bd ae 72 56 b2 c5 76 4e bd 40 7a 05 80
       -0.037294656 -1.2482515e-08 -0.050406236 -5.03033e-40
000220 d6 4c fb 3c 0c 32 f5 3c f8 bb 15 3d 26 29 b2 bd
       0.030676287 0.02993109 0.036556214 -0.08699255
000230 35 71 05 80 e2 8b 87 bd 18 10 17 bc 43 bb b3 bc
       -4.99789e-40 -0.066184774 -0.009220146 -0.02193988
000240 45 5d 05 00 60 69 05 00 ce 77 05 80 29 96 10 3c
       4.92636e-40 4.96979e-40 -5.02155e-40 0.0088248635
000250 04 a9 ce 3b fb cb f6 3c f7 a9 6b 3d b7 b7 43 3c
       0.0063067693 0.030126562 0.057535138 0.0119456565
000260 e7 6e cb 3c bf 97 f3 3c b9 81 27 3c 67 3c 43 3d
       0.024833156 0.029735444 0.010223799 0.047665026
000270 e1 6a 8c 3b 0e a9 ef bd dd 39 a4 bd a1 eb 63 bd
       0.004285202 -0.117021665 -0.08018849 -0.055644635
000280 c6 f3 89 3b d5 48 b9 3c b8 13 71 3d bd e5 af bd
       0.0042099683 0.022617737 0.058856696 -0.08588741
000290 d7 00 1d bd ff 50 50 bc 21 e4 87 3c 9a 47 77 3b
       -0.03833088 -0.0127146235 0.016588273 0.0037731887
0002a0 e9 c6 cc b9 13 c7 1e 3d 3d 74 49 be 67 3f 46 bc
       -0.00039058112 0.03876407 -0.19673248 -0.012100077
0002b0 2e fa bf bd 43 83 01 be 3c d6 e4 3c 0d ad 98 b9
       -0.0937389 -0.12647729 0.027934186 -0.00029120632
0002c0 e4 5d 63 3c 0c fd e7 3c fd 99 11 be c8 26 70 bc
       0.013877366 0.028318904 -0.14218898 -0.014657684
0002d0 43 08 5f 3b 1f 01 42 bd 11 1f e6 bc a3 2a 22 3d
       0.0034032024 -0.04736435 -0.028090985 0.039591443
0002e0 e9 ea 34 bc a0 1b b9 bd 43 72 08 3d 91 9d 2c 3c
       -0.011042335 -0.09038472 0.033312093 0.010535614
0002f0 07 15 bb 3b 50 59 af 3b c4 d9 0b 3c 19 5b 7e bd
       0.0057092938 0.005351223 0.008535806 -0.062098596
000300 bf 56 3c 3d 81 04 fa bb 34 9c 6d 3c 8e 43 3a 3c
       0.045981165 -0.0076299314 0.014502574 0.011368645
000310 f7 4d 6f 3b 76 14 fc 3b 37 75 af 3b 24 79 20 3b
       0.0036514977 0.007692869 0.0053545493 0.0024486268
000320 e1 c0 68 bc 8c 6d e0 bb ce 4d 7e 3c cf 8a a1 3b
       -0.014206142 -0.0068489965 0.01552148 0.0049298774
000330 af a1 34 3d 98 d8 3e bd e8 05 a4 bd 3e 67 c3 bd
       0.044099506 -0.04659328 -0.08008939 -0.09541176
000340 ed 59 88 3d bc e4 a5 3c 16 1d 04 bc 80 e1 93 bd
       0.06657777 0.02025067 -0.008063575 -0.07220745
000350 60 33 73 3c ea 12 14 bd 3f 12 6b bd 2e 12 79 bb
       0.014843792 -0.03615085 -0.057390448 -0.003800522
000360 74 78 c6 3c 99 e6 2d 3b fe 63 c8 bc 53 1a 2d be
       0.024227358 0.0026535152 -0.024461742 -0.16904573
000370 22 4b 75 ba a0 d8 1b bd 5b 99 76 bd 90 1c cd bb
       -0.0009357204 -0.038048387 -0.060204845 -0.0062595084
000380 99 fc bb bb cd 4d 8f bc ad a8 37 bc 5a a3 9b 3c
       -0.005736899 -0.017493153 -0.011209649 0.01899879
000390 89 bf 06 be 21 27 58 3c 7d 7a b2 3c 3d 51 94 bc
       -0.13159002 0.013192923 0.021786923 -0.018105144
0003a0 31 fc b0 3c 6c 20 a9 bd a1 af e6 bc b7 9a 30 bc
       0.02160463 -0.08258137 -0.028159918 -0.010779074
0003b0 f8 4b 7e bc 22 79 a8 3d bd 67 cc 3b dd 50 4e 3c
       -0.015521042 0.08226229 0.0062379525 0.0125925215
0003c0 a4 97 2a bd 7b 3a bd bd 49 d2 f1 3a a8 ec 28 3d
       -0.041648522 -0.0923967 0.0018449511 0.041241318
0003d0 ae 70 c4 3c ed 9c 16 3c 5a 34 30 39 8d b0 79 bb
       0.023979511 0.009192687 0.0001680417 -0.0038099617
0003e0 7a 69 45 bb e8 2d cc 3c 74 2f 60 bb 51 df 9e 3b
       -0.0030122683 0.024924234 -0.0034207972 0.0048483987
0003f0 02 40 2e 3c da ac 77 bb 00 78 6e b9 d7 9c 29 bd
       0.010635378 -0.0037792237 -0.00022742152 -0.04140934

decoder.2.bias f4 [32]
000000 7b 4d f9 3d fd 55 18 bf b8 88 ad bd 31 b0 54 3e
       0.12172981 -0.5950621 -0.08473343 0.20770337
000010 43 11 8e 3d 9e f2 1a 3d ad 10 50 3e 99 4f bf 3e
       0.06936886 0.037829034 0.20318861 0.37365416
000020 34 b7 32 3e a4 7f 17 3e 91 13 01 bd 22 4b 47 3e
       0.17452699 0.14794785 -0.0315128 0.19462255
000030 8c 90 fa 3d 0d ce 16 bf be 3b 6a 3e a6 38 a8 3e
       0.122346014 -0.5890816 0.22874352 0.3285572
000040 81 7a a8 be 62 e7 a6 3c c1 29 16 bf 49 78 36 3e
       -0.32905963 0.020374004 -0.5865746 0.17819323
000050 70 d4 5e bd 16 a6 7a 3e 35 79 0e 3e ef e7 bb 3e
       -0.054401815 0.2447742 0.13913424 0.3670039
000060 fc 4f ca 3e 19 70 7c 39 77 cd 66 3d fd 1b c5 3d
       0.39514148 0.00024074352 0.05634829 0.09624479
000070 37 2a 04 3d b5 52 ae be 72 25 24 bf 72 78 a5 3e
       0.03226682 -0.34047475 -0.64119637 0.32318455
