02_Representations/model_weights/autoencoder_best.pth (torch, 882882 bytes, 12 tensors)

encoder.0.weight f4 [128, 784]
00000000: 397e 0580 037b 0680 25ed 0580 14be 0580
00000010: bb6f 0680 b50c 0680 5f99 0680 38b6 0500
00000020: 526a 0500 075b 0580 71e4 0500 5c90 0680
00000030: 3690 08b6 7785 d1b8 9594 da38 5292 aeb7
00000040: c55c 0500 eaa2 0500 e8ea 0580 29ae 0500
00000050: d0dc 0580 5bd6 0600 fa9b 0500 3b9a 0580
00000060: c754 0600 2d7b 0580 ab4e 0680 3ced 0580
00000070: b0c3 0580 3691 0580 d484 0580 2e48 0600
00000080: d88b 0580 bc7e 0680 1e42 3cb8 4da4 33ba
00000090: b440 cabb f456 53bb 342d 2dbb f6f6 b7ba
000000a0: 3b74 3bbb a1ee 26bb d05d 6dbb 4d63 20bb
000000b0: 6c56 65bb c051 5bbc 3a9a 2dbc c291 48bb
000000c0: 4f0f 1a3a 510b 653a 4e68 1db3 d9ae f5b3
000000d0: ba60 0600 d2a9 0500 2ea1 0500 dc37 0680
000000e0: 7d6b 0500 c9bf 0500 f721 0600 c531 f72c
000000f0: 7608 a238 d40f e2b8 60af 27bb fece 69bc
00000100: 52b3 75bc 05f4 03bc cc5f 95b9 094c c43a
00000110: 7963 6139 bd5c e43b 4fb4 2e3c 6a47 113c
00000120: 23b9 c83b 202d d9ba b6f6 ee3b 5fab 123c
00000130: 425c 24bb e644 a9bb 9139 aebb 546f 98bb
00000140: 207f e9ba 3767 c5b5 bc80 0580 2f5f 0580
00000150: 20de 0580 cf57 0600 7290 01ae 3bc7 4f38
00000160: b90c 103b 8ff9 87ba d067 1bbc 8d85 66bc
00000170: f640 03bc 6a5f bfbb d03b 353b 04ce 2a3c
00000180: fa61 963c a182 153d 727d 323d 134e 1a3d
00000190: e8d0 d73c 221b da3c ec21 a33c 02a5 bd3b
000001a0: 1964 3ebc 9dfd b4bc a455 a2bc 66db 82bc
000001b0: 14d0 95bc 1c72 14bb 3a89 0580 28a3 0500
000001c0: c8fe 0500 7dd8 2f2f d8fe ad36 e009 f3b8
000001d0: 4d0b 42ba cdd4 0bbc 2d6a 97bb 6431 02bc
000001e0: b01b 0dbb bb06 ae3b e79c dc3b ce16 953c
000001f0: 5cd2 fc3c 3920 323d 9d64 2e3d 3d36 7d3d
00000200: d2c4 823d 6455 4f3d 9913 163d 7091 133d
00000210: 4a12 173d cee3 dd3c e8e5 023c 678a cab9
00000220: 3fac d6ba 7ac2 b3ba 9336 a0bb a649 78bb
00000230: 9897 0580 873c 0600 4cb6 6dbb 8fb7 10ba
00000240: 8d19 f538 3765 e6ba 7b55 fdba e4b2 ddba
00000250: a4f2 853c 263c b63c 767a a13c eeb1 f23c
00000260: 5d61 413d b5c6 263d da50 183d ffc3 413d
00000270: cf4c 0d3d d61e d73c f294 c03c 19f3 dc3c
00000280: 3b0b eb3c 960a 8e3c a2a5 a03c 3a1e d6ba
00000290: 4740 863b db0d cbbb ff33 95bb b9e3 c7bb
000002a0: a3f4 0580 d192 5a2a 0314 5bbb 49b0 01bc
000002b0: c151 28bb 009a 8ebc bd8e f5bb 0968 083b
000002c0: 30a6 91bb 55a5 613b 2547 c83c 352e 943c
000002d0: e007 333c e707 a43b 4d06 d13c b571 5d3c
000002e0: 42ee 763c 148a 683c dd33 433c 81de b2b8
000002f0: 967d fe3b 579a 343c df62 8b3a 803d c1bb
00000300: 7197 05bc 2a8d 3dbc bbc5 5abc 291e d83a
00000310: 4f7a 0600 28c0 e33a 5b81 5abb c043 fabb
00000320: 9534 1ebc ccc4 06bc 81db 84bb b63a a5bc
00000330: 9f85 d8bb a17a 69bb fec2 d4ba a908 413b
00000340: 86d8 7a3c fd15 753c 68aa 473c 4141 823c
00000350: 2c2e af3c b211 563c 111b bb3c 8280 f5ba
00000360: 0be9 4dbc b66c b2bb eb87 95bb 66d0 98bc
00000370: ec96 d5bc 97e0 acbc 9fd5 17bc ae82 043b
00000380: 571d 0680 980a 5abb fadd b439 9403 42bc
00000390: 81e5 7ebc f476 3abc 11fa 69bc 4fdc 75bc
000003a0: 9758 73bc f7a6 bdbb 4a08 9d3b a406 5abb
000003b0: 5200 c13b 0874 583c 3ccf 143c 9738 313c
000003c0: d18c ed3b 3579 d83b ae02 933c 2891 2b3c
000003d0: d375 c23b 1dbc b0bb d567 333b 7c2f 0dba
000003e0: 60b4 cabc 1c02 86bc 5966 2b3c b2b5 083c
000003f0: ea7c b8b6 8b91 c0bb 01ab 67ba 1eca a5bc
-5.04458e-40 -5.95141e-40 -5.44249e-40 -5.27365e-40 -5.91094e-40 -5.55571e-40 -6.06032e-40 5.24545e-40
4.97318e-40 -4.91832e-40 5.41127e-40 -6.028e-40 -2.034952e-06 -9.9907564e-05 0.000104227256 -2.0810552e-05
4.92457e-40 5.1762e-40 -5.43446e-40 5.21654e-40 -5.3839e-40 6.27909e-40 5.15131e-40 -5.14505e-40
5.81425e-40 -5.03365e-40 -5.79234e-40 -5.44281e-40 -5.29377e-40 -5.1127e-40 -5.06827e-40 5.76906e-40
-5.09344e-40 -5.96477e-40 -4.488427e-05 -0.0006852791 -0.006172264 -0.0032247873 -0.0026424648 -0.0014035392
-0.0028603214 -0.0025471824 -0.0036219247 -0.002447325 -0.0034994138 -0.01338619 -0.0105958525 -0.0030604457
0.0005876915 0.0008737343 -3.6649276e-08 -1.1440506e-07 5.85712e-40 5.20098e-40 5.16998e-40 -5.71052e-40
4.97737e-40 5.27977e-40 5.63197e-40 7.0256878e-12 7.726338e-05 -0.00010779468 -0.002558671 -0.014270542
-0.014996367 -0.008053784 -0.0002849087 0.0014976274 0.00021494729 0.006969063 0.010663106 0.008867124
0.0061255856 -0.0016569234 0.007292594 0.008951991 -0.0025079404 -0.005165684 -0.005316921 -0.004651943
-0.0017814375 -1.4707683e-06 -5.05359e-40 -4.93323e-40 -5.38861e-40 5.82513e-40 -2.9459497e-11 4.9538194e-05
0.002198024 -0.0010374057 -0.0094852 -0.014069927 -0.008011093 -0.0058402317 0.002765406 0.0104250945
0.018357266 0.03650153 0.043576665 0.037672114 0.026344731 0.026624266 0.019913636 0.0057874927
-0.011620545 -0.022093588 -0.019816227 -0.015973758 -0.018287696 -0.0022651022 -5.08405e-40 5.17707e-40
5.50576e-40 1.599307e-10 5.1854695e-06 -0.00011588982 -0.00074021966 -0.008534622 -0.0046208114 -0.007946346
-0.0021531396 0.005310861 0.0067325714 0.01819935 0.030862026 0.04348776 0.04257642 0.061819304
0.06385197 0.050618544 0.036639784 0.036027372 0.036882676 0.027086165 0.007989384 -0.0003863156
-0.0016378238 -0.0013714575 -0.0048893183 -0.0037885695 -5.13559e-40 5.72726e-40 -0.0036271987 -0.00055205164
0.000116872696 -0.0017577772 -0.0019327843 -0.0016914275 0.016351052 0.022245478 0.019711714 0.02962586
0.047211993 0.040716846 0.03718648 0.047306057 0.03449708 0.02625982 0.023508523 0.026971387
0.028691879 0.017339032 0.01961023 -0.0016335913 0.004097018 -0.00619672 -0.0045533176 -0.0061001447
-5.46937e-40 1.9413227e-13 -0.0033428676 -0.007915565 -0.0025683495 -0.017407417 -0.0074938224 0.0020813963
-0.00444486 0.003443082 0.024447987 0.01808844 0.0109271705 0.005005825 0.0255157 0.013515879
0.0150714535 0.014193077 0.011914221 -8.529146e-05 0.007766436 0.011023126 0.0010634324 -0.005897224
-0.008153782 -0.011569301 -0.013352807 0.0016488481 5.94889e-40 0.0017375993 -0.0033341262 -0.007637471
-0.009656091 -0.008225631 -0.004054487 -0.020169597 -0.0066077258 -0.003562607 -0.0016232429 0.0029454625
0.015310412 0.014958856 0.012186624 0.015900256 0.021384321 0.013065742 0.022840055 -0.0018730315
-0.012567769 -0.0054450883 -0.004563322 -0.01865406 -0.026072942 -0.021103187 -0.00926724 0.0020219493
-5.61538e-40 -0.0033270475 0.0003449766 -0.011841673 -0.015557648 -0.0113809 -0.014280812 -0.015006139
-0.014852664 -0.005787726 0.004792248 -0.0033268118 0.0058899308 0.013211258 0.009082612 0.010816715
0.0072494526 0.006606246 0.017945614 0.01047162 0.005934456 -0.0053935186 0.002737512 -0.0005385799
-0.024744213 -0.016358428 0.010461413 0.008344101 -5.4981692e-06 -0.005876725 -0.0008837432 -0.020237979

encoder.0.bias f4 [128]
00000000: f50a 5e3d b88c c63c 8295 26bd a556 333e
00000010: 6fd7 1ebc 9625 b6ba 3069 393d 29f6 913e
00000020: ab95 47bc 0481 3da7 7340 50bd 13a5 dd3c
00000030: 19dc 593e 7cb7 14b8 7636 623c 06c1 d5bc
00000040: ad72 8cab 7648 903c 29a4 acbc 65f7 95bb
00000050: 50d8 e2bc 8123 0a3d 2dca 523d e777 dc3c
00000060: 943f d5bb 961a e0b2 f313 3c3e 36b3 ca3d
00000070: 9e67 18bd 1aad 3dbd fc8e e7bc 12b0 62b3
00000080: e58a 2a3d b336 86bd dcb4 503e 59f6 633c
00000090: 1f92 f13d a14a c7bb 76b2 f7b5 7353 943e
000000a0: f098 149b 70ed c43d db6d 8f3d d8ec 8f3e
000000b0: 972d bfbc 1410 4d3d b754 613d 0e16 b43d
000000c0: 3fc7 0a3c 0277 47bc d145 3db4 32fd 383e
000000d0: 6e87 4fbd 199d e43d ff39 9cb3 ec0a 1fb7
000000e0: 5d0f 633e 0f09 67bb 3efd 8c3e 58dd 453e
000000f0: 5e97 84bd 3eb4 ebac a0b8 4e3d de72 25bc
00000100: 91e9 acbb 4612 6f3d ed70 c3bc 1c56 afbb
00000110: 9278 e9bc 9f4b 893d 1970 04bd 2110 d33c
00000120: cb4c 31bd efcc 73bd 4929 fa3c 74f0 5ebd
00000130: 34a6 c63d d8f2 2e3d f648 ab3d d257 243e
00000140: ff0e ae3d bf12 093d 9469 debc 5e8a febd
00000150: c670 593e 7aec 1abd 9d16 f33a 827d aabd
00000160: eb77 95b9 b334 4d3e 6a67 efb1 f384 713e
00000170: 790a 12bd 954b 9a3c 7ae1 db3d a793 deb9
00000180: dc34 d5bd 1e87 acbd c215 233e 2ece fb3c
00000190: c04e 3b3d 97af 88a4 68a4 5bbc ff3a 953c
000001a0: 808b a33e 4b6e bc3d 5595 8c3b 3665 0a3e
000001b0: abec 60bc fe23 7ebd c912 31bd 9453 9a3d
000001c0: e069 76bc 9a0d 2fbc bb23 a5aa 2198 a2bb
000001d0: ed5c 3e3e f574 6fbd 2d18 a6bd bcdf 153e
000001e0: 575d 3bbc df2f 363c ea9a 3abb 7a2a 909e
000001f0: 208c 823d 6af6 473d 7556 5b3c 0a78 463d
0.05420967 0.024237022 -0.040669926 0.17513521 -0.009694918 -0.00138967 0.04526633 0.28508118
-0.01218168 -2.6298958e-15 -0.050842714 0.027056253 0.21275367 -3.5456833e-05 0.01380693 -0.026093017
-9.979427e-13 0.017612677 -0.021074371 -0.004576611 -0.027691036 0.033725265 0.05146234 0.026912643
-0.0065078232 -2.6089122e-08 0.18366985 0.09897463 -0.037208192 -0.04630766 -0.028266422 -5.277986e-08
0.041636366 -0.06553402 0.20381492 0.013913714 0.117954485 -0.0060818945 -1.8454873e-06 0.28969917
-1.229169e-22 0.096156 0.07003375 0.28110385 -0.023337169 0.05006416 0.05501243 0.08793269
0.0084703555 -0.01217437 -1.7627396e-07 0.18065336 -0.050666265 0.111627765 -7.2748655e-08 -9.4796815e-06
0.2217383 -0.0035253202 0.27536958 0.19322717 -0.064741835 -6.6991126e-12 0.05046904 -0.010098187
-0.0052768667 0.058367036 -0.023857558 -0.005350841 -0.028499875 0.06703877 -0.032333467 0.025764527
-0.043286126 -0.05952161 0.030537264 -0.054428533 0.096996695 0.042712063 0.083635256 0.16049126
0.08498954 0.033465143 -0.027149953 -0.12428735 0.21234426 -0.037823178 0.0018546168 -0.0832472
-0.0002850884 0.20039634 -6.9675723e-09 0.23585872 -0.03565452 0.018834868 0.107363656 -0.0004245315
-0.10410473 -0.08424209 0.15926269 0.030737963 0.0457294 -5.927806e-17 -0.013405897 0.018216608
0.31942368 0.09200724 0.0042902627 0.13515171 -0.013728301 -0.062046044 -0.043230806 0.075354725
-0.015039891 -0.010684395 -2.933468e-13 -0.004961983 0.18590136 -0.05846115 -0.0811008 0.14636129
-0.011435828 0.011119812 -0.0028473684 -1.5264161e-20 0.06374383 0.048818983 0.013387312 0.048454322

encoder.2.weight f4 [64, 128]
00000000: e207 142b 00cf 092e e606 bd2d 834e b9a9
00000010: f099 0500 77e3 3020 76c9 f02d 3a08 1f2d
00000020: d094 8c2d 7640 0600 95bd 10ae 4d30 1baf
00000030: 07c5 392e 375e 0500 3702 372e e21b c92d
00000040: 6065 0580 12ab c6ad 717d fc2d 0f3f d92d
00000050: 46aa a3ad e3ef c12d f886 8a2c 6988 79ab
00000060: b824 0f2e 7c88 0500 90fb 72ac c8f8 c72d
00000070: aff6 5f2d 216e d62d d285 cbad 629d ee8e
00000080: c451 102e 29f4 d92d e65e f42c b3a2 63ae
00000090: 986c 912e c782 3dae 3222 0680 9944 8f2c
000000a0: 6370 0580 bb03 062e 6d94 472e de4b 9ead
000000b0: a3b5 1cab a16f 3f2e 61ad bb2e 9ad2 c12d
000000c0: 0613 4b2d 833f 742d a658 0500 4c96 982d
000000d0: 1df5 f52d be2b 1dad 0cdd 0500 b5a8 0680
000000e0: b9ba e02c 9117 922e 9be3 faac 7ebc 6d2e
000000f0: 3297 5ead 9f7f 0500 764b a829 9b83 b1aa
00000100: 4812 02ab 4791 3c2e 37d5 6d2e 6452 14ac
00000110: b617 102e 9b0f cc2d 82a3 9a2d 8330 a3ac
00000120: 92f8 002d 1a30 ab2e 8c2e b8ac 28a7 3ead
00000130: d9a0 3b2e ed69 beac 1932 9bad e36e 9f2d
00000140: d773 882c acf1 052c 5a28 fa2c 54ed 6e2e
00000150: d2ac 462d b6c4 72ad 2780 d52d d84a 202e
00000160: 4a02 0600 c71c f72d 42cb 0680 e4ff 572d
00000170: c52f 5e2d 43ce 04ae e818 1f2e ae0a 0600
00000180: 5c27 b62c 48d1 2a2b e0d5 01ae dee3 bd2d
00000190: 4524 242e cb34 0600 0340 11ac a306 95ad
000001a0: 1ee2 a6ad e8df dc2d 7142 26ad ab31 6bad
000001b0: f6c9 b62c 0dd0 042e fa28 f72d c770 722d
000001c0: 2abe c62d bd64 b42d f4ad 0680 f323 9f2d
000001d0: 12d6 85ae 64bf d02d e30c 822c ba1e 8a2b
000001e0: eb16 b624 6a97 b12c 7400 7d2d 6687 0500
000001f0: 2983 d0ac 5b11 802d ded6 7bad 5b73 a22e
00000200: 69ca d69f 3d1a 9f8a dc5e 0500 8685 0500
00000210: 6e0b 0680 04d9 0600 6bac 2a0c cc65 0580
00000220: 1268 0580 e9ae 0580 9f33 0ca4 580c 57ab
00000230: b55f 0580 a361 0500 4065 0580 c95d 0580
00000240: 0370 0600 d95f 0500 5a40 6b00 3f71 7c8a
00000250: 8e40 34a5 1d68 0500 965f 0500 b062 0580
00000260: 795b 0500 4060 0500 425c 0580 5b57 0580
00000270: d45e 0580 7c03 508a b95e 0500 b360 0600
00000280: 1a5b 0500 8266 0580 7874 0580 ee66 0580
00000290: 348b 0500 77b3 06a3 db72 0500 646c 0500
000002a0: a157 0580 ac61 0580 e368 0580 4562 0580
000002b0: dc69 0500 f611 3a83 7d47 e489 4063 0580
000002c0: bd69 0580 3e59 0580 748b 0500 4a5c 0500
000002d0: 5f60 0500 2472 0580 8669 0580 8958 0500
000002e0: 4b5a 0580 f85a 0580 1a6b 0580 30a4 0000
000002f0: af58 dd9c 9c64 0500 5074 0580 8bae 609f
00000300: dea1 0580 e55c 0580 72a9 0107 c3ec 0500
00000310: 8961 0580 2037 0600 543d 0297 f36c 0500
00000320: b622 e096 91ab 0400 6865 0500 16e5 bda2
00000330: 7459 0580 7d6b 0500 3267 0500 425d 0500
00000340: 448f 0580 ed57 0500 7459 0500 9bf7 3b01
00000350: f060 0500 e259 0500 f851 b10d 3fd9 e100
00000360: 4781 0680 aa5f 0580 0bf4 0580 0561 0500
00000370: 7457 0580 c04e 0ba2 bb36 c803 719a 0600
00000380: 44f3 389b c8c4 a69c 4c58 0500 a337 9c98
00000390: 9c0c b982 682f 0680 db1d eb98 8b62 0500
000003a0: 7a66 0500 ec61 0580 b55d 0500 8568 0500
000003b0: 105c 0698 906e a10b 3b58 0580 5b66 0500
000003c0: 803e da99 bed8 7b98 598e 0500 4468 0580
000003d0: 49f4 9aa3 4349 0580 f438 c39b 0759 0580
000003e0: cba0 0580 e234 9a93 d85e 0580 adb4 0600
000003f0: 1041 5398 1258 0500 4b5d 0580 e35a 0500
5.25911e-13 3.1334046e-11 2.1489876e-11 -8.22927e-14 5.144e-40 1.4983042e-19 2.7374308e-11 9.03993e-12
1.5982243e-11 5.74137e-40 -3.2910192e-11 -1.4114328e-10 4.2239125e-11 4.92975e-40 4.161135e-11 2.2863437e-11
-4.95544e-40 -2.2585964e-11 2.870479e-11 2.4698047e-11 -1.8606571e-11 2.204809e-11 3.9371804e-12 -8.865188e-13
3.254705e-11 5.08139e-40 -3.4529914e-12 2.2734162e-11 1.2730857e-11 2.437789e-11 -2.3137856e-11 -5.8823084e-30
3.281443e-11 2.4778473e-11 6.945433e-12 -5.175833e-11 6.613127e-11 -4.308978e-11 -5.6328e-40 4.0719203e-12
-4.99494e-40 3.0471386e-11 4.537919e-11 -1.7996212e-11 -5.5674405e-13 4.352752e-11 8.534574e-11 2.2035086e-11
1.1543438e-11 1.3883897e-11 4.90979e-40 1.7347145e-11 2.7962127e-11 -8.9341295e-12 5.38474e-40 -6.11534e-40
6.3871933e-12 6.6434976e-11 -7.1306966e-12 5.4054976e-11 -1.2652811e-11 5.0496e-40 7.473789e-14 -3.1532836e-13
-4.621065e-13 4.2875283e-11 5.4076934e-11 -2.10778e-12 3.276287e-11 2.3199045e-11 1.7580385e-11 -4.6381245e-12
7.331151e-12 7.784724e-11 -5.2347623e-12 -1.0837366e-11 4.266174e-11 -5.411885e-12 -1.7643708e-11 1.812545e-11
3.8782133e-12 1.9034592e-12 7.1099073e-12 5.4325724e-11 1.1293371e-11 -1.3799786e-11 2.4272208e-11 3.6446263e-11
5.51834e-40 2.8093429e-11 -6.23928e-40 1.2278154e-11 1.2629846e-11 -3.0196522e-11 3.6174536e-11 5.54844e-40
5.177121e-12 6.068657e-13 -2.9521163e-11 2.1588006e-11 3.7321497e-11 5.69952e-40 -2.0641273e-12 -1.6942286e-11
-1.8972431e-11 2.5110539e-11 -9.4507605e-12 -1.3369232e-11 5.1951733e-12 3.019811e-11 2.8098846e-11 1.3781149e-11
2.2594444e-11 2.0508368e-11 -6.13416e-40 1.8092172e-11 -6.086166e-11 2.3731857e-11 3.696253e-12 9.814018e-13
7.896874e-17 5.047453e-12 1.4381486e-11 5.07749e-40 -5.9262773e-12 1.4559623e-11 -1.4315408e-11 7.387398e-11
-9.0967385e-20 -1.5321013e-32 4.93207e-40 5.07077e-40 -5.55113e-40 6.28864e-40 1.3148209e-31 -4.95695e-40
-4.96511e-40 -5.21923e-40 -3.0401386e-17 -7.6400474e-13 -4.9351e-40 4.94203e-40 -4.95499e-40 -4.92821e-40
5.91195e-40 4.93561e-40 9.849483e-39 -1.2154658e-32 -1.5634383e-16 4.96526e-40 4.93467e-40 -4.9458e-40
4.91992e-40 4.93705e-40 -4.92273e-40 -4.90515e-40 -4.93195e-40 -1.0015491e-32 4.93158e-40 5.85702e-40
4.91859e-40 -4.9595e-40 -5.00959e-40 -4.96102e-40 5.09114e-40 -7.302158e-18 5.0038e-40 4.98061e-40
-4.90613e-40 -4.94216e-40 -4.96804e-40 -4.9443e-40 4.97153e-40 -5.4681105e-37 -5.495623e-33 -4.94782e-40
-4.97109e-40 -4.91192e-40 5.09204e-40 4.92285e-40 4.93749e-40 -5.00123e-40 -4.97032e-40 4.90938e-40
-4.91568e-40 -4.91811e-40 -4.97598e-40 5.89e-41 -1.4647477e-21 4.9527e-40 -5.00903e-40 -4.7578224e-20
-5.17244e-40 -4.92502e-40 9.754677e-35 5.44112e-40 -4.94167e-40 5.70788e-40 -4.208267e-25 4.98261e-40
-3.6211057e-25 4.28888e-40 4.95555e-40 -5.1471107e-18 -4.91267e-40 4.97737e-40 4.96197e-40 4.92632e-40
-5.10572e-40 4.9072e-40 4.91267e-40 3.4524124e-38 4.93952e-40 4.91421e-40 1.09282e-30 2.074092e-38
-5.97389e-40 -4.93495e-40 -5.46724e-40 4.93982e-40 -4.9055e-40 -1.8879703e-18 1.1767509e-36 6.06416e-40
-1.5298727e-22 -1.1035825e-21 4.90852e-40 -4.0381234e-24 -2.7190544e-37 -5.68019e-40 -6.0776223e-24 4.94528e-40
4.95939e-40 -4.94305e-40 4.92793e-40 4.96672e-40 -1.7365574e-24 6.21813e-32 -4.90829e-40 4.95896e-40
-2.2565915e-23 -3.2550416e-24 5.10242e-40 -4.96581e-40 -1.6800172e-17 -4.85459e-40 -3.229685e-22 -4.91114e-40
-5.16859e-40 -3.892721e-27 -4.93201e-40 6.15827e-40 -2.7303959e-24 4.90771e-40 -4.92645e-40 4.91781e-40

encoder.2.bias f4 [64]
00000000: 5864 892e 46c1 0580 3e78 313d 9180 b8af
00000010: b9a2 f7b5 c5a9 9abd 87aa 858f 5cd2 043c
00000020: cd38 53bb 0533 3dbc 63e5 ab32 f582 cd3b
00000030: d78d 82ba a33c 7fbd 639d df3c c438 0f3e
00000040: a366 0580 e538 943d 552e 083d 19c4 8487
00000050: c58c 06bd 2513 1c3e f96a b83a a0ca e33c
00000060: 5d6c 0580 2393 efb2 36f4 8a3d 0925 0591
00000070: 4b78 4fbc 40f7 de33 5e64 0580 c160 0500
00000080: 2a87 c33c 0e99 b532 9c89 e93d 945c 0580
00000090: 42c5 993d 62da debc 1ab4 453e e3de 993d
000000a0: 74ca 8dbd 025e 5ab4 9236 82bd b3f5 39a8
000000b0: b035 35b7 b655 4819 7256 083e 66a2 19be
000000c0: c926 36bd 720c 3c3d fb63 0580 f74b 153e
000000d0: 9c84 52ac de2d 36bc 7a61 ee1d 84d6 b6bb
000000e0: bccb aebc a2cb 6932 e1cc 18bd 54e4 ec3d
000000f0: a44b 8fb7 9178 1dbe a783 b5bd e4ad 183d
6.247863e-11 -5.28511e-40 0.043327563 -3.3560757e-10 -1.8450293e-06 -0.07551912 -1.3180497e-29 0.008106794
-0.00322299 -0.011547809 2.0011333e-08 0.006271715 -0.0009960484 -0.062313687 0.027296728 0.13986498
-4.95997e-40 0.07237414 0.03324731 -1.9976408e-34 -0.032849092 0.15241678 0.0014069966 0.02780658
-4.98051e-40 -2.7890172e-08 0.06784861 -1.0503262e-28 -0.012662957 1.0382655e-07 -4.95182e-40 4.93886e-40
0.023868162 2.1140774e-08 0.114032 -4.92388e-40 0.07508327 -0.027203742 0.19306985 0.075132154
-0.069233805 -2.0337032e-07 -0.06358065 -1.03228405e-14 -1.0800941e-05 1.0357067e-23 0.13314226 -0.15003356
-0.044470582 0.045910306 -4.95044e-40 0.1457976 -2.9916408e-12 -0.011119334 6.3098864e-21 -0.0055797715
-0.021337382 1.3608686e-08 -0.037304763 0.11566988 -1.7082151e-05 -0.15378024 -0.08863001 0.03727521

encoder.4.weight f4 [10, 64]
00000000: 394d 0680 c669 0500 10ae 88a4 5dcf 0500
00000010: 672c 0680 bc8c a9a4 d880 0580 091b 91a3
00000020: c3af 0580 8463 0580 34be 180e ff40 35a4
00000030: 6c7a 0600 798b 8aa4 709a 19a5 b61e 98a4
00000040: ed63 0500 5701 95a4 29fc 92a4 7d5c 0500
00000050: 1c4d 95a4 e5d1 9623 2bd5 ada4 9f23 c5a4
00000060: 4261 0500 b32b 0680 ff05 c8a4 8564 0500
00000070: da91 5aa4 9ac4 bf12 3e75 0500 38ff 0580
00000080: 96be a8a4 35fa 0500 ccee 76a4 c85e 0500
00000090: ad37 91a4 b9a8 cda4 4bbe 1da3 12b3 4fa4
000000a0: df1b cfa3 a258 0500 6cdb 24a4 1161 0500
000000b0: 9965 0580 1f9d 0500 af23 ffa2 52fa 87a4
000000c0: 594d bba4 e2e1 b1a4 cd5e 0580 c48d aba4
000000d0: 46c9 0580 3f3e 8ea4 7bf8 0500 712d 8ba4
000000e0: 661b 35a6 916c d10d a8fe 85a4 d3a5 4ea4
000000f0: 315a 0580 2b31 7fa4 f895 33a4 3cfc 35a4
00000100: 5d5a 522e 7acb 2339 b222 5a3e 3372 503c
00000110: 0990 b33b 559b b33d bfd9 c038 04f2 033e
00000120: 1951 c63a e4ff fcbb 00c0 7e3c dc38 873d
00000130: e44b 843b 18db a43c cb81 d23e 0855 a93e
00000140: 588e dcaf 13da f9bd 5cba 6bbd 1683 9438
00000150: 5451 92be cc80 7c3f 7154 aabd 93b9 973e
00000160: 2faa aca9 176f 1e3b 6aee cb3e 7e3c ff3a
00000170: 616b f1bd 0633 3e34 f2ee d9a5 60ac c8b6
00000180: b49b e43e 43f2 f533 58ab d5bc 1813 c2af
00000190: 08d0 3bbe 480f ad3d b2b3 b03d 48b8 2a3e
000001a0: ac77 cfbc dc75 62a8 769a 943e a80d 24bb
000001b0: 5ee8 9c3c 8959 a0bb b449 b9be 2f91 7dbe
000001c0: 3714 9fbe 0d71 d0bd e764 400b 0acc 253f
000001d0: 2da9 b5ba ea41 6dbe d3dc 15b7 7429 293e
000001e0: dc59 0bbe 0311 143c 0021 aa3c 3536 df3e
000001f0: 26fc 73bc 3bd4 c93d 6206 7a3e 3e0b 40bd
00000200: 6dd3 0d17 25a1 0600 db25 9ab6 485e 0580
00000210: 92c6 0500 7af3 efb7 2a31 0680 da19 94b6
00000220: df69 0580 211a 0680 88c5 0580 a239 ce36
00000230: 1f62 0580 8068 cfb6 9b12 59b6 9ff4 cb36
00000240: 31d2 0580 cea3 60b7 787b ac36 e564 0500
00000250: b5a9 1e36 15cb 34b5 5d76 0037 ec03 9fb5
00000260: 8bce 0500 4180 0580 861c efb7 5ce6 0580
00000270: 5b46 64b6 6ac6 0580 9b7c 0580 bb35 0600
00000280: bac9 69b7 5663 0500 1930 1f37 db81 0500
00000290: e81a c7b6 6fb4 88b7 e462 0db6 8510 2db7
000002a0: 7830 0937 8458 0500 392f 53b6 1d4f 0680
000002b0: 2e62 0500 2182 0580 3819 0db6 31b6 1837
000002c0: 5b21 3db7 4b56 31b7 3e76 0580 2d78 84b6
000002d0: e56e 0500 de9d 8fb7 8074 0500 ccf5 a936
000002e0: 32d0 09b7 b812 0680 d6e1 f0b5 ff27 10b7
000002f0: f741 0600 465c 1f37 9a3b 1e37 8497 b0b5
00000300: 558d 182e a3e8 f537 4c27 8a3d 8c58 c83c
00000310: e975 a6bb 1a2d 91be f539 4935 9a00 b93e
00000320: 8c2a 213b d203 5e3a 61d4 0cba 1c85 263d
00000330: dd51 013b 1231 2ebe 5efb 8abe a505 bb3d
00000340: 94b7 9334 1bce e73d 143a 923e 17e4 7238
00000350: 843c ae3d 09b3 853e d1cc 463e d361 763d
00000360: 703b f834 c409 9abc 6c92 2cbe f97c 0f3b
00000370: 7330 d93e 8391 6eb4 75a8 0822 0c8b 84b5
00000380: 5060 213e df45 7934 7dca cb3e 7899 a923
00000390: 6f00 9a3e f7e4 8e3e e1bf 953e 57de a43e
000003a0: d4f4 da3e 02ce 98af 932f 2c3c d779 3cbb
000003b0: c774 903c fd56 8fbb e8dc 893e 28fa 633d
000003c0: cb93 02be 25ea 71bc 27f6 5b95 8bc0 543d
000003d0: 8112 37bb 63e7 febd e680 1139 53f7 973e
000003e0: 7298 87ba f283 1dbb e247 0d3e bfb1 833d
000003f0: f971 c13c d9ac 793e 5176 b93e 8baf b43e
-5.78715e-40 4.97122e-40 -5.927547e-17 5.33565e-40 -5.66942e-40 -7.353048e-17 -5.05398e-40 -1.5732381e-17
-5.22229e-40 -4.94877e-40 1.8827026e-30 -3.9303172e-17 5.9493e-40 -6.0084236e-17 -1.332296e-16 -6.597152e-17
4.95024e-40 -6.462072e-17 -6.374458e-17 4.92356e-40 -6.474908e-17 1.6351926e-17 -7.538791e-17 -8.5495476e-17
4.94067e-40 -5.6669e-40 -8.674633e-17 4.95237e-40 -4.7394756e-17 1.2102261e-27 5.01236e-40 -5.50733e-40
-7.318125e-17 5.48935e-40 -5.3545016e-17 4.93179e-40 -6.2978044e-17 -8.9190405e-17 -8.551283e-18 -4.503765e-17
-2.2454789e-17 4.90973e-40 -3.574769e-17 4.93998e-40 -4.95624e-40 5.15542e-40 -6.915567e-18 -5.8970976e-17
-8.1229355e-17 -7.7144174e-17 -4.93186e-40 -7.439959e-17 -5.31381e-40 -6.168813e-17 5.48315e-40 -6.035862e-17
-6.283412e-16 1.2906756e-30 -5.811096e-17 -4.4809588e-17 -4.91532e-40 -5.5335958e-17 -3.8941466e-17 -3.946177e-17
4.782873e-11 0.00015620692 0.21302298 0.01272254 0.005479817 0.087698616 9.195832e-05 0.1288529
0.001513037 -0.007720934 0.015548706 0.06602642 0.004037367 0.020124003 0.4111465 0.33072686
-4.0118908e-10 -0.121997975 -0.057550773 7.0816066e-05 -0.28577673 0.9863403 -0.08316887 0.2963377
-7.6678566e-14 0.0024175101 0.39830333 0.0019472984 -0.11788059 1.7713691e-07 -3.7805415e-16 -5.9805316e-06
0.44650042 1.1452769e-07 -0.02608268 -3.530196e-10 -0.18341076 0.0845018 0.08628024 0.1667186
-0.025325619 -1.2571077e-14 0.29024094 -0.0025032554 0.01915377 -0.004893486 -0.36189044 -0.24762414
-0.3107011 -0.10177813 3.7053765e-32 0.64764464 -0.0013859622 -0.23169675 -8.932507e-06 0.1651972
-0.13608497 0.009037259 0.020767689 0.43596044 -0.01489166 0.09854933 0.24416497 -0.04688572
4.5826414e-25 6.08821e-40 -4.5939646e-06 -4.92999e-40 5.30411e-40 -2.8604398e-05 -5.6865e-40 -4.4137532e-06
-4.97157e-40 -5.60386e-40 -5.30038e-40 6.1459878e-06 -4.94377e-40 -6.181246e-06 -3.234635e-06 6.078349e-06
-5.3458e-40 -1.3389579e-05 5.140373e-06 4.95372e-40 2.3642617e-06 -6.735075e-07 7.656953e-06 -1.1847565e-06
5.33271e-40 -5.05186e-40 -2.8504302e-05 -5.41815e-40 -3.40156e-06 -5.30355e-40 -5.03878e-40 5.70288e-40
-1.393485e-05 4.94813e-40 9.488337e-06 5.05761e-40 -5.9337945e-06 -1.6296484e-05 -2.10682e-06 -1.031545e-05
8.177121e-06 4.90931e-40 -3.1468937e-06 -5.79393e-40 4.94398e-40 -5.05859e-40 -2.1025317e-06 9.102326e-06
-1.1273044e-05 -1.0570114e-05 -5.01595e-40 -3.947897e-06 4.98959e-40 -1.7120441e-05 5.0097e-40 5.065207e-06
-8.214311e-06 -5.57728e-40 -1.794712e-06 -8.592381e-06 5.74677e-40 9.498623e-06 9.431411e-06 -1.3157119e-06
3.4686327e-11 2.9314606e-05 0.067457765 0.024456285 -0.005079974 -0.28354722 7.4962674e-07 0.3613327
0.002459201 0.0008469197 -0.0005372223 0.040654287 0.0019732632 -0.17010906 -0.27144903 0.09131936
2.7514454e-07 0.113186084 0.28559935 5.790972e-05 0.08507636 0.26113155 0.19414069 0.060151886
4.6236846e-07 -0.018803485 -0.1685273 0.0021894558 0.42419776 -2.2218414e-07 1.8520617e-18 -9.875234e-07
0.15759397 2.3215351e-07 0.39802924 1.8388013e-17 0.30078456 0.2790906 0.29247954 0.32200882
0.42764914 -2.7795016e-10 0.010509389 -0.0028759146 0.017633809 -0.0043743835 0.2692635 0.05565849
-0.12751691 -0.014765297 -4.4420878e-26 0.051941436 -0.0027934613 -0.12446477 0.00013876296 0.2968088
-0.0010345115 -0.0024034944 0.13796952 0.06430387 0.023613917 0.24382342 0.3622308 0.3529018

encoder.4.bias f4 [10]
00000000: fb8d 57a3 d2d1 823c 63e6 d034 68aa e53d
00000010: 0f76 56be 01a8 123f ad69 063e 7f0d d1bd
00000020: e554 e4bc cb71 e43d
-1.1685239e-17 0.01596919 3.8910648e-07 0.11214143 -0.20943473 0.57287604 0.1312625 -0.10207652
-0.027872512 0.11154517

decoder.0.weight f4 [64, 10]
00000000: 229a f0a5 e677 4ebc b056 86b5 837a 033d
00000010: 3667 953e 6021 713e c74b 8b3e 854b 28be
00000020: c245 013c 9393 84bd 4750 1e26 7252 923e
00000030: 7b99 72b2 7e34 49bc 8aa2 553d 9f68 afbc
00000040: 70c3 813e 263f 933e ed05 ccbe 091b 693e
00000050: e695 df25 a365 97bd 948d 2f37 7918 b03e
00000060: f4da ef3d e9db 5f3e 7d54 24be d241 693d
00000070: 7126 3d3e a50d 8abe e3b8 5ba6 d567 15be
00000080: d96a 81b6 0335 c03e 8b84 8fbe 6417 333f
00000090: 44f3 0e3e 77cf 963e 77bc bebd 37e4 e4bd
000000a0: 3b08 f4a5 9fca 313e 4d25 2636 107d c43e
000000b0: cb0d 973e 02ed 0dbe c62e 743b 32c5 66be
000000c0: 918b df3d c906 e6bd f3ff 12a6 75fe 373e
000000d0: 4357 fb35 39a6 c6bd c0e3 afbe a99c 4d3f
000000e0: 8056 a23e ee8d 253d da79 0abe 84ea 443e
000000f0: 0f17 73a5 9a7f 753d 2087 f4b4 3d87 053f
00000100: c4e2 22bd 69b0 343e eb6d fc3d 63f7 38be
00000110: affe c9be 25d5 00be 3426 5926 9e59 6b3e
00000120: f323 8235 a64e e23c b10e e43d 5d5c 3bbd
00000130: fa6f f1bd e493 25be 530e 0bbd 047c d93e
00000140: fc17 a9a5 68db 183f 1095 ad35 3ad6 57bc
00000150: c1be 42be e372 083e e1f7 5f3d 2fd5 2dbe
00000160: a480 433d 8740 c53e 902f 2fa6 afae ba3c
00000170: 904b 97b7 3001 30be 3645 b8bd 88ba c3bc
00000180: 26c3 a23e 634c 9c3e fc19 f23c 9ac6 363e
00000190: d259 0500 d965 4fb7 1a6f 0500 549e 4fb7
000001a0: 7ca8 dcb5 0b12 4daf c634 afb6 ee26 b8b6
000001b0: 331e 1cb7 dd0f 76b5 244a a123 85ab bcbe
000001c0: 98b6 d0b5 5d49 be3e 5cab de3d d6d7 84bd
000001d0: ee18 5e3c c73f d83d c578 8cbe 8838 993e
000001e0: ebde 9425 fde6 b4bd bcbc fbb3 8968 a5be
000001f0: 9046 a43e 293c d13e 5e9d 2c3e 4243 4fbe
00000200: 99b0 8b3c c2e4 943e e976 1d26 fa1b 873e
00000210: c221 de36 1724 9ebd 23c2 16be 0c7c c23d
00000220: 5f80 0c3c 765f 2b3e 68c8 b03b e98a bf3b
00000230: 09c5 55a5 27ee c63e 99e9 1535 63a5 7abe
00000240: 9c65 cdbe b11b 3d3e 194f 43be 6f3e 063f
00000250: 8384 82bb e708 8e3d f93f 1926 6de7 903e
00000260: 5c80 64b5 6961 883e 44d6 64bd d1d9 e6be
00000270: ca24 96bc dca1 d53d 4058 32be 3411 933e
00000280: 7b4d 6c25 835b 133f 8460 dd34 3e19 bf3d
00000290: 6b07 1e3e 995e 7b3e 6dbf 85bf 4488 b53e
000002a0: 49d5 91be c849 323d 8c66 7f24 44c7 88be
000002b0: f13e c635 364c 0d3e 8fa1 edbe cb53 053e
000002c0: 71c1 0e3e bd7f a53e b0cb 0a3e ef73 b83e
000002d0: 555c 57a6 8986 823e 1255 ccb3 c7c8 fcbe
000002e0: 5cc9 c53e 619e 213f 8f83 943d 568f 8abe
000002f0: 4232 db3c e125 b5bd 1fb8 1a26 f67b c3bd
00000300: f901 0136 1b45 213e d389 ac3e 2aa3 773e
00000310: 3eaa 5ebe 0a09 9c3e 7121 223b c4cb 91be
00000320: 2d95 5626 1edc 8bbe 1dc4 80b6 676b c0bd
00000330: ef26 0e3e 7756 083d 2d10 c93c 15c6 90bd
00000340: b06a 7a3e 50a1 913e c322 2e26 f213 d53d
00000350: 0539 91b6 53e1 55be 9307 843c fcb2 343e
00000360: bbc1 853e 76c4 4fbd 2097 a93d bdf3 29bc
00000370: 31f4 9425 f9ee 3c3e 899a 4036 9845 66be
00000380: 50a9 033d bc75 bf3e 3b6e e23d d0b2 263e
00000390: e538 673e 9b9d 92be 196a f525 e651 383e
000003a0: f50a c135 43ed b63e 577b a4be f801 52be
000003b0: 00f2 dbbd 4c7b 973d b829 68bd d171 2d3e
000003c0: 6dac 95a5 6b8e 74be 3975 5bb6 4bb3 a73e
000003d0: fdfd 16bb d354 283e 02f5 12be cc34 8f3d
000003e0: ff72 fcbc 40b2 053f b31c f723 a155 a3bb
000003f0: 454c 5836 ad8e 47bd da44 b13e bd1a 3e3d
-4.1737808e-16 -0.012601828 -1.0009007e-06 0.03209926 0.29180306 0.23547888 0.2720625 -0.16435058
0.007890167 -0.0647346 5.492606e-16 0.28578526 -1.4121151e-08 -0.0122805815 0.052156962 -0.021412192
0.2534442 0.28759116 -0.3984827 0.2276422 3.8785909e-16 -0.073924325 1.0463777e-05 0.3439367
0.11711684 0.21861233 -0.16047855 0.056947537 0.18471695 -0.26963535 -7.6231456e-16 -0.1459039
-3.8569383e-06 0.37540445 -0.2803081 0.69957566 0.13959986 0.29455158 -0.093132906 -0.11176341
-4.233283e-16 0.1736245 2.475764e-06 0.38376665 0.2950271 -0.13859943 0.0037259324 -0.22536162
0.10915292 -0.11231763 -5.10008e-16 0.17968161 1.8726354e-06 -0.09699673 -0.34353447 0.8031717
0.3170662 0.040418558 -0.13523045 0.19230086 -2.1084703e-16 0.059936143 -4.5546858e-07 0.5215948
-0.03976704 0.1764542 0.12325653 -0.1806312 -0.3945212 -0.12581308 7.5338774e-16 0.22983405
9.696217e-07 0.027625393 0.11135615 -0.04574238 -0.11788936 -0.16169697 -0.033949208 0.4247743
-2.933308e-16 0.5970979 1.2932887e-06 -0.013173634 -0.1901808 0.13325076 0.054679755 -0.16975854
0.047730103 0.38525793 -6.077978e-16 0.022788374 -1.803579e-05 -0.17187953 -0.08997576 -0.023892656
0.3178951 0.30527028 0.029553406 0.17849198 4.91399e-40 -1.2361875e-05 4.99033e-40 -1.2375025e-05
-1.6440313e-06 -1.8651052e-10 -5.22155e-06 -5.4881593e-06 -9.305356e-06 -9.1665225e-07 1.7487055e-17 -0.3684961
-1.5550349e-06 0.37165347 0.10872528 -0.0648648 0.013555748 0.105590396 -0.2743589 0.29925942
2.5824963e-16 -0.0883312 -1.1722429e-07 -0.32306316 0.32085085 0.4086621 0.16856906 -0.202405
0.017051982 0.29080778 5.463147e-16 0.26388532 6.6200455e-06 -0.07721727 -0.14722495 0.09496316
0.008575528 0.16735634 0.005394984 0.005845417 -1.8541563e-16 0.3885357 5.5846755e-07 -0.24477153
-0.40116584 0.18467595 -0.19073142 0.52439016 -0.003983082 0.06935292 5.316924e-16 0.28301564
-8.5123406e-07 0.26636818 -0.055868402 -0.45088056 -0.01832809 0.10431263 -0.17416477 0.28724062
2.0495988e-16 0.5756151 4.1234682e-07 0.093309864 0.15432517 0.24547805 -1.0449044 0.35455525
-0.28483036 0.043527395 5.538117e-17 -0.26714528 1.4770468e-06 0.13798603 -0.46412322 0.13020246
0.1394098 0.3232402 0.13554263 0.3602595 -7.4718243e-16 0.25493267 -9.5149645e-08 -0.4937193
0.38630188 0.6313229 0.07251655 -0.27062482 0.026757363 -0.088451155 5.3679014e-16 -0.09545128
1.9223646e-06 0.15749018 0.33698902 0.24183336 -0.2174463 0.30475646 0.002473917 -0.28475773
7.4448336e-16 -0.27316374 -3.837528e-06 -0.09395485 0.1388204 0.033285584 0.024543846 -0.07069031
0.2445476 0.28443384 6.041549e-16 0.10404195 -4.3279747e-06 -0.20886736 0.016116893 0.17646402
0.26124367 -0.05072447 0.08280778 -0.010373053 2.5839378e-16 0.18450536 2.870018e-06 -0.22487485
0.03214389 0.37394512 0.11056181 0.16279149 0.22580297 -0.28635868 4.257262e-16 0.17999992
1.438281e-06 0.3572789 -0.3212535 -0.20508564 -0.10739517 0.07396564 -0.05668041 0.16937949
-2.596422e-16 -0.23882453 -3.2701776e-06 0.32753977 -0.0023039572 0.16438608 -0.14351276 0.06992492
-0.030816553 0.5222511 2.6791948e-17 -0.004984573 3.2230903e-06 -0.04872005 0.34622842 0.04641222

decoder.0.bias f4 [64]
00000000: 487b e9be bd9e c03e 0d37 353f e0f1 0ebf
00000010: c610 d2be 6dd8 26bf 0211 aa3c 549d 1f3f
00000020: 3c5b f3be 124a 8abf 855d 0500 cbbc e5bd
00000030: 597f 5f3e 1d95 5f3f fde9 17bd 581f e83e
00000040: 6418 263e 611a 93be f2fb a0be c677 253f
00000050: 536f 2f3f 4eb8 473f a26c ef3e f21d a13e
00000060: 3968 3abf 0da6 43be b90a e8be 62f2 81bf
00000070: 4eb3 903e d5d1 0600 d95a c93e dcd9 463f
00000080: 3083 cf3d e256 5dbf f8f7 9cb2 015f 203e
00000090: 33aa 363f c44f 1fbf 20d5 4d3f d6ca cfbe
000000a0: 9801 9c3d 7373 2abf 5d31 0d3f a781 5a84
000000b0: 4d98 383f b3ab 8cbd f9bc 6abf 05cf 2d3f
000000c0: 6154 b83e d1f3 433f 3c20 893f 9f9a bd2b
000000d0: e0c8 64bf 4abf 4f3f f822 e131 178f 313f
000000e0: 2c24 19bc 68e6 f2bd 9880 1f3f cfe3 73bf
000000f0: 7352 dbbe 5e5e 0500 d3fa ef3e d82f 4e3f
-0.4560187 0.37621108 0.70787126 -0.5583782 -0.41028422 -0.6517399 0.020760063 0.6234944
-0.47530544 -1.0803854 4.92726e-40 -0.1121765 0.21825923 0.87336904 -0.037088383 0.45336413
0.16220242 -0.28731063 -0.3144222 0.64635885 0.6852924 0.780156 0.46762568 0.3146816
-0.7281528 -0.19106312 -0.4532068 -1.0152094 0.282618 6.26287e-40 0.39327124 0.7767618
0.10132444 -0.864607 -1.8273553e-08 0.15661241 0.71353453 -0.6223109 0.8040333 -0.4058444
0.076174915 -0.6658241 0.5515345 -2.568531e-36 0.7210739 -0.068686865 -0.916946 0.6789401
0.36001876 0.7654391 1.0712962 1.3472174e-12 -0.8936901 0.8115126 6.5523373e-09 0.6935896
-0.009347003 -0.11860353 0.62305593 -0.95269483 -0.4283634 4.9303e-40 0.4687105 0.80541754

decoder.2.weight f4 [128, 64]
00000000: 426c 29be b075 13be 9066 0f3e 721c 073d
00000010: ff2c 6abc 2512 ccbc 8f7d 26bd 38c4 c8bd
00000020: 1e98 1cbd 699f 43bc 8f59 0580 71d7 31be
00000030: c1ee 70be 52a1 103d 54f2 423e 8593 ac3c
00000040: 25df aabe 1470 543e 5416 7ebe 613b efbd
00000050: c6ee b9bc ba35 eebc 61a0 0f3c e993 bb3d
00000060: 5c17 e6bc a4a3 83be 7354 063d f03a 693d
00000070: 92c5 723d ab60 0500 7053 e5bc 0b9b febc
00000080: 4408 a83c 95d0 313e 63e5 9732 bb77 3b3e
00000090: c0b4 9d3d c7fa dfbd d7b2 8ebc 41c0 6f3c
000000a0: 301d 793e ebeb 39bd 11de 5d3d fd13 648a
000000b0: cf64 8f3d 8ba9 09be 3e4c 3abe c127 07be
000000c0: 0b37 e43c 14f7 4cbd 8045 853e df08 54b9
000000d0: 3504 763d c275 4abd 3db9 e038 ce3c dabe
000000e0: 9364 84bd 4ad4 0a3e 9f40 703b b393 09bc
000000f0: c16b 6b3b e55d 0500 59c1 e2bd 5e70 753e
00000100: eba6 cca9 2f82 e8ae 3805 63a6 0975 78ae
00000110: 159d 06ab 3f2a cdaa c866 2e8d 4b30 dda9
00000120: a002 08b1 c372 6aaa 816f 0500 e38f f1a8
00000130: adb2 20aa 3258 229e aafa 4794 58b8 a4aa
00000140: 37d9 7c00 b591 4bad cb5a eb8e f781 dca2
00000150: 769a b5a0 eb4a 3ca6 b51f 80a8 dbc4 5690
00000160: 2654 abae 0928 42a7 4245 a1b0 98b5 66a7
00000170: 8a57 0580 1166 0580 d0b3 31a8 a619 9aa9
00000180: 1761 1ab1 f8b9 ebae ff8d 0580 94d3 449f
00000190: 9a3b 92a1 28a5 84a8 9c88 84a3 5997 2da6
000001a0: c0b1 3d83 a22d 6cab 7a19 21ae bb6d 0580
000001b0: 5a75 e8a1 310e 20a8 3e56 d1a4 51b8 9d97
000001c0: d7b6 98a1 e5af 9ea6 abe4 12b0 e786 0500
000001d0: 9dcb 66a7 5bb3 40ad 408f 0580 8935 24ac
000001e0: 791d 61a4 7a8c b5ad 7e79 f6a6 6af2 eb93
000001f0: 2d95 9ab0 ba37 0600 d7af 09aa 3ed3 83a3
00000200: ae3a f93d fcf8 ce3d 4c38 01be dab6 023e
00000210: 0be5 a9ba 0420 6f3e bfe5 c5bd d0bc 03be
00000220: bc90 c23d 431b 3f3e 96ed 138e d4ea 3bbd
00000230: 2eab 4cbd e11d 2bbc dd55 65bd b0b2 8f3c
00000240: 09a7 02bf 1339 9c3d 8881 afbc 4bac f5bd
00000250: ebcd 0cbe adf9 0a3e 0046 863d 8530 8e3d
00000260: e257 57bd f233 acbb a556 16bd d03d 703a
00000270: e5da a8bd 3262 0580 10a5 d33d 90ac cc3d
00000280: 7f2f e7bd 4594 1abd 37b3 feb7 9e09 393c
00000290: 0e74 16be 93cc 29bb e92d 74be c64a 223e
000002a0: a87c 8f3e ad2d 8a3d bc4d 44be 5cbc 6fa4
000002b0: 1c95 eabd 9350 a73b fac8 02bd 2bb8 a93d
000002c0: e1c9 3a3d 34f5 b2bd c72b ee3d 5437 5a3b
000002d0: 025f 96bc b7f2 453d 7204 543a 5f7a 2fbd
000002e0: 3aef 9e3d 842b a1bd 9f4d 83bd 82b7 303d
000002f0: 206f 043e 5e78 0380 3b57 f93d f6e5 a53d
00000300: c871 5cb4 d970 7bb5 2d14 22b4 21e2 88b5
00000310: de0d aeb5 3905 a4b1 4efa 0aa8 1bb2 c0b2
00000320: 2b4b 77b6 42b0 97b2 ba8d 0500 8604 8bb1
00000330: f0a6 41b3 3698 1dad 7b29 9fa6 9692 15b4
00000340: b9bd c8a2 8d85 0ab3 1ad1 f5ac 3df3 a7b3
00000350: 7c5e caae 7139 dab0 c3cf 03b4 abfd f1a5
00000360: 5d13 f6b4 9069 48b2 5a50 46b7 5d30 f1b2
00000370: c7a4 0391 35d4 0600 a97d c6b0 df43 78b0
00000380: d1ce e6b6 2abe 4bb6 79af 0500 354d 98ab
00000390: c13c a8ae 7f57 88b2 12c5 b4b0 326c 90b1
000003a0: 88b4 1f9e 1dbb b0b5 3256 f6b5 c186 0500
000003b0: 503a 4db0 51fc c9b3 0243 61b1 200a 87a9
000003c0: e39e 05ac add6 00b1 2e9e 5ab7 b4a4 0500
000003d0: 6518 88b2 0655 00b4 d471 0580 1567 8ab5
000003e0: ccd3 6baf f557 d9b4 1117 07b4 06e6 cea9
000003f0: bf2f 65b7 6a8e 0580 5e9c 32b4 b7e4 9db1
-0.16545203 -0.14400363 0.14003968 0.032986112 -0.0142929545 -0.024910996 -0.040647086 -0.09803051
-0.038231008 -0.011939862 -4.91305e-40 -0.1736734 -0.23528577 0.035310097 0.19037753 0.021066437
-0.3337337 0.2074588 -0.24813205 -0.116812475 -0.022696864 -0.029078353 0.008766265 0.09159071
-0.02808731 -0.25710785 0.03279538 0.056940973 0.05927045 4.93855e-40 -0.027993888 -0.03107979
0.020511754 0.17364724 1.7683027e-08 0.18307392 0.07700491 -0.10936504 -0.017419262 0.014633239
0.2432754 -0.045391005 0.054166857 -1.098156e-32 0.070016496 -0.13443582 -0.18193147 -0.13198759
0.027858278 -0.05004032 0.26029587 -0.000202212 0.060062606 -0.04942871 0.00010715656 -0.42624515
-0.064644955 0.13557544 0.003665961 -0.008397031 0.003592238 4.9286e-40 -0.110720344 0.23968646
-9.0883755e-14 -1.0573264e-10 -7.876352e-16 -5.649262e-11 -4.782436e-13 -3.644463e-13 -5.374161e-31 -9.822749e-14
-1.9792097e-09 -2.0823191e-13 4.99178e-40 -2.6818776e-14 -1.4272845e-13 -8.594447e-21 -1.0096367e-26 -2.9260166e-13
1.1465524e-38 -1.15715675e-11 -5.8019403e-30 -5.9768725e-18 -3.0764806e-19 -6.5327135e-16 -1.4224605e-14 -4.235571e-29
-7.7911275e-11 -2.6944611e-15 -1.1733976e-09 -3.2017354e-15 -4.9058e-40 -4.95792e-40 -9.864464e-15 -6.843423e-14
-2.2465139e-09 -1.07195974e-10 -5.10116e-40 -4.1679628e-20 -9.909121e-19 -1.4726569e-14 -1.4369325e-17 -6.0226547e-16
-5.5746155e-37 -8.390737e-13 -3.662979e-11 -4.98541e-40 -1.5751994e-18 -8.8848615e-15 -9.07854e-17 -1.0192415e-24
-1.0348318e-18 -1.1011129e-15 -5.343945e-10 5.07571e-40 -3.202929e-15 -1.0953761e-11 -5.10566e-40 -2.333552e-12
-4.8814062e-17 -2.0639702e-11 -1.710261e-15 -5.956138e-27 -1.1247373e-09 5.71004e-40 -1.2229051e-13 -1.4292513e-17
0.121693954 0.10106084 -0.12619132 0.12765065 -0.0012961937 0.23352057 -0.09662961 -0.12864995
0.09500262 0.18662743 -1.8233542e-30 -0.045878246 -0.049967937 -0.010444135 -0.05599009 0.01754126
-0.51036125 0.076280735 -0.02142407 -0.11995753 -0.13750426 0.13571806 0.0655632 0.06942848
-0.052574046 -0.005255216 -0.036703724 0.0009164484 -0.08244876 -4.94403e-40 0.103342175 0.09993851
-0.11288356 -0.037739057 -3.0362613e-05 0.011293797 -0.14692709 -0.002590929 -0.23845638 0.15848836
0.28024793 0.06746993 -0.19170278 -5.198441e-17 -0.114542216 0.0051060407 -0.031929947 0.082870804
0.045602683 -0.08738175 0.116294436 0.0033297138 -0.01835585 0.048327174 0.00080878206 -0.04284131
0.077604726 -0.07869628 -0.064112894 0.043143757 0.12933016 -3.18686e-40 0.12174841 0.08100502
-2.053049e-07 -9.3669e-07 -1.5094766e-07 -1.0198602e-06 -1.2968046e-06 -4.773622e-09 -7.714815e-15 -2.2432735e-08
-3.6849622e-06 -1.7658866e-08 5.1002e-40 -4.0459467e-09 -4.5088143e-08 -8.958214e-12 -1.1044085e-15 -1.3930034e-07
-5.4410985e-18 -3.2252093e-08 -6.9865337e-12 -7.820788e-08 -9.20268e-11 -1.5877913e-09 -1.2275909e-07 -4.1978728e-16
-4.583516e-07 -1.1665534e-08 -1.1820428e-05 -2.8078086e-08 -1.0384854e-28 6.27139e-40 -1.4442111e-09 -9.0318325e-10
-6.8786107e-06 -3.0360047e-06 5.22125e-40 -1.0821679e-12 -7.6505476e-11 -1.5872272e-08 -1.3152734e-09 -4.203252e-09
-8.454723e-21 -1.3167479e-06 -1.8353514e-06 5.07518e-40 -7.466143e-10 -9.405688e-08 -3.2779899e-09 -5.996961e-14
-1.8988637e-12 -1.874848e-09 -1.3030642e-05 5.18262e-40 -1.5843577e-08 -1.195186e-07 -5.00011e-40 -1.0311802e-06
-2.1448371e-10 -4.0483397e-07 -1.2581246e-07 -9.1881404e-14 -1.366058e-05 -5.10266e-40 -1.6634428e-07 -4.5953032e-09

decoder.2.bias f4 [128]
00000000: e2c0 aabc 3f57 0500 ff7c 23bd 6a06 0680
00000010: b35e 4ebd 606b a53e 35cd 76bc 42e2 0580
00000020: bc61 5b3e 4adf ac3d fe86 0500 ba02 83be
00000030: 4964 0500 0a63 0580 431c 1fbf 78a7 c73d
00000040: 7db4 b03d a0b2 313d 9c9c a93e 7183 ae3c
00000050: d874 58be 99e7 1fbc 2969 0500 e65a 0500
00000060: fd0f 75bd a359 4bb9 2f62 0500 b1c5 843c
00000070: c9f3 f93d 9a63 0580 8da9 07be 46e7 6bbc
00000080: 529d a7ba 8c71 0e3f 78fc 3c3b 3b60 0580
00000090: 91ab bb3d ae5b 0500 51a0 ec3e 849b dbbc
000000a0: 4f9d 673e 76e5 043d 8564 5cbd ea27 993d
000000b0: 17b9 913d 0d06 6c3e 4e89 2e98 4168 66be
000000c0: 2c7a 913c ea9d da3d c548 4e3e d05a a23e
000000d0: c61f 6fbd ae2b c43d 6701 59be a68e 10bd
000000e0: 554b 003d 2de4 87bd 9dce 3f3d f3a6 10bd
000000f0: 373f b53e ce73 7b3d d791 eabc 8363 0500
00000100: 43fb 893e 4c5f 31af 5663 0580 4220 acbb
00000110: ab1e 333e 5b3d 013f 0a1f b6bd a3c6 883d
00000120: 8a4a a33c b157 0ebf e17d 0dbe 6e70 aa3d
00000130: 75cd 9bbd 157a 8c3d 8cfe 08bd 7b75 4c3d
00000140: cdce 02bd 14ba 463d d85d 0500 7935 04bf
00000150: 906d 823d 070b 7dbd facc 163e e214 84bd
00000160: f776 953d ed29 003d c736 0a3c c25a 003e
00000170: 8eea 8cbd 0b88 dbbb b8df 45bd c301 0680
00000180: 12fc 173d 873a e6bd 2b33 c03e b958 0500
00000190: 0446 30bb 0d7b c13d d874 adbd af6c 263e
000001a0: 3d6c 0200 fd59 0500 36e3 1d3d 1808 fa3a
000001b0: 64fc b7bc d395 26be 31a2 b3bd 445f 0500
000001c0: 47e0 84bc d15f 0500 250c a80c a03a ee3a
000001d0: a7b5 9f3e af83 66be 45ad 05be 69e9 968c
000001e0: d55e 7abc 5fa3 d3bc a700 b1bd b39b dbbd
000001f0: d630 853d 221f 8d3e ea39 85bd 5010 bbbd
-0.020843927 4.90475e-40 -0.039914127 -5.53314e-40 -0.05038328 0.32308483 -0.015063574 -5.40343e-40
0.21424001 0.084410265 5.07604e-40 -0.25588018 4.95153e-40 -4.94706e-40 -0.621525 0.09748739
0.086281754 0.04338324 0.33127296 0.02130291 -0.21138322 -0.009759807 4.96902e-40 4.91786e-40
-0.0598297 -0.00019392981 4.94399e-40 0.016207548 0.122047015 -4.94908e-40 -0.13248272 -0.014398402
-0.0012787974 0.5564201 0.0028837007 -4.93698e-40 0.09163583 4.92066e-40 0.46216062 -0.026807554
0.22618602 0.032445394 -0.0538068 0.07478316 0.07115381 0.23049183 -2.2558294e-24 -0.22500707
0.017758451 0.10674651 0.20144947 0.3170991 -0.05837991 0.09578644 -0.21191941 -0.03529229
0.031321842 -0.06635318 0.0468279 -0.035315465 0.35399792 0.061389737 -0.028633995 4.94876e-40
0.2694951 -1.6131912e-10 -4.94813e-40 -0.005252869 0.17492168 0.50484246 -0.08892639 0.06678512
0.019933004 -0.55602556 -0.1381755 0.083222255 -0.07607547 0.06859223 -0.03344588 0.049916726
-0.0319355 0.0485173 4.92842e-40 -0.5164409 0.06368554 -0.061778095 0.1472663 -0.064492956
0.07298081 0.031289984 0.0084359115 0.12534621 -0.06880675 -0.006699567 -0.048309058 -5.51645e-40
0.037105627 -0.11241632 0.37539038 4.91005e-40 -0.0026897201 0.09447298 -0.08469552 0.16252397
2.225e-40 4.91459e-40 0.038546763 0.0019075898 -0.022459216 -0.16268091 -0.0877117 4.93352e-40
-0.016220225 4.9355e-40 2.5891808e-31 0.0018175431 0.31193277 -0.22511171 -0.13054378 -2.3251638e-31
-0.015281399 -0.025834737 -0.086427025 -0.10723057 0.06503455 0.27562815 -0.06505187 -0.09133971

decoder.4.weight f4 [784, 128]
00000000: f726 afbb 25a6 0580 ef51 36bc 7b23 0600
00000010: b5ed aebb 06e2 f9bc 717c b2bc b0c1 0580
00000020: 9fb0 a6bc 3089 82bc da72 0680 4b17 0fbc
00000030: 13cd 0580 80e2 0580 cc15 daba d939 85bc
00000040: 7905 b8bb 53a2 8bbc 0012 6fbc 9ef9 b6bb
00000050: 5d6f edbb b937 a2b6 f886 0600 c07e 0500
00000060: a48c a9bc 7d48 25bd c644 0680 e85c 0abc
00000070: 0fb6 b0bc 8c68 0500 3247 3cbc 82b0 21bc
00000080: 20bc 78aa 9238 32bd 5c36 83bc c010 0680
00000090: 4862 b5bc 51a1 0580 0103 bfbc 4195 fcba
000000a0: e3b7 0abd 21a0 a8bc a883 b0bc c7b9 0abc
000000b0: 2016 cbbc 3cc7 afbc 322f 5712 72a7 0abd
000000c0: 5e70 0fbb d34f 37bc b82f 81bc 9036 9ebc
000000d0: 5691 b6ba 89ba 98bc 3504 17bc 1a23 29bc
000000e0: dda5 06bc a606 1ebc c5a4 fdbb 4582 13bc
000000f0: d621 6abc fbed 99bc ac80 cfbb 4ac7 0500
00000100: 45fa 50bc 0c52 8995 c4fe 0580 b545 60bc
00000110: 7aa8 27bc 5965 d1bc c519 acbb c23e 4fbc
00000120: 1bc7 c0bb 85ca 56b9 09ae 43bb fbfe 96bc
00000130: 213c 2dbc 9885 b3bb 12e2 00bb 27f5 65bc
00000140: 6c33 9cbc 9887 9cbc 41d8 0580 eed1 1fbb
00000150: 8a17 2bbc 8d17 8dbb 4391 1fbc 5f12 2abc
00000160: 6864 2fbc 6dad bdbc 50ec 10bc 5408 a0bc
00000170: c9ed 33bc b546 42ba 61d6 1abc 5024 0600
00000180: 7bbb 3fbc 37fc 50bc 14a8 b2bc 707e 0580
00000190: d67d 37bc 8e5f e1bc aa9f 42bc 22c3 f5bc
000001a0: 6478 0500 d89c 0500 6a2d 03bc c531 f0ba
000001b0: 628f 64bc e964 aabb e410 45bd 327b 0500
000001c0: 9e27 00bb 45f4 0580 d4e8 0580 facb 35bc
000001d0: ef62 b0bc 826a 4fbc 8ec7 cbbb bb07 0680
000001e0: 97c5 6cbc 2918 c5bb 732b 0fbb 3b17 10bc
000001f0: 4d3f 4fbc 7c67 aebc 676f 85bc 7f10 babc
00000200: 9f22 afbb 62f3 0500 2151 36bc 9ea4 0500
00000210: 3d33 afbb b6e2 f9bc 857d b2bc 7df3 0580
00000220: 5fb8 a6bc 758e 82bc 6df0 0580 781f 0fbc
00000230: 0191 0580 f382 0600 ea19 daba 1b3b 85bc
00000240: 8412 b8bb bba2 8bbc e912 6fbc 9a02 b7bb
00000250: e08d edbb 6049 a2b6 5062 0500 8c9e 0500
00000260: 578d a9bc 1149 25bd 9122 0600 545d 0abc
00000270: 86b6 b0bc 16a6 0580 e148 3cbc dfb1 21bc
00000280: 1bd0 89aa 1739 32bd 5b36 83bc bfed 0580
00000290: 9a65 b5bc fff3 0500 bc03 bfbc 1d91 fcba
000002a0: a6b7 0abd 42a1 a8bc 1c80 b0bc 3fb8 0abc
000002b0: b816 cbbc 7ec6 afbc bb2f 4c12 27a8 0abd
000002c0: 3d73 0fbb 374f 37bc 8330 81bc 7437 9ebc
000002d0: 09b1 b6ba a6ba 98bc 1e04 17bc 3723 29bc
000002e0: 86a8 06bc c60f 1ebc 67a3 fdbb 1483 13bc
000002f0: b020 6abc 97ee 99bc 675c cfbb aad2 0580
00000300: 8402 51bc c7a9 5e95 a300 0680 f549 60bc
00000310: cea7 27bc 0b66 d1bc d629 acbb 193d 4fbc
00000320: fbc5 c0bb 7e03 5eb9 a7a4 43bb dbfe 96bc
00000330: 6623 2dbc b87e b3bb 2ff5 00bb 9e03 66bc
00000340: d633 9cbc 7288 9cbc eb6f 0580 2dd2 1fbb
00000350: 5118 2bbc 431d 8dbb 2898 1fbc 971a 2abc
00000360: 156c 2fbc 75ae bdbc 92ee 10bc fd08 a0bc
00000370: affb 33bc 854a 43ba 4cd6 1abc 67a2 0600
00000380: 0cc0 3fbc 0100 51bc cba9 b2bc b5ff 0580
00000390: 398a 37bc 5460 e1bc 28a2 42bc fac2 f5bc
000003a0: 30ee 0580 a8ed 0580 e52d 03bc 7c4f f0ba
000003b0: db8c 64bc b563 aabb 5e11 45bd 00c8 0500
000003c0: b733 00bb 6c7a 0600 aaba 0600 6dcb 35bc
000003d0: a763 b0bc 436a 4fbc 82e6 cbbb 7968 0580
000003e0: 0bc6 6cbc 5e20 c5bb e298 0fbb d344 10bc
000003f0: 463f 4fbc f267 aebc 016f 85bc c712 babc
-0.005345221 -5.18779e-40 -0.011127933 5.63741e-40 -0.0053383955 -0.030503284 -0.021787854 -5.2866e-40
-0.020347891 -0.015934557 -5.92214e-40 -0.008733581 -5.32744e-40 -5.4043e-40 -0.0016638576 -0.016262935
-0.0056158868 -0.017045176 -0.014591694 -0.005583956 -0.0072459416 -4.834463e-06 5.9943e-40 5.04647e-40
-0.020696945 -0.040352333 -5.75684e-40 -0.008445002 -0.021571187 4.96682e-40 -0.011491584 -0.009868743
-2.2092094e-13 -0.04351098 -0.016017132 -5.57022e-40 -0.02214159 -5.17047e-40 -0.023316862 -0.0019270555
-0.033866774 -0.020584168 -0.021547154 -0.008467144 -0.024790823 -0.021457307 6.790021e-28 -0.033851095
-0.0021887044 -0.011188465 -0.015769824 -0.019313127 -0.0013928812 -0.018643634 -0.009217312 -0.01032331
-0.008218256 -0.00964514 -0.0077405893 -0.009003227 -0.014290294 -0.018790236 -0.0063324776 5.30669e-40
-0.012754981 -5.5463306e-26 -5.5057e-40 -0.013688494 -0.010233039 -0.025561022 -0.0052520954 -0.01264924
-0.00588311 -0.00020484075 -0.0029858372 -0.018432131 -0.010573418 -0.005478572 -0.0019665998 -0.0140355
-0.019067489 -0.019107625 -5.36755e-40 -0.0024386602 -0.010442624 -0.004305786 -0.009739223 -0.010380357
-0.010705091 -0.023153985 -0.008845404 -0.019535221 -0.010981985 -0.0007411049 -0.009450526 5.6404e-40
-0.011702414 -0.012755445 -0.021808662 -5.04535e-40 -0.011199435 -0.027511384 -0.011878887 -0.030000273
5.02365e-40 5.15442e-40 -0.008006433 -0.0018325379 -0.013950201 -0.0052000177 -0.04811181 5.03372e-40
-0.0019554864 -5.46805e-40 -5.427e-40 -0.011095995 -0.02153155 -0.012659671 -0.006218857 -5.53786e-40
-0.014451406 -0.006014843 -0.0021845966 -0.008794601 -0.012649369 -0.02128958 -0.016288472 -0.022712944
-0.0053447033 5.46487e-40 -0.011127741 5.18231e-40 -0.0053466843 -0.030503612 -0.021788368 -5.46525e-40
-0.020351587 -0.01593707 -5.45426e-40 -0.00873553 -5.11195e-40 5.97989e-40 -0.0016639803 -0.016263535
-0.0056174416 -0.01704537 -0.014591911 -0.005585027 -0.007249579 -4.836518e-06 4.94445e-40 5.16053e-40
-0.020697279 -0.040352885 5.63413e-40 -0.008445103 -0.021571409 -5.18758e-40 -0.011491985 -0.009869068
-2.448049e-13 -0.043511476 -0.01601713 -5.44465e-40 -0.022143174 5.46707e-40 -0.02331721 -0.0019269321
-0.033866547 -0.020584706 -0.021545462 -0.008466779 -0.024791107 -0.021456953 6.442988e-28 -0.03385177
-0.0021888756 -0.01118832 -0.015770203 -0.019313551 -0.0013938259 -0.018643688 -0.00921729 -0.010323337
-0.00821889 -0.009647315 -0.0077404263 -0.009003419 -0.01429002 -0.018790526 -0.006328154 -5.3475e-40
-0.012756947 -4.4966474e-26 -5.51241e-40 -0.013689508 -0.010232879 -0.025561353 -0.0052540107 -0.012648844
-0.005882976 -0.00021172871 -0.002985278 -0.018432071 -0.010567522 -0.0054777525 -0.001967739 -0.014038948
-0.019067686 -0.019108031 -4.99326e-40 -0.002438675 -0.010442809 -0.004306467 -0.009740867 -0.010382316
-0.010706921 -0.023154477 -0.008845942 -0.019535536 -0.010985299 -0.0007449764 -0.009450506 6.09272e-40
-0.011703502 -0.012756349 -0.02180948 -5.50908e-40 -0.011202388 -0.027511753 -0.011879481 -0.030000199
-5.44623e-40 -5.44432e-40 -0.008006548 -0.0018334235 -0.013949598 -0.0051998743 -0.048112266 5.30924e-40
-0.0019562074 5.9493e-40 6.17975e-40 -0.011095864 -0.021531893 -0.012659612 -0.006222547 -4.96655e-40
-0.014451514 -0.0060158214 -0.0021911194 -0.0088054715 -0.012649363 -0.0212898 -0.016288282 -0.022714032
