02_Representations/model_weights/denoiser_best.pth (torch, 852830 bytes, 15 tensors)

encoder.0.weight f4 [16, 1, 3, 3]
0.00010373287 -0.065042146 0.0009317804 0.16010167 0.14278817 0.23526934 -0.05027427 -0.1289034
0.05607013 0.212659 0.61737853 0.7111063 -0.38967022 -0.025654752 0.29230154 -0.6828269
-0.50394917 -0.16412207 -0.63087654 -0.19411835 0.29676053 -0.5983408 0.2563155 0.6171668
-0.13020812 0.46779114 0.5847605 0.10724965 0.095332295 -0.09305757 -0.074175425 -0.1368197
-0.26714972 -0.15031067 -0.23560956 -0.269599 -0.036905278 -0.17873189 -0.31142598 0.4653902
0.5225122 0.08300233 0.27267984 0.3437434 0.3126803 0.2736312 0.49427056 0.6482985
0.2994143 0.4227004 0.45488426 -0.0021976817 0.049494833 0.031140534 -0.016504329 0.12810425
0.03656985 -0.13431399 0.10961303 -0.11024497 -0.14205128 0.053370193 -0.16661806 -0.18536143
0.367379 0.3555651 0.046864443 0.6596171 0.6176806 -0.043864325 0.46748203 0.33244872
0.45596844 -0.3369754 -0.30920038 0.43740442 -0.31073093 -0.232296 0.26318565 -0.11313415
-0.069400266 0.38701636 0.16524401 -0.6801576 0.48983943 0.39534643 -0.49823785 0.23832732
0.24474497 -0.10653604 0.018865751 0.30287275 0.19252759 0.28607607 0.54576635 0.19380105
0.35883325 0.41655645 -0.1709618 0.4704261 0.6585119 0.031414475 0.47225887 0.59336746
0.06732743 0.08664546 -0.023174992 -0.21777265 0.26890695 0.18894921 -0.06760113 0.5366864
0.07846378 -0.50595343 0.46295056 -0.029719185 -0.55535895 -0.053401425 0.09226834 0.35384238
-0.14848842 0.18200764 0.38185152 0.2323283 0.23277558 0.35548773 0.049811713 0.03210761
-0.04699441 0.26875308 0.1330943 0.048261512 0.58230454 0.4872195 0.4512455 0.15527843
-0.014363327 0.061726786 0.21090092 -0.1312481 0.001853558 0.2523008 0.12643678 0.19941959
00000000: 298b d938 d134 85bd b942 743a b1f1 233e
00000010: 1037 123e 72ea 703e 65ec 4dbd 41ff 03be
00000020: cba9 653d 48c3 593e 850c 1e3f 100b 363f
00000030: db82 c7be ea29 d2bc 8ca8 953e becd 2ebf
00000040: d002 01bf 9e0f 28be 2081 21bf f6c6 46be
00000050: fff0 973e dd2c 19bf c93b 833e a5fe 1d3f
00000060: 4755 05be 5282 ef3e ddb2 153f b4a5 db3d
00000070: 943d c33d f894 bebd 49e9 97bd 771a 0cbe
00000080: d9c7 88be 0aeb 19be a243 71be e108 8abe
00000090: fd29 17bd 7e05 37be 3a73 9fbe a047 ee3e
000000a0: 5cc3 053f 20fd a93d b19c 8b3e 23ff af3e
000000b0: a217 a03e 6319 8c3e 0811 fd3e e4f6 253f
000000c0: d54c 993e 306c d83e 97e6 e83e fb06 10bb
000000d0: 18bb 4a3d 6f1a ff3c 1634 87bc c32d 033e
000000e0: 44ca 153d 9b89 09be cc7c e03d 1dc8 e1bd
000000f0: e475 11be b49a 5a3d ed9d 2abe 63cf 3dbe
00000100: 1a19 bc3e a10c b63e eef4 3f3d abdc 283f
00000110: 5120 1e3f 14ab 33bd ce59 ef3e b836 aa3e
00000120: b274 e93e 0a88 acbe 834f 9ebe 79f3 df3e
00000130: 2018 9fbe 01df 6dbe 45c0 863e e1b2 e7bd
00000140: ba21 8ebd 0227 c63e ba35 293e cf1e 2ebf
00000150: 3ccc fa3e d96a ca3e 0819 ffbe 140c 743e
00000160: 6d9e 7a3e 912f dabd 598c 9a3c 2312 9b3e
00000170: f425 453e 9078 923e 58b7 0b3f c873 463e
00000180: feb8 b73e e346 d53e 9c10 2fbe b1db f03e
00000190: 3c94 283f 77ac 003d eacb f13e eee6 173f
000001a0: f7e2 893d 2d73 b13d 7bd9 bdbc cbff 5ebe
000001b0: 2cae 893e e77b 413e 7672 8abd 4864 093f
000001c0: 9eb1 a03d 2a86 01bf db07 ed3e a675 f3bc
000001d0: 012c 0ebf 74bb 5abd 2ff7 bc3d d42a b53e
000001e0: 590d 18be 3660 3a3e 0b82 c33e 78e7 6d3e
000001f0: b95c 6e3e 7d02 b63e 5e07 4c3d 4583 033d
00000200: 367d 40bd 019a 893e df49 083e ddad 453d
00000210: e911 153f d674 f93e a609 e73e 4f01 1f3e
00000220: 2954 6bbc 3ad5 7c3d 69f6 573e e765 06be
00000230: 16f3 f23a 922d 813e a578 013e a634 4c3e

encoder.0.bias f4 [16]
0.22081822 -0.033260193 -0.094598554 0.45877787 -0.11798156 -0.16018635 0.22524449 -0.18217485
-0.010739825 -0.084984876 -0.14342616 -0.13601938 -0.075853385 -0.10642566 -0.13697979 0.25178364
00000000: 2c1e 623e d73b 08bd e3bc c1bd efe4 ea3e
00000010: 51a0 f1bd e407 24be 7ea6 663e 0b8c 3abe
00000020: 17f6 2fbc 8d0c aebd 4fde 12be aa48 0bbe
00000030: 0559 9bbd b2f5 d9bd 6e44 0cbe c9e9 803e

encoder.2.weight f4 [32, 16, 3, 3]
-0.024068788 -0.010212836 0.007858566 0.03874182 0.019518584 -0.010034373 0.014925071 -0.026418518
-0.019062666 -0.042173535 -0.023176461 -0.06609153 -0.05838975 -0.06123924 -0.030997684 -0.083891615
-0.04453893 0.033245165 -0.05593318 -0.011698105 0.00027996537 0.025881661 0.051589176 -0.10361525
-0.048056744 -0.01297042 -0.05392652 -0.02331208 -0.055789407 -0.016697621 -0.01444806 0.032833803
-0.038099192 0.0063225967 0.082320556 -0.019808818 -0.023818342 -0.010361279 0.08525927 0.06531598
0.062310986 0.08737038 0.012936941 -0.06330575 0.0065070963 -0.061898325 -0.060907688 -0.03612832
0.07065272 0.11880687 0.07213851 0.02109394 -0.02305503 0.02802286 -0.037507214 -0.05168583
-0.03403199 -0.030931976 -0.026874036 -0.0073342733 -0.040817708 -0.045380615 -0.0067743678 -0.03358678
0.058338996 0.059446562 0.11600512 0.20244655 0.13917026 -0.0016268383 -0.06205481 0.008683902
0.042957332 -0.061289847 -0.039311472 -0.060183037 -0.050611753 -0.084190324 -0.039149884 -0.048356123
-0.075500645 -0.033056453 -0.074943125 -0.037654735 -0.079127856 -0.09507067 -0.09969231 -0.08295079
-0.12875466 -0.066401616 -0.05310372 -0.043146636 0.034857195 0.049788464 0.07420248 0.021741677
0.02843668 -0.076744914 -0.0036667301 -0.07490239 -0.05739712 0.030125137 0.06869038 0.12163437
0.057229478 0.05482904 -0.019633878 0.0011256137 -0.093193516 -0.0703309 -0.08410891 -0.046667647
-0.10375475 -0.09686595 -0.06327155 -0.10099129 -0.065596305 -0.017342964 -0.008840244 -0.027381964
0.028785406 0.041191563 0.008148257 0.009068659 -0.017744815 0.034745146 -0.022316614 0.00514639
-0.00550817 0.006376217 -0.003661797 0.025652923 0.040564947 -0.0021655385 0.014449527 -0.0077838497
-0.02476913 0.021078905 -0.008586159 0.038838476 -0.015755778 0.011132064 -0.0058700764 -0.011625024
0.04382322 0.028939249 0.026365632 -0.010828873 -0.06147714 -0.08543519 -0.01913751 -0.019348375
-0.05725279 0.20375161 0.27727968 0.21938263 0.11813358 0.07520755 -0.027865287 0.030031988
0.017087616 -0.06734087 -0.020690227 0.07551333 0.111865826 -0.16893947 -0.07632249 -0.08371652
-0.04902405 -0.10867521 -0.047105115 0.0058446615 -0.08416799 -0.023905674 0.01226156 0.01832829
0.078085534 -0.01392402 -0.010167499 -0.0040116264 0.08387515 0.14099416 0.1444067 -0.06881187
-6.5125564e-06 -0.0059019593 -0.094566606 -0.12174647 -0.08008435 0.035395864 0.1283993 0.13671887
-0.03314286 -0.027127916 -0.058810208 -0.057436883 -0.08682675 -0.10300402 -0.0021576576 -0.008659958
0.00737575 0.025455335 -0.0032425476 0.020505615 0.026434192 -0.008348521 -0.010338815 0.018154081
0.14483885 0.13685116 -0.067831405 -0.09147646 -0.10846037 -0.07744175 -0.1948695 -0.09711119
0.059760332 0.008898582 -0.04656385 -0.08358224 -0.029876031 -0.032174643 -0.11247496 -0.0059612095
-0.011281858 0.111917004 0.050749015 -0.04790084 -0.07904052 -0.0570198 -0.032239214 -0.08735644
-0.038452704 -0.08217179 0.024917465 0.0647047 0.107035995 -0.10631512 -0.06267049 -0.049367364
-0.062470503 -0.13882156 -0.06746649 0.06729384 0.14724806 0.13453136 -0.017103892 -0.015666448
-0.031140072 -0.077380896 -0.033024184 -0.07187255 -0.017480314 0.029184978 -0.012521586 -0.13458994
00000000: e82b c5bc bd53 27bc 37c1 003c beaf 1e3d
00000010: 70e5 9f3c 3667 24bc 4988 743c a66b d8bc
00000020: 4f29 9cbc 28be 2cbd 90dc bdbc ff5a 87bd
00000030: 172a 6fbd ffd5 7abd dbee fdbc 5ecf abbd
00000040: 746e 36bd 152c 083d 311a 65bd 69a9 3fbc
00000050: 51c8 9239 c705 d43c 2c4f 533d 3b34 d4bd
00000060: 26d7 44bd e281 54bc 0ee2 5cbd faf8 bebc
00000070: 6f83 64bd 73c9 88bc 8eb7 6cbc bd7c 063d
00000080: e60d 1cbd c92d cf3b ae97 a83d 1a46 a2bc
00000090: af1e c3bc 5bc2 29bc 6a9c ae3d 62c4 853d
000000a0: ce39 7f3d 3eef b23d 77f5 533c 72a6 81bd
000000b0: 7b39 d53b 1989 7dbd 577a 79bd 4afb 13bd
000000c0: 60b2 903d 0451 f33d 5bbd 933d 33cd ac3c
000000d0: e7dd bcbc 3290 e53c 2aa1 19bd 85b4 53bd
000000e0: 2165 0bbd 0e65 fdbc f026 dcbc 5854 f0bb
000000f0: 7830 27bd 06e1 39bd 84fb ddbb 4b92 09bd
00000100: dff4 6e3d 3d7e 733d 1894 ed3d 264e 4f3e
00000110: a682 0e3e a33b d5ba 2f2d 7ebd ed46 0e3c
00000120: 07f4 2f3d 100b 7bbd 1105 21bd 7d82 76bd
00000130: 454e 4fbd fa6b acbd a15b 20bd 1211 46bd
00000140: 15a0 9abd 3466 07bd c87b 99bd da3b 1abd
00000150: c90d a2bd 69b4 c2bd 7b2b ccbd 1be2 a9bd
00000160: 43d8 03be 92fd 87bd 4983 59bd 87ba 30bd
00000170: 6bc6 0e3d fdee 4b3d 78f7 973d 9a1b b23c
00000180: 0af4 e83c 702c 9dbd 864d 70bb 6d66 99bd
00000190: 3e19 6bbd fec8 f63c 8bad 8c3d 711b f93d
000001a0: 7569 6a3d 6a94 603d 3ad7 a0bc 5489 933a
000001b0: 3edc bebd a609 90bd 4b41 acbd 9326 3fbd
000001c0: 5f7d d4bd a861 c6bd 8494 81bd 85d4 cebd
000001d0: 5b57 86bd d512 8ebc acd6 10bc 2450 e0bc
000001e0: 5fcf eb3c 7cb8 283d 4480 053c b694 143c
000001f0: 935d 91bc ed50 0e3d 55d1 b6bc 0ca3 a83b
00000200: e17d b4bb 96ef d03b c2fa 6fbb 1426 d23c
00000210: 6e27 263d b5eb 0dbb b5bd 6c3c aa0f ffbb
00000220: a1e8 cabc abad ac3c f6ac 0cbc 1815 1f3d
00000230: 4312 81bc 4363 363c c559 c0bb e276 3ebc
00000240: fa7f 333d 0112 ed3c bdfc d73c 966b 31bc
00000250: 74cf 7bbd a5f8 aebd 44c6 9cbc 7c80 9ebc
00000260: e781 6abd 43a4 503e 9af7 8d3e d7a5 603e
00000270: 05f0 f13d 6a06 9a3d be45 e4bc a505 f63c
00000280: 54fb 8b3c 03ea 89bd 8d7e a9bc bca6 9a3d
00000290: e919 e53d 78fe 2cbe f74e 9cbd 9173 abbd
000002a0: 71cd 48bd 1c91 debd 4bf1 40bd 9384 bf3b
000002b0: 4460 acbd d5d5 c3bc b6e4 483c 3625 963c
000002c0: 4feb 9f3d 9321 64bc 9595 26bc f673 83bb
000002d0: bcc6 ab3d c660 103e 5adf 133e 3ded 8cbd
000002e0: 6f86 dab6 3965 c1bb 23ac c1bd 3756 f9bd
000002f0: 4403 a4bd 41fb 103d 1b7b 033e 0800 0c3e
00000300: cfc0 07bd 5d3b debc f9e2 70bd f042 6bbd
00000310: 39d2 b1bd c6f3 d2bd 7d67 0dbb 7fe2 0dbc
00000320: 47b0 f13b b587 d03c ec80 54bb 64fb a73c
00000330: 858c d83c 3cc8 08bc 2264 29bc deb7 943c
00000340: a350 143e b622 0c3e 31eb 8abd 0358 bbbd
00000350: 7820 debd c899 9ebd df8b 47be 3be2 c6bd
00000360: 40c7 743d 5ccb 113c bcb9 3ebd 2a2d abbd
00000370: 94be f4bc 8fc9 03bd 4659 e6bd 4056 c3bb
00000380: 8bd7 38bc be34 e53d 33de 4f3d ac33 44bd
00000390: ffdf a1bd 988d 69bd 440d 04bd efe7 b2bd
000003a0: 9580 1dbd af49 a8bd b61f cc3c e683 843d
000003b0: b035 db3d bebb d9bd 6359 80bd 6f35 4abd
000003c0: 12e1 7fbd 3d27 0ebe df2b 8abd 5ad1 893d
000003d0: 32c8 163e 97c2 093e 761d 8cbc ec56 80bc
000003e0: 7719 ffbc e079 9ebd 5e44 07bd ea31 93bd
000003f0: e032 8fbc 5615 ef3c 5727 4dbc f2d1 09be

encoder.2.bias f4 [32]
-0.028138213 0.0027304443 0.19841406 -0.009804976 0.019916732 -0.038014565 -0.006093234 0.009448986
0.010064812 -0.016447539 -0.044313688 0.009523895 -0.02281852 -0.031624943 0.0077114487 -0.02053448
-0.026373813 -0.018986532 0.008938962 -0.043650027 -0.18921065 -0.08295468 -0.027478449 -0.017013615
-0.015871556 -0.018518914 -0.053436633 0.13216303 -0.0025218518 -0.032805983 -0.039664436 0.019925788
00000000: 1c82 e6bc 41f1 323b 0e2d 4b3e 0da5 20bc
00000010: 6a28 a33c 29b5 1bbd c0a9 c7bb ebcf 1a3c
00000020: e2e6 243c fdbc 86bc 4582 35bd 1c0a 1c3c
00000030: e8ed babc 2889 01bd 52b0 fc3b ed37 a8bc
00000040: e50d d8bc a589 9bbc b974 123c 5fca 32bd
00000050: 70c0 41be 25e4 a9bd 7c1a e1bc 2360 8bbc
00000060: 1105 82bc fab4 97bc 5fe0 5abd bf55 073e
00000070: a745 25bb 915f 06bd 2d77 22bd 683b a33c

encoder.4.weight f4 [64, 32, 7, 7]
-0.0008902311 0.00018689146 -0.0001759017 3.846221e-05 -0.00025606932 0.00054697355 -3.9024475e-05 3.3306916e-11
0.0036969078 0.027842354 0.016298376 0.018774848 -0.045782875 -0.009178452 0.0017628558 0.009277833
0.018733878 0.004729438 0.0019870978 -0.005793138 -0.018273612 0.0024284117 -0.021517826 -0.018460331
0.011806533 -0.038681976 -0.0439266 -0.0136891715 -0.00071014056 0.0082202805 0.0035356646 -0.0017505622
0.05873215 0.031422418 0.0044814204 0.001832005 -0.009886272 0.00734313 0.047743976 -0.0045025987
0.00046164956 -0.0035312788 -0.00092292606 -0.010038243 -0.006223315 -0.012448501 -0.031747114 -0.0147401225
-0.00079842284 -7.3278898e-06 -0.00025214686 0.00045000765 2.841038e-06 3.390106e-06 8.1062266e-05 1.6675387e-05
0.0002751328 -0.00508388 -0.004901028 -0.007998116 -0.00092281133 -0.0016564725 -0.0017610678 0.008209475
0.00435881 0.08716428 0.025392553 0.023394613 -0.18616861 -0.03777702 0.01300833 -0.032355666
-0.026757212 0.006377855 -0.036051426 -0.062534094 -0.027740983 0.0019796132 -0.037867673 -0.062921874
0.04117776 -0.037085693 0.06471249 0.033055864 0.0009546369 0.0045371205 0.05220321 0.025196115
0.016992329 0.056873873 0.015605665 0.0026395535 -0.032593124 -0.04748277 -0.044261444 0.015443989
0.016069993 0.0066625895 -0.007639273 -0.011581842 -0.018301947 -0.014743382 0.008749667 0.0083018355
0.0048867767 -0.012040715 -0.013704919 -0.01919146 -0.076053135 -0.02963928 0.02557806 0.011405384
-0.0107528055 0.018052472 -0.03613122 -0.019649822 -0.124694034 -0.005892439 0.061178356 0.0016270387
0.0063848654 -0.0016823063 0.07811737 -0.014874723 -0.0027981272 0.0035272914 -0.0073274085 0.022206003
-0.09246312 -0.056789983 0.027545739 -0.0110479975 0.008649923 -0.008168919 0.02295092 0.009284164
0.0714965 -0.009489337 -0.01576233 -0.021244926 -0.0028635922 0.01315687 0.08344646 0.0048598987
-0.018988296 -0.024130994 -0.006458885 4.9182e-40 -0.000621804 -0.0026310862 0.005173748 0.0055802055
0.0040044826 0.00037771408 -0.001798545 0.00204196 -0.0022313418 0.050346546 0.070269875 0.009393482
-0.021218494 0.0028363513 0.0031145301 -0.00086102687 -0.034346756 0.07843477 0.058453947 -0.04581324
0.00044727526 0.008383375 -0.007891584 -0.09055297 0.018473111 0.04825706 -0.03562435 -0.0011326128
-0.015357458 0.060566157 0.020248478 -0.009747094 0.0075698677 -0.011975237 -0.00092586403 -0.009696242
-0.033719715 0.011527907 0.009779127 -0.02496783 0.0020867565 0.0042252326 0.009905482 0.026524939
0.024301063 0.007101025 -0.004281865 0.004041429 -0.0022523864 -0.003082813 0.008566974 0.014165362
0.0003715533 -0.020920482 -0.0021141993 0.009147622 0.003369202 -0.002738296 0.0029059956 0.026450025
-0.0072678416 -0.0039780503 0.011270418 0.0011776956 0.0017048512 -0.06661617 -0.0002111263 -0.075437926
0.0012077816 0.003206826 -0.0024471865 0.0049972767 -0.0074973414 0.01610576 -0.0067214603 -0.009287064
-0.006489605 0.0059209066 -0.0043167737 -0.0029759877 -0.0073536015 -0.01903814 -0.034069322 0.00647518
0.020211622 0.025748603 -0.058381893 -0.049785748 0.007540893 -0.0009060941 -0.0015463018 -0.0027454041
-0.0037777436 -0.018526027 -0.0011442917 0.016936895 -0.0091552315 -0.00044499163 -0.00032426446 0.0024791497
0.0112069445 0.00026957813 -0.01026977 -0.0002479266 -0.00091970235 -0.0070016356 0.0030397756 0.055248775
00000000: 665e 69ba 4bf8 4339 4172 38b9 7c52 2138
00000010: 0b41 86b9 c662 0f3a 36ae 23b8 417c 122e
00000020: d247 723b a615 e43c 2c84 853c b6cd 993c
00000030: d386 3bbd 3861 16bc a00f e73a 0d02 183c
00000040: ca77 993c 67f9 9a3b f839 023b 5dd4 bdbb
00000050: 8bb2 95bc fd25 1f3b 2746 b0bc 1f3a 97bc
00000060: 3070 413c fe70 1ebd 61ec 33bd 8c48 60bc
00000070: ba28 3aba 5bae 063c 9cb6 673b 1f73 e5ba
00000080: 1f91 703d cbb4 003d e1d8 923b e31f f03a
00000090: 08fa 21bc a49e f03b 308f 433d 898a 93bb
000000a0: 8e09 f239 076d 67bb 85f0 71ba 7177 24bc
000000b0: f3ec cbbb ccf4 4bbc 4309 02bd 8e80 71bc
000000c0: 404d 51ba 18e2 f5b6 9432 84b9 01ef eb39
000000d0: a9a8 3e36 9481 6336 f9ff a938 1fe2 8b37
000000e0: b33f 9039 ad96 a6bb cd98 a0bb 880a 03bc
000000f0: d2e8 71ba fe1d d9ba a1d3 e6ba 0981 063c
00000100: 59d4 8e3b 3083 b23d 0b04 d03c 0fa6 bf3c
00000110: fca2 3ebe 14bc 1abd e420 553c 6087 04bd
00000120: f131 dbbc 53fd d03b a9aa 13bd e011 80bd
00000130: 0f41 e3bc 66bc 013b 221b 1bbd 2fdd 80bd
00000140: 03aa 283d 2be7 17bd fb87 843d 9665 073d
00000150: 9940 7a3a 20ac 943b 08d3 553d 1568 ce3c
00000160: 7f33 8b3c 94f4 683d e7ae 7f3c 5cfc 2c3b
00000170: 5e80 05bd 4b7d 42bd 7d4b 35bd c908 7d3c
00000180: 38a5 833c da51 da3b de52 fabb c4c1 3dbc
00000190: f7ed 95bc 3a8e 71bc c35a 0f3c 6c04 083c
000001a0: 4121 a03b 6b46 45bc 998a 60bc 6937 9dbc
000001b0: bfc1 9bbd 13ce f2bc 1489 d13c a6dd 3a3c
000001c0: 892c 30bc c7e2 933c 55fe 13bd aaf8 a0bc
000001d0: 965f ffbd 5c15 c1bb 2896 7a3d 5c42 d53a
000001e0: 2238 d13b d580 dcba 00fc 9f3d 1cb5 73bc
000001f0: c960 37bb 212a 673b c21a f0bb 5de9 b53c
00000200: 4e5d bdbd 9d9c 68bd 9aa7 e13c a902 35bc
00000210: 68b8 0d3c eed6 05bc 9103 bc3c 9b1c 183c
00000220: c26c 923d 2a79 1bbc 0020 81bc d709 aebc
00000230: 1bab 3bbb ea8f 573c fae5 aa3d c93f 9f3b
00000240: 588d 9bbc 5dae c5bc 0ea5 d3bb fe5a 0500
00000250: 8f00 23ba 4d6e 2cbb 8b88 a93b 28da b63b
00000260: 0938 833b ed07 c639 28bd ebba 67d2 053b
00000270: b43b 12bb 2e38 4e3d a7e9 8f3d 1ee7 193c
00000280: 68d2 adbc 14e2 393b 251d 4c3b 89b6 61ba
00000290: 2faf 0cbd 69a2 a03d 686d 6f3d aaa6 3bbd
000002a0: 4580 ea39 6c5a 093c b44b 01bc d673 b9bd
000002b0: ec54 973c 32a9 453d d7ea 11bd 2e74 94ba
000002c0: d99d 7bbc 3814 783d 23e0 a53c 46b2 1fbc
000002d0: a70c f83b c933 44bc afb5 72ba fddc 1ebc
000002e0: af1d 0abd 8cdf 3c3c a238 203c 5689 ccbc
000002f0: f7c1 083b d273 8a3b 9a4a 223c d44a d93c
00000300: 0613 c73c b7af e83b e34e 8cbb f76d 843b
00000310: c69c 13bb 0509 4abb 7e5c 0c3c d615 683c
00000320: 0acd c239 6e61 abbc 618e 0abb e8df 153c
00000330: d4cd 5c3b fc74 33bb 8472 3e3b b9ad d83c
00000340: 1327 eebb 4e5a 82bb 8fa7 383c e85c 9a3a
00000350: 5075 df3a 0f6e 88bd c961 5db9 337f 9abd
00000360: 6d4e 9e3a 9d29 523b fa60 20bb 32c0 a33b
00000370: 42ac f5bb 3af0 833c b23f dcbb c528 18bc
00000380: c1a6 d4bb 2a04 c23b b973 8dbb ca08 43bb
00000390: 7bf6 f0bb e0f5 9bbc 468c 0bbd bf2d d43b
000003a0: d892 a53c bcee d23c da21 6fbd 24ec 4bbd
000003b0: 9819 f73b f286 6dba 47ad caba 3dec 33bb
000003c0: 0594 77bb e5c3 97bc 0ffc 95ba 3ebf 8a3c
000003d0: d3ff 15bc c44d e9b9 0a02 aab9 3b79 223b
000003e0: 559d 373c 2a56 8d39 8a42 28bc 25fc 81b9
000003f0: 2e18 71ba fa6d e5bb f936 473b 8a4c 623d

encoder.4.bias f4 [64]
-0.017002461 -0.020209093 -0.006602755 0.00421183 0.035193652 0.02791477 0.014153185 -0.015767101
0.015658231 0.020289455 -0.03936807 -0.008647813 0.007138948 0.0031529095 -0.012249362 0.021870576
0.023421086 0.011046995 -0.010183279 0.03106418 0.011808153 -0.020637687 -0.004827109 -0.0038248438
-0.001135846 -0.0017336429 -0.015524875 -0.03849502 0.016680973 0.021330345 0.021321503 -0.011015885
-0.015361856 -0.006701468 -0.0097502675 0.019795505 0.015934514 0.017486745 -0.0043828604 -0.015299008
0.014544543 -0.014926331 -0.013771368 -0.001889842 -0.024277428 -0.028042275 0.009622796 0.0018708098
-0.0017221771 -0.0141843 -0.0044424455 -0.010470198 -0.025007825 0.011756944 0.016936928 -0.029084753
0.004631084 0.013790933 -0.0018243936 0.0057359957 -0.014550876 0.013173593 0.011885696 -0.015986962
00000000: bf48 8bbc 8a8d a5bc ec5b d8bb 6403 8a3b
00000010: 3827 103d 84ad e43c c3e2 673c 022a 81bc
00000020: b145 803c 1236 a63c 6a40 21bd 8faf 0dbc
00000030: d6ed e93b 0ba1 4e3b 8cb1 48bc ec29 b33c
00000040: 94dd bf3c 75fe 343c c5d7 26bc 4f7a fe3c
00000050: fc76 413c 5e10 a9bc ba2c 9ebb 3baa 7abb
00000060: abe0 94ba 673b e3ba 0c5c 7ebc f4ac 1dbd
00000070: 89a6 883c fabc ae3c 6faa ae3c f87b 34bc
00000080: 4bb0 7bbc fd97 dbbb 96bf 1fbc 2f2a a23c
00000090: 1989 823c 5d40 8f3c 199e 8fbb b1a8 7abc
000000a0: 3c4c 6e3c 928d 74bc 4ea1 61bc 93b4 f7ba
000000b0: 75e1 c6bc eab8 e5bc efa8 1d3c f635 f53a
000000c0: adba e1ba 4465 68bc ef91 91bb 318b 2bbc
000000d0: 36dd ccbc 32a0 403c 50bf 8a3c 2643 eebc
000000e0: 59c0 973b 5ef3 613c 7e20 efba 05f5 bb3b
000000f0: cc66 6ebc 0ed6 573c 39bc 423c 17f7 82bc

encoder.6.weight f4 [10, 64]
-0.112262204 -0.06342625 -0.14754122 -0.20020163 -0.073069364 0.16230276 -0.2600549 0.11582891
-0.033787962 -0.059632942 -0.105627425 -0.2709515 -0.24423842 -0.024418978 0.021562807 0.10782633
0.32111874 -0.15597132 0.12770617 -0.040530916 -0.08477305 -0.11943748 0.059569698 -0.1576065
-0.14407514 -0.07986864 -0.01841881 0.26150975 0.34381038 0.23725325 -0.18611482 0.14371751
0.21123789 -0.105830655 0.018977279 0.0020070043 -0.10776776 0.052160505 0.14913253 0.17197706
-0.08859745 0.025336068 0.20729113 0.21630841 -0.10792959 -0.12253941 0.28488606 -0.13830163
-0.17126185 0.10632245 -0.20087357 0.17410198 0.25836423 -0.024481481 -0.13302173 -0.1083286
0.14796434 -0.20078753 -0.32260242 -0.13742024 -0.15376438 0.028461238 0.14596474 -0.11905949
-0.20034654 0.2407794 -0.038126726 -0.12062585 -0.15056701 0.10352602 -0.109484576 0.074833184
-0.093180686 0.10432153 0.127256 0.20949745 0.14577606 0.006026828 0.019156342 0.03746799
0.14969645 -0.029537255 0.16949353 -0.13017763 -0.039138157 0.060160268 0.081833534 -0.17963246
-0.04947428 0.26837835 -0.00097442366 0.108265914 -0.33957553 0.11008915 0.10017569 -0.081682086
0.10304451 0.24914482 0.005796323 -0.072303265 0.038278934 -0.2404949 -0.0052389046 0.30513516
-0.064085916 -0.021260157 -0.14855993 0.32348543 0.18067385 0.08293666 -0.02897565 -0.024842722
-0.13049875 0.2203719 -0.10162279 -0.25961667 0.47775832 -0.26506338 -0.06727943 0.113135
0.12820731 0.0607013 -0.03824891 -0.17622714 0.083398014 0.01905125 -0.18666457 0.13143055
-0.11390043 0.18285899 0.039352268 -0.17318991 0.18207541 0.31255504 0.06311318 0.027468551
-0.25090224 -0.14003238 0.010202605 0.26973665 -0.015938263 0.14231512 -0.1684741 -0.007843473
0.06518186 0.06642687 0.0384048 -0.12708494 -0.15000974 0.11115458 -0.029437024 0.25517192
0.11522186 -0.093868285 -0.06848787 0.0923026 0.3422409 -0.15500109 0.219289 0.17000902
0.1363996 0.09885744 -0.16502762 0.014458802 -0.0017483827 0.304027 -0.14836659 -0.040237427
0.027335977 0.08076668 -0.21197064 -0.07686333 0.17656097 0.11000727 0.24431626 0.1543899
-0.09990908 0.31214836 -0.34355116 -0.105973795 -0.40467626 0.06581376 0.15692121 -0.11842508
0.029054413 -0.008880722 -0.23017448 -0.031997576 -0.09345197 -0.31425723 -0.368791 -0.1628825
-0.18950039 -0.14608455 0.24401025 0.009529725 0.04428687 0.30874124 -0.11697601 -0.09157601
0.085148 0.15602322 -0.16824171 0.24196641 0.21549718 -0.17026569 -0.25400627 0.15360905
0.08282881 0.0007602243 -0.084107265 0.051306646 -0.14092194 -0.14274363 -0.1080096 -0.19598034
-0.21135825 0.16417877 -0.1283052 -0.15619719 0.023546942 -0.040480483 -0.04000194 0.16636738
-0.16313617 0.057572916 0.21134287 -0.06329246 -0.22812548 0.01796434 -0.021649104 0.07707796
0.10447868 -0.13084216 0.24655396 -0.14623456 -0.12027369 0.06388783 -0.28878906 0.06628485
0.09337636 0.090806924 -0.1834803 -0.26127812 -0.19730107 -0.1789204 -0.20992422 -0.22134872
0.14962977 0.18879274 -0.08135942 -0.11254924 -0.016210077 0.046964914 0.15960212 0.16534199
00000000: bae9 e5bd 9fe5 81bd 0c15 17be a801 4dbe
00000010: 64a5 95bd b232 263e ea25 85be b537 ed3d
00000020: 3f65 0abd ac41 74bd 3153 d8bd 28ba 8abe
00000030: a319 7abe 4f0a c8bc 7ca4 b03c 0dd4 dc3d
00000040: ad69 a43e f2b6 1fbe 68c5 023e bf03 26bd
00000050: 7e9d adbd a39b f4bd 5bff 733d 9963 21be
00000060: 6f88 13be 2b92 a3bd 0be3 96bc 9be4 853e
00000070: ea07 b03e 84f2 723e e294 3ebe af2a 133e
00000080: bf4e 583e bebd d8bd 3d76 9b3c f287 033b
00000090: 58b5 dcbd 41a6 553d 33b6 183e c11a 303e
000000a0: 9472 b5bd 968d cf3c 2044 543e f47f 5d3e
000000b0: 300a ddbd f1f5 fabd 96dc 913e f19e 0dbe
000000c0: 445f 2fbe 96bf d93d cdb1 4dbe ca47 323e
000000d0: 5148 843e 638d c8bc d936 08be 63db ddbd
000000e0: f783 173e 3f9b 4dbe 252c a5be e4b7 0cbe
000000f0: 6974 1dbe 8b27 e93c c877 153e 76d5 f3bd
00000100: a527 4dbe e08e 763e c52a 1cbd b00a f7bd
00000110: 3d2e 1abe 7305 d43d 7339 e0bd 2442 993d
00000120: 84d5 bebd 87a6 d53d 664f 023e 8086 563e
00000130: 5246 153e b37c c53b c3ed 9c3c 0978 193d
00000140: 074a 193e 1df8 f1bc b68f 2d3e 494d 05be
00000150: 554f 20bd 9d6a 763d 5798 a73d 92f1 37be
00000160: 8ba5 4abd e368 893e 7770 7fba 85ba dd3d
00000170: d8dc adbe 6c76 e13d ea28 cd3d f048 a7bd
00000180: 0009 d33d d21f 7f3e 15ef bd3b bc13 94bd
00000190: 5fca 1c3d 4c44 76be 1eab abbb ad3a 9c3e
000001a0: 7a3f 83bd c829 aebc 1820 18be e29f a53e
000001b0: 9102 393e b2da a93d 585e edbc f782 cbbc
000001c0: 77a1 05be 2ca9 613e 9c1f d0bd 7aec 84be
000001d0: bd9c f43e 63b6 87be ccc9 89bd 53b3 e73d
000001e0: c748 033e eda1 783d e4aa 1cbd e374 34be
000001f0: 94cc aa3d 5e11 9c3c ff24 3fbe bb95 063e
00000200: a144 e9bd 633f 3b3e d82f 213d b258 31be
00000210: fa71 3a3e 3707 a03e 7c41 813d ba05 e13c
00000220: 4276 80be a664 0fbe d428 273c ec1a 8a3e
00000230: f690 82bc 0ebb 113e 7984 2cbe e981 00bc
00000240: 117e 853d d00a 883d 5a4e 1d3d 8e22 02be
00000250: 279c 19be 03a5 e33d ea25 f1bc e5a5 823e
00000260: 70f9 eb3d 043e c0bd 5e43 8cbd 2509 bd3d
00000270: 333a af3e 9bb8 1ebe 4c8d 603e d816 2e3e
00000280: 56ac 0b3e c575 ca3d 00fd 28be 9ce4 6c3c
00000290: fd29 e5ba 6da9 9b3e 69ed 17be 00d0 24bd
000002a0: b3ef df3c 0069 a53d d50e 59be 866a 9dbd
000002b0: 66cc 343e 7e4b e13d 0b2e 7a3e 6318 1e3e
000002c0: 229d ccbd e9d1 9f3e f0e5 afbe ca08 d9bd
000002d0: ba31 cfbe 5dc9 863d f4af 203e d988 f2bd
000002e0: 8503 ee3c 7380 11bc dcb2 6bbe e40f 03bd
000002f0: bf63 bfbd 53e6 a0be 2dd2 bcbe acca 26be
00000300: 640c 42be 3097 15be d3dd 793e 9022 1c3c
00000310: 2666 353d 5513 9e3e 1e91 efbd 348c bbbd
00000320: 1362 ae3d 8dc4 1f3e 8e47 2cbe 0bc6 773e
00000330: 4bab 5c3e 215a 2ebe 1c0d 82be b14b 1d3e
00000340: 27a2 a93d ca49 473a 6e40 acbd eb26 523d
00000350: d74d 10be 632b 12be 2334 ddbd 12af 48be
00000360: 4c6e 58be 7b1e 283e 7062 03be 28f2 1fbe
00000370: 84e5 c03c ddce 25bd 13d9 23bd 365c 2a3e
00000380: 2b0d 27be 94d1 6b3d 446a 583e 7a9f 81bd
00000390: ba99 69be f429 933c 7659 b1bc 0ddb 9d3d
000003a0: ebf8 d53d 7dfb 05be a478 7c3e 83be 15be
000003b0: 0d52 f6bd 9fd7 823d 29dc 93be 5ac0 873d
000003c0: 1b3c bf3d fbf8 b93d 42e2 3bbe 3fc6 85be
000003d0: 4b09 4abe e936 37be 60f6 56be 3da9 62be
000003e0: 8c38 193e e252 413e c59f a6bd 3780 e6bd
000003f0: ffca 84bc 485e 403d bd6e 233e 694f 293e

encoder.6.bias f4 [10]
0.06350595 -0.04927361 -0.032243915 0.021408524 -0.019071545 -0.025238125 0.0053364993 0.09197049
0.0696202 0.005324983
00000000: 680f 823d 20d3 49bd 3212 04bd ee60 af3c
00000010: ee3b 9cbc 2fc0 cebc cddd ae3b 065b bc3d
00000020: 0995 8e3d 327d ae3b

decoder.0.weight f4 [64, 10]
0.1166739 0.07692028 -0.015971713 -0.11457168 -0.063023075 -0.02925997 -0.0033827277 -0.124419235
0.0064919624 0.13310716 0.20254964 -0.17674701 0.024379978 -0.19543698 0.03754506 -0.2465298
-0.1415411 -0.22881502 -0.022579126 0.18172088 -0.003272916 0.3550159 0.26779082 0.2895696
0.27315325 -0.19727719 -0.22324683 0.13401367 0.093305826 -0.21250294 -0.20181613 0.53457683
-0.26244825 -0.057031374 0.037543517 0.11645038 0.24238974 -0.3136345 -0.14243469 -0.04059399
0.2417065 0.033428438 -0.26063082 0.07351822 -0.19665994 -0.17659897 0.25507164 0.28865373
-0.07605903 -0.03397048 0.3173746 0.18211916 0.449324 0.32802078 -0.18796104 0.26096994
0.27458984 -0.14409293 0.16008243 0.30494872 -0.1675096 -0.024925819 0.110076755 -0.20060071
0.085552104 -0.006110151 -0.19962901 0.030719265 -0.03431479 -0.25390607 0.086937256 0.50456023
0.38435906 -0.2798367 -0.25353944 0.13660777 0.116428666 -0.26630825 -0.42183504 0.2776488
0.0016625338 -0.00282122 -0.0012726444 -0.0013889966 0.00024872975 -0.0014187858 0.0010035771 0.005840308
0.006441037 0.002490579 -0.15039605 0.10195991 0.057114236 0.26076183 0.21120964 0.18494703
0.07337121 0.2743226 -0.116772205 0.119184054 -0.1197016 0.16153188 -0.008398826 0.16034368
0.10200067 0.11100142 0.076270044 0.12746221 0.05543559 0.2284577 0.043283504 0.34582025
0.23765217 -0.025983589 0.42148334 -0.33570984 -0.31879914 -0.16075476 -0.15727486 0.25847596
-0.009482844 -0.13728595 0.08006803 -0.10754889 0.2562734 -0.34788954 0.272362 0.056705676
-0.24060133 0.39844355 0.18563607 0.26256996 0.045713898 -0.036567025 -0.17683375 -0.07259019
-0.23956162 0.12808287 0.13220961 -0.06257571 0.28775156 0.16902538 -0.051938463 -0.014693968
0.38423914 0.2990842 -0.41236776 0.17781079 0.25116858 0.11836974 -0.28286693 -0.08349002
0.23229553 0.14923641 0.106554896 -0.003920647 0.2771153 0.121842556 0.14834304 -0.111310855
0.08353494 -0.16327097 0.12435326 0.053843625 0.14683731 0.22763525 -0.048154518 0.118707195
-0.19436812 -0.12611485 -0.2562494 -0.03351684 0.37678203 0.20655106 -0.32305175 -0.19369562
0.00554399 -0.251049 -0.17780651 0.0089025805 -0.24323359 -0.14812222 0.25052074 -0.07173157
-0.1085956 0.14097196 -0.09835681 -0.08444519 -0.024749177 -0.06823523 0.0015405202 0.14353818
0.18412812 0.044251088 0.16480693 0.04743484 -0.20423879 0.17853104 -0.21519367 -0.19948938
-0.0097959 -0.07822515 -0.02904468 -0.12701757 -0.11089989 -0.0056100395 -0.07459386 0.031293046
-0.07360847 -0.1317398 -0.011248088 0.016496545 -0.21330853 -0.15773234 0.09500925 -0.064059064
0.0057815257 -0.17785203 0.26727527 0.12644945 -0.08769463 -0.024583766 0.1832877 -0.015121643
0.047799528 0.11317194 0.12521139 0.06711604 -0.057634544 0.023228342 -0.28802848 -0.00050075224
0.14561753 0.34734526 0.10157174 0.15815026 0.1839782 0.09662955 -0.18910706 -0.30151832
-0.2307387 0.11943792 -0.12041956 -0.2648472 0.16431293 0.23321009 0.24797858 0.2812427
0.09524845 0.14150953 0.21208452 0.29121703 0.1800949 0.31492624 0.2701941 0.07922885
00000000: baf2 ee3d 6188 9d3d 1cd7 82bc 8fa4 eabd
00000010: 3e12 81bd 9bb2 efbc c1b0 5dbb 83cf febd
00000020: 87ba d43b 3e4d 083e 2c69 4f3e 2bfd 34be
00000030: 85b8 c73c a220 48be d9c8 193d 4f72 7cbe
00000040: 26f0 10be 7c4e 6abe dcf7 b8bc 0a15 3a3e
00000050: 6b7e 56bb a5c4 b53e e11b 893e 7742 943e
00000060: beda 8b3e 0803 4abe d19a 64be e13a 093e
00000070: 2017 bf3d 5f9a 59be e3a8 4ebe 07da 083f
00000080: 9e5f 86be bb99 69bd 3bc7 193d 897d ee3d
00000090: 0435 783e b494 a0be 66da 11be e245 26bd
000000a0: e981 773e 42ec 083d 6771 85be b890 963d
000000b0: 3961 49be 5cd6 34be c098 823e 6cca 933e
000000c0: d6c4 9bbd a124 0bbd ec7e a23e 727d 3a3e
000000d0: cc0d e63e 57f2 a73e dc78 40be da9d 853e
000000e0: 0a97 8c3e 198d 13be a6ec 233e 3d22 9c3e
000000f0: a387 2bbe 3b31 ccbc ec6f e13d 466a 4dbe
00000100: f135 af3d a937 c8bb 8c6b 4cbe f8a6 fb3c
00000110: aa8d 0cbd faff 81be 290c b23d dc2a 013f
00000120: b6ca c43e c246 8fbe eccf 81be e8e2 0b3e
00000130: 2772 ee3d 8e59 88be c3fa d7be fc27 8e3e
00000140: 61e9 d93a 38e4 38bb dcce a6ba fe0e b6ba
00000150: f167 8239 8df6 b9ba 768a 833a 0e60 bf3b
00000160: 560f d33b fb38 233b 6c01 1abe 5bd0 d03d
00000170: 9ef0 693d 9382 853e 5747 583e c162 3d3e
00000180: a543 963d 0374 8c3e 4426 efbd c516 f43d
00000190: 1d26 f5bd 9d68 253e 3b9b 09bc 2231 243e
000001a0: bae5 d03d b654 e33d 7833 9c3d 7485 023e
000001b0: 6e10 633d d1f0 693e 0b4a 313d 5a0f b13e
000001c0: 175b 733e 89db d4bc aacc d73e 29e2 abbe
000001d0: a439 a3be e59c 24be a90c 21be f656 843e
000001e0: ee5d 1bbc b094 0cbe b5fa a33d 9842 dcbd
000001f0: 4436 833e 941e b2be 0873 8b3e 3644 683d
00000200: 3260 76be cb00 cc3e 6217 3e3e 926f 863e
00000210: 7f3e 3b3d 4ec7 15bd e813 35be 2aaa 94bd
00000220: a44f 75be 2828 033e f561 073e b227 80bd
00000230: 2c54 933e fd14 2d3e 6dbd 54bd f8be 70bc
00000240: feba c43e 9021 993e de21 d3be 0814 363e
00000250: 2b99 803e d66b f23d efd3 90be d1fc aabd
00000260: e1de 6d3e 6ed1 183e 7439 da3d c578 80bb
00000270: 0ee2 8d3e 9788 f93d 3de7 173e f2f6 e3bd
00000280: 5e14 ab3d 8130 27be ecac fe3d 228b 5c3d
00000290: 855c 163e 3719 693e ac3d 45bd c21c f33d
000002a0: 7008 47be 4024 01be 1f33 83be f448 09bd
000002b0: 93e9 c03e 1f82 533e 0a67 a5be 2558 46be
000002c0: 5caa b53b 7f89 80be e912 36be 21dc 113c
000002d0: 3a12 79be 5aad 17be 4144 803e 00e8 92bd
000002e0: 5f67 debd f45a 103e 4c6f c9bd 9af1 acbd
000002f0: c9be cabc eabe 8bbd 48eb c93a acfb 123e
00000300: 158c 3c3e a140 353d 26c3 283e 094b 423d
00000310: f923 51be d7d0 363e bb5b 5cbe f246 4cbe
00000320: fc7e 20bc 8234 a0bd 1cef edbc e510 02be
00000330: 7b1f e3bd 6cd4 b7bb aac4 98bd 232d 003d
00000340: 0ac0 96bd cce6 06be e749 38bc c323 873c
00000350: 8d6d 5abe 9684 21be 3694 c23d 6631 83bd
00000360: f472 bd3b d81e 36be 4ed8 883e f77b 013e
00000370: 3e99 b3bd e563 c9bc c5af 3b3e c5c0 77bc
00000380: 70c9 433d b1c6 e73d 6a37 003e 2274 893d
00000390: 3312 6cbd 5d49 be3c 7878 93be ea44 03ba
000003a0: c31c 153e 3dd7 b13e d804 d03d 24f2 213e
000003b0: c864 3c3e b7e5 c53d 48a5 41be 9c60 9abe
000003c0: c446 6cbe de9b f43d 889e f6bd 0d9a 87be
000003d0: a641 283e a0ce 6e3e 19ee 7d3e 0bff 8f3e
000003e0: 9f11 c33d e0e7 103e af2c 593e 661a 953e
000003f0: cc6a 383e 033e a13e e256 8a3e bc42 a23d

decoder.0.bias f4 [64]
0.3871786 -0.21186796 -0.1269502 -0.019887675 -0.05715872 0.198653 0.005163247 -0.24094076
-0.14058341 -0.15254243 0.18111315 0.013403042 -0.23966867 0.002168353 -0.0005756217 0.18470946
-0.06447855 -0.1501916 -0.1088979 -0.02787123 -0.07177386 -0.26618892 0.2794196 -0.25261125
0.042471167 0.11707657 0.2760482 0.038013108 0.07940887 0.10157051 -0.19179267 -0.074756674
0.20931773 -0.116554335 0.32777297 -0.14416544 0.02015958 -0.039652415 0.0965846 0.092657804
0.15984885 -0.03815067 0.15034363 0.0067595416 -0.15360233 0.069038406 -0.06401837 -0.2114522
0.046315894 -0.21928355 0.25710583 0.049605504 0.0713648 0.26923263 -0.13892232 -0.26094306
-0.06987494 0.020277428 -0.022198481 -0.092070766 0.07358213 -0.0065542934 0.32950115 -0.14678806
00000000: 463c c63e eaf3 58be 3cff 01be 7aeb a2bc
00000010: 431f 6abd b16b 4b3e 7530 a93b 2db9 76be
00000020: 19f5 0fbe 1534 1cbe ba75 393e 6f98 5b3c
00000030: b46b 75be ed1a 0e3b 52e5 16ba 7a24 3d3e
00000040: 540d 84bd d4cb 19be dd05 dfbd 3552 e4bc
00000050: 2cfe 92bd ea49 88be 1610 8f3e 4356 81be
00000060: 3ff6 2d3d d7c5 ef3d 3156 8d3e a2b3 1b3d
00000070: 1ea1 a23d 3304 d03d 4c65 44be 071a 99bd
00000080: 6357 563e 0ab4 eebd dcd1 a73e 1ba0 13be
00000090: b425 a53c 926a 22bd 26ce c53d 60c3 bd3d
000000a0: 6baf 233e e043 1cbd aef3 193e 257f dd3b
000000b0: ee49 1dbe 0264 8d3d 101c 83bd ed86 58be
000000c0: bcb5 3d3d de8b 60be 60a3 833e 242f 4b3d
000000d0: b527 923d dcd8 893e a741 0ebe 549a 85be
000000e0: 981a 8fbd d91c a63c 97d9 b5bc 998f bcbd
000000f0: 3ab2 963d 66c5 d6bb 60b4 a83e 9c4f 16be

decoder.2.weight f4 [64, 32, 7, 7]
-0.00020421251 0.0029508448 -0.009018245 -0.010409054 -0.0012493718 -0.0022029267 0.00023827604 0.0074218786
-0.007703027 0.008872524 0.0023368164 0.018006133 0.01796972 0.028762788 0.008861684 0.03708869
0.0681567 -0.0032566243 -0.017058942 0.025428275 -0.0020895216 -0.0047446494 0.003711233 -0.05681758
0.09452281 0.044106897 0.0052711596 -0.010825331 -0.007896715 0.030371446 -0.010347448 0.03587463
-0.02874193 0.040336896 0.0029447428 0.002902502 -0.028168578 0.0076909605 0.015705962 -0.008176809
0.0046725958 -0.003318144 -0.012625865 0.0043303305 0.033135004 0.030265559 0.021945974 0.024447992
0.0017971311 -0.00023301317 0.0036258718 0.004712935 0.00020985665 -0.0043043457 -0.0059235697 -0.0010046645
0.0039939075 0.00096277904 0.039473716 0.047660947 -0.0051372675 -0.010465751 0.03166033 0.00022229958
0.01721325 -0.008964991 0.004903079 -0.036630172 0.030338926 0.00817464 -0.00086159375 0.019231457
-0.042077627 -0.033293024 0.011384609 -0.0014146757 -0.01154309 -0.008030908 -0.021336017 0.018376112
-0.005105512 -5.267092e-06 0.027693838 -0.017846003 -0.0010561778 0.008541742 -0.021435527 -0.0029566518
0.00086245476 -0.0069416086 -1.7321603e-05 -0.012905154 0.006535191 0.020483714 0.044750452 0.08336175
-0.004985349 -0.0063043474 -0.00025757728 0.0020523213 -0.00048456277 0.0010895678 -0.0036855724 -0.0051149433
-0.0039605717 0.006563167 0.0015756506 0.022240994 0.038323555 0.022838864 0.005737713 0.029429024
0.001929949 0.012764962 -0.0036259065 0.027022997 -0.02475604 -0.021588817 -0.004274597 -0.0006977266
0.014486257 0.024084345 0.022257859 0.0282799 0.010316143 -0.011245408 -0.0018218575 -0.0001477762
-0.026473004 -0.0071257493 0.021309972 -0.016159292 0.0042690174 -0.0036240786 -0.0017331259 0.03329548
0.011612429 2.8882864e-06 0.050740656 -0.0010717406 -0.003355962 -0.006955155 0.022484891 0.023303114
-0.011099331 -0.00102785 0.0011503552 -0.00025304616 -0.0003160965 -0.007089134 0.012731604 0.014545868
0.0039710514 0.001538626 0.0035409858 -0.0142959105 0.05897558 0.038080256 0.026427677 0.049074013
-0.017376035 0.0006024944 0.026386786 0.030539678 -0.04475867 0.0015715677 0.030036412 -0.00085366966
0.0012064062 -0.0035833744 0.049846802 -0.0064976653 0.018160265 0.014162502 0.005925485 -0.005879083
0.017670475 -0.021825202 -0.040230703 0.0069199256 -0.010221386 -0.0056732544 -0.0027725855 -0.008698783
0.015265348 -0.032895394 -0.00068493525 -0.0030594924 -0.003024677 0.0022209617 0.0002578666 0.031947825
0.01311637 0.007677883 0.045818225 0.0013477281 -6.02962e-40 -5.74085e-40 5.20685e-40 0.006352038
4.93275e-40 -5.8748e-40 -5.98918e-40 -4.95992e-40 -4.6314605e-07 -0.07156765 -0.05103211 4.96053e-40
-0.044787385 -6.14859e-40 -5.67768e-40 -0.076144375 -0.007572403 0.04868766 -0.039795864 -0.06274656
4.93806e-40 -5.13499e-40 -0.012557533 0.01675449 -0.007671549 -0.0029004298 -4.94569e-40 4.94772e-40
5.41834e-40 5.30868e-40 0.08881668 -0.06655366 -5.62215e-40 0.019772204 4.94147e-40 -4.95782e-40
-4.90502e-40 -0.002629737 -0.04140293 -0.0041106977 0.0032802958 4.92143e-40 -5.87399e-40 -5.32753e-40
-0.028300468 -0.008264278 -4.9511e-40 -4.9105e-40 5.09264e-40 -4.99697e-40 -4.97373e-40 4.9347e-40
4.94629e-40 4.93026e-40 4.92893e-40 4.90901e-40 -4.98551e-40 -4.94224e-40 7.592268e-30 0.04257265
00000000: e121 56b9 f662 413b 43c1 13bc bd8a 2abc
00000010: f6c1 a3ba fa5e 10bb bdd9 7939 3b33 f33b
00000020: ad69 fcbb 105e 113c 4625 193b 9981 933c
00000030: 3c35 933c f09f eb3c 9930 113c 4fea 173d
00000040: bd95 8b3d 176d 55bb 32bf 8bbc f54e d03c
00000050: 5bf0 08bb 0179 9bbb 2838 733b 8db9 68bd
00000060: 2d95 c13d 6fa9 343d b1b9 ac3b bb5c 31bc
00000070: 3961 01bc 8acd f83c 5888 29bc 47f1 123d
00000080: 3274 ebbc 4d38 253d 96fc 403b e737 3e3b
00000090: cac1 e6bc 7404 fc3b caa9 803c 06f8 05bc
000000a0: 931c 993b 3875 59bb b7dc 4ebc 72e5 8d3b
000000b0: 92b8 073d 7aef f73c 0bc8 b33c 2847 c83c
000000c0: b78d eb3a ff54 74b9 09a0 6d3b f76e 9a3b
000000d0: f70c 5c39 780b 8dbb 811a c2bb f2ae 83ba
000000e0: 53df 823b 0263 7c3a 31af 213d 2038 433d
000000f0: 8656 a8bb 8b78 2bbc 43ae 013d 1719 6939
00000100: cd02 8d3c e6e1 12bc 02aa a03b 8509 16bd
00000110: 5789 f83c edee 053c 94dc 61ba 4a8b 9d3c
00000120: 9759 2cbd 445e 08bd 8386 3a3c a46c b9ba
00000130: 3b1f 3dbc 1294 03bc dfc8 aebc 8089 963c
00000140: 244c a7bb fabb b0b6 30de e23c c831 92bc
00000150: 726f 8aba aaf2 0b3c 8f99 afbc 63c4 41bb
00000160: 5c16 623a 6f76 e3bb dc4d 91b7 2470 53bc
00000170: 2825 d63b 76cd a73c 404c 373d 91b9 aa3d
00000180: 235c a3bb b394 cebb 700b 87b9 3d80 063b
00000190: ea0c feb9 d4cf 8e3a a589 71bb 419b a7bb
000001a0: afc7 81bb d60f d73b 1086 ce3a bf32 b63c
000001b0: 29f9 1c3d 9218 bb3c 6d03 bc3b 2315 f13c
000001c0: 58f6 fc3a 2224 513c 9ea0 6dbb 555f dd3c
000001d0: 2ecd cabc 08db b0bc eb11 8cbb a4e7 36ba
000001e0: c457 6d3c 884c c53c 1d56 b63c 40ab e73c
000001f0: 0a05 293c a93e 38bc 65cb eeba 5ff4 1ab9
00000200: eadd d8bc 1e7f e9bb 4092 ae3c 7e60 84bc
00000210: 1de3 8b3b f381 6dbb 0e2a e3ba d760 083d
00000220: 0f42 3e3c 62d4 4136 6fd5 4f3d a679 8cba
00000230: b3ef 5bbb 12e8 e3bb 3c32 b83c 2ce6 be3c
00000240: f8d9 35bc ecb8 86ba 84c7 963a 48ab 84b9
00000250: c1b9 a5b9 f74b e8bb 3898 503c cb51 6e3c
00000260: 981f 823b b9ab c93a e20f 683b 6539 6abc
00000270: 6190 713d 0bfa 1b3d db7e d83c d501 493d
00000280: 3058 8ebc b7f0 1d3a 1a29 d83c 592e fa3c
00000290: de54 37bd 10fd cd3a ec0e f63c cdc8 5fba
000002a0: 4620 9e3a 0cd7 6abb 292c 4c3d 5eea d4bb
000002b0: d6c4 943c d709 683c 922a c23b 53a5 c0bb
000002c0: acc1 903c c4ca b2bc f3c8 24bd 8bc0 e23b
000002d0: 9a77 27bc b5e6 b9bb 44b4 35bb 5785 0ebc
000002e0: 831b 7a3c 52bd 06bd 3a8d 33ba c481 48bb
000002f0: a939 46bb 8e8d 113b 4532 8739 b9db 023d
00000300: 0be6 563c c096 fb3b e4ab 3b3d 40a6 b03a
00000310: d090 0680 5140 0680 75ab 0500 c224 d03b
00000320: 0d5f 0500 a865 0680 8a85 0680 a066 0580
00000330: 4fa6 f8b4 0f92 92bd 0c07 51bd cb66 0500
00000340: fa72 37bd fab1 0680 b52e 0680 95f1 9bbd
00000350: ec21 f8bb b66c 473d fd00 23bd 4581 80bd
00000360: 8860 0500 6d97 0580 1cbe 4dbc b640 893c
00000370: 9e61 fbbb 2315 3ebb a862 0580 3963 0500
00000380: 6ae6 0500 d8c7 0500 85e5 b53d 494d 88bd
00000390: 3a1f 0680 51f9 a13c 7b61 0500 0a66 0580
000003a0: 5257 0580 aa57 2cbb 1e96 29bd 08b3 86bb
000003b0: 3bfa 563b e55b 0500 6e65 0680 19cd 0580
000003c0: 62d6 e7bc e566 07bc 2a64 0580 d958 0580
000003d0: 9f8b 0500 f470 0580 796a 0580 985f 0500
000003e0: d362 0500 5b5e 0500 fc5d 0500 6f58 0500
000003f0: c26d 0580 b261 0580 4ffd 190f a960 2e3d

decoder.2.bias f4 [32]
0.37767816 0.16502576 0.123905785 0.11131407 -0.624233 -0.38684148 -0.5849016 -0.8240011
0.22348583 -0.5957873 -0.24705873 -0.4398126 0.024688747 0.26052275 0.17517513 -0.16851425
-0.014943666 0.30367124 0.25482056 0.17952293 -0.18219781 0.03270667 0.048643846 0.2915764
0.14398322 -0.711357 0.16403316 0.06100984 0.024636315 -0.029278643 0.2012248 0.028045187
00000000: 085f c13e 83fc 283e 51c2 fd3d a2f8 e33d
00000010: bccd 1fbf 1610 c6be 1cbc 15bf bcf1 52bf
00000020: 78d9 643e 8485 18bf f7fc 7cbe 1e2f e1be
00000030: 0e40 ca3c 3d63 853e 1c61 333e 008f 2cbe
00000040: 47d6 74bc cc7a 9b3e d777 823e dcd4 373e
00000050: 1092 3abe 6ef7 053d c53e 473d 8049 953e
00000060: 5670 133e 7e1b 36bf 4ff8 273e 74e5 793d
00000070: 19d2 c93c c4d9 efbc e00d 4e3e 05bf e53c

decoder.4.weight f4 [32, 16, 3, 3]
0.011908755 -0.010332761 -0.033817254 -0.04048465 -0.12513466 -0.07167487 -0.0007864629 0.068609245
0.098979145 -0.026070885 0.020762285 0.05219394 0.19170028 0.33377728 -0.12166021 0.09102142
0.16043814 0.15310799 -0.024856977 -0.008577445 -0.15178165 0.1574131 0.060703047 -0.13026899
0.109501995 0.11186237 -0.038658336 -0.17299376 0.066108435 0.07540748 -0.08467039 -0.035684742
0.16354172 0.025974415 0.110385805 0.12974028 -0.12524053 0.09826386 -0.07863063 -0.022031017
-0.004251715 0.014223041 0.005999384 0.087079644 0.03467117 -0.02867537 -0.052269958 0.10864404
-0.052265514 -0.13024326 -0.0028657618 -0.1331293 0.10200838 -0.006535135 0.033805203 0.01931447
-0.030665379 -0.053604748 0.02508134 0.019028652 0.08482727 0.06387018 0.12017896 0.053211115
0.07449145 -0.13627933 0.12586354 0.046405304 -0.16985379 0.07620212 0.07026685 -0.071181744
-0.123725384 -0.19463603 -0.16283685 -0.07867297 -0.034512974 -0.04484091 0.08962482 0.23790726
0.015121598 -0.082093626 0.04238381 0.14635812 -0.08076133 0.022373265 0.13340616 -0.14658102
0.00085901434 0.10222671 0.028824402 0.05021095 -0.004476151 0.027209574 0.06652293 0.036881294
-0.020496314 0.004697467 0.04688167 0.11711896 0.27433637 -0.034123942 0.027452368 0.10032882
0.16269222 0.024231706 -0.13505286 -0.086507805 0.008402848 -0.053882804 0.18548843 0.0140348235
0.029527415 0.12503329 -0.025157755 -0.036960803 0.035265602 0.015605197 -0.034541376 0.10766739
-0.06970214 -0.107105516 -0.024343846 -0.010525246 0.07675401 -0.10701306 0.0005390978 -0.049731873
-0.09696583 -0.11253153 0.05738388 0.20908767 0.004091476 0.10830863 0.037356507 -0.043434493
-0.16486843 0.024282092 0.08671413 -0.14284831 -0.029403752 0.06928883 0.117396474 -0.03742107
-0.12018454 -0.090942234 0.056664146 -0.16169909 -0.17700623 0.03964966 -0.021797564 0.05534475
0.022958962 -0.07650799 0.06380155 0.10566178 0.13143645 0.27530733 -0.10799122 0.09828203
0.21775249 0.07897165 -0.06504676 -0.052135643 -0.14824875 0.052481916 -0.09744334 -0.053613197
0.11368762 -0.06442752 -0.038552374 -0.016098635 0.12769933 0.13299519 -0.042504568 -0.2020815
0.19867213 0.03727632 0.13571522 0.10909066 0.070534185 0.09734874 0.05779351 0.039851587
-0.07469583 0.07734193 -0.029460497 -0.0034907048 -0.00086707494 0.054812696 0.040722515 0.025936536
-0.097553924 -0.03315327 -0.08866764 -0.039991036 -0.024351249 0.016734194 -0.035351045 0.01077581
-0.059358906 -0.026224814 -0.080256134 0.014081477 -0.06715065 -0.08351698 -0.16088988 -0.00071565865
0.10165278 -0.11744111 0.061243217 -0.064155 -0.13969065 0.11361926 0.11555469 -0.0011309271
-0.097616725 -0.21855879 -0.03390529 0.07811813 -0.071602575 -0.06975589 0.1512233 0.038020503
-0.029536111 -0.091692686 0.15302809 0.12601136 -0.018529028 0.268451 0.23368385 -0.109782346
0.10060713 0.08942196 -0.06881146 -0.044087213 0.00407487 -0.0609789 0.074804835 0.044521775
-0.0060599763 -0.034202307 0.006471611 0.17281283 0.07495637 0.02202176 0.1306076 0.11069503
0.13658245 -0.10303272 -0.015064157 -0.07834956 0.02938365 -0.2436357 0.055167288 0.05306216
00000000: f01c 433c be4a 29bc f683 0abd 3bd3 25bd
00000010: 4d23 00be 46ca 92bd a22a 4eba 0183 8c3d
00000020: 94b5 ca3d 9c92 d5bc ab15 aa3c 50c9 553d
00000030: 144d 443e dbe4 aa3e fd28 f9bd 7069 ba3d
00000040: e549 243e 57c8 1c3e dca0 cbbc 6988 0cbc
00000050: a66c 1bbe e630 213e c2a3 783d 3c65 05be
00000060: 9542 e03d 1918 e53d 3458 1ebd 4725 31be
00000070: dc63 873d 3d6f 9a3d ab67 adbd 2a2a 12bd
00000080: 7b77 273e 4cc8 d43c f411 e23d a3da 043e
00000090: 0e3f 00be 903e c93d 1909 a1bd 647a b4bc
000000a0: f851 8bbb c207 693c 7b96 c43b d056 b23d
000000b0: 5b03 0e3d 9ce8 eabc 0619 56bd c480 de3d
000000c0: 5d14 56bd 7d5e 05be 81cf 3bbb 0c53 08be
000000d0: c5e9 d03d b024 d6bb 5377 0a3d 6139 9e3c
000000e0: f635 fbbc a790 5bbd 6277 cd3c fae1 9b3c
000000f0: ebb9 ad3d 5ece 823d 6320 f63d e6f3 593d
00000100: f98e 983d cf8c 0bbe 5fe2 003e 7d13 3e3d
00000110: 27ee 2dbe db0f 9c3d 11e8 8f3d bcc7 91bd
00000120: bc63 fdbd ab4e 47be b4be 26be 4b1f a1bd
00000130: 7a5d 0dbd 1aab 37bd 388d b73d f69d 733e
00000140: 94c0 773c b420 a8bd a59a 2d3d e7de 153e
00000150: 3266 a5bd 2348 b73c a09b 083e 5619 16be
00000160: 7a2f 613a 3d5c d13d 2721 ec3c ffa9 4d3d
00000170: adac 92bb 9de6 de3c 2d3d 883d d710 173d
00000180: e3e7 a7bc 36ed 993b fe06 403d 11dc ef3d
00000190: d175 8c3e 8cc5 0bbd cae3 e03c 3279 cd3d
000001a0: ca98 263e 9281 c63c 4c4b 0abe 012b b1bd
000001b0: 19ac 093c 37b4 5cbd aef0 3d3e 51f2 653c
000001c0: 7ae3 f13c ba08 003e a317 cebc 3664 17bd
000001d0: aa72 103d f1ac 7f3c 427b 0dbd b880 dc3d
000001e0: ffbf 8ebd 235a dbbd bf6c c7bc 1572 2cbc
000001f0: 3531 9d3d aa29 dbbd 3e52 0d3a a6b3 4bbd
00000200: 0596 c6bd ee76 e6bd 5c0b 6b3d 141b 563e
00000210: ca11 863b ead0 dd3d 2303 193d 5ee8 31bd
00000220: 45d3 28be 3deb c63c 2e97 b13d d446 12be
00000230: 23e0 f0bc 4de7 8d3d 906d f03d d646 19bd
00000240: 5023 f6bd ec3f babd aa18 683d 7294 25be
00000250: 1f41 35be af67 223d ce90 b2bc 2db1 623d
00000260: 6f14 bc3c 39b0 9cbd 63aa 823d 3465 d83d
00000270: 4797 063e 15f5 8c3e 802a ddbd 1748 c93d
00000280: 82fa 5e3e e3bb a13d 3c37 85bd 2f8c 55bd
00000290: 85ce 17be 47f7 563d 6090 c7bd 8399 5bbd
000002a0: 0ed5 e83d 93f2 83bd 18e9 1dbd 49e1 83bc
000002b0: 9dc3 023e e42f 083e 4519 2ebd 74ee 4ebe
000002c0: b570 4b3e 0eaf 183d eef8 0a3e ed6a df3d
000002d0: 3a74 903d c75e c73d e3b8 6c3d 6b3b 233d
000002e0: 21fa 98bd 7265 9e3d 2457 f1bc 4fc4 64bb
000002f0: 6a4c 63ba 4783 603d a7cc 263d dc78 d43c
00000300: 5aca c7bd b9cb 07bd 6197 b5bd a4cd 23bd
00000310: 457c c7bc 2616 893c 42cc 10bd 068d 303c
00000320: 5322 73bd 6cd5 d6bc 545d a4bd ffb5 663c
00000330: 4886 89bd f30a abbd 51c0 24be 0a9b 3bba
00000340: 552f d03d f784 f0bd 2bda 7a3d b263 83bd
00000350: 110b 0fbe 37b1 e83d f0a7 ec3d 9e3b 94ba
00000360: 47eb c7bd e0cd 5fbe 46e0 0abd 66fc 9f3d
00000370: 5fa4 92bd 2ddc 8ebd 48da 1a3e 63bb 1b3d
00000380: b7f5 f1bc 60c9 bbbd 65b3 1c3e 1f09 013e
00000390: 30ca 97bc 6972 893e d24a 6f3e 91d5 e0bd
000003a0: 1c0b ce3d dc22 b73d 06ed 8cbd cb94 34bd
000003b0: 7d86 853b 03c5 79bd 4733 993d 775c 363d
000003c0: c492 c6bb b817 0cbd cf0f d43b d9f5 303e
000003d0: ba82 993d fa66 b43c 00be 053e 13b4 e23d
000003e0: 45dc 0b3e d202 d3bd a7cf 76bc bc75 a0bd
000003f0: fbb5 f03c a37b 79be 18f7 613d b557 593d

decoder.4.bias f4 [16]
-0.33668786 0.6064058 0.33613268 0.22958165 0.3089954 -0.09881673 0.25102043 0.34824786
0.5622315 0.38822553 -0.81674516 0.47421628 0.32099608 0.009175799 0.2632822 0.23830606
00000000: 5a62 acbe 693d 1b3f 9519 ac3e 7417 6b3e
00000010: a534 9e3e 6d60 cabd c085 803e 8b4d b23e
00000020: 67ee 0f3f 7fc5 c63e 3616 51bf 7acc f23e
00000030: 9959 a43e 1756 163c edcc 863e 8106 743e
