02_Representations/model_weights/denoiser.pth (torch, 852730 bytes, 15 tensors)

encoder.0.weight f4 [16, 1, 3, 3]
000000 b1 65 0e 3e 14 9d a4 bd e6 57 da 3c a9 55 82 bc
       0.1390598 -0.08037773 0.026653241 -0.015909987
000010 85 c5 83 be 45 6c a3 ba ba 4b d7 bc 24 35 9b 3b
       -0.25736633 -0.001246818 -0.026281226 0.0047365595
000020 b0 dc 49 3e f7 9b 85 be 3a 17 07 be 6f 12 83 3e
       0.19713092 -0.26095554 -0.13192454 0.256
000030 58 a2 c3 bd 56 bf 6f 3e 34 c9 0d 3f 80 28 be 3e
       -0.09552449 0.23412833 0.55385137 0.37140274
000040 e5 02 0e 3f 06 b4 c8 3e a4 1d 96 3e 67 ee a8 3e
       0.55473167 0.39199847 0.2931949 0.32994387
000050 30 20 b5 3e 10 d8 20 be 1a 5a 40 3d 33 dc f2 3d
       0.3537612 -0.15707421 0.046960928 0.11858406
000060 e0 ce e7 be d0 5f dc be 0c 19 a5 be 33 a9 c5 3e
       -0.4527502 -0.4304185 -0.32245672 0.3860565
000070 6f a7 1e be 6d c4 9e be fb 94 df 3e 10 ec b4 bd
       -0.15493558 -0.31009236 0.4366835 -0.08834088
000080 95 93 be be 91 ef dd 3e 00 96 a5 bd 71 cf 81 be
       -0.3722197 0.43346837 -0.08085251 -0.25353578
000090 33 cc d6 3e 29 37 09 3e 1d e3 6b be 8a 09 31 3f
       0.41952667 0.13399948 -0.23035856 0.6915518
0000a0 f4 15 8c 3e 70 d7 90 3d a7 01 25 3f 20 5e df 3e
       0.273605 0.070723414 0.64455646 0.436265
0000b0 d2 56 8e 3e 98 c3 6f 3c 11 4b ee 3d 2b 33 fb 3d
       0.27800614 0.0146340355 0.116354115 0.12265619
0000c0 ef 0a c7 3d 59 c7 06 3e db d2 82 3e 43 a3 6f 3d
       0.09718882 0.13161983 0.25551495 0.058505308
0000d0 5b 1d 36 be 08 08 f1 3d be f1 06 bd 3d 0b 12 be
       -0.17784636 0.1176911 -0.032945387 -0.142621
0000e0 fb 1b 15 3e e2 e7 31 3e 39 df b6 3e 17 99 92 3e
       0.14561455 0.17373613 0.3571718 0.28632423
0000f0 44 6f ab 3e 5c fc cc 3e 56 30 62 3e 00 de 69 be
       0.33483326 0.40036285 0.22088751 -0.22838593
000100 a2 b5 69 3e 32 c9 ea bc 10 1e 5d 3e 9f 22 24 3f
       0.22823194 -0.02866039 0.21593499 0.6411533
000110 68 f9 c3 3e d8 ab 84 3c 4a d1 ad 3e 4c 3c d1 3e
       0.3827622 0.016195223 0.33948737 0.40866315
000120 89 37 16 3f 7d b7 25 3f 63 49 c0 3e 49 b4 f8 3e
       0.5867849 0.64733106 0.3755599 0.48575047
000130 d1 6e ac 3e eb c4 1c be eb 53 19 3e 8c 1c 33 be
       0.33678296 -0.15309493 0.14973418 -0.17491359
000140 e5 b4 3c be 10 f7 bc 3d 42 8c a5 3d f6 7c 23 3d
       -0.18428381 0.09226811 0.08083393 0.039914094
000150 93 1c 1d 3d 45 86 98 bd 06 ce aa 3d 42 cd 0e be
       0.03835733 -0.07447485 0.08340077 -0.13945487
000160 eb 16 0c be 8d ba ad bd 48 e1 a6 be db a2 45 be
       -0.13680618 -0.08482847 -0.3259375 -0.19300406
000170 2d 6b 6d be ea b0 2c be 8f fe 30 3d f3 71 69 be
       -0.23185416 -0.16864362 0.043211516 -0.22797374
000180 d7 cc 1d be 69 52 b7 bd 1c 11 ab be 2f 4d 01 bf
       -0.15410171 -0.08951265 -0.3341149 -0.505084
000190 0f c7 83 be 53 7a b8 3e 1c b4 2f bf dd 49 b2 bd
       -0.25737807 0.36030826 -0.686342 -0.087054946
0001a0 dd 9b 1e 3f ce 3d 9e be b3 84 b5 3e 73 e8 30 3f
       0.6195658 -0.30906528 0.35452804 0.6910469
0001b0 bf ab 48 3d 5f aa 42 3e b2 c4 72 bc 8c 7f bf bd
       0.048991915 0.19010304 -0.014817404 -0.093504995
0001c0 69 b1 83 3e c6 b1 0e 3e 7f ce 4d be 9e 2b a2 3d
       0.2572129 0.13935003 -0.20098303 0.079184756
0001d0 af 70 2e be 5b fb 98 3e 0a f7 3b 3f 1d cf 05 3f
       -0.17035173 0.2987927 0.73423827 0.52269155
0001e0 8f ef 0e 3f c7 ca 6c 3f f8 11 e7 3e 3e d2 92 3e
       0.5583429 0.92496914 0.45130897 0.28676027
0001f0 9f dc c1 3e 85 1f 50 bd bd 29 3f 3e f2 81 7c 3e
       0.37863633 -0.05081131 0.18668266 0.24658945
000200 f5 a6 5e 3e a9 97 9e bd 64 96 65 be 33 18 43 bd
       0.21743377 -0.07743771 -0.2242065 -0.0476305
000210 27 97 36 3c 85 de 4f bd 4f 0b 53 3e 38 2e 97 bd
       0.011144436 -0.05074932 0.20609783 -0.073818624
000220 aa d1 2d be 06 53 9c be 8c 76 36 3e a3 ca c4 3d
       -0.16974512 -0.30532092 0.1781866 0.096089624
000230 81 dd 15 be df 05 8e 3e 4b ee 70 3e 59 d6 5e bd
       -0.14635278 0.27738854 0.23528402 -0.054403637

encoder.0.bias f4 [16]
000000 b1 69 ad 3e d6 d7 1a be 9a 51 1f 3e 39 f7 68 3c
       0.338697 -0.15121397 0.15558472 0.014219099
000010 1a 56 35 be 2d 25 b9 3d 32 b7 8e 3d a6 de 27 be
       -0.17708626 0.09040294 0.069685355 -0.16393527
000020 a0 fe 26 be 87 bd 79 3e b4 71 09 3f 7f 05 bb bd
       -0.16308069 0.24388705 0.5368912 -0.09131908
000030 b7 84 68 3e 8c bf 85 be 6d 33 9d 3e ff c0 b2 3d
       0.22706877 -0.261227 0.30703297 0.08728217

encoder.2.weight f4 [32, 16, 3, 3]
000000 06 60 8c 3e 2a 33 13 3e 73 10 13 3e 4a c3 18 3e
       0.2741701 0.14374986 0.14361744 0.14918247
000010 96 6d 96 3d 2e 01 b5 3d 11 de 3e 3e c9 89 8f 3d
       0.073451206 0.08838116 0.18639399 0.07008702
000020 5e ef cb 3d 67 2f fa bd bf f4 fe bd e4 7b c8 bc
       0.09957765 -0.122160725 -0.12449025 -0.024473138
000030 ff 4f 0d be 14 b3 e1 bd 22 81 f3 bd 49 cc bf 39
       -0.13800047 -0.110204846 -0.118898645 0.00036582563
000040 3c 1d bf bd 37 08 0e be c0 b7 06 3b 99 6d b2 bd
       -0.09331748 -0.13870321 0.00205563 -0.0871231
000050 16 b7 f9 bd e3 dd 92 bb c1 64 cc bb bb e3 85 bd
       -0.12193124 -0.0044820174 -0.0062375967 -0.06537577
000060 1b 12 b2 bc 1f 19 32 bb 56 cd 87 bd 81 2b 7b 3c
       -0.021737149 -0.0027175618 -0.066309616 0.015330196
000070 7d 7d 8e 3c d1 48 f5 3d 89 79 9b bc a1 c3 46 3c
       0.017393822 0.11976779 -0.01897885 0.0121316025
000080 cc 77 6a 3d c9 26 cb 3d d2 72 85 3d 94 a9 a3 3c
       0.057243153 0.09919507 0.06516041 0.019978322
000090 c4 01 3a bd e7 bd 17 bd 0f e0 b1 bd b3 0b a9 bd
       -0.04541184 -0.03704634 -0.08685314 -0.082541846
0000a0 c2 63 02 be 4e cc c4 bd df 2c e1 3d d2 6d 88 bd
       -0.12733367 -0.096092805 0.109948866 -0.066615716
0000b0 be d7 96 bd b3 6e f6 3d 95 f2 05 3e 39 ce 90 3d
       -0.07365368 0.12032833 0.13080819 0.07070584
0000c0 4a 1e da 3d 32 ec 70 3d f0 dc 72 bc 0e ae a8 3d
       0.106503084 0.058819003 -0.014823183 0.08236323
0000d0 5c 74 7e 3d 3e 42 5d 3d 5b 67 02 3e 7c c1 4c 3e
       0.062122688 0.05401825 0.1273474 0.19995683
0000e0 d9 8b 1c 3e ec ee e9 3d fa b3 02 3e f4 95 9f 3d
       0.15287723 0.11422524 0.12763968 0.07792273
0000f0 ee e3 1b 3e 9c e6 71 3d 22 f7 ca bb 19 4f 2c be
       0.15223667 0.059057817 -0.0061940113 -0.16827048
000100 9c a2 40 be 11 7a d0 bd 42 05 70 be 17 30 44 be
       -0.1881203 -0.10179532 -0.23439506 -0.1915897
000110 5d 1b 0a be e8 47 1a be 9f 17 0e be 2d db 05 be
       -0.13487001 -0.15066493 -0.13876198 -0.1307189
000120 cb 86 23 be d0 65 33 be 59 36 e4 bd 2b 30 d0 bd
       -0.15969388 -0.17519307 -0.111431785 -0.10165437
000130 2c 47 1f be 5f 4c 53 be 6e 56 c3 3b 0a dc 5d bd
       -0.15554494 -0.20634602 0.005961231 -0.054164924
000140 91 15 82 bd cc 40 37 3e b1 6d 8b 3d 94 03 96 3d
       -0.0635177 0.17895812 0.06808031 0.07324901
000150 fe e2 db 3d 22 9b 20 3d 9a 1a d1 3c 2e c9 9a 3d
       0.10736655 0.039210446 0.02552538 0.07557903
000160 87 df 8c 3d 25 c4 64 3d 58 fa 92 3e e7 b0 5a 3e
       0.06878572 0.05585112 0.28706622 0.21356545
000170 48 76 5b 3e e8 ab 17 3e c4 36 61 3d 59 92 14 3e
       0.2143184 0.14811671 0.05498387 0.14508952
000180 94 d9 30 3e fe 6f 77 3d a6 e1 f9 3d 55 72 06 be
       0.172705 0.06040954 0.12201242 -0.13129552
000190 9e d6 f3 bc 23 e6 8d 3d f8 28 07 bd 21 3e a8 bd
       -0.029765423 0.06928661 -0.032998055 -0.08214975
0001a0 d5 c7 1a be a5 09 3d bd ab 25 2c bd 3f ee c1 bd
       -0.15115292 -0.046151776 -0.04202811 -0.0946927
0001b0 f9 c9 4e 3e 2c 02 6b 3d 60 d8 9b 3d cd 91 85 3d
       0.20194234 0.057375118 0.0760963 0.0652195
0001c0 10 ca 20 3d 5d 8c 80 3d 28 3c 26 3d 53 18 92 3d
       0.0392552 0.06276772 0.040584713 0.07133546
0001d0 f2 68 83 3d a5 f1 60 be fb 5a 5a be cf ba 2c be
       0.06416501 -0.2196718 -0.21323769 -0.16868137
0001e0 18 30 65 be ad 5e 88 be 90 4e 6d be da fe 4d bd
       -0.22381628 -0.26634732 -0.231745 -0.050291874
0001f0 d4 5a 2c be 03 1c 5a be 26 44 60 3e aa 27 88 3d
       -0.16831523 -0.21299748 0.21900997 0.0664819
000200 08 80 ed 3d 9a 93 4d 3e f9 5b ca 3d 45 76 c5 3d
       0.11596686 0.20075837 0.09880824 0.09641699
000210 b9 c6 4f 3e 66 e1 d6 3d 76 cc fa 3d 3a 15 be 3d
       0.2029065 0.1049221 0.12246029 0.092813924
000220 06 cc b9 3d 9c 51 7b 3d 79 b4 fc 3c 9a fc 0a 3b
       0.090721175 0.061357126 0.030847775 0.0021207691
000230 62 65 23 3d 53 3f b0 3d 83 db b5 3b 95 b5 0a bb
       0.039891608 0.08605828 0.0055498495 -0.002116536
000240 86 1c ce 3c 99 40 e9 3c 98 ca f5 ba c8 ba 85 bc
       0.025160085 0.028473185 -0.0018752394 -0.016324416
000250 e7 bf 7c 3c d3 a7 80 3c 89 0f 76 3d 25 85 80 3c
       0.015426612 0.015705025 0.06007341 0.015688488
000260 10 97 e9 3b 13 c7 9f ba 28 3f 83 bd 3f 2f f8 bb
       0.0071286038 -0.0012190066 -0.064085305 -0.0075739915
000270 bc a6 15 bd b5 d4 b3 bd ec d0 24 be db 1b e8 bd
       -0.036535963 -0.08780805 -0.16095322 -0.11333438
000280 c0 22 dd 3d 43 01 f9 3d 2b b5 72 bd a4 d8 15 bd
       0.10797644 0.12158444 -0.059254806 -0.036583558
000290 f5 fa ce 3c 06 01 9d bd bf 20 ef bc a4 14 9c 3c
       0.02526615 -0.07666211 -0.02919042 0.019052811
0002a0 ab 4c 41 3b eb 39 7a bd f7 96 43 bd ea e6 0d 3c
       0.002949516 -0.06109039 -0.047751393 0.008661011
0002b0 d1 be 0b 3d ab 8d b6 3c 03 7e 9f 3d d2 2a 18 3c
       0.034117524 0.02228435 0.07787707 0.009287553
0002c0 62 2c 29 bd 1e eb a9 bc 21 f8 dd bc d8 cb b4 bd
       -0.041302092 -0.020741995 -0.027095856 -0.088279426
0002d0 43 74 88 3d 54 e6 9d bc 33 bf 0f bd ba c9 03 3e
       0.066628 -0.019274868 -0.03509445 0.12869921
0002e0 c4 96 ee bd 77 0b 46 bd 26 84 e1 bd dd 4c 13 3c
       -0.1164985 -0.048350777 -0.110115334 0.008990494
0002f0 91 ac bf 3d 09 93 a5 3b 21 c5 b3 3b a8 3a 74 3b
       0.09359086 0.0050529283 0.005486146 0.0037266407
000300 d3 5f 02 3d b1 49 09 bb a7 34 a3 bd 0d ed 9a bc
       0.031829666 -0.0020948465 -0.07969027 -0.018911863
000310 e8 56 1c bc f9 07 2e 3d 9d ca bc 3c 22 90 6c bc
       -0.009542204 0.042488072 0.023045832 -0.014438661
000320 20 4e ea ba b7 ac 38 3d d1 98 58 bd e8 52 c2 bd
       -0.0017876066 0.04508659 -0.052880112 -0.09488469
000330 d9 fe d6 bd 8e b5 a0 3d 22 a5 0d 3e f4 26 44 3c
       -0.10497827 0.07847129 0.13832524 0.011972178
000340 1f 5c 7a bd 22 1a f7 bc 7d 0b e6 bc 52 16 d0 bd
       -0.06112301 -0.030163828 -0.02808165 -0.10160507
000350 ba 2f 14 be 70 83 c3 bd 68 c6 66 3c 4e fb b5 3d
       -0.14471331 -0.09546554 0.01408539 0.08885823
000360 df f3 13 3d bf c3 45 bd 9f e9 ae bb 1d bd f5 3d
       0.036121245 -0.04828238 -0.0053379084 0.11998961
000370 63 15 0a bd cd f6 76 bc a8 cf 73 bd 63 a5 ee bd
       -0.033711802 -0.01507349 -0.05952421 -0.11652639
000380 0d 0c be 3c cb b6 b9 3b 74 eb 2f 3c 1e dc 7f 3c
       0.023199106 0.0056675426 0.010737289 0.015616445
000390 0b e2 aa bb e7 c6 34 3c 9e 7e a1 bb 9b 4d 0e 3d
       -0.0052149347 0.01103375 -0.004928424 0.03474198
0003a0 75 8d 53 bd 20 ea 23 bd 5a 23 67 3d f1 59 e1 3c
       -0.051648576 -0.0400182 0.0564302 0.027508708
0003b0 ab 92 a1 3c 52 36 3a bb e4 7b 6f bc f4 85 e9 3c
       0.019723257 -0.0028413725 -0.01461694 0.028506257
0003c0 18 1a ef bc 27 d4 59 bd 25 78 c4 bd 1d f1 0e 3b
       -0.029187247 -0.05318084 -0.09593228 0.0021811195
0003d0 fd b3 ac 3c 91 80 66 bb 99 73 57 3c 49 42 39 3c
       0.021081919 -0.0035171846 0.013150119 0.0113073075
0003e0 dd 93 3c be 6c 79 06 3d 8d 41 17 3e f0 56 bc 3d
       -0.1841578 0.03283064 0.147711 0.091962695
0003f0 52 6f c8 3c 31 db 11 bc 2c e0 ad 3c 93 ef 1c bc
       0.024467144 -0.008902357 0.021225058 -0.009578603

encoder.2.bias f4 [32]
000000 9e 86 0a 3e 7f c4 20 bc 97 a8 80 bc 9f e5 29 3c
       0.13527915 -0.009812473 -0.01570539 0.010369687
000010 b8 3f 25 bd 71 9a 3f 3c ea 40 3a 3d b5 57 bd bb
       -0.04034397 0.011694537 0.045472063 -0.0057782778
000020 4d de 45 bd 02 05 18 3d b6 99 a5 ba 59 4e 82 bb
       -0.048307706 0.03711415 -0.001263431 -0.003976625
000030 bc 5b 61 bc 27 31 02 3d 45 79 fb 3c 3a 90 16 3d
       -0.013754781 0.031785157 0.030697474 0.03675864
000040 93 c4 4f 3c da fe b6 3c ff 6f 2c bd 45 3d ac bc
       0.012681144 0.02233832 -0.042098995 -0.02102531
000050 54 65 19 3c d1 8b d9 3d 42 51 7f bd ee 8b 2a bb
       0.009362537 0.10622371 -0.062333353 -0.0026023346
000060 9e 67 48 bd eb 2a a3 3b 12 51 8c bb 2d c8 bc bc
       -0.048926942 0.0049794815 -0.0042821253 -0.02304467
000070 0d 36 a7 3c 57 09 ca 3c 29 a6 11 bd 40 66 89 3c
       0.020411516 0.024662657 -0.035558853 0.01677239

encoder.4.weight f4 [64, 32, 7, 7]
000000 6b 93 74 3c f5 f6 af 3c 09 79 9e 3c 16 ad 1d 3c
       0.014927725 0.021480063 0.019344823 0.009623786
000010 0a 8c b8 3c 0f 43 a4 3c a2 89 af 3c be d7 b0 3c
       0.022527713 0.020051507 0.021427933 0.021587249
000020 9b c8 81 3c 34 f6 fd bc 91 d4 22 bd 38 20 c9 bc
       0.015842726 -0.031001188 -0.0397535 -0.024551496
000030 b6 c6 8c 3c 79 ff ba 3c df b3 c1 3c 0f 46 0e bb
       0.017184597 0.022826897 0.02364534 -0.0021709239
000040 2e 66 44 bc 77 9a d8 3d f7 1b db bc 94 46 9e bb
       -0.011987252 0.10576337 -0.026746733 -0.004830191
000050 84 81 a6 3b c4 7e ae 3c 4f 74 06 3d 2f b7 a0 3d
       0.0050813574 0.021300681 0.032825764 0.078474395
000060 3b bd 4a bd 67 50 08 bd 47 84 b1 3d 6b a9 ee 3c
       -0.04949687 -0.033279803 0.08667808 0.02913352
000070 0f c2 8b 3c 32 5f d9 bb 8b 47 84 3c 95 71 27 bd
       0.017060308 -0.0066336626 0.016147396 -0.040879805
000080 b7 dc 3f bd 4b a2 85 bc 14 8b 95 bc ab 3f 8b 3c
       -0.04684135 -0.016312739 -0.018254794 0.016998133
000090 f4 1e 8b bc 37 40 5b bc e9 45 e6 3c 04 89 bf bd
       -0.016982533 -0.013382009 0.028109508 -0.093523055
0000a0 59 7a e3 bd 1b bf 9a bc 34 b5 b2 3c f0 49 f9 3b
       -0.1110732 -0.018889954 0.02181492 0.007607691
0000b0 51 5c 48 bd 37 a6 70 bc aa ee be bb ac f8 0b bd
       -0.048916165 -0.014688066 -0.005826791 -0.0341727
0000c0 61 72 39 3c 59 82 ef 39 78 6c ee 39 d7 47 30 3c
       0.011318774 0.0004568275 0.00045475713 0.010759315
0000d0 f7 58 8a 3b 88 ec 85 bb 14 eb 9a bb 94 56 0b 3a
       0.004222031 -0.0040870346 -0.0047277305 0.00053153303
0000e0 b0 51 79 bb 90 8c f0 3b 39 8e 88 3c 36 ed 5a bd
       -0.0038043074 0.007340975 0.01666938 -0.05344888
0000f0 9e d9 bb bd 6f a9 9c bb 21 95 8b 3c e1 c8 ab bb
       -0.091723666 -0.0047809402 0.017038884 -0.0052424525
000100 89 31 8f 3a c2 ae 04 bd ab e8 21 3d 52 d8 64 bb
       0.0010924797 -0.032393225 0.03952853 -0.0034918976
000110 1e d9 44 3d 9e ec 39 3c 0e d3 a1 3b 04 96 f4 3c
       0.04805862 0.011347918 0.0049384898 0.02985669
000120 16 f5 80 3d d3 1a 1b 3d ad 71 4d bd 77 ce 48 bc
       0.062967464 0.03786738 -0.050157238 -0.012256256
000130 83 da 5a bc af 19 62 3b 67 70 ec 39 20 04 95 bc
       -0.013357761 0.0034500172 0.00045097174 -0.018190444
000140 6c c2 60 bd c7 d0 e7 bc 83 5a ad bc be d8 42 3c
       -0.054872915 -0.028297795 -0.021161323 0.011892496
000150 ac 51 28 3c 10 13 ef 3b 0e 01 cc 3b 39 2c b0 3c
       0.010273378 0.0072959736 0.0062257117 0.021505462
000160 b4 7f e4 3c 57 87 20 bc 4c f6 bc bb 1d 33 b6 39
       0.027892925 -0.0097978925 -0.0057666656 0.00034751827
000170 82 a4 8a 3a d4 cb 16 3a 78 76 b8 bc 09 c3 7e bc
       0.0010577592 0.00057524187 -0.022517428 -0.01554943
000180 61 b9 72 bc 11 77 8f 3b 69 fe d2 b6 cd b4 d1 b9
       -0.014814706 0.0043782075 -6.288105e-06 -0.00039998294
000190 1f b1 fb 39 49 64 d7 38 8b ba ed b7 39 73 d8 b9
       0.00048006416 0.000102706785 -2.8339467e-05 -0.00041284578
0001a0 c5 f5 ac ba 51 61 40 b9 4b df e8 38 79 ea 45 3d
       -0.0013195804 -0.000183468 0.000111042136 0.048319314
0001b0 b4 e9 b5 3d a6 f9 a8 3c a2 b7 16 3d 32 b7 ef 3b
       0.08882466 0.020626854 0.03679622 0.0073155398
0001c0 41 12 02 bb cf 2c 82 3c b2 21 67 3b 5f 47 0f bc
       -0.0019847306 0.015890507 0.0035267887 -0.008745044
0001d0 f5 73 ab bc d6 ac 12 3d 60 ac 6a 3c 18 9b 45 3c
       -0.020929316 0.03580936 0.014323324 0.012060903
0001e0 60 0e 8f bb 71 b5 c0 3c f4 35 20 3d 0a 54 8a 3d
       -0.0043657273 0.023524018 0.039113954 0.067543104
0001f0 e3 d8 2c 3d be ba bc 3b 3e c3 9f 3a 96 d4 dd bb
       0.042199027 0.005759566 0.0012188924 -0.006769727
000200 5d 1f ab bc 6e bd 2f 3d c1 2a 64 3d 16 61 5c bd
       -0.020888979 0.042905264 0.055704836 -0.053803526
000210 fd 4b bc bc e1 da bc 3a a3 e8 af 3c 35 74 6f 3c
       -0.022985453 0.0014408493 0.021473235 0.014615108
000220 a3 4e 0f 3d ec 4a 1e 3d a6 e2 7b bd 7b 8b 7c bc
       0.034987103 0.03864567 -0.061495446 -0.015414114
000230 b8 dd 2a ba 49 12 15 3d 45 a8 71 3d e8 28 19 3d
       -0.0006518024 0.03639439 0.058998365 0.037392527
000240 80 4d bc bb b7 07 ef bc 59 e4 62 3c ec 53 19 ba
       -0.0057465434 -0.029178483 0.013848388 -0.0005848992
000250 c5 73 eb ba 78 69 0d 3c 86 aa 8b 3c cb 4b 2d 3c
       -0.0017963579 0.008631103 0.017049085 0.0105771525
000260 78 6b 57 3b af 1a 0e 3b 80 cb 13 bb bd d1 8f 3c
       0.0032870453 0.0021683385 -0.0022551715 0.017556066
000270 ab ab 66 3c fd 9c 21 bd f4 9d 80 bd 7f 4c 2a bd
       0.014079015 -0.039456356 -0.06280127 -0.04157686
000280 81 b8 86 3c af 84 a6 ba cd de 5b bb e7 d7 95 bc
       0.0164454 -0.0012704338 -0.0033549548 -0.018291427
000290 61 6f 5f be f8 87 99 bc cf f6 56 3c a4 c1 13 3b
       -0.21819831 -0.018741593 0.013120367 0.0022545839
0002a0 c0 de bc 3a 28 39 bf 3c c5 90 d1 bc 82 14 75 3c
       0.0014409646 0.023342684 -0.025581727 0.014958503
0002b0 7d fd 23 bc 7e e0 0e 3d 4b 82 94 3c ee d6 38 38
       -0.010009167 0.03488206 0.018128535 4.4069187e-05
0002c0 5b 9f f8 3c 4b 31 bb 39 7f f4 52 bd f1 58 76 bd
       0.030349424 0.00035704146 -0.0515027 -0.060143415
0002d0 4b 13 a5 bc 87 b9 33 3c e5 fc 6e 3c 05 b7 3e 3c
       -0.020150801 0.010969526 0.014586662 0.011640315
0002e0 87 8a ee 3c 0d da 2c 3d e3 33 48 3d 2d 81 10 3c
       0.02911879 0.042200137 0.048877608 0.00881986
0002f0 9d 62 27 bb e5 01 27 bb 69 91 89 ba 73 63 6e bb
       -0.0025540956 -0.0025483307 -0.0010495606 -0.0036375194
000300 74 d4 cf 3c 0e 3e 14 bc 47 33 00 bb 4d a2 ad 3b
       0.02536986 -0.009047998 -0.0019561814 0.005298889
000310 e9 73 05 80 8b 61 05 80 82 4d 1f bc 11 26 41 3c
       -5.00758e-40 -4.9417e-40 -0.009723069 0.011788861
000320 3b 77 02 3c e0 f3 80 ba ec 64 5f 39 8e 59 05 00
       0.007962997 -0.0009838305 0.00021304534 4.91304e-40
000330 00 08 47 b9 f6 99 9c bc 02 72 25 bc 6f 77 50 bc
       -0.00018981099 -0.019116383 -0.010097982 -0.012723788
000340 44 29 dd bb c7 04 36 bc 7c ef 11 35 20 b9 10 bb
       -0.006749304 -0.011109537 5.4365205e-07 -0.0022083
000350 b1 99 e1 3c 4d b0 51 bd c9 75 dd 3c b9 60 e6 3c
       0.027539106 -0.051193524 0.027033703 0.028122293
000360 51 44 a2 3b ad 8d 05 80 2d fa 2d ba 6f 54 14 bc
       0.0049519916 -5.10001e-40 -0.00066367054 -0.009053334
000370 3b 91 26 bd 22 09 ca bd b0 c5 e2 bc a7 81 61 bd
       -0.040665846 -0.09865023 -0.027682155 -0.055055287
000380 4a 5c 05 00 00 b1 97 bc 53 04 06 bc a1 66 13 bc
       4.92285e-40 -0.018517017 -0.008179742 -0.008996637
000390 82 ea 0a bd 9b f9 24 bd d8 a6 06 3d ef 67 05 80
       -0.03391505 -0.040277105 0.03287396 -4.96462e-40
0003a0 f4 7c 45 3b 91 f9 12 3d 4b 5c 0d 3c 09 7d 31 3d
       0.0030134292 0.035882536 0.008627961 0.043332133
0003b0 dd 50 87 3b c3 c3 99 3b 32 6c 05 00 c5 62 16 3a
       0.0041295127 0.004692526 4.9799e-40 0.00057367637
0003c0 ad f9 ff bb 07 83 82 bd f9 fc 6a bd fa 0a 09 3c
       -0.007811746 -0.06372648 -0.05737016 0.008364433
0003d0 4a 14 1d bb b5 9a 83 8f 35 63 4f 3a 11 0b 5f 3b
       -0.0023968392 -1.2977188e-29 0.00079112063 0.0034033696
0003e0 23 16 9a bb a1 6d 1d b7 e8 7c 3c 3b 44 bd 6f b9
       -0.004702346 -9.383454e-06 0.0028760973 -0.00022863323
0003f0 2e fd 47 3a 5b 22 99 3b 69 25 86 3a 67 97 19 bc
       0.0007628974 0.004673285 0.0010234538 -0.009374476

encoder.4.bias f4 [64]
000000 5e df 85 3c fc a7 46 bc f8 12 82 3b 71 f4 e9 3b
       0.016341861 -0.0121250115 0.0039695464 0.0071397354
000010 06 3f 42 3c c7 0f 80 bb 2a b4 a1 3c 6f 69 34 bc
       0.011855846 -0.003908131 0.01973923 -0.011011465
000020 d2 3d 99 3c a6 72 b2 3b 35 8c 5f 3c 1d a3 bf 3c
       0.018706236 0.005445796 0.013644268 0.023393208
000030 c7 63 0a 3c e6 49 16 bc 7f ca dd bb 20 6b 16 3c
       0.00844664 -0.009172892 -0.006768524 0.009180814
000040 b9 bf a8 bc 11 89 b4 3b 41 2e 00 3d 5f 83 60 bb
       -0.020599233 0.0055095037 0.03129411 -0.003425799
000050 09 25 8d 3b 06 c4 4a bc c5 ca 53 3c d1 a0 2c 3c
       0.0043073935 -0.012375837 0.012926762 0.0105363885
000060 d3 19 8d bb e8 7f 84 bb 7a 0f 8f bb 04 a6 45 bb
       -0.004306057 -0.004043568 -0.0043658586 -0.0030158767
000070 4c fd 9c bb a8 6e 26 bc 85 01 6e 3c 93 5e 78 3c
       -0.0047909375 -0.010158218 0.0145267295 0.015159267
000080 61 96 22 bb 08 ec 0c bc f8 cc 22 bc e6 a7 16 3d
       -0.002480887 -0.008601196 -0.009936564 0.036781214
000090 b0 e7 6d bc 59 20 a5 3b a6 49 7e 3c dc ff 5c bc
       -0.014520571 0.0050392565 0.015520489 -0.013488736
0000a0 dd 9e eb 3c 54 f4 02 3d c7 42 40 bb 51 68 38 bc
       0.028762275 0.03197129 -0.0029336677 -0.01125534
0000b0 5f 91 47 3c 19 c5 c8 bb c3 0f 50 b9 8b 6d c5 3a
       0.012180655 -0.0061270115 -0.00019842297 0.0015062554
0000c0 11 8b 15 bc 8c 1e 5d bc 09 d1 b8 bc 88 90 3a 3c
       -0.009127394 -0.0134960525 -0.022560613 0.011386998
0000d0 04 e1 93 bb fe 6c 7f bc 21 cb a1 3c 1b 8c 3d 3c
       -0.004512908 -0.015589951 0.01975018 0.011569048
0000e0 fb fa 8f bb 19 d4 94 bb 32 25 15 3c c5 64 d9 3c
       -0.004393933 -0.0045418856 0.009103106 0.026537308
0000f0 e7 78 15 bd 2e ca c2 bb eb 22 66 bb d4 7f 84 bc
       -0.036492255 -0.005944512 -0.0035116028 -0.016174234

encoder.6.weight f4 [10, 64]
000000 dc e5 38 3e 74 53 10 be 72 54 95 3d be ab 07 bd
       0.18056434 -0.14094335 0.07291497 -0.03312277
000010 20 f2 89 3e 39 9e 92 bc 0c 16 4a 3e b3 44 ed 3d
       0.2694254 -0.017897712 0.19734973 0.11585369
000020 89 b0 08 be 21 c2 62 be cd fb 44 be 85 1d 1e 3e
       -0.13348593 -0.22144367 -0.1923668 0.15440948
000030 82 bb 34 bd 7f 84 3d be 30 fd 9d 3e 22 79 c0 3c
       -0.044124134 -0.18507574 0.3085723 0.02349526
000040 b7 8c 44 be 79 5b 88 3c f4 a9 50 3e 28 42 3e bd
       -0.19194303 0.01664518 0.20377332 -0.04644981
000050 09 14 25 bd 44 f3 04 3e 47 7e 80 3e 58 93 82 be
       -0.04030231 0.12983423 0.25096342 -0.2550304
000060 da f1 a4 bd 3b 69 ff bd 21 e7 a1 bd a4 f6 89 be
       -0.08053942 -0.12471243 -0.079054125 -0.26945984
000070 0c 62 0e 3e bc 3f 83 b9 9d 53 24 3e de bd 34 3e
       0.1390459 -0.00025033753 0.16047521 0.17650554
000080 02 9c f6 bd 71 80 b0 3d e1 bc 58 be 2e ec 54 3e
       -0.12041475 0.08618248 -0.21165802 0.2079322
000090 83 2a 84 be c0 b4 83 bd df 05 95 3d 72 25 8a be
       -0.25813684 -0.0643096 0.072765104 -0.26981694
0000a0 ed 7d 9c 3d 24 e2 33 3d 48 87 a1 bc 8a 96 b0 bc
       0.07641206 0.043916836 -0.019717827 -0.021556158
0000b0 83 b2 89 bd 41 28 c3 3d aa e3 09 be 3f 25 4f be
       -0.067235015 0.09529162 -0.13465753 -0.20229052
0000c0 10 09 51 3d da 3d 4d bd 86 12 b0 3d 4d 30 65 bd
       0.051034033 -0.050107814 0.08597283 -0.055954266
0000d0 7d 18 93 bd af 7e fa 3c 99 c1 0c bd 82 3e ba 3d
       -0.07182405 0.030577986 -0.034364317 0.09093954
0000e0 ae f3 27 3e f4 68 a3 bd 3b 5e 2a be 44 13 83 3e
       0.1640155 -0.079790026 -0.16637509 0.25600636
0000f0 37 fd 14 3e 1d 86 97 bc 82 df c1 3d c5 c7 9a bd
       0.14549719 -0.018496567 0.09466459 -0.07557634
000100 4d 0e 6b 3d 3c 71 03 3e cc 6f 13 ba 61 aa 71 bd
       0.057386685 0.12836164 -0.0005624264 -0.059000377
000110 15 03 3d 3e 7d d3 84 3b 2b 05 30 3e c4 e1 53 be
       0.18458207 0.0040535317 0.17189471 -0.20691592
000120 e8 ff b2 3d 11 70 5b 3e c0 c1 21 3e 4d c8 79 3d
       0.087402165 0.21429469 0.15796566 0.060982037
000130 13 fb e2 3b 13 b6 05 3c fa 32 a6 bc 19 25 04 3e
       0.006926903 0.008161086 -0.02028798 0.12904777
000140 65 de 98 be c2 db 96 bc 9f 42 87 3e 6a b8 b9 3d
       -0.29857174 -0.018415336 0.26418015 0.09068377
000150 be 58 1a 3d cd 96 08 3e 3f 72 89 3e b5 9a 92 3e
       0.037682287 0.13338776 0.26844975 0.28633657
000160 cf 6a 72 bd 5a 37 e2 3d ab 8f bb 3d ba fa e0 bc
       -0.05918389 0.11045714 0.09158262 -0.027463306
000170 aa e3 38 bd 39 61 47 bd 8a 1d 6a 3d de dc 36 bd
       -0.045138992 -0.048676703 0.057157077 -0.04464423
000180 fb 05 29 3e 4d 79 01 be bd 3b 34 bd 2d 54 52 3e
       0.16506188 -0.12643929 -0.044002283 0.20539923
000190 da 48 1e be 25 a6 09 be 2e 4b 08 3c fb cd 22 3e
       -0.15457478 -0.13442285 0.0083187055 0.15898888
0001a0 ab 43 11 3e 26 4c 81 3e 33 28 62 be e2 48 f1 bd
       0.1418597 0.2525341 -0.22085647 -0.117814794
0001b0 80 30 40 3d 8c af ae 3c ca 14 38 bc e2 13 d6 3d
       0.046921253 0.021323942 -0.011235425 0.10453011
0001c0 d0 b8 44 be 95 09 56 bd d9 47 fb bd 86 78 b7 3d
       -0.19211125 -0.052255232 -0.12269563 0.08958535
0001d0 7a e3 c3 bc ee c7 23 bd 70 91 a0 3d 26 5b 2b be
       -0.02391218 -0.03998559 0.0784024 -0.16733989
0001e0 32 38 1f be f0 b8 13 be 5c 48 32 3e 1f ce 47 3e
       -0.1554878 -0.14426017 0.17410415 0.19512223
0001f0 3c aa 88 be aa 01 61 3d 1e d5 ee bd bc de 9f 3d
       -0.2669238 0.054933228 -0.11661743 0.07806155
000200 34 53 27 be 63 0a 22 3b fa b6 12 3d 83 bd dc bc
       -0.16340333 0.002472543 0.03581903 -0.026945835
000210 4e f2 92 3d f0 9d 17 bc 5d e8 a1 bd f1 26 8c be
       0.07175122 -0.009253964 -0.07905648 -0.2737346
000220 05 4c 5e 3e c7 ac 85 be 6a 76 21 3e 5d c5 d6 bc
       0.21708687 -0.2610838 0.15767828 -0.026217157
000230 8a 44 89 bc 6b 65 f1 3d 61 76 85 3e ff c1 d5 bc
       -0.016756315 0.11786922 0.26066878 -0.026093481
000240 e7 d3 cb 3d 9e bf 51 bc cb bd 77 3d 77 8f af 3c
       0.099525265 -0.012802033 0.060483735 0.021430714
000250 f9 5c 19 be a8 fc ee bd 9c a8 44 3e c8 df 8d be
       -0.14976873 -0.11669284 0.19204944 -0.27709794
000260 a5 ac 80 3e 7a fa 15 3d 21 53 97 3d 84 58 d2 3d
       0.25131717 0.036615826 0.073889025 0.10270789
000270 27 bb cc bd 4c b6 c5 bd cf fb 10 3c ce b3 64 3e
       -0.09996634 -0.09653911 0.008849098 0.22334215
000280 89 b7 e2 bd f1 e3 33 be 2f 43 1a bd 0b 6b 27 be
       -0.11070163 -0.17567421 -0.037661728 -0.16349427
000290 ee 47 93 3d e0 6a 8d 3d ed f0 1e 3d e7 3b 4b be
       0.07191454 0.069051504 0.038803983 -0.1984707
0002a0 93 73 84 3e e3 a2 48 3e ce f2 54 3d d2 e8 6f 3e
       0.25869426 0.19593386 0.05198937 0.23428658
0002b0 26 14 75 3d cd 78 2b 3e 95 34 2e 3e 47 22 1c be
       0.05983367 0.167453 0.17012246 -0.15247451
0002c0 f4 dd 12 3e 92 42 e6 3b 58 a3 78 be 53 a7 8b be
       0.14342481 0.007026979 -0.2428106 -0.27276096
0002d0 a4 36 0a 3e ec ec a4 3d 4d 08 81 3e ef bf ba bc
       0.13497406 0.08053002 0.25201645 -0.0227966
0002e0 e3 df 60 3c 78 3d 6e be f7 b7 45 bd 4b 2c 12 be
       0.013725254 -0.23265636 -0.048271146 -0.14274709
0002f0 5b 3d 04 bd 3c 30 94 3d ad 14 46 be 2d 9a 0c 3e
       -0.032285076 0.072357625 -0.19343825 0.13730688
000300 40 76 7b 3e e5 41 a5 be 68 08 97 be f5 5f 19 3e
       0.24556828 -0.32276836 -0.294986 0.14978011
000310 e6 bc c5 3c ce 68 5a bb 3b 76 d5 3d 00 71 e0 3d
       0.024137925 -0.0033326629 0.10422941 0.10959053
000320 a9 f7 88 bd 25 20 a1 bd c3 08 1d be 9b 94 ae 3d
       -0.066878624 -0.07867459 -0.15335374 0.08524438
000330 82 b2 1e 3c cf 92 1e 3d a7 bc e7 bd 97 52 6c be
       0.009686114 0.038714226 -0.113152795 -0.2307838
000340 3b 2b 1b be 25 f6 94 bc cb 55 da 3a 72 bb 51 3d
       -0.1515321 -0.018183777 0.0016657648 0.051204152
000350 5d 6c fa bd 87 64 28 be 11 0e 3c be a7 28 e7 3d
       -0.122277 -0.16444598 -0.18364741 0.11287051
000360 5a e9 0b be 26 e3 1e 3d d5 22 5c 3d 2a 52 46 bd
       -0.13663235 0.038790844 0.053744156 -0.0484182
000370 7d 74 8c bd 67 50 c8 3d 82 ee c4 3d 1c da 02 3e
       -0.06858156 0.097809605 0.09615804 0.12778515
000380 04 59 51 3e 90 88 bd bd 94 66 b1 be df 0a d0 bb
       0.20444113 -0.09254563 -0.34648573 -0.006348952
000390 b0 47 68 3e e8 b5 da 3d 84 99 af bc 3b 55 8d be
       0.22683597 0.10679227 -0.021435507 -0.27604088
0003a0 3b 3a 36 ba 02 a0 2f 3d eb df 18 3d 58 4d 0f be
       -0.0006951426 0.042877205 0.03732292 -0.13994348
0003b0 2c 64 0a 3e 06 89 6f be a0 c9 2c 3e 55 92 d7 bd
       0.13514775 -0.23392114 0.16873789 -0.105259575
0003c0 b2 0a 51 be b6 c6 bb be 5a d9 dd 3d 8d 45 d2 3c
       -0.20414236 -0.36675042 0.10832472 0.02566793
0003d0 66 01 ce bd b9 e7 0f 3e 9b 02 94 3e d3 5e e0 bd
       -0.100588605 0.14053239 0.28908238 -0.10955586
0003e0 19 b3 38 be 06 67 c3 3d bb 95 34 be fc 94 f1 bd
       -0.1803707 0.095411345 -0.17635243 -0.11795995
0003f0 3a 37 c1 3c 30 13 bb 3a e5 88 dd bd 73 2c 23 3c
       0.023585904 0.0014272686 -0.10817126 0.009959328

encoder.6.bias f4 [10]
000000 05 7e 35 bd 74 9c 46 3d 38 21 84 3c fa 6c 31 3c
       -0.044309635 0.04848905 0.016129121 0.010829205
000010 bc 76 99 bc e9 fc 62 bc f8 60 b2 bd 1a fb fb 3c
       -0.018733375 -0.013854244 -0.087099016 0.030759383
000020 ce 23 62 bd 9f 1d 3a bd
       -0.055209927 -0.045438405

decoder.0.weight f4 [64, 10]
000000 c1 4b e0 be e3 98 06 3e 48 d2 ea bd 4e 6b d3 3e
       -0.43807796 0.13144259 -0.11465889 0.41292804
000010 15 10 02 be 2c 9f 16 3e 3b 77 8d 3e 17 ba 3c be
       -0.12701447 0.14709157 0.27630028 -0.18430363
000020 ef 8f b5 be 97 07 df 3d aa 4e 19 be 34 15 99 bd
       -0.35461375 0.108901195 -0.14971414 -0.07474747
000030 5f 4d 59 bc f6 33 98 3d 2c 24 3d 3b 76 65 38 be
       -0.013263076 0.07431786 0.0028860671 -0.18007454
000040 21 b0 b6 3d cc 0c 9c bd 34 db d0 3b 4a ef b4 3c
       0.08920313 -0.07619628 0.0063737873 0.022086758
000050 f3 94 92 3e a4 23 4f be 44 ba 8b be 77 88 8d 3e
       0.28629264 -0.2022844 -0.27290547 0.27643177
000060 3b 21 a1 be 82 75 60 3e 6d ba 05 3e b0 c5 4d 3e
       -0.31470665 0.21919826 0.13059397 0.20094943
000070 29 0e 85 bc 8a de 43 3e 9e 24 12 be 26 7a 3b 3e
       -0.016242104 0.1912786 -0.14271781 0.18308315
000080 ee f3 2f bd a9 ef c3 bd 8f 59 5b 3e 26 ca df bd
       -0.04295724 -0.09567196 0.21420883 -0.10927229
000090 eb 1f b4 3e 72 b3 71 be 4c 96 71 3d 74 de 02 3e
       0.351806 -0.23603609 0.058981225 0.12780172
0000a0 5a 90 20 3e 14 ed 82 3e 06 87 30 be e8 2f 9b 3e
       0.15680066 0.255715 -0.17239007 0.30309987
0000b0 48 7e 67 3e c0 d9 c6 3e e1 64 7f be 3c 12 9b bb
       0.22606766 0.38838005 -0.24940826 -0.0047323983
0000c0 99 87 4d 3e c7 c7 5c 3d e9 69 25 3c 2d 9d 82 3e
       0.20071258 0.05390146 0.010096052 0.2551054
0000d0 72 9f 00 3e 4d 13 ec 3d 85 c7 8f be 27 e0 9c bd
       0.12560824 0.11527119 -0.2808191 -0.07659941
0000e0 8c d7 37 3e 08 a3 52 be fd 1d b2 bd 69 36 49 3e
       0.17953318 -0.20570004 -0.08697126 0.19649662
0000f0 9c 34 6b be eb 94 cf 3e 73 50 aa be a0 16 29 3e
       -0.22969288 0.40543303 -0.33264503 0.16512537
000100 b2 6f 39 3e ed b2 ae 3d b6 7a 04 be 24 82 6a be
       0.18109015 0.08530221 -0.12937436 -0.22901207
000110 17 e1 ef 3e e9 8c ad 3d 0c d9 69 be 72 04 2e 3e
       0.46851417 0.08474142 -0.22836703 0.16993883
000120 a0 59 66 3e 01 23 fd 3d 72 13 44 be 8e 1b 38 3e
       0.22495127 0.12360192 -0.19148043 0.17979261
000130 43 80 09 be 35 d7 08 be bb a7 11 be 76 60 6c 3c
       -0.13427834 -0.13363345 -0.1422414 0.014427295
000140 25 f5 f2 bb 02 b3 62 3d 54 6b 85 bc 0d 15 67 bd
       -0.0074144774 0.055346496 -0.01628653 -0.05641656
000150 1e 23 f5 3d bd bf 63 3d 17 63 73 bc c1 a6 fc 3d
       0.11969589 0.055602778 -0.014855168 0.12336493
000160 c1 b1 a0 bd 6d c2 ca 3d 41 df a7 3d dd 8a 28 bb
       -0.07846404 0.09900365 0.08196879 -0.0025717535
000170 e6 8b 11 be 71 8e 77 be 83 a7 05 3e 07 19 e0 bd
       -0.14213523 -0.24175431 0.13052182 -0.109422736
000180 d2 42 82 3e a3 47 94 bd 63 53 4b 3e d1 cc 44 be
       0.25441605 -0.07240226 0.19856028 -0.19218756
000190 84 6d 13 3e 76 52 c4 bd 16 17 48 be f1 35 52 be
       0.14397246 -0.09586041 -0.19540057 -0.2052839
0001a0 d0 78 2c be c1 f4 53 be 28 30 26 bd 1f f2 f3 bd
       -0.16842961 -0.20698835 -0.04057327 -0.11911415
0001b0 2f 9d a2 3c 80 2b 01 be c9 19 52 3e 56 bd f5 3d
       0.019850342 -0.1261425 0.20517649 0.119990036
0001c0 fd d5 32 3d 10 a1 ec 3d 15 0d bd 3c b6 dc db bd
       0.043661106 0.11554158 0.023077527 -0.10735457
0001d0 a3 1d d6 3c d0 19 22 be 17 8f e6 bd 93 78 ac 3e
       0.026137179 -0.15830159 -0.11257761 0.3368574
0001e0 f6 12 2b be 1e c6 5a bd 59 80 a3 3d 38 44 06 be
       -0.16706452 -0.053411596 0.07983465 -0.13111961
0001f0 e1 e3 1a 3c e7 4e 6b 3e 3d 25 71 be 8e 21 0d 3e
       0.009453745 0.22979318 -0.23549362 0.13782331
000200 d7 53 59 bd 4e f7 f3 bd 52 a9 2d be c4 b7 80 3d
       -0.05305847 -0.11912404 -0.16959122 0.062850505
000210 7d 3b 66 bd 05 c5 ce 3d 19 8a 91 3d d1 30 cb 3d
       -0.056209076 0.10096172 0.07106418 0.0992142
000220 7d 3e 11 bb 03 81 69 bd ea a8 0c be 13 52 39 bc
       -0.002216249 -0.0570078 -0.1373631 -0.011311072
000230 73 16 83 bc 0b ea 93 bd 21 5f 07 bd c9 00 e1 bd
       -0.016001916 -0.072223745 -0.033049706 -0.10986478
000240 52 07 24 be f5 f3 7b be 8b 8f 8d 3e a8 b7 e0 3c
       -0.16018417 -0.24604781 0.27648577 0.027431324
000250 58 36 1e 3e 6b 51 2a be 5c 16 7b 3e f0 cb 89 be
       0.15450418 -0.16632621 0.24520248 -0.26913404
000260 b6 c4 b1 3b 0d 03 b8 3e 3b 80 23 3e e3 be 02 3e
       0.005425061 0.35939828 0.15966885 0.1276813
000270 8b 87 18 bc ec c5 cb 3e d1 2c 33 3c fb 07 c8 bd
       -0.00930966 0.3979944 0.010935978 -0.09767147
000280 f4 96 b3 bd ee d4 28 bd 87 02 c7 bd 71 4d 05 be
       -0.087690264 -0.04121869 -0.09717279 -0.13017823
000290 76 9c 5a 3d 0c 76 f2 bd 99 d7 93 3d e3 ac d4 bd
       0.05337187 -0.11838922 0.07218856 -0.10384538
0002a0 20 c7 7c 3c 7f 16 b0 bd f9 bc 9b be 8b 8d 31 be
       0.0154283345 -0.08598041 -0.30417612 -0.1733915
0002b0 0c cd 79 3e 6e 85 ed 3d fa eb c0 3d 15 e9 89 be
       0.24394625 0.11597715 0.09420009 -0.2693564
0002c0 63 55 f9 3c 32 66 8a be 90 24 b3 3e 27 3e 44 be
       0.030436223 -0.27031094 0.34988832 -0.19164334
0002d0 3b 9b 9f b7 52 e7 87 be 41 e8 85 be 67 7f 1a 3e
       -1.9026562e-05 -0.2654367 -0.26153758 0.15087663
0002e0 72 83 7b 3e dc 7a 26 be e5 d5 97 3e bd 45 1f 3d
       0.24561861 -0.16257805 0.29655376 0.038884867
0002f0 77 f0 be bd 03 4f 1d be d7 2e e6 be c0 84 85 be
       -0.09323209 -0.15362172 -0.4495761 -0.26077843
000300 ba 9b 83 3e 69 ea 28 be f5 42 a7 ba dd d9 b5 3e
       0.25704747 -0.1649567 -0.0012761044 0.3551778
000310 8d 05 0c 3e 48 4c ba 3e b0 04 ab be d7 76 49 3e
       0.13673992 0.36386323 -0.33402014 0.1967424
000320 ed 76 8c be 65 73 89 be a5 cb a8 be fe ed 61 3e
       -0.27434483 -0.26845852 -0.32967868 0.22063443
000330 d9 96 9b 3e e3 61 b6 3e 61 81 aa 3e 96 7a 7c be
       0.30388525 0.35621557 0.33301833 -0.24656138
000340 23 12 9b 3e 2d d2 3b be 2f 7d a9 be c8 b7 21 3e
       0.30287275 -0.18341894 -0.3310332 0.15792763
000350 df 6f 57 3e f8 99 39 be 4c aa 92 be 50 c6 2e 3e
       0.21038769 -0.1812514 -0.2864555 0.17067838
000360 3e e7 43 3e de be 71 be 79 c5 f2 3d 6b 0c a2 be
       0.1913118 -0.23607966 0.11854071 -0.316501
000370 5c 28 f4 3b 98 21 50 bc 52 ea 80 bd 8b 98 eb bc
       0.0074511003 -0.012703322 -0.06294693 -0.028759262
000380 81 ed 20 3e 4c 99 d3 3c cb 84 5a 3d 33 2d d6 bc
       0.157156 0.025829934 0.053349297 -0.0261446
000390 e0 1b 63 bd 02 47 8d 3d fc 1b b9 bd f9 2a 65 3d
       -0.055446506 0.06898309 -0.09038541 0.055949185
0003a0 63 1e 35 3e 4f 7f 95 3d 24 ba f9 bd 21 b9 ba 3d
       0.17687373 0.07299673 -0.12193707 0.09117342
0003b0 c0 c8 ff 3d 45 75 16 be ac e3 ad 3c 9f 7f 12 be
       0.12489462 -0.14693172 0.021226726 -0.14306496
0003c0 22 22 de bc fe d6 0b be 69 24 98 3d 93 0b 49 be
       -0.027115885 -0.13656232 0.0742882 -0.19633321
0003d0 76 98 96 3e 60 f0 88 3c ea 2f 66 be a0 68 b1 bd
       0.29413193 0.016716182 -0.22479215 -0.08662534
0003e0 81 87 ec 3c 16 ab bd bc a3 d9 35 3e a9 f6 5a 3e
       0.028873207 -0.02315287 0.17758803 0.21383156
0003f0 f8 96 c4 bd 5e 16 95 bd 40 75 da 3d 19 0b 17 3e
       -0.095991075 -0.07279657 0.10666895 0.14750327

decoder.0.bias f4 [64]
000000 fb 8c a2 3c 7d 41 0e be f8 63 77 be 9d 5a c6 3c
       0.019842615 -0.1389217 -0.24159229 0.02421313
000010 d2 91 03 3e f3 b2 5e be 6d df 06 be eb 9f a6 be
       0.12848595 -0.21747951 -0.13171168 -0.32543883
000020 b4 96 f0 3d 28 88 8e 3c e0 79 ea 3d 6f 7d 5d 3e
       0.11747494 0.017398909 0.11449027 0.2162988
000030 07 f8 29 3e a6 33 a5 3d 90 58 45 3d 1c 15 5d be
       0.16598521 0.08066492 0.048180163 -0.21590084
000040 24 4b ac bd 11 c2 a6 3e f7 c5 3a bd d3 24 ab 3c
       -0.084127694 0.32569936 -0.04559895 0.020891583
000050 f5 de c6 3c c9 c5 22 3c e1 2f 3f 3e 15 aa 09 be
       0.024276236 0.009934851 0.18670608 -0.13443787
000060 63 d9 48 be 76 4c d6 bd 17 ee fc bd 77 cc 94 bd
       -0.19614176 -0.104638025 -0.123500995 -0.07265561
000070 e6 ee 93 3e ae c9 04 be 6c 4d 47 bd a0 14 b2 bc
       0.28893203 -0.1296756 -0.04865782 -0.02173835
000080 3a 40 1b bb 07 49 bc 3c 78 0f 07 3e 99 fc 35 be
       -0.0023689405 0.02298404 0.13189495 -0.1777214
000090 5d f4 44 bd 61 0e a9 3b 21 91 67 3e c5 88 1d be
       -0.048084605 0.005159185 0.22613956 -0.15384205
0000a0 37 5c 23 3e a0 c5 f4 bd a4 3b eb 3d 8a 7e 72 3d
       0.15953146 -0.119517565 0.11485985 0.05920271
0000b0 ba 32 16 3e f0 67 c0 bd 76 fd 12 3e 71 18 1d be
       0.14667788 -0.093948245 0.143545 -0.15341355
0000c0 ac f6 45 3d 21 02 8f 3e 61 53 db 3d da e6 62 3e
       0.048330948 0.27931312 0.10709263 0.22158375
0000d0 e9 5d 77 3e 96 e7 e2 bd 34 53 63 3e ab 34 6b 3e
       0.24156918 -0.11079328 0.22199708 0.2296931
0000e0 d1 57 68 3d 6a f7 2f 3e ed 3a 61 3d 3e 4d 17 3e
       0.056724373 0.17184225 0.054987837 0.1477556
0000f0 2d c3 77 3d c4 1b cb be 52 8f 69 3d c6 13 63 bd
       0.06048887 -0.3966962 0.057021447 -0.05543878

decoder.2.weight f4 [64, 32, 7, 7]
000000 c3 4d 10 bb 54 96 60 ba d2 b6 d4 ba 97 be 1a bd
       -0.0022019006 -0.00085673225 -0.0016228801 -0.037779417
000010 0a 01 65 3b 2e b0 45 bc dd 88 65 bc d3 36 c8 bb
       0.0034943246 -0.01206593 -0.0140096815 -0.006110051
000020 f0 11 14 3c 3a d5 00 bd 32 8d 9a bd 23 8c b0 ba
       0.00903748 -0.03145335 -0.07546462 -0.0013469498
000030 bf 31 e5 bb 40 14 b6 3c 23 cb b9 b9 a5 ec 2d 3d
       -0.0069944556 0.022226453 -0.00035437298 0.04246201
000040 d8 14 8f 3d 54 3f 78 3c 85 ad b0 bd 9f 25 86 3c
       0.069863975 0.015151817 -0.08626846 0.016375361
000050 bc 25 c7 3d 4c 2d 1e 3b 8d 92 33 bc c8 00 a5 bc
       0.09723994 0.0024135886 -0.010960233 -0.020141974
000060 01 b4 72 bc 77 e6 d3 3d 9f 2b ad 3d 38 0b a2 bb
       -0.014813424 0.10346692 0.08455586 -0.004945185
000070 a4 b4 60 3c d4 2e cf bc 28 d7 52 3d 0b e2 82 3d
       0.013714943 -0.025290884 0.05147472 0.063907705
000080 c0 65 bf 3d 5b c2 cb bc 61 57 e1 bb 86 14 f1 ba
       0.09345579 -0.02487295 -0.0068768715 -0.0018392957
000090 34 a1 cc 3c cf a8 0f bd 9c 42 8d 3c 98 b9 ee 3d
       0.024979211 -0.035073098 0.017243676 0.11656493
0000a0 5a a0 90 3b 7c ec 7e 3d 98 40 a0 ba 87 2d f0 3b
       0.0044136466 0.062237248 -0.0012226282 0.007329646
0000b0 ab 8d 3c bd 93 be 5f 3d 59 f5 58 3d fc cb cb 3c
       -0.046033543 0.054625105 0.052968357 0.02487754
0000c0 8c d0 cc 3b 2d 47 06 00 78 04 06 00 f2 93 05 80
       0.0062504467 5.76546e-40 5.52616e-40 -5.1225e-40
0000d0 69 a6 a0 bc 70 62 05 80 94 6c 05 00 d0 5a 05 80
       -0.0196106 -4.9449e-40 4.98128e-40 -4.91755e-40
0000e0 a0 57 05 00 a1 01 ad bd ba 75 96 bd 67 47 5c bd
       4.90611e-40 -0.08447576 -0.07346673 -0.053779032
0000f0 33 36 03 bd 27 ad d6 3d 58 65 05 00 37 67 05 00
       -0.03203411 0.10482245 4.95533e-40 4.96204e-40
000100 ac 03 f0 bd 59 9e 05 00 a8 76 05 00 ea af fc bd
       -0.1171945 5.15982e-40 5.01743e-40 -0.123382404
000110 ac d2 97 bc 2b 38 95 3d 6d 64 05 00 f9 8c 05 80
       -0.018533073 0.07286104 4.95203e-40 -5.09749e-40
000120 7c 7d 05 80 26 a1 05 80 f9 7c 91 bc c7 d0 22 3d
       -5.04193e-40 -5.16987e-40 -0.017759787 0.039749887
000130 62 a3 05 80 04 19 06 80 ac 59 05 80 26 78 05 00
       -5.17788e-40 -5.59987e-40 -4.91346e-40 5.02279e-40
000140 1d 58 05 80 94 69 1b bd 99 95 9e bd 5e a7 05 00
       -4.90787e-40 -0.037942484 -0.07743377 5.19218e-40
000150 08 f5 05 00 e1 17 1e 3d 72 a6 3d bc d6 c2 22 3a
       5.47078e-40 0.03859699 -0.011575328 0.00062088424
000160 85 a1 06 80 70 64 73 bd bd 90 05 80 36 86 05 00
       -6.08955e-40 -0.059421957 -5.111e-40 5.07323e-40
000170 61 60 05 80 f3 1e 80 3b d9 cf 38 bd ed 1c ce 3c
       -4.93752e-40 0.0039099394 -0.045120094 0.025160277
000180 84 63 05 00 e1 62 05 80 ab 68 e1 ba 2d e6 00 bb
       4.94877e-40 -4.94649e-40 -0.0017197331 -0.0019668445
000190 1a 8a 90 3b 77 be d8 3c f5 9f 99 3d 6c 8c 8b 3d
       0.0044109942 0.026458008 0.075012125 0.06813893
0001a0 5a 3a b6 ba 63 10 2e bb 1e 4b c8 3c 89 6c 00 bc
       -0.0013902888 -0.002656006 0.024449881 -0.007838377
0001b0 4c 70 3e bd f9 c8 af bd 8e dd 5a bd 89 c8 26 bd
       -0.046493813 -0.08583254 -0.053433947 -0.04071859
0001c0 8f d1 98 3b a6 cf 2e 3d d0 b6 5a 3d 73 a7 a8 3d
       0.004663653 0.042678498 0.053397 0.082350634
0001d0 3f 65 75 bd b2 7f 02 3b b3 47 91 3d f9 df 51 bc
       -0.05991101 0.0019912538 0.07093754 -0.012809747
0001e0 29 e4 10 3d 71 e5 00 3e 43 9e 05 3d 9f a7 8b bc
       0.03537384 0.12587525 0.032621633 -0.017047701
0001f0 cc e5 77 3d a4 4a 4c 3d b4 5d d8 3b c9 a7 14 3d
       0.060521886 0.04987587 0.006602967 0.036292825
000200 80 28 82 3c 6b f6 a1 3d df fa 68 3d 63 e2 7a 3d
       0.015888453 0.079083286 0.056879874 0.061251055
000210 69 37 86 3c d4 ad 88 3c 45 a9 5b bd b4 47 d4 3c
       0.016383843 0.01668445 -0.053628225 0.025913097
000220 09 fd be 3d 38 17 ee bb 8e 48 38 3d b6 cd 39 3d
       0.093256064 -0.0072659515 0.04499107 0.045362197
000230 91 d4 58 ba 5c 33 f0 3c 4f 32 40 3d 09 3c 41 3c
       -0.0008271421 0.029321365 0.046922978 0.011794099
000240 e7 b3 f8 ba ce 75 a9 3d 60 c9 6a 3c 22 a2 bd ba
       -0.0018974514 0.082744226 0.014330238 -0.0014467875
000250 3b 2e c8 1d 66 a5 c2 3b 19 82 94 bd f5 67 05 00
       5.298736e-21 0.005940127 -0.07251377 4.9647e-40
000260 11 a4 c7 a8 fd 49 b0 bc 7d 58 05 00 da c7 01 13
       -2.216459e-14 -0.021519655 4.90921e-40 1.6380624e-27
000270 b0 5a 05 00 ec 7f 06 bd 25 d4 0a bd 59 7f e1 bc
       4.9171e-40 -0.03283684 -0.033893723 -0.027526544
000280 1a e4 50 3d 5d b4 81 0f ac 4a 06 00 9c c6 7a 3c
       0.050998785 1.2789856e-29 5.778e-40 0.015306141
000290 6c af c3 3c 7d bf 7d 3d c4 bf e0 3d 47 72 94 3c
       0.023887359 0.061950196 0.109740764 0.018120898
0002a0 b9 10 da 35 c4 85 e1 bc ab 03 3e 3d 00 5a 05 80
       1.6247133e-06 -0.027529605 0.046390217 -4.91463e-40
0002b0 46 2b 28 bd 6b e6 24 bd be 96 48 bd 82 a2 0e 1d
       -0.041056894 -0.040258806 -0.048971884 1.8877558e-21
0002c0 88 b6 1a bb 2e 51 92 39 77 4f a8 3d cd 2f f0 19
       -0.0023607332 0.00027907774 0.08218282 2.4834725e-23
0002d0 e3 1c 8a bc 93 74 63 bd ba cb 10 bb 6e 8f 33 3c
       -0.016859477 -0.055531096 -0.0022094087 0.010959489
0002e0 2b 4d a1 85 31 e4 ac bc c7 9f ed bb 54 6c 3a bc
       -1.5168714e-35 -0.021104904 -0.007251713 -0.0113783665
0002f0 3b 13 5d bd e8 34 f1 3a c8 f1 6a 3c e7 b9 14 bd
       -0.053973418 0.0018402608 0.014339872 -0.036310103
000300 ba a8 f7 bb 90 01 0d 3c 5b f9 c5 3c 5e 31 84 bd
       -0.0075579556 0.00860633 0.024166754 -0.064547285
000310 c7 0c e5 ba 46 66 d4 3a bf 15 99 3b d2 4f 7e 39
       -0.0017475121 0.0016204796 0.004671782 0.00024253063
000320 f3 65 7a bd c2 78 9a bc b4 4d 77 bb a6 c9 0e bb
       -0.061132383 -0.01885641 -0.0037735524 -0.0021787672
000330 1e 54 6c 3c 29 85 4e 3c 61 b1 db 3c 87 d1 90 bc
       0.014424352 0.01260499 0.02681798 -0.017678035
000340 44 bc 9d bd 7f 26 93 bb 08 bd d8 3b df 1d c8 3c
       -0.077019244 -0.004490673 0.006614331 0.024428306
000350 c9 7d 1c 3d a9 8d 92 3d 7b 7f 05 bd 3a 91 53 3c
       0.038205896 0.07155926 -0.032592278 0.012913043
000360 01 33 95 bc 7e 40 35 bc 63 0b b8 3d 1c d0 5e 3d
       -0.018212797 -0.011062739 0.08986547 0.054397687
000370 a8 a9 60 bc 94 80 93 3d f2 71 cd 3c 82 f7 8c 3d
       -0.013712324 0.07202259 0.025078747 0.06883146
000380 2d b9 6b bb 94 a4 79 bc 0b 99 1a 3d 54 4a 5a 3d
       -0.0035968528 -0.015236992 0.03774361 0.05329354
000390 be d9 8c 3c 26 f0 67 3d d4 21 c8 3d da 7d 4c 3c
       0.017193671 0.056625508 0.09772077 0.012481177
0003a0 a1 26 f2 3c 24 df f6 3b 0e 6b 92 bc 45 e2 79 bc
       0.029559435 0.0075339247 -0.017873313 -0.015251701
0003b0 cf b5 a9 bc a9 d6 6f 3c d4 b7 11 bb 32 75 68 bc
       -0.020716576 0.014638581 -0.0022234814 -0.014188098
0003c0 3c 6c 7a 3d 66 50 75 3b ac 90 a3 3b 1d 7d 2f bd
       0.061138377 0.0037431954 0.0049916115 -0.042843927
0003d0 cd 48 4b bd e4 5e 05 00 3f 62 05 00 02 59 05 80
       -0.049629975 4.93218e-40 4.94422e-40 -4.91107e-40
0003e0 e6 0d eb 13 27 77 1b bc 8d 62 05 00 89 57 05 00
       5.9336045e-27 -0.009488857 4.94531e-40 4.90579e-40
0003f0 5a 69 05 80 b0 5a 05 80 18 e7 8c bd d4 c6 86 3d
       -4.9697e-40 -4.9171e-40 -0.06880015 0.06580892

decoder.2.bias f4 [32]
000000 c4 84 2b 3e 7f 9e 1a bf 60 a6 f7 3e ff d7 ac bd
       0.16749865 -0.60398096 0.48369122 -0.084396355
000010 66 7c fd 3d 61 57 38 bf 95 0f 44 3e 89 3b 27 bf
       0.12377243 -0.7200833 0.19146569 -0.6532522
000020 4c 3e 6e be 58 e2 85 3e 51 00 95 3d 87 80 23 bf
       -0.23265952 0.2614925 0.07275451 -0.6386799
000030 5d 7f d7 bd 17 71 d1 3d 7f d1 a5 bc ad 07 08 3e
       -0.105223395 0.10226648 -0.020241497 0.13284178
000040 ed c1 62 be 6f ab 6d 3d f2 1f 78 3e 14 82 a9 3e
       -0.2214429 0.05802482 0.24230936 0.33107054
000050 dd bb 92 3c df 82 24 be 99 de 0f be cf 4d be 3e
       0.017911846 -0.16065548 -0.14049758 0.37168738
000060 39 c6 47 3e bf bb 04 bf de d6 21 be 4e 77 1e bf
       0.1950921 -0.5184898 -0.15804622 -0.61900795
000070 5c 13 59 3e 18 fe 3c bf 2d 48 4c 3e 7a 76 88 3e
       0.21198791 -0.73825216 0.19949408 0.2665289
