02_Representations/model_weights/denoiser_best.pth (torch, 852830 bytes, 15 tensors)

encoder.0.weight f4 [16, 1, 3, 3]
0	0x3e7a446e	0.24440166
1	0x3f146d7d	0.57979566
2	0x3dccbd66	0.099970624
3	0x3f19a6cb	0.6002013
4	0x3f129dc4	0.5727198
5	0x3e8493a9	0.25893906
6	0x3e2da708	0.16958249
7	0x3e3aab40	0.18229389
8	0xbe9d7242	-0.30751234
9	0xbc31fee6	-0.010863995
10	0x3e179e11	0.14806391
11	0x3e7c834d	0.24659462
12	0xbe540d82	-0.20708278
13	0xbd364c50	-0.04450637
14	0x3c3ea570	0.011636123
15	0xbe64a59e	-0.22328803
16	0xbe570adf	-0.2100024
17	0xbe4f9861	-0.20272972
18	0xbe8a80c6	-0.2705137
19	0xbd9e7eb5	-0.07739011
20	0xbda55e1d	-0.08074591
21	0xbd2c15e5	-0.042013068
22	0xbc55331e	-0.013012676
23	0xbdc99d28	-0.09844428
24	0x3e7db21f	0.24774979
25	0x3dda8a16	0.10670869
26	0x3cf5228f	0.029923705
27	0x3e9f9715	0.31169954
28	0xbdf4f2e5	-0.11960391
29	0xbef54a03	-0.4790803
30	0x3f189f9d	0.5961855
31	0xbc280d76	-0.010257116
32	0xbef33eff	-0.47509
33	0x3ede009f	0.4335985
34	0xbd263233	-0.040575217
35	0xbec1722f	-0.37782428
36	0xbe6cfd33	-0.23143463
37	0xbcbfbba0	-0.023404896
38	0x3e3c4558	0.18385828
39	0x3e7b6d13	0.24553327
40	0x3f12b4ed	0.5730732
41	0x3f13baa6	0.5770668
42	0x3ee611ef	0.44935557
43	0x3ec9a7c4	0.39385808
44	0x3f08c5a8	0.534266
45	0x3ea52afd	0.3225936
46	0xbd923751	-0.07139457
47	0xbcc2771d	-0.023738438
48	0x3e0727b0	0.13198733
49	0x3d85a389	0.065253325
50	0xbe6c3bcc	-0.23069686
51	0x3e6bfe96	0.23046336
52	0x3d752ca7	0.059857037
53	0xbe2e35a3	-0.17012648
54	0xbdaa0008	-0.08300787
55	0x3dc05e71	0.09393013
56	0xbe49f191	-0.19721057
57	0xbe244f2a	-0.16045824
58	0xbce2afd0	-0.027671725
59	0x3cd2d2fd	0.025735373
60	0xbe86542d	-0.26236096
61	0xbe0f64e1	-0.14003326
62	0xbe1f4b07	-0.15555964
63	0x3e00e56a	0.12587515
64	0x3d6e43e5	0.058170218
65	0x3e1c054c	0.15236396
66	0x3cc57a57	0.024106188
67	0xbe2e4a72	-0.17020586
68	0xbd042cd3	-0.03226931
69	0xbe773f38	-0.2414521
70	0xbe4d0055	-0.20019658
71	0xbe4d5fde	-0.20056102
72	0x3d034489	0.032047782
73	0xbe60db21	-0.21958591
74	0x3e3f6bd7	0.18693481
75	0x3e31f894	0.17379981
76	0xbe5a7120	-0.21332216
77	0x3e93c288	0.28859353
78	0x3dc0cbc4	0.09413865
79	0x3e4d55ae	0.20052215
80	0x3ea26c3b	0.31723198
81	0xbe00e156	-0.12585959
82	0xbc3d32cc	-0.011547755
83	0xbd7c97f2	-0.061668344
84	0xbe2b7a52	-0.1674588
85	0xbc7824ad	-0.015145463
86	0xbe0c6060	-0.13708639
87	0x3e94bed2	0.29051834
88	0x3eaa1537	0.3321931
89	0x3e4c7de5	0.199699
90	0xbda2dc1f	-0.07952141
91	0xbe12e85e	-0.14346454
92	0xbcb07ada	-0.021542955
93	0xbd8359ae	-0.064135894
94	0x3d1fd1d0	0.039018452
95	0x3d803cff	0.06261634
96	0xbe1f8ae1	-0.15580322
97	0xbdc92ce4	-0.09823015
98	0x3e3f2fde	0.18670604
99	0x3dca2600	0.09870529
100	0x3ed2faeb	0.4120706
101	0x3f00d4d2	0.5032474
102	0x3e9cadcd	0.3060135
103	0xbb1b3070	-0.0023679994
104	0x3e8ded0b	0.27719912
105	0x3ccb9419	0.024850892
106	0xbd81fea6	-0.063473985
107	0x3dce1b2f	0.100637786
108	0xbe69d6b5	-0.2283581
109	0xbea810b9	-0.32825258
110	0x3d8f0cbf	0.06984853
111	0xbebd31b8	-0.36951995
112	0xbc884839	-0.016636001
113	0x3ea553c1	0.32290462
114	0x3d23968c	0.039938495
115	0x3e7c1d51	0.24620558
116	0x3f1c82e4	0.61137223
117	0x3eb43fcc	0.35204923
118	0x3ebdae5b	0.37047085
119	0x3ea5b773	0.32366523
120	0x3eea21a3	0.45728788
121	0x3eb2b387	0.34902593
122	0x3ee307cb	0.44341883
123	0x3f0914a5	0.53547126
124	0x3ea951ff	0.3307037
125	0x3ee03581	0.4379082
126	0x3d9dcbcb	0.07704886
127	0xbd60055f	-0.054692622
128	0xbd87832c	-0.06616816
129	0x3d9f986e	0.077927455
130	0x3e691ae2	0.22764161
131	0x3dbafbf2	0.09130086
132	0x3df25058	0.118317306
133	0x3d1451d2	0.036210842
134	0x3ce58e89	0.028022068
135	0x3d78f9f3	0.060785245
136	0x3f10931f	0.5647449
137	0x3ef8aa6b	0.4856752
138	0x3db453ef	0.088050716
139	0x3f33cde3	0.70236033
140	0x3edb2b6c	0.42806566
141	0xbdc50451	-0.09619964
142	0x3f034845	0.5128215
143	0x3e9e1642	0.30876356

encoder.0.bias f4 [16]
0	0xbe57465c	-0.21022934
1	0x3e5ca48f	0.21547149
2	0x3eb9f680	0.36320877
3	0x3dcec2f9	0.10095782
4	0xbe4bcc78	-0.19902217
5	0x3e96cfd0	0.29455423
6	0x3edc8b34	0.43074954
7	0x3eaf810f	0.3427815
8	0x3e0774af	0.13228105
9	0x3e801d2f	0.25022265
10	0x3e7f7c2a	0.24949709
11	0x3dd812ad	0.10550437
12	0xbcc6d097	-0.024269385
13	0xbe39be1d	-0.18138929
14	0x3e4e6258	0.20154703
15	0xbe5f627a	-0.2181491

encoder.2.weight f4 [32, 16, 3, 3]
0	0x3e2fb2ea	0.17158094
1	0x3d62bddb	0.05535684
2	0xbdb74c38	-0.089500844
3	0x3cee934a	0.029122967
4	0xbe5b2448	-0.21400559
5	0xbe091b3b	-0.13389294
6	0xbe6e6392	-0.2328017
7	0xbdb4ff63	-0.08837774
8	0xbdcf5e9d	-0.10125468
9	0x3c0da1e8	0.0086445585
10	0xbcaf1131	-0.021370502
11	0xbd721d64	-0.05911006
12	0xbbd88eda	-0.006608826
13	0xbcbabfd6	-0.022796553
14	0xbc52e22a	-0.0128713045
15	0x3d0651be	0.0327928
16	0xbc9e1fc8	-0.019302264
17	0xbd348cf5	-0.04407974
18	0xbc97c131	-0.018524738
19	0xbcf9c5c0	-0.030489802
20	0x3d375c10	0.044765532
21	0xbcfdc34b	-0.030976912
22	0xbc9fa52e	-0.019487944
23	0x3d006f89	0.03135637
24	0x3c2d6d78	0.010585181
25	0x3c1f066e	0.009706123
26	0xbc7e86f2	-0.015535103
27	0x3dcd5f8d	0.100279905
28	0x3d90b60f	0.07065975
29	0x3d2079c6	0.039178632
30	0x3c9661ae	0.018357124
31	0xbd617479	-0.055042718
32	0xbd81003e	-0.06298874
33	0xbe3e7f9d	-0.18603368
34	0xbcc2668a	-0.023730535
35	0xbc8be4ad	-0.017076815
36	0x3de9df34	0.11419526
37	0xbd81bbd6	-0.06334655
38	0xbe4444fa	-0.19166937
39	0xbda830c6	-0.08212428
40	0xbe41d960	-0.18930578
41	0xbdeb36e0	-0.11485076
42	0xbe087a72	-0.13327959
43	0xbc3123b8	-0.010811739
44	0x3c30648c	0.01076616
45	0x3de07239	0.10959286
46	0x3d92d228	0.071689904
47	0x3cb9cdc1	0.022681119
48	0x3d97f80f	0.0742036
49	0xbc1ffe5a	-0.009765232
50	0xbcd5cfe7	-0.026100112
51	0xbd2187f6	-0.039436303
52	0x3c9ec06f	0.019378869
53	0xbd0d86a6	-0.03455224
54	0xbc8dc072	-0.01730368
55	0x3d821748	0.06352097
56	0x3d3b73d6	0.045764767
57	0x3d5639b3	0.05230112
58	0x3cd12f8f	0.025535373
59	0x3d056e46	0.032575868
60	0x3d9f59b5	0.07780782
61	0x3bc9c28b	0.0061572245
62	0x3c953bfc	0.01821708
63	0x3d8d5363	0.069006704
64	0x3da056b7	0.078290395
65	0xbcadea90	-0.021230012
66	0x3d9a001e	0.075195536
67	0x3be89a86	0.0070984988
68	0x3cb3daf0	0.021954983
69	0x3d52fc6a	0.051510252
70	0xbb82aded	-0.0039880187
71	0xbce19b5a	-0.027539898
72	0x3d6b4d00	0.05744648
73	0xbd59e454	-0.053196266
74	0xbd08fb90	-0.033443034
75	0x3b9fb0cb	0.0048733703
76	0xbcb01c3c	-0.021497838
77	0xbcb72a12	-0.022358928
78	0x3c9b000a	0.018920917
79	0x3cba20d8	0.02272074
80	0x3d30dfe4	0.04318227
81	0x3d2816d3	0.041037392
82	0xbd452558	-0.048131317
83	0x3c8a6e4d	0.016898299
84	0xbcbdf24e	-0.023186829
85	0x3ca185ad	0.019717062
86	0xbcc6db16	-0.02427439
87	0xbca69c69	-0.020338254
88	0x3cf848d2	0.03030816
89	0x3cbd0d51	0.023077639
90	0xbc43174b	-0.011907409
91	0xbcae5e6d	-0.02128526
92	0x3d30d814	0.04317482
93	0x3b2698e1	0.0025420713
94	0xbc0737af	-0.008253022
95	0x3b8e7520	0.0043474585
96	0x3d33d2fb	0.04390238
97	0x3b1adb2f	0.0023629179
98	0x3d0b1a68	0.03396073
99	0x3e826011	0.25463918
100	0x3d6cac5d	0.057781566
101	0xbe21479c	-0.15749973
102	0x3d830bdb	0.063987456
103	0xbd932d1a	-0.07186337
104	0xbd28f42b	-0.04124848
105	0xbcfe2f45	-0.0310284
106	0xbb4394a0	-0.0029843226
107	0xb9ae3f86	-0.00033235195
108	0x3e259192	0.16168812
109	0xbcf38bdc	-0.029729776
110	0xbcbb3cd0	-0.022856146
111	0xbd3bca4a	-0.045847215
112	0xbbd01d2e	-0.0063511347
113	0xbcdcb5b2	-0.026942108
114	0x3c754eeb	0.014972429
115	0x3aa559da	0.0012615279
116	0x3d9cac61	0.07650066
117	0x3e6a1f02	0.22863391
118	0x3bf50658	0.007477563
119	0xbe3a622d	-0.18201514
120	0xbcf740dc	-0.030182295
121	0xbe58d82c	-0.21176213
122	0xbe28edba	-0.16496935
123	0xbe48ee5d	-0.19622178
124	0xbd5edea0	-0.05441153
125	0xbbb79339	-0.005602267
126	0x3d372fd0	0.044723332
127	0x3d0c31dc	0.034227237
128	0xbb593472	-0.0033142832
129	0x3cac5e66	0.021041106
130	0xbbd05473	-0.0063577234
131	0xbca62698	-0.020282075
132	0xbcf59387	-0.029977573
133	0xbbbef9f5	-0.005828137
134	0xbc4ee6ec	-0.012628298
135	0x3e7a0aa1	0.24418117
136	0xbc12220d	-0.008919251
137	0xbe5dad86	-0.21648225
138	0xbd65922e	-0.05604761
139	0xbe74bf46	-0.2390109
140	0xbe1c72f9	-0.15278234
141	0xbe4dfade	-0.2011523
142	0xbde61781	-0.11234952
143	0xbd2e1daf	-0.042508777
144	0xbd7a2633	-0.061071586
145	0xbe01ce88	-0.12676442
146	0xbe13e810	-0.14443994
147	0xbe292bb9	-0.16520585
148	0xbd4e778a	-0.05040697
149	0xbda0360c	-0.078228086
150	0xbdbac9cd	-0.09120522
151	0xbd9fe42b	-0.078071915
152	0xbd8971f9	-0.06711192
153	0x3d51d084	0.051224247
154	0xbd2e5d3f	-0.042569395
155	0xbd2fc440	-0.042911768
156	0x3d797a93	0.06090791
157	0xbc442976	-0.011972776
158	0xbca3a717	-0.019977136
159	0x3d9b188c	0.07573041
160	0x3c734207	0.014847285
161	0xbbf54e4d	-0.007486141
162	0x3ded01eb	0.115726314
163	0x3dfd88a1	0.123795755
164	0x3e214860	0.15750265
165	0x3de1022e	0.10986744
166	0x3c8d32a6	0.017236065
167	0x3d56fa72	0.052484937
168	0x3db5253d	0.08844993
169	0x3b33080c	0.0027318029
170	0xbb8b0e30	-0.0042436346
171	0x3d296004	0.041351333
172	0x3d4770c4	0.048691526
173	0x3d744955	0.059640247
174	0xbd80c520	-0.062875986
175	0xbba3683d	-0.0049867914
176	0x3c5dca49	0.013536998
177	0xbd56558c	-0.052327678
178	0xbd3b4891	-0.0457235
179	0x3a9ef383	0.0012127016
180	0xbe055d1f	-0.13023804
181	0xbd160842	-0.03662897
182	0xbd84d665	-0.06486205
183	0xbdc7327b	-0.09726425
184	0xbd4c1fbb	-0.049834948
185	0xbe4cc9c3	-0.19998841
186	0xbe228ec3	-0.15874772
187	0xbe3b42f7	-0.18287264
188	0xbe73df60	-0.2381568
189	0x3dfcb73f	0.12339639
190	0x3d5c7377	0.053821053
191	0x3d7212e6	0.059100054
192	0x3d533a85	0.05156948
193	0x3c95ce27	0.018286778
194	0x3d2d7df5	0.04235645
195	0x3d160e7b	0.036634903
196	0xbac4d458	-0.0015016897
197	0x3d069230	0.03285426
198	0x3e427a1d	0.18991895
199	0x3dbebcea	0.09313376
200	0x3dc6b3aa	0.09702237
201	0x3df52b7e	0.11971186
202	0xb8f689a8	-0.000117558346
203	0x3d3dbccf	0.04632264
204	0x3e027ddc	0.12743324
205	0x3d95e6dd	0.07319424
206	0x3d96526e	0.07339941
207	0x3e0bd6bc	0.13656133
208	0xbafdfbe1	-0.0019377434
209	0x3c8dd242	0.017312173
210	0x3db33487	0.08750253
211	0xba9c3995	-0.0011919016
212	0x3c197442	0.009366097
213	0x3e05fab1	0.13083912
214	0x3d687305	0.056750316
215	0x3d42fff4	0.047607377
216	0x3dbbd69d	0.091717936
217	0x3d64746f	0.055775102
218	0xbb94bd9a	-0.004539204
219	0x3d190b37	0.03736421
220	0x3ca8cacd	0.020604515
221	0xbd8be9e3	-0.0683172
222	0xbb5c2fbc	-0.0033597788
223	0xbc81cc15	-0.015844384
224	0xbe007bfa	-0.12547293
225	0x3dc02e21	0.093837984
226	0x3d8ad192	0.067782536
227	0x3dad4c57	0.08461826
228	0x3d892226	0.066959664
229	0x3c46ded5	0.012138088
230	0x3d03dcc1	0.03219295
231	0x3aa011cc	0.0012212335
232	0xbd87028b	-0.06592282
233	0xbd8ffa16	-0.07030122
234	0x3e0777cb	0.13229291
235	0x3da667e9	0.08125288
236	0x3d868561	0.06568409
237	0x3dbb0add	0.091329314
238	0x3bfea29b	0.007770849
239	0xbcc921a2	-0.02455217
240	0x3db47581	0.088114746
241	0x3cb0b311	0.02156976
242	0x3c062d9c	0.008189585
243	0x3cbf45f7	0.023348792
244	0xbdc5f96f	-0.09666716
245	0xbe1658d1	-0.14682318
246	0x3d2278a9	0.03966585
247	0x3cab6fd7	0.020927353
248	0xbd6e00f5	-0.05810638
249	0x3d3590ab	0.04432742
250	0x3d190811	0.03736121
251	0xbceefc29	-0.029172974
252	0xbc40fb05	-0.011778598
253	0x3c39e4cc	0.011346053
254	0xbd885fa4	-0.06658867
255	0xbca4e7aa	-0.020129997

encoder.2.bias f4 [32]
0	0xbc41be2d	-0.011825127
1	0x3c8da169	0.01728888
2	0xbba91599	-0.0051600453
3	0x3bc5db6b	0.0060381196
4	0x3c54957f	0.012975096
5	0x3c52a363	0.012856337
6	0xbcca4706	-0.02469207
7	0x3be37bcf	0.0069422494
8	0x3c69a43d	0.014260349
9	0x3da074bd	0.07834766
10	0x3d0b1742	0.033957727
11	0xbd147635	-0.036245544
12	0x3ceae81b	0.02867513
13	0xbb6665aa	-0.0035155811
14	0xbd1e3cf4	-0.03863235
15	0x3c3fac17	0.011698744
16	0x3d190aef	0.037363943
17	0x3cd5d78d	0.02610376
18	0xbd625e88	-0.055265933
19	0xbaa9f053	-0.0012965299
20	0x3c0b6364	0.008507583
21	0x3c9ad151	0.018898638
22	0x3de1c41e	0.110237345
23	0xbb17e31a	-0.0023176135
24	0x3d287153	0.0411237
25	0x3afd9185	0.0019345736
26	0x3d4cf91b	0.050042253
27	0x3cc5d350	0.024148613
28	0xbcd7d78d	-0.0263479
29	0xbd48aa6c	-0.048990652
30	0x3c36676f	0.011133059
31	0x3c20f410	0.009823814

encoder.4.weight f4 [64, 32, 7, 7]
0	0x39067fe5	0.0001282688
1	0xba581185	-0.00082423567
2	0x3b3cb389	0.0028793535
3	0xba0f954b	-0.00054772635
4	0xbb8560cc	-0.004070377
5	0xbbb03e6d	-0.0053785355
6	0x39b3e682	0.00034313282
7	0x39cb034b	0.0003872163
8	0x3bc4d363	0.0060066446
9	0x3b0b5f46	0.0021266504
10	0xbc04ed9d	-0.008113292
11	0x3bb9d7b7	0.005671467
12	0x3bc12030	0.0058937296
13	0xba1574fc	-0.0005701331
14	0x3b07ad54	0.0020702677
15	0x3aabd8ec	0.0013110912
16	0x3cf1e226	0.029526781
17	0xbd0edc3b	-0.034877997
18	0x3bc9f959	0.0061637578
19	0x3c83a31c	0.016068988
20	0xbb5a6952	-0.0033326936
21	0x3b4ff72e	0.0031733024
22	0x3a7e5bbe	0.00097030017
23	0xbd22d66c	-0.03975527
24	0x3d2425d7	0.04007515
25	0x3cdcf7e0	0.026973665
26	0x3d05770a	0.032584228
27	0x3d063f61	0.032775287
28	0xb73c8f33	-1.1239014e-05
29	0x3a56aa4e	0.00081888295
30	0x3ae7b17a	0.0017676794
31	0xbd4450a7	-0.04792848
32	0x3cfac695	0.03061227
33	0xbc437af3	-0.011931169
34	0x3b9d2085	0.0047951364
35	0xbb172459	-0.0023062436
36	0x3bf2bd1f	0.007407799
37	0x3d9b3771	0.07578934
38	0x3d68f622	0.056875356
39	0x3d407d72	0.046994634
40	0xbd219704	-0.03945066
41	0xbc488bb1	-0.012240336
42	0x3b891284	0.0041831154
43	0x3b8f7e76	0.004379089
44	0x3d209181	0.039201263
45	0xbd369a90	-0.044580996
46	0xbd04ebda	-0.032451488
47	0xbd121a38	-0.035669535
48	0xbca0e3a7	-0.019639803
49	0xbba0bfc4	-0.0049056727
50	0xbb8aceae	-0.004236064
51	0x3be3ff4d	0.0069579245
52	0x3c8702cc	0.016480826
53	0xbbccf86a	-0.006255199
54	0xbb4e3f66	-0.0031470894
55	0xbb5eaf7a	-0.0033979104
56	0xbbd95447	-0.006632361
57	0x3b9af840	0.0047293007
58	0x3d204899	0.039131735
59	0x3db57109	0.0885945
60	0x3ba340f0	0.0049821064
61	0xbd6555f8	-0.05599019
62	0xbc51a68a	-0.012796054
63	0xbbea4135	-0.0071488866
64	0x3c5003f6	0.012696257
65	0x3d68543b	0.056720953
66	0xbca5e20c	-0.02024939
67	0xbc877b32	-0.016538236
68	0xbd265140	-0.04060483
69	0xbb6919a5	-0.0035568264
70	0xbc180148	-0.009277649
71	0xbbd58eb4	-0.0065172557
72	0xbcaefb84	-0.021360166
73	0xbc361bd2	-0.011115031
74	0x3d4a2166	0.049348257
75	0xbcbb1d1a	-0.022841025
76	0x3b529ea8	0.0032138024
77	0xbb68a011	-0.0035495798
78	0xbc8c9db9	-0.017165052
79	0xbd0e2389	-0.034701858
80	0xbd1087fa	-0.035285927
81	0x3c1278a4	0.008939896
82	0x3c855f55	0.01628081
83	0xba9d0ef0	-0.0011982601
84	0x389384ca	7.03424e-05
85	0x3c97e4f7	0.018541796
86	0x3d75b242	0.059984453
87	0x3e003187	0.12518893
88	0x3d46c740	0.048529863
89	0x3aef375f	0.0018250755
90	0x3b40a421	0.0029394703
91	0xbb6a0404	-0.003570796
92	0x3c73c2eb	0.014878015
93	0x3d1905b4	0.037358955
94	0x3c9d5f44	0.019210465
95	0xbd2dc586	-0.0424247
96	0xbc8defa7	-0.01732619
97	0xbc537536	-0.012906363
98	0xb161bac2	-3.2847969e-09
99	0xb9157e39	-0.00014256769
100	0xbb9c03a2	-0.0047611753
101	0xb895ffd4	-7.152525e-05
102	0x3aa25fa9	0.0012388128
103	0x3b20ea9e	0.0024553905
104	0x37e17a60	2.6879075e-05
105	0xb9f31153	-0.0004636148
106	0xbb7230b7	-0.0036955306
107	0x3b98473c	0.0046471637
108	0x3c00dd59	0.007865273
109	0xbbdc5975	-0.0067245313
110	0x3cacfbbc	0.02111613
111	0x3bed5b21	0.0072435294
112	0x3a0645c9	0.0005122093
113	0xbb5bae73	-0.0033520728
114	0xbb93d3f7	-0.004511352
115	0xbc33f999	-0.010984802
116	0xb8c91a93	-9.589377e-05
117	0x3ced9ca7	0.029005362
118	0xbbc39a1b	-0.0059692985
119	0xb92902c3	-0.00016118125
120	0xbacbef9a	-0.0015559078
121	0xbb8f90f2	-0.0043812925
122	0xbc5e3bed	-0.013564092
123	0xbc45dd28	-0.012076654
124	0x3d23d04c	0.03999357
125	0x3d1d3c27	0.038387444
126	0xb993d0fd	-0.00028193733
127	0x3bd86360	0.0066036433
128	0x3b3290a9	0.0027246869
129	0xbcbb9d8e	-0.022902276
130	0x3c816beb	0.01579853
131	0xbd015e3c	-0.03158401
132	0xbc5b0287	-0.013367302
133	0xb98c6192	-0.00026775576
134	0x39b90d5e	0.0003529591
135	0xbb9c2128	-0.0047646947
136	0xbbb08a93	-0.005387613
137	0x3cda6b53	0.026662504
138	0xba0f1407	-0.00054580014
139	0x3c36e8d7	0.011163912
140	0xb70d32da	-8.416095e-06
141	0xba60119a	-0.0008547545
142	0x3ac4dc58	0.0015019281
143	0x3bd3d90c	0.006465083
144	0x3d21d8bd	0.03951334
145	0x3cad3c74	0.02114699
146	0x3b7c40fe	0.0038490887
147	0xb1790160	-3.623505e-09
148	0xb8aedc34	-8.3379826e-05
149	0x3911c255	0.00013900672
150	0x3909457f	0.00013091227
151	0xba15d587	-0.0005715717
152	0x39352edb	0.0001727896
153	0x39ac5307	0.00032868257
154	0x37aa3201	2.0288864e-05
155	0x3af8dca1	0.0018986651
156	0x3b5ef008	0.0034017581
157	0x3b917c54	0.00443987
158	0xb99b6a23	-0.00029642982
159	0xbb6fe797	-0.0036606544
160	0x3ae197ad	0.0017211341
161	0xb8a8a31c	-8.041246e-05
162	0x3b811010	0.0039386824
163	0x3b7dd4d0	0.0038731582
164	0xbabaa2a8	-0.0014239149
165	0x3829b9f9	4.046594e-05
166	0xbb2f4016	-0.002674108
167	0xbb1b1b39	-0.002366735
168	0xb945e8a3	-0.00018874048
169	0xba0067c6	-0.0004898276
170	0x3a3aed00	0.00071306527
171	0x3ac91124	0.0015340191
172	0x3a171762	0.0005763677
173	0xbac184ad	-0.0014764272
174	0xbb1e3975	-0.0024143134
175	0xb88b78c5	-6.6505316e-05
176	0xba888e8e	-0.0010418461
177	0xbae0507a	-0.0017113828
178	0xb8d70d3b	-0.00010254463
179	0x3a1b54ea	0.0005925434
180	0x39125e26	0.00013958718
181	0xbb83be8a	-0.0040205168
182	0x38afa3f4	8.375189e-05
183	0xb9a293d0	-0.00031009177
184	0x3bd0e1bc	0.006374566
185	0x3b37d029	0.0028047657
186	0xbab32e48	-0.0013670409
187	0x3a39979e	0.00070797827
188	0xbab922a9	-0.0014124709
189	0xb7cccd9a	-2.4414436e-05
190	0x3b3fd07d	0.0029268556
191	0x3b832a4d	0.0040028454
192	0xb83e8bad	-4.5429613e-05
193	0xbb805a71	-0.0039170315
194	0xb95d492b	-0.0002110346
195	0x3adeedec	0.0017008162
196	0x3820163a	3.8167673e-05
197	0xba59d759	-0.00083099824
198	0x3879ab9c	5.952605e-05
199	0x3a96cee4	0.001150575
200	0x390b4e1a	0.00013285168
201	0x3b87bd8a	0.004142468
202	0xbab99d14	-0.0014161193
203	0xb86f64b9	-5.7075846e-05
204	0xbab24a50	-0.0013602469
205	0x3b0e2497	0.002168929
206	0xbcc99629	-0.024607735
207	0xbc7aaa13	-0.015299338
208	0x3cebc952	0.02878252
209	0x3c21477f	0.009843706
210	0x390bb3ca	0.0001332305
211	0x3985bbd0	0.00025507668
212	0xbc434e91	-0.011920587
213	0xbce9fa74	-0.028561808
214	0xbd3c824e	-0.046022706
215	0xbbf7d8a3	-0.007563667
216	0xbcccf366	-0.025018405
217	0xb92fb0bf	-0.00016755144
218	0xbabd27e3	-0.0014431443
219	0xbc181134	-0.009281445
220	0xbbfd351d	-0.007727279
221	0xbc75110e	-0.014957679
222	0x3d02e15a	0.031953193
223	0x3d0e91e5	0.034807105
224	0xb9c78ffc	-0.00038063515
225	0xbaace154	-0.0013189712
226	0xbc8ac813	-0.016941106
227	0xbb89e1e8	-0.0042078383
228	0x3b304f6e	0.0026902813
229	0xbc1b8fde	-0.00949475
230	0x381f315d	3.7954527e-05
231	0xb9f81d29	-0.00047323972
232	0xb9c72fee	-0.00037991948
233	0xb99dbb0d	-0.00030084737
234	0xbc9c1455	-0.019052664
235	0x3d8ed3e2	0.06974007
236	0x3b5aad84	0.0033367584
237	0x3c3f4136	0.011673262
238	0x39204be7	0.00015287065
239	0x398b35b5	0.0002655216
240	0xbaa737d3	-0.0012757726
241	0x3d3e705c	0.046493873
242	0x3cba2968	0.022724822
243	0x3c35dc5b	0.0110999
244	0x3b9df29d	0.0048201815
245	0x38000045	3.051783e-05
246	0x398d71f0	0.00026978506
247	0x3b432614	0.0029777335
248	0x3b4ab17a	0.0030928538
249	0xbbe5bf5b	-0.0070113367
250	0xba198a3c	-0.00058570853
251	0x3b5ab088	0.003336938
252	0x3a443947	0.00074853416
253	0x3b024ff9	0.0019884093
254	0x3cb3650d	0.02189877
255	0x3cb72454	0.02235619

encoder.4.bias f4 [64]
0	0xbb210a82	-0.0024572914
1	0xbc61e8e9	-0.01378844
2	0x3c0e7407	0.008694655
3	0x3acb9a0c	0.001553358
4	0x3c4b9b4a	0.0124271605
5	0x3aa45ca7	0.001253982
6	0x3bd2f696	0.0064380867
7	0x3b67f880	0.003539592
8	0xbb2df93d	-0.0026546263
9	0x3c6283f6	0.013825407
10	0xbbef966c	-0.007311633
11	0x39c6b9fc	0.00037904072
12	0xbb94a302	-0.0045360336
13	0xba30b2c3	-0.0006740505
14	0xbc96ac9f	-0.018392859
15	0xbc054c41	-0.008135856
16	0xbc1fe218	-0.009758495
17	0xbc0f17d4	-0.008733708
18	0xbb1c5364	-0.0023853416
19	0xbc43aac2	-0.011942567
20	0xbc67e36a	-0.014153341
21	0x3b7680d1	0.0037613402
22	0xbaa540c2	-0.00126078
23	0x3ba43cd6	0.005012135
24	0xbca53fb3	-0.020171976
25	0xbc47cc11	-0.012194649
26	0x3c08778c	0.008329283
27	0x3b6a6abb	0.0035769183
28	0x3b8b52b7	0.0042518037
29	0x3c281881	0.010259748
30	0x3c064916	0.008196136
31	0xbb90286b	-0.0043993494
32	0xbc90d3dc	-0.017679147
33	0xb9d871ec	-0.0004128361
34	0xbc60f241	-0.013729633
35	0x3cbcb302	0.023034576
36	0xbc00b4da	-0.007855618
37	0x3c2dec9b	0.010615493
38	0xbc305593	-0.01076259
39	0xbc674506	-0.014115578
40	0xba800cf2	-0.0009769483
41	0x3c59bb05	0.013289218
42	0xbcac1a5b	-0.021008661
43	0xbc1da5dd	-0.009622064
44	0x3a457d2d	0.0007533606
45	0x3c430632	0.011903333
46	0xbbd8d413	-0.006617078
47	0xbc9bc9de	-0.019017156
48	0x3c494391	0.0122841755
49	0x3b0eba11	0.0021778385
50	0xbbf7b33b	-0.0075592077
51	0xbc1d8b87	-0.009615785
52	0xbb075ecf	-0.0020655876
53	0x3ae3654d	0.0017348916
54	0x3b388658	0.0028156247
55	0x39d4b2cb	0.00040569002
56	0xbb41b3da	-0.0029556663
57	0xbc08d3bc	-0.008351263
58	0x3c89f79b	0.0168417
59	0xbb20509c	-0.002446211
60	0xbaba4526	-0.0014211282
61	0x3bcd7469	0.0062699807
62	0xbb08ca16	-0.0020872406
63	0xbb8db6c5	-0.0043247663

encoder.6.weight f4 [10, 64]
0	0x3e3d3d96	0.18480524
1	0xbe56c7fa	-0.20974723
2	0xbb14a8d1	-0.002268363
3	0x3d2d336a	0.04228536
4	0xbd926210	-0.0714761
5	0xbce1f9ae	-0.027584877
6	0x3d947c67	0.0725029
7	0xbec8b4fa	-0.39200574
8	0x3e02e71e	0.12783477
9	0xbe3532c3	-0.17695145
10	0x3d113610	0.03545195
11	0x3e7c7138	0.24652565
12	0xbe6688c0	-0.22513103
13	0x3df8942d	0.12137637
14	0x3dd613e3	0.10453012
15	0xbcf8434d	-0.030305529
16	0x3e01064f	0.12600063
17	0x3d0852c1	0.033282045
18	0xbdec5430	-0.11539495
19	0xbe4861ee	-0.19568607
20	0xbe20e6ef	-0.15713094
21	0x3d238417	0.039920893
22	0x3e8a979d	0.27068797
23	0x3de5d442	0.112221256
24	0xbdf071fc	-0.11740491
25	0xbe6c77bd	-0.23092552
26	0x3e6f1dbc	0.23351187
27	0xbe422133	-0.18957977
28	0x3da23148	0.07919556
29	0x3d87d06c	0.0663155
30	0xbc5ba7a1	-0.013406665
31	0x3dff16af	0.124554984
32	0xbe25886c	-0.16165322
33	0x3e0b4c2c	0.13603276
34	0xbe4d4d8c	-0.20049113
35	0x3df55444	0.11978963
36	0xbe3b080d	-0.1826479
37	0x3dc630ea	0.09677298
38	0xbdb1d0d4	-0.08682409
39	0x3bb052a8	0.005380947
40	0x3e791d63	0.24327616
41	0xbe1e7463	-0.15474086
42	0xbd8e7850	-0.069565415
43	0xbe3dc6c5	-0.18532856
44	0x3de1f453	0.11032929
45	0xbdcfd1e6	-0.10147457
46	0xbe0eaea1	-0.13933803
47	0x3db7e0fb	0.089784585
48	0xbb03b6dd	-0.0020098009
49	0x3e1aabe3	0.15104632
50	0xbde74c64	-0.11293867
51	0x3e17e93e	0.14835069
52	0x3e42a329	0.19007553
53	0xbe4b72bd	-0.19867988
54	0x3ddd037d	0.10791681
55	0x3d2f74de	0.042836063
56	0xbdd38d89	-0.1032973
57	0xbd9f1c51	-0.07769073
58	0x3d316b80	0.04331541
59	0xbe177cf1	-0.14793755
60	0x3da61fd2	0.08111538
61	0xbdf9c3f6	-0.1219558
62	0xbe5b7945	-0.2143298
63	0x3e24eeb1	0.16106679
64	0xbcdd5582	-0.027018312
65	0x3d789eca	0.060698308
66	0xbd2a0af2	-0.041514345
67	0xbded9cae	-0.1160215
68	0xbd814e7b	-0.06313797
69	0x3d13e916	0.03611096
70	0xbdb98c9a	-0.09060021
71	0x3dafd3f3	0.08585348
72	0xbe06cfc2	-0.13165191
73	0x3e3fb1a2	0.18720105
74	0xbe002bed	-0.12516756
75	0xba7132f2	-0.0009201012
76	0x3d1852ff	0.037188526
77	0x3e3deb70	0.18546844
78	0x3e5faec9	0.21844019
79	0x3e306f3d	0.17229934
80	0xbdc6ffd5	-0.09716765
81	0xbd931f52	-0.07183708
82	0xbe7f5a7e	-0.24936864
83	0xbe160a31	-0.14652325
84	0xbe8c951f	-0.2745752
85	0xbc62037d	-0.013794777
86	0x3cca200c	0.024673484
87	0xbdddeeed	-0.10836587
88	0x3e530439	0.2060708
89	0xbe047659	-0.12935771
90	0x3e05edc8	0.13078988
91	0xbe67af36	-0.22625431
92	0xbd92491f	-0.07142853
93	0xbe6aba45	-0.22922619
94	0xbc91c0bc	-0.017792098
95	0xbd158779	-0.03650615
96	0x3e5cf3fa	0.21577445
97	0xbdb5189c	-0.088425845
98	0x3c9b1f5e	0.018935855
99	0x3ddc4f96	0.10757367
100	0xbe097de6	-0.13426933
101	0x3e21e7b2	0.15811041
102	0x3e03a0f1	0.12854363
103	0x3e104703	0.14089589
104	0x3d0da8e3	0.03458489
105	0x3de292b9	0.110631414
106	0x3d91af13	0.07113471
107	0x3d4d2250	0.05008155
108	0xbdef2b83	-0.11678221
109	0xbe2e9082	-0.17047313
110	0xbcded3b5	-0.02720056
111	0x3e16fe6d	0.14745493
112	0xbdf0bc58	-0.11754674
113	0xbd19e995	-0.037576277
114	0x3e303337	0.17207037
115	0x3e7e1b26	0.24815044
116	0x3e7acef6	0.24493012
117	0x3e235592	0.15950611
118	0x3ded704e	0.11593686
119	0x3d8961a1	0.06708074
120	0x3d7cd624	0.061727658
121	0xbe4c9c85	-0.19981582
122	0xbdc271da	-0.09494372
123	0xbd5f18ad	-0.054466892
124	0x3df42bf9	0.119224496
125	0xbe5c2834	-0.21499711
126	0x3e61a09c	0.22033924
127	0x3ceb0013	0.028686559
128	0xbda9bfb3	-0.08288517
129	0xbe639409	-0.2222444
130	0x3db5f179	0.08883948
131	0xbe9683f8	-0.2939756
132	0x3c941962	0.01807851
133	0xbd35519a	-0.044267274
134	0x3d97784c	0.07395992
135	0x3dc2cc8f	0.09511673
136	0x3d025af0	0.031825006
137	0x3d2120ec	0.039338037
138	0xbd3dd142	-0.046342142
139	0xbd56f163	-0.052476298
140	0xbd14052a	-0.036137737
141	0xbdbd6fe4	-0.09249857
142	0x3dd51ed0	0.10406268
143	0x3d348106	0.04406836
144	0xbda103be	-0.07862042
145	0xbc08f388	-0.008358844
146	0x3d5d7a55	0.054071743
147	0xbe487cb5	-0.19578822
148	0xbdf500b9	-0.119630285
149	0x3e75a7b1	0.2398975
150	0xbd83e932	-0.06440963
151	0x3cd1c9d3	0.025608933
152	0xbe624d24	-0.2209974
153	0x3e407df0	0.18798041
154	0x3ddcc39b	0.10779496
155	0xbc91daf4	-0.0178046
156	0x3e119af2	0.14219263
157	0xbd4cf63c	-0.050039515
158	0x3df96b91	0.1217872
159	0xbea74ffa	-0.32678205
160	0x3c984e0c	0.018591903
161	0x3e03da78	0.12876308
162	0x3e0a7ed5	0.13524945
163	0x3d76a46a	0.06021539
164	0xbd9c7407	-0.07639318
165	0x3d318237	0.043337073
166	0x3e07df3f	0.13268755
167	0xbdaeac6c	-0.085289806
168	0xbeb95441	-0.36197093
169	0x3e83927c	0.25697696
170	0xbe8a65ac	-0.27030694
171	0xbdb9adaf	-0.09066331
172	0xbda66def	-0.08126437
173	0x3c623ad7	0.013807974
174	0xbd99d41f	-0.07511162
175	0xbe08ecbb	-0.13371556
176	0x3d036243	0.03207613
177	0xbd615931	-0.0550167
178	0xbe6b7d49	-0.22997011
179	0x3d421155	0.04737981
180	0x3e7daa29	0.24771942
181	0x3e01548e	0.12629911
182	0x3e280fc4	0.16412264
183	0x3d142d78	0.036176175
184	0x3d4b9f19	0.049712274
185	0xbcb19c64	-0.021681018
186	0xbd2f6902	-0.042824753
187	0xbd82b24c	-0.06381664
188	0xbd9170d7	-0.071016006
189	0xbdb96aa1	-0.09053541
190	0x3e24682d	0.16055365
191	0x3d153013	0.0364228
192	0xbe503494	-0.20332557
193	0xbe08d3ef	-0.13362096
194	0x3e27b51b	0.1637768
195	0x3e17b576	0.14815316
196	0x3e47f71a	0.19527856
197	0x3d5f6a74	0.05454488
198	0x3e422015	0.18957551
199	0x3dd7af13	0.1053144
200	0x3e043687	0.12911426
201	0x3e7a7573	0.24458866
202	0xbe6027ad	-0.21890135
203	0x3d3d959d	0.04628526
204	0xbe11e928	-0.14249098
205	0x3df2b4d0	0.118508935
206	0xbe67d4ae	-0.22639725
207	0xbe48d6d0	-0.19613194
208	0xbd0e229a	-0.034700967
209	0xbe128804	-0.14309698
210	0xbd9791f6	-0.07400887
211	0x3d1323be	0.03592276
212	0xbe0b1520	-0.13582277
213	0xbdbc8572	-0.0920514
214	0xbdadf849	-0.08494622
215	0xbd1a744f	-0.037708577
216	0xbe55111f	-0.20807312
217	0xbe84bc09	-0.2592471
218	0x3ddd6c02	0.108116165
219	0x3c07e6b5	0.008294751
220	0xbdb741e1	-0.08948112
221	0x3c9779e9	0.018490748
222	0xbe273014	-0.16326934
223	0x3dbbc815	0.09169022
224	0xbda93d6e	-0.0826367
225	0xbdd39421	-0.10330988
226	0xbe7849d4	-0.24246913
227	0x3df0e9a0	0.117633104
228	0xbc9d29b9	-0.019184934
229	0x3e5e9066	0.21734771
230	0xbd241fcb	-0.040069383
231	0xbe34efa9	-0.17669548
232	0xbc9d311e	-0.01918846
233	0x3d14129a	0.036150552
234	0xbda54cf7	-0.080713205
235	0xbd9dc2c4	-0.07703164
236	0x3d1da60a	0.038488425
237	0x3e1cf295	0.15326913
238	0x3e1c91f5	0.15290053
239	0xbe6579c6	-0.22409734
240	0x3d76459f	0.06012499
241	0xbdd525ed	-0.104076244
242	0xbd188b50	-0.037242234
243	0xbb920570	-0.0044562146
244	0x3dc0e12d	0.09417949
245	0x3d917ba0	0.07103658
246	0x3c9d2ad9	0.01918547
247	0xbd7d9733	-0.061911773
248	0xbd5fac90	-0.054607928
249	0xbe51228c	-0.20423335
250	0x3df43265	0.119236745
251	0xbcb7a3fc	-0.022417061
252	0xbdda6929	-0.10664589
253	0x3d320476	0.043461286
254	0x3c8b3c00	0.016996384
255	0x3cf48f2d	0.029853428

encoder.6.bias f4 [10]
0	0xbcbe4878	-0.023227915
1	0x3da99efc	0.08282277
2	0x3c9cd42f	0.019144146
3	0xbb8623f3	-0.004093641
4	0xbc4c8443	-0.0124827055
5	0xbc70a85c	-0.0146885775
6	0x3c1507cb	0.009096096
7	0x3d9e05da	0.0771596
8	0x3d3fedd9	0.04685769
9	0xbc33dda1	-0.010978133

decoder.0.weight f4 [64, 10]
0	0xbd8c4aab	-0.06850179
1	0xbe4e9971	-0.20175721
2	0x3d42a589	0.047521148
3	0xbd35cc5f	-0.044384357
4	0xbbf1af94	-0.007375667
5	0xbdc732d3	-0.09726491
6	0x3cda4352	0.026643429
7	0xbe70dd74	-0.23521978
8	0xbe452413	-0.19252042
9	0x3c8bd077	0.017067177
10	0xbdb1c856	-0.08680789
11	0x3d81e6dd	0.06342862
12	0xbe22f8b1	-0.1591518
13	0xbd40b6d4	-0.04704936
14	0xbeac4395	-0.3364531
15	0x3e1d7429	0.15376343
16	0x3e4b43af	0.19850038
17	0x3d5b4d9d	0.053540815
18	0x3c15fd99	0.009154701
19	0x3d036c3e	0.03208565
20	0x3cb5fe39	0.02221595
21	0x3e75b5c1	0.23995115
22	0xbe6f6d9e	-0.2338166
23	0x3ebef580	0.37296677
24	0x3baef285	0.005338969
25	0xbea23b5c	-0.31685913
26	0xbd80596b	-0.06267055
27	0x3e0cc128	0.13745558
28	0x3e0ebed0	0.13939977
29	0x3e748c0d	0.2388155
30	0xbe22b380	-0.15888786
31	0xbe8ab9ec	-0.27094972
32	0xbcd7745a	-0.026300598
33	0x3d3a0a82	0.045420177
34	0xbbabdc57	-0.0052447724
35	0xbe341879	-0.1758746
36	0xbdce4516	-0.10071771
37	0xbd4eb9a2	-0.050470002
38	0xbe0c1107	-0.1367837
39	0xba1edd98	-0.0006060242
40	0x3da4eb46	0.08052687
41	0x3e2d4522	0.16920903
42	0x3dcc44e3	0.099740766
43	0xbe155752	-0.14584091
44	0x3e6906f8	0.22756565
45	0xbe637020	-0.22210741
46	0xbdc64809	-0.09681708
47	0x3dae00af	0.08496224
48	0x3e48b537	0.19600378
49	0x3e8b0431	0.27151635
50	0x3ead387d	0.3383216
51	0xbe4af66e	-0.19820568
52	0x3e416a2b	0.18888156
53	0x3e565210	0.20929742
54	0x3d65add4	0.05607398
55	0x3eb08b73	0.3448139
56	0x3e399b18	0.1812557
57	0x3e990d4b	0.29892954
58	0xbe7fe03d	-0.24987884
59	0xbe4e86c0	-0.2016859
60	0x3d3a7ef2	0.04553122
61	0x3e144752	0.14480332
62	0xbde4a8d2	-0.111650124
63	0x3e86026d	0.26173726
64	0x3b882e9e	0.004155948
65	0x3e9792e2	0.2960425
66	0xbe47963c	-0.19490904
67	0x3d63a0b7	0.05557319
68	0xbe04e9cf	-0.12979816
69	0x3e8bff64	0.27343285
70	0xbd4a2b0e	-0.049357466
71	0x3e9747c1	0.2954693
72	0x3d59db4e	0.05318766
73	0x3d050e87	0.032484557
74	0xbd8fbfa6	-0.07018976
75	0xbe733c82	-0.2375355
76	0xbe9007a2	-0.28130823
77	0xbed9ac6e	-0.42514366
78	0xbe9a467c	-0.301319
79	0xbe05d0c7	-0.13067923
80	0x3e4550b4	0.19269067
81	0x3e61fd54	0.22069293
82	0x3e81005c	0.25195587
83	0x3e609a99	0.21933974
84	0xbe6411df	-0.22272442
85	0xbe133633	-0.14376144
86	0xbe8df5fc	-0.27726734
87	0x3e05ffd3	0.1308587
88	0x3e5c8dd9	0.21538486
89	0xbe19e89c	-0.1503014
90	0xbe1661b7	-0.14685713
91	0x3eb76694	0.35820448
92	0x3e9e57ef	0.30926463
93	0xbe1723db	-0.14759772
94	0xbe5e73d8	-0.21723878
95	0x3e14670c	0.14492434
96	0xbe4ac69e	-0.19802329
97	0xbec35cb7	-0.38156673
98	0x3e320571	0.17384888
99	0xbbf927f9	-0.007603642
100	0xbe5a1cea	-0.21300092
101	0xbdc3f1f9	-0.09567637
102	0x3c1e9fdb	0.009681667
103	0xbeaf9260	-0.34291363
104	0xbddeb869	-0.10875017
105	0xbe99677e	-0.2996177
106	0x3e44bc1c	0.19212383
107	0x3e593a72	0.21213701
108	0xbe715b59	-0.23570003
109	0x3d5a7c1f	0.053341027
110	0x3eb3958b	0.3507503
111	0x3e10c042	0.1413584
112	0x3cf39c96	0.029737752
113	0xbdda2b5b	-0.10652801
114	0x3d16bdf2	0.03680224
115	0x3e884a0b	0.2661899
116	0x3eb8cfe2	0.36096102
117	0x3ca7a251	0.02046314
118	0x3db49a97	0.08818548
119	0xbd30d3c2	-0.043170698
120	0xbd3f9236	-0.046770297
121	0xbd8f143c	-0.06986281
122	0xbce0b505	-0.027430067
123	0x3daaf3cf	0.08347284
124	0xbe2623ad	-0.16224547
125	0x3e8b085a	0.2715481
126	0x3dffcf14	0.12490669
127	0xbe47ad5f	-0.1949973
128	0xbe51b9ef	-0.20481084
129	0xbe7a838c	-0.24464244
130	0xbce0f874	-0.027462222
131	0xbe97d579	-0.29655054
132	0x3ed34aeb	0.41268095
133	0xbe389010	-0.18023705
134	0x3e7629dc	0.24039406
135	0x3e93017f	0.2871208
136	0x3ea01085	0.31262603
137	0xbea8add3	-0.32945117
138	0x3dd2138e	0.10257636
139	0x3ea60552	0.32425934
140	0x3d884904	0.066545516
141	0x3cb5e600	0.0222044
142	0xbb1ac5d1	-0.0023616443
143	0x3e9372de	0.28798574
144	0xbbd5618d	-0.006511873
145	0x3e00f1b5	0.12592204
146	0xbdee4b7f	-0.116354935
147	0x3ea301d9	0.31837347
148	0xbda42ea0	-0.080167055
149	0xbe92590f	-0.2858357
150	0x3de5d59d	0.11222384
151	0x3e9db7ac	0.30804193
152	0x3e27c2b1	0.16382863
153	0x3e000b27	0.12504254
154	0x3e306953	0.17227678
155	0x3e1bad84	0.1520291
156	0x3d959e80	0.07305622
157	0x3d13a0c5	0.036041994
158	0x3e0358bf	0.12826823
159	0xbd537749	-0.05162743
160	0xbd197572	-0.03746552
161	0x3e6b8d1a	0.23003045
162	0x3d77307d	0.060348976
163	0x3db85203	0.090000175
164	0xbb634b80	-0.0034682453
165	0x3e360e38	0.17778862
166	0x3e3fdeca	0.18737331
167	0x3cccc880	0.02499795
168	0xbd0192aa	-0.03163401
169	0x3d85f1e8	0.065402806
170	0x3ecfce3b	0.4058703
171	0x3e40e432	0.1883705
172	0xbea8c863	-0.32965383
173	0x3ed175cf	0.40910193
174	0x3d1ae54d	0.037816335
175	0xbea59eb5	-0.32347646
176	0x3e1dbd31	0.15404202
177	0xbdf0620e	-0.117374524
178	0x3d21c0a2	0.03949035
179	0xbe0dad23	-0.13835578
180	0xbe616184	-0.22009856
181	0x3ea83a70	0.32857084
182	0x3e96d773	0.2946125
183	0x3e3e569a	0.18587723
184	0xbedfe705	-0.4373094
185	0xbe9fe182	-0.31226736
186	0x3ed2e553	0.41190585
187	0xbe7b89bb	-0.24564259
188	0xbeae04ab	-0.33987936
189	0xbe957387	-0.29189703
190	0x3e88b19a	0.26698
191	0xbd59ce63	-0.05317534
192	0xbe687796	-0.22701868
193	0x3e87f95f	0.26557443
194	0xbd9f10f5	-0.07766906
195	0xbdd827d1	-0.105544694
196	0xbe75d392	-0.24006489
197	0x3cfe33a6	0.031030487
198	0xbe9ee1e3	-0.31031713
199	0x3e32b696	0.17452464
200	0xbc172706	-0.0092256125
201	0x3e8ab963	0.27094564
202	0xbcf8f8ae	-0.030392017
203	0x3db3fc27	0.087883286
204	0x3dec12f1	0.1152705
205	0x3e02eda6	0.12785968
206	0x3d35e41f	0.044407006
207	0x3e55ffa2	0.20898297
208	0xbe0520ed	-0.13000841
209	0xbd8f46ff	-0.06995963
210	0xbe67688c	-0.22598475
211	0xbe425bb2	-0.18980291
212	0xbbd118e3	-0.0063811406
213	0x3e965f14	0.29369414
214	0x3e148ce2	0.14506868
215	0x3e88be14	0.26707518
216	0xbd0427af	-0.032264408
217	0xbebc6ca9	-0.3680165
218	0x3e6c3b04	0.23069388
219	0xbd446e90	-0.047957003
220	0x3e7ab8cd	0.24484558
221	0xbdf84905	-0.12123302
222	0x3df77db3	0.12084522
223	0x3d8b4737	0.068006925
224	0xbe1e0999	-0.15433349
225	0x3e6e30f4	0.23260862
226	0xbe096eef	-0.13421224
227	0xbe5826a3	-0.21108489
228	0x3e367ff2	0.17822245
229	0x3ec49238	0.38392806
230	0x3c817130	0.015801042
231	0xbe61406e	-0.21997234
232	0x3e455261	0.19269706
233	0x3dfab6ec	0.12241921
234	0xbe6c63bf	-0.23084925
235	0x3e6e4525	0.23268564
236	0xbe90d9c8	-0.28291154
237	0x3d6d0e42	0.057874925
238	0x3e1c2528	0.15248549
239	0xbddb5522	-0.10709597
240	0x3d93502d	0.07193027
241	0xbe16b3dc	-0.14717048
242	0x3dc9283c	0.09822127
243	0x3e44e78a	0.1922895
244	0xbc887b67	-0.016660405
245	0xbe23ba6f	-0.15989088
246	0xbe1f78dd	-0.1557345
247	0xbcf172dd	-0.029473716
248	0xbe58d9a9	-0.21176781
249	0xbdff912f	-0.124788634
250	0x3c6380c6	0.013885682
251	0xbdda841f	-0.10669731
252	0xbe5fbe71	-0.21849991
253	0xbe55e31f	-0.20887421
254	0x3b9c4294	0.004768679
255	0xbe2d2800	-0.1690979

decoder.0.bias f4 [64]
0	0xbd28a910	-0.041176856
1	0xbdfe408c	-0.12414655
2	0x3da41165	0.0801113
3	0x3db76157	0.08954113
4	0xbe0e0285	-0.13868149
5	0x3dac70b7	0.08419936
6	0xbda44f91	-0.080229886
7	0xbdf39c4e	-0.11895047
8	0xbdb563a5	-0.08856896
9	0x3e02bed6	0.1276811
10	0xbbce8c2a	-0.00630333
11	0x3bc810fc	0.0061055403
12	0xbd9862a8	-0.07440692
13	0xbe109481	-0.1411915
14	0xbd64eb40	-0.055888414
15	0xbc2bfcc7	-0.0104972785
16	0xbda65153	-0.0812098
17	0x3c1bd399	0.009510898
18	0xbc6e0cfa	-0.014529461
19	0xbc757913	-0.01498248
20	0xbc979d94	-0.018507756
21	0xbcdb067b	-0.026736489
22	0x3d92b940	0.0716424
23	0xbda7f0bd	-0.08200214
24	0x3d725162	0.059159644
25	0x3d962d7b	0.073328935
26	0xbe1f1350	-0.15534711
27	0xbd188d10	-0.037243903
28	0x3d901495	0.07035176
29	0x3dfcb25b	0.12338706
30	0x3cf6b2ee	0.030114617
31	0xbc4afc79	-0.012389296
32	0x3d33b711	0.043875758
33	0xbe0cca90	-0.13749146
34	0xbe23f353	-0.1601079
35	0xbd5e520c	-0.054277465
36	0xbd6da682	-0.058020122
37	0x3d3998c3	0.0453117
38	0x3c911402	0.017709736
39	0xbcdc97c7	-0.026927842
40	0x3dc51a66	0.09624176
41	0xbd981488	-0.07425791
42	0xbda94ef7	-0.082670145
43	0xbe1375db	-0.14400427
44	0x3e0e403f	0.13891695
45	0x3e150a75	0.1455477
46	0xbd492345	-0.0491059
47	0xbdd3af76	-0.10336201
48	0x3c9f44f9	0.019442068
49	0x3deacd1a	0.11464901
50	0xbb4ed669	-0.0031560904
51	0x3e0126e1	0.12612487
52	0x3e00ca95	0.12577279
53	0x3e630264	0.2216888
54	0xbe26d986	-0.16293916
55	0x3d86c831	0.06581152
56	0x3e3f668a	0.1869146
57	0x3d9d772d	0.076887466
58	0xbd97bc94	-0.07409015
59	0xbdfb1bda	-0.12261172
60	0x3c611c47	0.013739652
61	0xbe1b4f9a	-0.15167084
62	0x3e0814c5	0.13289173
63	0xbd4c7073	-0.049911927

decoder.2.weight f4 [64, 32, 7, 7]
0	0xba01680e	-0.0004936465
1	0x3a30613a	0.0006728355
2	0xbc3b8f38	-0.01144772
3	0xbbd1219b	-0.00638218
4	0xbc45214a	-0.0120318625
5	0x3c2d5839	0.010580116
6	0x3b717fa7	0.0036849768
7	0xbaa39f4e	-0.001248339
8	0xbb879660	-0.004137799
9	0x3d106765	0.035254855
10	0xbd6e6dd7	-0.05821022
11	0x3bb0b36a	0.0053924816
12	0xbc7179bd	-0.014738497
13	0xbcb1e55c	-0.021715812
14	0xbb01eaa5	-0.0019823697
15	0xbc91583b	-0.017742267
16	0x3d0cd2b7	0.03438064
17	0xbb5c9d28	-0.0033663008
18	0x3d2340d6	0.039856754
19	0xbd6ba9fc	-0.057535157
20	0xbd163a12	-0.036676474
21	0x3b23a50a	0.0024970197
22	0x3c48cc07	0.012255675
23	0x3c01654f	0.007897689
24	0xbd258719	-0.040412042
25	0xb994f363	-0.00028410097
26	0xbc92bc38	-0.017912015
27	0x3b0b752c	0.0021279557
28	0xba759531	-0.00093682396
29	0x3cb5e948	0.022205964
30	0xbc589827	-0.01321987
31	0xbd24c5d5	-0.04022773
32	0xbd190b42	-0.037364252
33	0xbac57220	-0.0015063919
34	0x3c647c22	0.013945611
35	0xb94dac82	-0.00019614588
36	0xbc9d9bbc	-0.019239299
37	0xbc6d3576	-0.014478078
38	0xbc8602d9	-0.01635878
39	0xbba4fff2	-0.005035394
40	0xbb918f94	-0.0044421647
41	0xbcdf5c06	-0.02726556
42	0xb9eade71	-0.0004479769
43	0xbc586cce	-0.013209535
44	0xbd052be0	-0.032512546
45	0xbd012a01	-0.0315342
46	0xbd51eb83	-0.051249992
47	0x3c02c8a8	0.0079824105
48	0xbca918b0	-0.020641655
49	0xb9db7a44	-0.0004186203
50	0xb9c7b2d5	-0.00038089478
51	0x3b1d4598	0.002399778
52	0xbb245eec	-0.0025080992
53	0x3c005121	0.007831843
54	0x3b601eab	0.0034197967
55	0x3b9e42b6	0.00482973
56	0xbabc00dc	-0.0014343518
57	0xbba4c341	-0.005028159
58	0x3cbd463f	0.023104785
59	0x3c92da53	0.01792637
60	0x3c239fb7	0.009986809
61	0xbc8e7c91	-0.017393382
62	0x3ba64bd6	0.0050749583
63	0x3bc66ffa	0.006055829
64	0xbcf38eca	-0.029731173
65	0x3cf3af8b	0.029746791
66	0x3bceec9d	0.0063148276
67	0x3d6b178a	0.057395495
68	0xbc56035a	-0.0130623225
69	0xbcc21127	-0.02368982
70	0xbaa6c8d3	-0.0012724645
71	0xbb406d3a	-0.002936198
72	0x3c4bb134	0.012432385
73	0xbda4d547	-0.08048492
74	0x3c59c14a	0.013290713
75	0xbcc08e3b	-0.02350532
76	0x3c851d5a	0.016249347
77	0xbc2080d0	-0.009796336
78	0xbc349948	-0.011022873
79	0x3d44863e	0.047979586
80	0x3cc8ff6d	0.024535859
81	0x3d34d741	0.044150595
82	0x3cc28605	0.023745546
83	0x3c8767f2	0.016529057
84	0xba7718c1	-0.0009425991
85	0xbbc73598	-0.006079387
86	0x3c8e3a14	0.017361678
87	0xbd0b4da0	-0.034009576
88	0xbd4062b5	-0.046969134
89	0xbcf461d1	-0.029831799
90	0xbc8debc6	-0.01732434
91	0xbb7cd15f	-0.0038576943
92	0x3b5579d0	0.0032573827
93	0xbc3720e5	-0.011177276
94	0xbc24d287	-0.010059959
95	0x3a7fb8d5	0.000975502
96	0x3c35e4e3	0.011101934
97	0xbbddd230	-0.006769441
98	0x00055f0f	4.93278e-40
99	0x800558cd	-4.91033e-40
100	0xb2c44560	-2.2848951e-08
101	0x3cd7fb4d	0.026364947
102	0x3c93bcda	0.018034387
103	0x3c70b0a3	0.014690551
104	0xb0f561ab	-1.7853855e-09
105	0x00055d5e	4.92671e-40
106	0xbc1961d9	-0.009361708
107	0x0a21a068	7.782037e-33
108	0x3c0b16b1	0.008489297
109	0x3b162b99	0.002291417
110	0xbc29d367	-0.010365344
111	0x3c8f283b	0.017475238
112	0x00055d83	4.92723e-40
113	0xb310651e	-3.361958e-08
114	0x3cbb17a0	0.022838414
115	0x3ce27a50	0.027646214
116	0xbd8dad5a	-0.0691783
117	0x3c38881a	0.011262918
118	0xb9b5be8e	-0.00034664985
119	0x00055fc1	4.93528e-40
120	0xbb51b66c	-0.00319996
121	0xb1fa6d65	-7.2883943e-09
122	0x3b2ce595	0.0026381959
123	0xbd379ad6	-0.044825397
124	0x3dcd599d	0.10026858
125	0x3d1d15d3	0.03835089
126	0x800560c6	-4.93893e-40
127	0x3ada4a99	0.0016654312
128	0xbcb46a8c	-0.022023462
129	0xbca31354	-0.019906677
130	0xbd677c66	-0.05651512
131	0x3c9b81a8	0.018982723
132	0xbc8ee3cb	-0.017442605
133	0x8006dd52	-6.30408e-40
134	0x3b28c38a	0.0025751316
135	0x3d8b25db	0.0679433
136	0x3d6998bf	0.057030436
137	0x3c3deb32	0.011591719
138	0x3cade8c0	0.021229148
139	0x3c2e7fe8	0.010650612
140	0xb24c4a54	-1.1891263e-08
141	0x396bdb17	0.00022492964
142	0xbc10065c	-0.008790579
143	0x3c4c452e	0.012467666
144	0xbc25e0fd	-0.010124442
145	0xba2f06b6	-0.000667672
146	0x3cd6a5b8	0.026202068
147	0xba31f536	-0.00067885534
148	0xba8796a7	-0.001034458
149	0x3b558b5f	0.0032584292
150	0xbccb016b	-0.02478095
151	0x3c86a45e	0.016435798
152	0x3cb3696e	0.021900859
153	0x3c26be74	0.0101772435
154	0x3aae1042	0.0013279992
155	0xbbfe4dcc	-0.007760739
156	0xbccc81e5	-0.024964282
157	0xbcd642a1	-0.026154818
158	0x3d361a4e	0.04445868
159	0xbcb98571	-0.022646638
160	0xbd2869c9	-0.04111651
161	0xbbd11fa1	-0.0063819443
162	0xbce83cb2	-0.028349254
163	0x3d143c43	0.036190283
164	0xbd15a55d	-0.036534656
165	0xbca9ae64	-0.020713039
166	0xbc2d9f6f	-0.010597094
167	0xba2a2fd5	-0.0006492113
168	0xbc18f33c	-0.009335335
169	0xbd8d156b	-0.06888851
170	0x3ccaf991	0.024777206
171	0x3d6fa32a	0.058505215
172	0xbcd640df	-0.02615398
173	0xbce409bf	-0.027836679
174	0xbd23645c	-0.039890632
175	0xbb6ab143	-0.0035811223
176	0xbd709f30	-0.058745563
177	0xbb49f155	-0.003081401
178	0xbc801646	-0.01563562
179	0xbb04039e	-0.0020143758
180	0x3b00f7b7	0.00196789
181	0xbcd7d9a0	-0.026348889
182	0xbc520b3c	-0.012820061
183	0xbd1d4615	-0.038396914
184	0xbc88b3d1	-0.016687306
185	0x3c97b9d6	0.01852123
186	0xbcbba142	-0.022904042
187	0xbd370563	-0.04468287
188	0xbcc78cc4	-0.024359114
189	0x3a1a8e95	0.000589588
190	0xbb81b8fb	-0.003958819
191	0x3c3a3c74	0.011366952
192	0xbc5067b1	-0.012720034
193	0xbd2cfec6	-0.04223516
194	0x391d3478	0.00014992233
195	0xbbf38d72	-0.007432633
196	0xb9871e4e	-0.00025771785
197	0xba2378b8	-0.0006235945
198	0x3a1f829a	0.000608483
199	0x3b62b727	0.003459403
200	0x37a0c16d	1.9163557e-05
201	0x3b858f55	0.0040759244
202	0x00058abe	5.08949e-40
203	0x3bb230e0	0.0054379553
204	0xbc1cb245	-0.009563987
205	0xbba04932	-0.004891538
206	0x3cc2fe17	0.0238028
207	0xbd08fbfd	-0.03344344
208	0xbd0f564a	-0.0349944
209	0xbc3dbee1	-0.011581154
210	0xbaeb4229	-0.0017948794
211	0xbbf82fb2	-0.007574045
212	0x3db2984d	0.08720455
213	0x3c68b30e	0.014202846
214	0xbdf4f73d	-0.119612195
215	0x3c56d3e8	0.013112046
216	0xbb912d93	-0.0044304817
217	0x3a16de18	0.00057551404
218	0xbcb22887	-0.02174784
219	0xbd324e43	-0.043531667
220	0x3ca33798	0.01992397
221	0xbbf466c6	-0.0074585406
222	0x3ca8e7a0	0.02061826
223	0x3c79f7da	0.015256846
224	0xba3cb99b	-0.0007199288
225	0x3cac62df	0.02104324
226	0x3ad6a25f	0.0016375295
227	0xbd804576	-0.062632486
228	0x3bfb5b2d	0.007670781
229	0xbd54c5dd	-0.05194651
230	0x3b95986a	0.0045652883
231	0x3bcceca0	0.006253794
232	0xbbd4aa50	-0.0064900294
233	0xbaec0d16	-0.0018009271
234	0x3d8d307d	0.06894014
235	0xbcc76577	-0.024340374
236	0xbd78347f	-0.06059694
237	0xb63acf40	-2.7836795e-06
238	0x8005686b	-4.96636e-40
239	0xbb40df46	-0.0029429956
240	0x3ca72c44	0.02040685
241	0xbd1068e4	-0.03525628
242	0xbc364d1f	-0.011126786
243	0xbca41e2a	-0.020033915
244	0x0b9a2987	5.9381126e-32
245	0x0053d535	7.69883e-39
246	0xb1365215	-2.6531144e-09
247	0xb2408c93	-1.1207834e-08
248	0x2af31979	4.3183146e-13
249	0xb0ed7108	-1.7276145e-09
250	0xbc4be042	-0.012443604
251	0x88639c15	-6.84938e-34
252	0x0a8e5cb8	1.370898e-32
253	0x800565d6	-4.9571e-40
254	0x269398bf	1.0241576e-15
255	0x3d2150e7	0.039383795

decoder.2.bias f4 [32]
0	0x3c619937	0.013769439
1	0x3e1b631f	0.1517453
2	0xbeac7c26	-0.33688468
3	0x3ea846e2	0.3286658
4	0xbd079f6b	-0.033111017
5	0xbf23ff9a	-0.6406189
6	0xbf162f7f	-0.58666223
7	0xbf0e9b94	-0.55706143
8	0xbea56db1	-0.3231025
9	0x3e0291b1	0.1275089
10	0x3e3d1839	0.18466271
11	0xbd276eb2	-0.04087705
12	0x3d2bb138	0.041917056
13	0x3ed15c70	0.40890837
14	0x3e8b541e	0.27212614
15	0x3e17dee0	0.14831114
16	0xbd606c8a	-0.05479101
17	0x3dbb0456	0.091316864
18	0x3e1268b0	0.14297748
19	0xbf210695	-0.6290067
20	0x3d309a6b	0.043116014
21	0x3e898921	0.26862434
22	0x3e76107f	0.2402973
23	0x3eb6c010	0.35693407
24	0x3e07246d	0.13197489
25	0x3e50268c	0.20327204
26	0x3e829f78	0.2551229
27	0xbc9fbdb1	-0.019499632
28	0x3d988d44	0.07448819
29	0x3e8b2df1	0.27183488
30	0x3ecd6e32	0.40123135
31	0xbd7651da	-0.060136653
