02_Representations/model_weights/denoiser_best.pth (torch, 852830 bytes, 15 tensors)

encoder.0.weight f4 [16, 1, 3, 3]
0.046113778 -0.0473298 -0.048812576 -0.024630345 0.23089905 0.21327037 0.09060635 0.09332979
0.17799328 -0.4843085 0.12200305 0.39819542 -0.54235363 0.42309272 0.54988474 -0.476657
0.25875112 0.10590004 0.147201 0.2446902 0.47943133 -0.06343082 -0.12249319 0.21896408
-0.0074454844 0.098979324 0.05967974 0.034128986 0.496428 0.44109142 0.4281623 0.70676154
0.50482476 0.4894505 0.6792012 0.3972399 0.25287944 -0.10945236 -0.2862532 0.5262761
0.016074067 -0.24984996 0.5239461 0.09272162 -0.08419477 0.16859579 0.16820459 0.11705229
0.24246892 -0.04594264 0.002221919 0.04369053 -0.29655597 -0.18176804 -0.13776961 -0.09970639
-0.013556478 0.048308995 -0.019829763 -0.11818473 -0.034906086 0.095043704 0.05772864 0.21054685
-0.105743594 -0.3006511 0.30483285 -0.07744676 -0.35437116 0.36001363 0.14235626 -0.29468232
-0.25790474 -0.34049374 -0.25900105 -0.09722652 -0.14880952 0.022830278 0.24108969 0.2001861
0.221217 -0.25132245 -0.0088030705 0.07020764 0.24194464 0.6875231 0.4284968 0.3026783
0.6011306 0.41988468 -0.031270728 -0.067614175 -0.11808825 -0.21442017 -0.06065787 -0.15395813
-0.23680373 -0.049597897 -0.22162634 0.08959109 0.4375557 0.37324348 -0.18257147 0.10978727
0.22819845 -0.61484563 -0.51189613 -0.3124438 0.67066246 0.5814443 0.41020194 0.7048597
0.5997781 0.20777905 0.14993758 0.11054734 -0.21445285 -0.33254874 -0.25331578 0.37197626
-0.53241235 -0.33803627 0.58175516 -0.15025698 0.039838057 0.56673723 -0.30658084 -0.14200166
-0.27213657 -0.26864877 0.03254228 -0.21715823 -0.30221856 -0.14448531 -0.35361853 0.39462566
0.4868472 -0.1965135 0.25079837 0.5026354 0.013016363 -0.014913012 0.21200003 -0.05506197
00000000: cde1 3c3d e4dc 41bd b2ef 47bd 94c5 c9bc
00000010: cd70 6c3e 8c63 5a3e d28f b93d b023 bf3d
00000020: df43 363e 49f7 f7be bcdc f93d 45e0 cb3e
00000030: b0d7 0abf 9c9f d83e 3fc5 0c3f 630c f4be
00000040: 077b 843e 1fe2 d83d dcbb 163e 1190 7a3e
00000050: 0678 f53e 05e8 81bd b6dd fabd 1f38 603e
00000060: 40f9 f3bb acb5 ca3d be72 743d d6ca 0b3d
00000070: d02b fe3e bcd6 e13e 1738 db3e 53ee 343f
00000080: 323c 013f 4299 fa3e 21e0 2d3f 0763 cb3e
00000090: 6a79 813e 8f28 e0bd c88f 92be 08ba 063f
000000a0: c3ad 833c abd8 7fbe 5521 063f d5e4 bd3d
000000b0: 4f6e acbd 60a4 2c3e d33d 2c3e 1cb9 ef3d
000000c0: c649 783e 5a2e 3cbd 9d9d 113b d7f4 323d
000000d0: 2fd6 97be 6721 3abe 7a13 0dbe dd32 ccbd
000000e0: fd1b 5ebc a7df 453d 0772 a2bc d60a f2bd
000000f0: aff9 0ebd 46a6 c23d de74 6c3d 9899 573e
00000100: 1990 d8bd f1ee 99be 0d13 9c3e 689c 9ebd
00000110: 2370 b5be b553 b83e d7c5 113e 9ae0 96be
00000120: 170c 84be 3255 aebe c99b 84be b31e c7bd
00000130: 8661 18be 9006 bb3c 37e0 763e 96fd 4c3e
00000140: b686 623e 56ad 80be c13a 10bc 06c9 8f3d
00000150: 56c0 773e 8401 303f ef63 db3e a6f8 9a3e
00000160: b2e3 193f 20fb d63e bc15 00bd 4d79 8abd
00000170: 41d8 f1bd f690 5bbe 6374 78bd 33a7 1dbe
00000180: ad7c 72be 2a27 4bbd 04f2 62be 897b b73d
00000190: 4d07 e03e c519 bf3e 04f4 3abe 26d8 e03d
000001a0: dbac 693e 8666 1dbf a00b 03bf a2f8 9fbe
000001b0: 89b0 2b3f 89d9 143f fd05 d23e af71 343f
000001c0: 0f8b 193f 08c4 543e 3d89 193e a566 e23d
000001d0: 8799 5bbe d443 aabe 9bb2 81be ac73 be3e
000001e0: 2d4c 08bf 1713 adbe e8ed 143f f7dc 19be
000001f0: 3b2d 233d b115 113f 2af8 9cbe e268 11be
00000200: 7c55 8bbe 558c 89be 0e4b 053d ba5e 5ebe
00000210: 64bc 9abe f5f3 13be 7d0d b5be 600c ca3e
00000220: 0944 f93e d63a 49be a568 803e b7ac 003f
00000230: 9542 553c b555 74bc 8916 593e a988 61bd

encoder.0.bias f4 [16]
0.23972806 -0.012171001 0.14495395 -0.24106513 0.008622479 0.2869387 0.28914192 0.10769189
0.36924705 -0.19755404 0.38995248 0.12625031 -0.22226186 -0.06895042 0.6513783 -0.13252941
00000000: 467b 753e e168 47bc cf6e 143e c7d9 76be
00000010: 4c45 0d3c a1e9 923e 690a 943e 918d dc3d
00000020: f30d bd3e 9b4b 4abe daa7 c73e c347 013e
00000030: 9d98 63be e135 8dbd bac0 263f cab5 07be

encoder.2.weight f4 [32, 16, 3, 3]
0.025466489 0.00088126026 -0.005015633 0.0163798 -0.04413878 -0.047595277 -0.055388924 -0.04131544
-0.044946555 0.22462228 -0.02920275 -0.03728486 0.041306823 -0.032705504 -0.06033759 -0.077850096
-0.0646902 -0.06906855 0.03657961 -0.025716245 -0.101439156 -0.014360757 -0.0016373628 -0.024011377
-0.04087024 -0.03142668 -0.03872094 0.16253254 -0.03504061 -0.18553838 0.105597675 -0.1271227
-0.16647924 -0.2589264 -0.20150557 -0.19417419 0.06466018 0.0115112495 0.022829786 0.1558358
-0.039378766 -0.0035218971 -0.013078288 -0.07118043 -0.029192127 0.065355405 -0.019293886 -0.067100294
0.12769993 0.0011116718 -0.0036880586 0.07146655 -0.009581734 0.0014689278 0.030952282 -0.024755098
0.026682653 -0.01193194 -0.015022852 -0.010017553 0.005310662 -0.0048946706 -0.017800156 0.064291984
0.027043268 0.024887923 0.088250704 -0.022470435 0.007878501 -0.002578536 -0.05981013 -0.0038387915
-0.041084394 -0.09129134 0.014737458 -0.070017956 -0.019497624 -0.023035575 -0.0114109125 -0.013898805
-0.03484285 0.092368856 -0.009298694 -0.051758766 0.038926214 -0.14272445 -0.123757266 -0.2104887
-0.13727425 -0.13279504 -0.06565884 0.05984746 0.022501878 -0.03051019 0.009110958 0.0076414016
0.064068146 0.027803054 0.017708162 -0.18046167 -0.19564146 -0.11535018 -0.14701381 -0.04636854
-0.03426265 -0.018577933 -0.015118579 -0.017907528 0.1108368 -0.022135584 -0.21193855 0.19616577
-0.058117125 -0.097906716 -0.06839237 -0.13860309 -0.12024571 0.18948653 -0.013486576 -0.030161686
0.0054198545 0.009318941 -0.054386083 -0.02826867 -0.037710942 -0.0774113 -0.0964365 0.060837127
0.06203025 -0.0891707 0.00956561 0.020666933 0.04692388 0.0520734 0.02802822 0.048633315
0.022395592 -0.058165725 0.082794964 -0.023046931 -0.022256538 -0.09280574 -0.07565217 -0.058708407
-0.041222453 0.0075423573 0.04428725 -0.031056352 -0.0041910578 0.049431317 -0.0065505505 -0.061335675
0.010620971 0.036610313 0.058734786 0.064328484 -0.0033608093 0.031345814 0.09170838 -0.013230659
-0.08592854 0.017632393 0.034201898 0.109087884 0.06354177 -0.011575198 0.039270807 0.060652975
-0.022421269 -0.0073260795 0.036192376 -0.13847847 0.033645216 0.15241297 -0.15971474 -0.087594084
0.11561105 -0.10584495 -0.23529851 -0.07691687 -0.11279269 0.0032191607 0.13027124 -0.055449244
-0.035303645 0.0715954 -0.008354735 -0.020550268 -0.041878626 -0.0075263698 0.018045412 0.033614546
-0.012437901 0.0052016666 0.021218637 -0.0061980686 0.04640454 -0.003906661 0.010406411 -0.019356715
-0.033006076 0.011942214 0.0003076195 -0.015088309 0.0028212618 -0.004127953 -0.020957679 -0.014000059
0.010698228 0.16317065 -0.023912245 -0.0040959893 0.035007175 -0.015036497 -0.014755456 -0.037477277
-0.022940485 -0.13275507 -0.085034646 -0.0023489615 -0.030128952 -0.07278291 -0.00089776516 -0.032324687
-0.06509419 -0.15127495 -0.015545413 0.046479847 -0.13936804 -0.10656303 0.046137817 -0.06050278
-0.20787841 -0.08739418 0.027824577 0.029254816 -0.076253176 0.009851294 0.0017769843 -0.062592156
0.00377796 0.028745387 -0.025337772 -0.0075377664 -0.025885748 0.045267947 -0.0015348885 0.024918832
0.08771373 -0.018679168 0.049278267 0.11180629 -0.1119047 0.015221331 0.13730699 -0.17142162
00000000: 199f d03c 6004 673a 2e5a a4bb ee2e 863c
00000010: deca 34bd 44f3 42bd 7fdf 62bd 613a 29bd
00000020: e119 38bd 6203 663e 9b3a efbc 02b8 18bd
00000030: 5831 293d 35f6 05bd 8c24 77bd df6f 9fbd
00000040: 4c7c 84bd d073 8dbd 80d4 153d e0aa d2bc
00000050: 55bf cfbd 6149 6bbc c79c d6ba 82b3 c4bc
00000060: 8e67 27bd 43b9 00bd d999 1ebd ee6e 263e
00000070: be86 0fbd c6fd 3dbe 9843 d83d 742c 02be
00000080: 8979 2abe 0092 84be 7a57 4ebe 99d5 46be
00000090: 8e6c 843d ae99 3c3c 8805 bb3c 6c93 1f3e
000000a0: a14b 21bd a1cf 66bb 5146 56bc 0cc7 91bd
000000b0: 5424 efbc 0ed9 853d 360e 9ebc e16b 89bd
000000c0: c5c3 023e 84b5 913a 5bb3 71bb 0e5d 923d
000000d0: b5fc 1cbc 0a89 c03a a48f fd3c 34cb cabc
000000e0: 9495 da3c 2f7e 43bc 6922 76bc aa20 24bc
000000f0: 1005 ae3b 7963 a0bb a2d1 91bc 84ab 833d
00000100: d889 dd3c c2e1 cb3c c9bc b43d eb13 b8bc
00000110: d414 013c a8fc 28bb 78fb 74bd 3c94 7bbb
00000120: 1c48 28bd f4f6 babd 6175 713c 9365 8fbd
00000130: 7bb9 9fbc 1ab5 bcbc d6f4 3abc d0b7 63bc
00000140: 60b7 0ebd e22b bd3d 8d59 18bc 0001 54bd
00000150: 1871 1f3d 5c26 12be 7374 fdbd 5a8a 57be
00000160: 9f91 0cbe 6cfb 07be 2478 86bd 9c22 753d
00000170: dc55 b83c 82f0 f9bc 2146 153c b964 fa3b
00000180: 2936 833d 3bc3 e33c b510 913c f2ca 38be
00000190: 3c56 48be b73c ecbd ca8a 16be f0ec 3dbd
000001a0: fe56 0cbd c030 98bc ebb3 77bc cfb2 92bc
000001b0: 67fe e23d af55 b5bc 6b06 59be aedf 483e
000001c0: 390c 6ebd 5183 c8bd 4d11 8cbd f8ed 0dbe
000001d0: 6243 f6bd c208 423e cdf6 5cbc a415 f7bc
000001e0: 0999 b13b 79ae 183c f1c3 5ebd b393 e7bc
000001f0: ca76 1abd d189 9ebd 8080 c5bd 5a30 793d
00000200: 6e13 7e3d 219f b6bd 14b9 1c3c b34d a93c
00000210: 4133 403d eb4a 553d 709b e53c ba33 473d
00000220: f676 b73c 2f3f 6ebd 6890 a93d ebcc bcbc
00000230: 5853 b6bc f010 bebd 86ef 9abd 3a78 70bd
00000240: e0d8 28bd e125 f73b 8c66 353d e469 febc
00000250: 2455 89bb 7e78 4a3d 00a6 d6bb 1e3b 7bbd
00000260: 9503 2e3c b2f4 153d e393 703d a7be 833d
00000270: 0641 5cbb 7864 003d 9ad1 bb3d 68c5 58bc
00000280: 4dfb afbd cf71 903c 4a17 0c3d 7869 df3d
00000290: 3022 823d e6a5 3dbc 6dda 203d 416f 783d
000002a0: cfac b7bc 9c0f f0bb 753e 143d 4dcd 0dbe
000002b0: 91cf 093d 2512 1c3e 438c 23be 8764 b3bd
000002c0: 7cc5 ec3d 3dc5 d8bd 18f2 70be 9886 9dbd
000002d0: dbff e6bd 8ef8 523b d365 053e bf1e 63bd
000002e0: 8e9a 10bd 9ca0 923d 4ce2 08bc 0959 a8bc
000002f0: ec88 2bbd c49f f6bb f9d3 933c 68af 093d
00000300: 57c8 4bbc be72 aa3b b5d2 ad3c 2b19 cbbb
00000310: b012 3e3d 7303 80bb a77f 2a3c f991 9ebc
00000320: 6131 07bd 47a9 433c fe47 a139 f434 77bc
00000330: ebe4 383b c843 87bb 70af abbc 8160 65bc
00000340: 9f47 2f3c 3516 273e 9de3 c3bc a637 86bb
00000350: af63 0f3d a45b 76bc dec0 71bc c681 19bd
00000360: afed bbbc f2f0 07be a526 aebd 09f1 19bb
00000370: fed0 f6bc 350f 95bd 0058 6bba e466 04bd
00000380: 1a50 85bd d2e7 1abe 30b2 7ebc a761 3e3d
00000390: 7fb6 0ebe b83d dabd 02fb 3c3d c3d1 77bd
000003a0: 14de 54be b8fb b2bd 5ef0 e33c cca7 ef3c
000003b0: a02a 9cbd 5267 213c b3e9 e83a 5130 80bd
000003c0: a797 773b 727b eb3c 2991 cfbc 5eff f6bb
000003d0: 590e d4bc e26a 393d 502e c9ba 9422 cc3c
000003e0: 42a3 b33d 0e05 99bc 02d8 493d b2fa e43d
000003f0: 4b2e e5bd e462 793c 349a 0c3e 2689 2fbe

encoder.2.bias f4 [32]
-0.02655226 0.013757083 -0.058069345 0.015718676 -0.05129325 -0.013958329 0.013248291 0.011910962
0.007917794 0.019190157 -0.013033736 -0.022708105 -0.008825703 -0.07741944 -0.0016775562 0.020984892
-0.017640512 -0.01564116 0.021494197 -0.011204892 0.0356472 -0.024183959 -0.0053070877 0.016356528
0.006639329 -0.04047421 0.033848193 -0.07684927 -0.02562168 0.16745159 -7.644138e-09 0.029345853
00000000: 2084 d9bc 6365 613c 1fda 6dbd 74c4 803c
00000010: df18 52bd 7ab1 64bc 5c0f 593c 3226 433c
00000020: a3b9 013c ad34 9d3c 738b 55bc 5906 babc
00000030: ae99 10bc 158e 9ebd 72e1 dbba 82e8 ab3c
00000040: d682 90bc e421 80bc 9914 b03c b994 37bc
00000050: cc02 123d 701d c6bc 14e7 adbb 20fe 853c
00000060: ba8e d93b 49c8 25bd 67a4 0a3d 2663 9dbd
00000070: 8fe4 d1bc 6e78 2b3e 4653 03b2 b766 f03c

encoder.4.weight f4 [64, 32, 7, 7]
2.0032752e-05 0.0015662676 -0.0034676215 -0.00089767226 -0.0045345337 -0.004653724 0.0059392843 -0.0008677399
-0.007351224 -0.0008093855 -0.0027613847 -0.033124324 -0.035682585 -0.020802734 -0.0065126433 0.0029104387
0.00513336 -0.028611295 0.0010838385 -0.0065942095 0.015363501 -0.007193863 0.003835364 0.0024939855
-0.014116283 -0.03260197 0.05397615 0.03910338 -0.0007410734 0.0027749857 0.013670811 -0.029359113
0.101855665 0.012026834 0.009112459 -0.0016000471 0.00077482197 0.006482416 0.05793979 0.03550287
-0.011212227 0.0035310437 -0.0021284237 -0.0038542494 0.0026716173 0.103307195 0.010136276 0.00212155
-0.030532582 0.0035153779 0.0015273504 -0.0019505144 -0.0003016406 -0.0010784179 -0.00073348096 -0.0011343604
-0.0001790041 -0.011545777 -0.0022385926 0.0111540165 0.0049770344 0.00053492555 0.0013885205 0.004300751
0.0017373825 0.0072178445 -0.0043649804 0.03049534 0.013622424 -8.9859655e-05 0.007096771 0.039062157
0.038122125 0.03934677 -0.021848172 -0.017831558 0.0013081278 0.0006097914 0.03331691 0.0065374305
0.032079484 -0.066942796 -0.043852456 0.0022554337 0.0046123136 -0.009640247 -0.044701066 -0.06540542
-0.09818835 -0.012026593 0.0020694481 -0.00025854824 0.0035359245 -0.05625504 -0.04421556 -0.050142482
-0.020643238 0.0128633715 -5.31035e-40 -5.59824e-40 -0.0008687398 0.006669361 -0.0024952139 0.003701671
-0.0042034225 4.132985e-06 0.002467627 0.008381507 5.269136e-05 0.01593054 0.0052069025 0.0090425415
0.0051530763 0.004302919 0.0026877592 0.018468827 0.043322004 0.050066765 0.0048194746 -0.0068999543
0.012955625 0.006301738 0.0067112995 -0.0021443195 0.013174973 0.026810989 0.0018901305 0.00575368
0.04233588 0.0071351943 0.021764742 0.043083075 0.034182735 0.0051718345 0.03047806 -0.00729459
-0.004763106 0.01422591 -0.0040514558 0.025492942 0.00074685283 0.005279206 0.012558782 0.0036929443
-0.020358095 0.0033686853 0.00014332766 5.12065e-40 -4.9525e-40 0.00043150323 0.0031630876 -0.0023179527
0.00700671 -0.00072190445 -0.006450647 0.007426286 0.0046694963 0.019830097 -0.0059443517 -0.007857637
-0.013837946 -0.0021310956 0.018672537 0.041120723 0.0070906375 -0.0148176905 0.0015639989 0.028809413
-0.0014931117 0.019760754 -0.007030181 0.01658252 -0.009526008 -0.039068542 -0.031786613 0.0018310465
0.011483663 -0.007921913 0.017940532 -0.016334683 -0.026603065 0.00639113 0.0034850664 0.020741055
-0.01358021 -0.028778313 -0.053890977 0.009362281 -0.0050578234 0.004083808 -0.00068116206 -0.025462432
-0.007873909 0.016203102 0.017105734 -0.035240613 5.34559e-40 -5.11963e-40 -5.1324e-40 4.90935e-40
5.17956e-40 -5.087e-40 5.17449e-40 4.94329e-40 2.8856534e-10 0.001959751 -0.0038937188 -0.010193881
-0.011901219 -0.00044103953 -4.98847e-40 -0.00031938407 -0.01836987 -0.02853942 -0.009080287 0.005882389
-0.009248728 -2.4694036e-18 -0.006365694 0.0033071875 0.0168659 0.026625613 0.04654968 0.009935843
-4.91566e-40 0.0033075311 -0.0009920289 0.06418493 0.06606607 -0.012158532 -0.01071224 5.17968e-40
-0.019308656 0.052382752 0.021720411 0.018625312 0.029219683 -0.012458613 4.95307e-40 -0.005681979
-0.031163152 0.00602206 0.012741257 -0.016945168 0.0006743453 -5.0374e-40 -6.3177647e-27 -0.005558262
0.009169924 -0.008573456 0.0019012528 -0.004802544 0.00012555683 -5.1345734e-05 -0.014473769 -0.026100207
00000000: 020c a837 384b cd3a 0941 63bb c451 6bba
00000010: 6d96 94bb 447e 98bb 549e c23b 0a79 63ba
00000020: 89e2 f0bb f12c 54ba 59f8 34bb 5fad 07bd
00000030: e727 12bd 7f6a aabc 0368 d5bb 0fbd 3e3b
00000040: bf35 a83b 3c62 eabc 960f 8e3a 3d14 d8bb
00000050: 32b7 7b3c 7fba ebbb bb5a 7b3b 2272 233b
00000060: fb47 67bc a589 05bd 1816 5d3d de2a 203d
00000070: 9844 42ba 89dc 353b 8afb 5f3c 8682 f0bc
00000080: b499 d03d 330c 453c 6c4c 153c acb8 d1ba
00000090: 6c1d 4b3a 726a d43b 4652 6d3d 756b 113d
000000a0: 7db3 37bc 1569 673b 067d 0bbb 9397 7cbb
000000b0: 4d16 2f3b b992 d33d 9f12 263c b409 0b3b
000000c0: 771f fabc 4162 663b 6031 c83a 67a8 ffba
000000d0: 8425 9eb9 b359 8dba 1347 40ba d2ae 94ba
000000e0: 0cb3 3bb9 802a 3dbc 5ab5 12bb 56bf 363c
000000f0: 6416 a33b 3f3a 0c3a 04ff b53a 50ed 8c3b
00000100: e2b8 e33a ab83 ec3b 1c08 8fbb 5dd1 f93c
00000110: 9630 5f3c 0973 bcb8 088c e83b a4ff 1f3d
00000120: f225 1c3d 142a 213d f0fa b2bc 7d13 92bc
00000130: 7c75 ab3a 68da 1f3a 5077 083d f137 d63b
00000140: c765 033d 4e19 89bd a29e 33bd e6cf 133b
00000150: e422 973b 20f2 1dbc 7718 37bd 47f3 85bd
00000160: f916 c9bd 300b 45bc 949f 073b c28d 87b9
00000170: f8ba 673b af6b 66bd 601b 35bd 3462 4dbd
00000180: 021c a9bc e4c0 523c 4fc8 0580 9018 0680
00000190: 24bc 63ba a88a da3b be86 23bb bc97 723b
000001a0: ddbc 89bb 12ae 8a36 e9b7 213b 9752 093c
000001b0: eb00 5d38 c480 823c aa9e aa3b 2b27 143c
000001c0: 23db a83b 80ff 8c3b 1e25 303b f04b 973c
000001d0: 6a72 313d cf12 4d3d afec 9d3b 0319 e2bb
000001e0: d443 543c cf7e ce3b 76ea db3b b687 0cbb
000001f0: d8db 573c b8a2 db3c 41be f73a 5e89 bc3b
00000200: 6368 2d3d 59ce e93b f94b b23c e177 303d
00000210: 3203 0c3d 7e78 a93b 20ad f93c 7507 efbb
00000220: d413 9cbb cb13 693c 13c2 84bb 93d6 d03c
00000230: 72c8 433a 31fd ac3b 59c3 4d3c 5305 723b
00000240: 05c6 a6bc 29c5 5c3b 3a4a 1639 6e93 0500
00000250: 8e64 0580 623b e239 ce4b 4f3b cbe8 17bb
00000260: 8b98 e53b 303e 3dba f35f d3bb 3458 f33b
00000270: 9302 993b ba72 a23c d6c8 c2bb 51bd 00bc
00000280: 8db8 62bc daa9 0bbb 26f7 983c 346e 283d
00000290: 9458 e83b e6c5 72bc 18ff cc3a b801 ec3c
000002a0: 84b4 c3ba 4ee1 a13c 6f5d e6bb 11d8 873c
000002b0: f912 1cbc 5606 20bd ae32 02bd baff ef3a
000002c0: f925 3c3c e9ca 01bc 06f8 923c 50d0 85bc
000002d0: acee d9bc af6c d13b b665 643b 25e9 a93c
000002e0: 877f 5ebc 7fc0 ebbc c9bc 5cbd 4164 193c
000002f0: 19bc a5bb 77d1 853b 0390 32ba 9796 d0bc
00000300: 9101 01bc 5ebc 843c 5321 8c3c 7658 10bd
00000310: 22d2 0500 2593 0580 b496 0580 8758 0500
00000320: daa3 0500 0c8a 0580 70a2 0500 fd61 0500
00000330: f6a3 9e2f 2a6f 003b c32d 7fbb 3c04 27bc
00000340: 55fd 42bc 533b e7b9 956e 0580 0173 a7b9
00000350: 697c 96bc 80cb e9bc 7cc5 14bc 0ec1 c03b
00000360: fa87 17bc b735 36a2 5097 d0bb 66bd 583b
00000370: 5b2a 8a3c f51d da3c e1aa 3e3d f2c9 223c
00000380: 495a 0580 2ac3 583b f706 82ba 6373 833d
00000390: a64d 873d 9434 47bc 6482 2fbc e2a3 0500
000003a0: 302d 9ebc 4c8f 563d 01ef b13c 1c94 983c
000003b0: 1e5e ef3c 361f 4cbc b764 0500 e52f babb
000003c0: de49 ffbc b354 c53b b5c0 503c 98d0 8abc
000003d0: 8cc6 303a 397c 0580 bf45 fa93 1522 b6bb
000003e0: 733d 163c ae77 0cbc 7533 f93a a95e 9dbb
000003f0: e8a7 0339 105c 57b8 6323 6dbc 1ad0 d5bc

encoder.4.bias f4 [64]
-0.00615632 0.014162466 0.0046483413 0.026067147 0.009674708 0.018500559 -0.0007027642 0.02212514
-0.0030706795 0.01139146 0.0075381636 -0.0013148658 0.010271311 0.003231862 0.012863009 -0.012376786
0.014246663 0.012102412 -0.008538485 -0.012384811 0.007403231 0.0052797333 0.0053069936 -0.011755533
0.016298106 0.01803687 0.004155182 -0.015432959 -0.037053768 0.030821752 0.016843144 -0.0020900485
-0.022419307 0.019971907 0.00059183803 0.008246721 0.0017524272 -0.003915812 0.024894275 -0.035863847
-0.022932705 -0.006392998 0.038012255 0.02178431 -0.010854335 0.019479327 0.012798879 -0.014832394
0.008554173 -0.020379562 0.024355542 -0.019594248 -0.007741871 -0.028641112 -0.016610054 -0.009629418
0.008489267 -0.034387752 0.0243381 -0.0056991265 0.019514954 0.009078914 0.01569714 -0.0010528074
00000000: f5ba c9bb b009 683c 1d51 983b c58a d53c
00000010: ab82 1e3c 7c8e 973c b539 38ba c83f b53c
00000020: 743d 49bb 3fa3 3a3c b302 f73b 9357 acba
00000030: 0049 283c a6cd 533b 5fbf 523c 01c8 4abc
00000040: d66a 693c 3249 463c 00e5 0bbc aae9 4abc
00000050: ce96 f23b 9d01 ad3b 4ae6 ad3b 479a 40bc
00000060: 9b83 853c 0fc2 933c 3128 883b 86da 7cbc
00000070: b1c5 17bd e67d fc3c a2fa 893c 32f9 08bb
00000080: b2a8 b7bc 209c a33c 9425 1b3a 411d 073c
00000090: b3b1 e53a 3650 80bb 14ef cb3c f8e5 12bd
000000a0: 5edd bbbc 5b7c d1bb bdb2 1b3d 0275 b23c
000000b0: 61d6 31bc 1c93 9f3c 64b2 513c 9203 73bc
000000c0: cd26 0c3c 0af3 a6bc 4685 c73c 1e84 a0bc
000000d0: 85af fdbb c4a0 eabc cf11 88bc b5c4 1dbc
000000e0: 9116 0b3c 2cda 0cbd b260 c73c bdbf babb
000000f0: d3dd 9f3c babf 143c 4a97 803c 5bfe 89ba

encoder.6.weight f4 [10, 64]
-0.27538761 -0.24274883 -0.03295907 0.07979517 0.20644318 -0.046667866 0.032288007 -0.05373819
0.008890967 0.3264468 0.16466537 -9.147884e-05 0.01458481 -0.01176712 -0.032395843 -0.16701451
-0.12455931 0.009365234 -0.046101313 -0.08857656 -0.22139609 0.18795717 -0.32342055 -0.10780364
0.032409403 0.07578096 -0.1993723 0.09856025 -0.04644197 0.12237323 0.028936967 -0.1651599
-0.31351885 -0.2636238 -5.9249665e-05 0.1473571 0.0007945237 -0.011152421 0.15210468 -0.0030351456
-0.12546547 0.03708826 0.26135778 0.054870117 -0.22834699 0.19917244 -0.03039281 -0.046825804
0.19474746 -0.0292807 0.05688155 -0.14122131 -0.17440017 -0.256049 0.36928418 0.24177006
-0.15727615 -0.06109343 0.22283505 0.098092556 -0.09583308 0.13968876 0.13503017 0.08134805
-0.1516368 0.18118997 -0.16175827 0.120508835 -0.08258608 0.32474688 -0.064943396 0.09391591
0.008152038 -0.30852443 0.09052265 -0.00010279814 -0.12016979 0.10924485 -0.06879479 -0.0014067293
0.09860586 0.11462061 0.19234094 -0.16674717 0.13319279 -0.13011466 0.13896804 -0.0992556
0.33249483 0.1168234 0.0770676 -0.06428754 -0.2960156 0.17938456 0.08979129 0.11629302
-0.234253 0.18935493 -0.0012432613 0.10626988 -0.0009460018 -0.014818346 0.09368294 -0.18128526
-0.15427415 0.02927145 0.12893072 0.14596322 0.10238313 0.001497421 0.26877066 -0.22766209
-0.06238977 -0.024366312 -0.03570802 0.051118147 0.07217187 -0.14593095 -0.31138694 0.06834906
-0.13986136 -0.21717557 -0.10563503 0.07630929 0.13565317 0.047790956 0.13772883 -0.028955579
0.024473557 0.047819342 0.21257693 -0.063785635 -0.10650065 0.20592664 0.11918686 0.127355
-0.03582737 -0.027153127 -0.15301858 0.0011655629 -0.07142958 0.023285842 0.22019586 0.08896548
0.14153324 -0.018230435 -0.20534372 -0.22022134 0.26014608 -0.32452604 -0.26429474 0.21176156
0.22382244 0.10120204 -0.22911292 -0.13692805 -0.072530076 0.042603917 -0.046770014 -0.10581635
0.008831654 0.10820032 0.0023294054 -0.1297696 -0.00015143312 -0.17729577 -0.0339908 -0.05196052
-0.10536633 -0.043233715 -0.14527823 -0.22641143 0.068488896 0.020494787 -0.24272536 -0.087964624
-0.14891818 -0.11399581 -0.09686162 -0.13645734 -0.16806063 0.19595307 0.35522598 -0.43979597
-0.21894503 0.26597276 0.11339447 -0.18946931 0.091631226 0.10050388 0.11377953 0.055302873
-0.08275287 0.2561896 0.12070044 0.072153725 0.090060666 0.021700727 -0.07431545 -0.022038259
0.02314579 -0.28955653 0.2165918 0.0007127002 -0.11929804 0.020143114 0.027704585 0.1163747
0.06674146 0.072548516 -0.1356124 0.00485419 0.07711649 -0.3194827 -0.14552262 -0.20003374
-0.2891785 0.09557678 0.09114737 0.11314973 -0.4506998 0.21064465 -0.008289559 -0.08028455
-0.15636474 -0.13324663 -7.2554656e-05 -0.15331855 -3.7974933e-05 0.23035629 0.007286882 -0.10200699
0.15746365 -0.12876776 0.08956231 0.03177823 0.026257416 -0.03487872 0.06588069 -0.046080466
0.14289932 -0.0764261 -0.08168435 -0.16244382 -0.024395816 0.08529633 -0.04975652 0.26888952
-0.22542827 0.24844411 0.062207926 -0.045937296 -0.16927586 -0.0067942054 0.15675561 -0.14766292
00000000: 9bff 8cbe 2693 78be 1700 07bd a66b a33d
00000010: d765 533e ce26 3fbd 6e40 043d 941c 5cbd
00000020: 6bab 113c 0924 a73e 0a9e 283e 54d8 bfb8
00000030: 20f5 6e3c e1ca 40bc 81b1 04bd da05 2bbe
00000040: f418 ffbd a370 193c bbd4 3cbd a167 b5bd
00000050: a8b5 62be d877 403e 6197 a5be 28c8 dcbd
00000060: b9bf 043d 0c33 9b3d 4128 4cbe f5d9 c93d
00000070: ef39 3ebd d19e fa3d 380d ed3c ad1f 29be
00000080: 8b85 a0be b3f9 86be d882 78b8 c8e4 163e
00000090: 9547 503a a5b8 36bc 54c1 1b3e 4be9 46bb
000000a0: 057a 00be dce9 173d b0d0 853e 7dbf 603d
000000b0: cbd3 69be dcf3 4b3e 58fa f8bc 6acc 3fbd
000000c0: e16b 473e 14de efbc a1fc 683d 529c 10be
000000d0: f595 32be db18 83be d112 bd3e 9292 773e
000000e0: 000d 21be 1b3d 7abd df2e 643e c0e4 c83d
000000f0: 2244 c4bd 920a 0f3e 5945 0a3e ce99 a63d
00000100: ad46 1bbe dd89 393e f6a3 25be 56cd f63d
00000110: e422 a9bd 3945 a63e 0b01 85bd fc56 c03d
00000120: 2090 053c eaf6 9dbe f063 b93d 5595 d7b8
00000130: 941b f6bd c4bb df3d 48e4 8cbd 0162 b8ba
00000140: def1 c93d 36be ea3d 06f5 443e c5bf 2abe
00000150: b163 083e c73c 05be a34d 0e3e 8546 cbbd
00000160: c33c aa3e 1b41 ef3d 9ed5 9d3d 30a9 83bd
00000170: 5b8f 97be 96b0 373e 7fe4 b73d 092b ee3d
00000180: 05e0 6fbe 42e6 413e edf4 a2ba 06a4 d93d
00000190: 1bfd 77ba a6c8 72bc d7dc bf3d d8a2 39be
000001a0: 0bfa 1dbe aeca ef3c 6a06 043e 6277 153e
000001b0: 3fae d13d 1c45 c43a 4f9c 893e 4020 69be
000001c0: 6a8c 7fbd dc9b c7bc 9342 12bd 4361 513d
000001d0: d8ce 933d ec6e 15be 1c6e 9fbe 98fa 8b3d
000001e0: d137 0fbe 4663 5ebe 2e57 d8bd 0c48 9c3d
000001f0: aae8 0a3e 73c0 433d c908 0d3e 4034 edbc
00000200: c57c c83c 37de 433d c4ad 593e 0ba2 82bd
00000210: 031d dabd 6fde 523e 3e18 f43d 5969 023e
00000220: b8bf 12bd 3c70 debc e7b0 1cbe cdc5 983a
00000230: ac49 92bd f3c1 be3c 067b 613e 8933 b63d
00000240: 17ee 103e fe57 95bc a045 52be b481 61be
00000250: de31 853e 4728 a6be a451 87be 06d8 583e
00000260: b631 653e 0443 cf3d 949c 6abe de36 0cbe
00000270: a68a 94bd 7281 2e3d ea91 3fbd 3eb6 d8bd
00000280: a4b2 103c 2198 dd3d f0a8 183b 52e2 04be
00000290: 05ca 1eb9 068d 35be f039 0bbd 8ed4 54bd
000002a0: 4dca d7bd d615 31bd d1c3 14be 66d8 67be
000002b0: e843 8c3d afe4 a73c ff8c 78be cc26 b4bd
000002c0: 027e 18be a376 e9bd 635f c6bd 79bb 0bbe
000002d0: 1618 2cbe eca7 483e 2ee0 b53e f02c e1be
000002e0: 2033 60be 952d 883e 5c3b e83d 3e04 42be
000002f0: 27a9 bb3d fad4 cd3d 3e05 e93d 4485 623d
00000300: 567a a9bd 492b 833e cb31 f73d 55c5 933d
00000310: ba71 b83d b9c5 b13c b332 98bd 9489 b4bc
00000320: 3d9c bd3c c140 94be 3eca 5d3e 80d4 3a3a
00000330: 8852 f4bd 2c03 a53c baf4 e23c dc55 ee3d
00000340: bfaf 883d 5194 943d fadd 0abe e60f 9f3b
00000350: 40ef 9d3d 3d93 a3be e203 15be a5d5 4cbe
00000360: 340f 94be c2bd c33d 79ab ba3d 0cbb e73d
00000370: 20c2 e6be 3bb3 573e eed0 07bc 3a6c a4bd
00000380: 141e 20be ce71 08be 7c28 98b8 8aff 1cbe
00000390: 4647 1fb8 85e2 6b3e ccc6 ee3b 0ae9 d0bd
000003a0: 273e 213e b2db 03be 726c b73d e429 023d
000003b0: cb19 d73c fddc 0ebd 75ec 863d dfbe 3cbd
000003c0: 3354 123e 4a85 9cbd 204a a7bd ac57 26be
000003d0: bcd9 c7bc d8af ae3d 7ecd 4bbd e3ab 893e
000003e0: abd6 66be 2268 7e3e bdcd 7e3d bf28 3cbd
000003f0: a756 2dbe eda1 debb 8b84 203e f334 17be

encoder.6.bias f4 [10]
0.0067221127 0.08370707 0.0050556776 0.012970055 -0.03430669 -0.074190915 -0.008864098 0.008308651
0.048987202 -0.03888167
00000000: 2b45 dc3b 9d6e ab3d 19aa a53b 5b80 543c
00000010: 2c85 0cbd 68f1 97bd b93a 11bc 0221 083c
00000020: cea6 483d 6342 1fbd

decoder.0.weight f4 [64, 10]
0.39745364 -0.27103108 -0.25702912 -0.31803533 -0.3024455 -0.34649107 -0.20977832 -0.21224777
-0.42989126 -0.12526667 -0.28263128 0.341274 0.18259345 0.21501048 -0.26810727 0.06857089
-0.2603 0.18730228 -0.06441225 0.35604313 0.27121788 0.022875866 -0.0888586 -0.29123437
-0.24612989 0.1425466 -0.06872707 -0.27540806 0.04301029 0.088046186 -0.3331442 0.21966814
0.03716708 0.11616524 0.20686372 -0.1628576 0.18740165 -0.17064725 -0.1102912 -0.065506965
0.24894233 -0.06979244 0.14255127 0.113657296 0.1451051 0.14207396 -0.19676892 -0.19193184
-0.029491324 -0.12604502 0.11049313 -0.013019612 -0.2781838 0.0034469105 0.20865747 0.1452606
-0.18540174 -0.0005768878 0.29941714 0.11420816 0.03769482 0.011126527 -0.008060313 -0.12482318
0.14322305 0.10324459 0.030527763 -0.13074423 -0.009468923 -0.13782462 0.095959656 -0.3067851
0.24259953 0.3145239 -0.06396642 -0.3683769 -0.29753792 -0.049871422 0.16218762 0.07568044
-0.19095638 0.07279054 -0.18493405 -0.0008279265 -0.21911809 -0.19019449 0.124162704 -0.053097263
-0.1447417 -0.02380422 0.073127545 -0.3276326 -0.38482583 0.1436451 0.23258357 -0.16061099
0.1197455 -0.11456251 0.18724246 0.31406263 0.013587594 0.14025144 0.30621308 0.17287686
-0.18537933 -0.1473648 0.018393015 -0.30626175 0.29291925 0.058111124 0.14593138 0.0047199954
-0.16315757 -0.22490703 -0.21136442 -0.15025757 0.34831905 0.14893046 0.061134566 -0.22411153
0.11354059 0.16347402 0.2982001 0.034687456 0.035052978 0.20944495 0.3374702 -0.03187241
-0.28399488 0.27558115 0.08762526 0.019455586 -0.13034733 0.1274362 0.038238764 0.108518355
0.043543343 -0.19855712 0.030311525 -0.23396818 0.109591596 0.060472608 0.036084857 -0.058369584
0.099647015 -0.06636748 -0.10188559 0.051361434 -0.113029286 0.1410549 0.029396 0.13310201
0.24442965 0.116987124 0.28748134 -0.122226655 -0.06545592 0.043094657 0.13527279 -0.13781883
-0.107461385 0.080375455 -0.17075303 0.21490237 0.2749773 -0.099313006 0.3663354 -0.20195648
-0.30871436 -0.14037275 -0.13003093 0.009614702 0.064525396 -0.0046372656 -0.046679594 0.100725584
0.057069395 0.13493761 0.14653884 0.10569904 -0.15289919 -0.17921719 -0.37308192 0.17066377
0.15551817 -0.24965987 0.2054251 0.26468578 -0.104989655 -0.08997642 -0.15674348 0.017973851
0.03397541 -0.03568756 -0.060906682 -0.13273636 0.017798532 -0.0024120351 -0.14729635 -0.13540675
-0.085969195 -0.0899127 0.30383155 -0.18041925 -0.17245889 -0.12363378 0.011085891 0.18211952
-0.049217533 -0.01607755 -0.06469684 0.14741662 0.08701078 -0.08278903 -0.09996375 0.23636296
0.117823705 0.021491949 -0.25644287 -0.24107325 0.32278883 -0.18389916 -0.12740809 0.052851174
0.0032972477 -0.26344386 -0.23593953 0.19741707 -0.12478772 -0.34573683 0.19657373 -0.09758938
-0.18623097 0.26982573 -0.39329773 0.202091 0.24717027 0.33858833 -0.2907766 -0.040605687
0.13277744 0.057262663 0.1442295 -0.07355227 0.2041024 0.06353777 -0.10184726 -0.08435732
-0.1708487 -0.17742038 0.28377655 -0.25719914 0.40479305 0.47985172 0.069755994 -0.3759582
00000000: 0b7f cb3e 96c4 8abe 5299 83be 87d5 a2be
00000010: 23da 9abe 4767 b1be 21d0 56be 7b57 59be
00000020: b51a dcbe e845 00be 0cb5 90be 77bb ae3e
00000030: c7f9 3a3e b52b 5c3e 5b45 89be e56e 8c3d
00000040: 0b46 85be 2bcc 3f3e 92ea 83bd 494b b63e
00000050: 12dd 8a3e 2b66 bb3c 7ffb b5bd ac1c 95be
00000060: 7909 7cbe bcf7 113e c7c0 8cbd 4902 8dbe
00000070: 8f2b 303d 8f51 b43d e091 aabe aff0 603e
00000080: 823c 183d 0be8 ed3d 15d4 533e 25c4 26be
00000090: 38e6 3f3e 27be 2ebe 5ae0 e1bd 8428 86bd
000000a0: bdea 7e3e 57ef 8ebd f6f8 113e 28c5 e83d
000000b0: 6e96 143e d67b 113e cb7d 49be c889 44be
000000c0: ca97 f1bc f211 01be 394a e23d 3650 55bc
000000d0: 1b6e 8ebe 90e5 613b 4eaa 553e 32bf 143e
000000e0: f4d9 3dbe 493a 17ba 344d 993e f8e5 e93d
000000f0: e265 1a3d 094c 363c 670f 04bc 4ca3 ffbd
00000100: 10a9 123e e671 d33d 5c15 fa3c d1e1 05be
00000110: 8b23 1bbc e621 0dbe 7f86 c43d f012 9dbe
00000120: 036c 783e 4709 a13e d400 83bd e69b bcbe
00000130: e456 98be fa45 4cbd 8314 263e 59fe 9a3d
00000140: 128a 43be 3513 953d 5a5f 3dbe 3509 59ba
00000150: 7e60 60be 58c2 42be 0449 fe3d 847c 59bd
00000160: 2b37 14be 1101 c3bc e5c3 953d 76bf a7be
00000170: e407 c5be b317 133e 632a 6e3e 3577 24be
00000180: 213d f53d c09f eabd 7dbc 3f3e d1cc a03e
00000190: 809e 5e3c 139e 0f3e f6c7 9c3e a206 313e
000001a0: 14d4 3dbe cce6 16be f3ac 963c 57ce 9cbe
000001b0: 83f9 953e ee05 6e3d 096f 153e 31aa 9a3b
000001c0: c712 27be 074e 66be ea6f 58be 1fdd 19be
000001d0: e056 b23e 3a81 183e 3d68 7a3d 7e7d 65be
000001e0: f887 e83d bc65 273e afad 983e 6f14 0e3d
000001f0: b693 0f3d bd78 563e e5c8 ac3e a58c 02bd
00000200: c767 91be f918 8d3e df74 b33d 5261 9f3c
00000210: c579 05be a37e 023e 40a0 1c3d df3e de3d
00000220: 815a 323d 8f52 4bbe e04f f83c 5b95 6fbe
00000230: 8f71 e03d 20b2 773d b7cd 133d f214 6fbd
00000240: bc13 cc3d aceb 87bd 64a9 d0bd 5e60 523d
00000250: e67b e7bd b270 103e e1cf f03c e54b 083e
00000260: c44b 7a3e f296 ef3d c130 933e f851 fabd
00000270: c10d 86bd 0684 303d f384 0a3e 6120 0dbe
00000280: b714 dcbd e39b a43d e2d9 2ebe 5e0f 5c3e
00000290: d3c9 8c3e 9e64 cbbd 5090 bb3e aecd 4ebe
000002a0: cf0f 9ebe e0bd 0fbe d426 05be fc86 1d3c
000002b0: e425 843d 34f4 97bb 1a33 3fbd 3749 ce3d
000002c0: 99c1 693d 162d 0a3e 470e 163e bd78 d83d
000002d0: 9b91 1cbe b684 37be 9804 bfbe 7cc2 2e3e
000002e0: 2840 1f3e d6a6 7fbe f55a 523e e584 873e
000002f0: d104 d7bd 8f45 b8bd 5d81 20be e63d 933c
00000300: cd29 0b3d 1e2d 12bd 4979 79bd 0aec 07be
00000310: 3ace 913c 3c13 1ebb dbd4 16be 11a8 0abe
00000320: 9e10 b0bd 2624 b8bd cf8f 9b3e d3bf 38be
00000330: 1099 30be b533 fdbd 99a1 353c 8a7d 3a3e
00000340: 5398 49bd 11b5 83bc c77f 84bd 62f4 163e
00000350: b532 b23d 4c8d a9bd cbb9 ccbd 2209 723e
00000360: 8e4d f13d e20f b03c 7b4c 83be e8db 76be
00000370: 9444 a53e 1050 3cbe 4477 02be 797a 583d
00000380: a316 583b 1de2 86be 229a 71be b327 4a3e
00000390: b490 ffbd 6b04 b1be a04a 493e f1dc c7bd
000003a0: 55b3 3ebe 9926 8a3e 525e c9be f1f0 4e3e
000003b0: 341a 7d3e 735b ad3e ace0 94be 2652 26bd
000003c0: cff6 073e 418c 6a3d e6b0 133e 93a2 96bd
000003d0: 3800 513e 1720 823d 4c95 d0bd 88c3 acbd
000003e0: f6f2 2ebe b0ad 35be 294b 913e 9baf 83be
000003f0: 0941 cf3e 20af f53e 3bdc 8e3d 987d c0be

decoder.0.bias f4 [64]
0.10136593 0.028876811 0.0564763 -0.13868584 -0.06747474 -0.099631846 -0.10667151 0.06164483
-0.26377237 -0.25083962 -0.083601266 -0.013691321 0.083474055 -0.15064023 0.08243129 0.21212164
0.20410609 0.0389579 0.114543274 0.034727853 0.10679545 -0.13104793 0.10014766 0.008535808
-0.09308137 -0.13864042 0.039439842 -0.089371145 0.05690873 -0.13076441 -0.08707303 -0.1894426
-0.15510704 0.16495831 0.0667524 -0.098790884 0.0050760503 0.089663304 -0.06330736 0.060743928
0.010061646 0.083652906 -0.17994112 -0.29885888 -0.13265309 -0.058482934 0.04834942 -0.08676088
-0.24333076 0.0684428 -0.016893344 0.118833885 -0.045245744 -0.21427107 -0.07786697 -0.15110177
0.31434342 0.032437086 -0.114579275 0.115951 -0.08097246 0.100030415 0.015423807 0.06391505
00000000: f198 cf3d 108f ec3c b153 673d a903 0ebe
00000010: 3230 8abd c80b ccbd 9876 dabd 4a7f 7c3d
00000020: 2c0d 87be 0d6e 80be 2437 abbd 9051 60bc
00000030: 72f4 aa3d 6f41 1abe bcd1 a83d 6a36 593e
00000040: 3001 513e 5292 1f3d aa95 ea3d cb3e 0e3d
00000050: 93b7 da3d 6e31 06be 371a cd3d c6d9 0b3c
00000060: 72a1 bebd c1f7 0dbe ac8b 213d 3808 b7bd
00000070: 2119 693d 1be7 05be 5853 b2bd 3efd 41be
00000080: 61d4 1ebe d5ea 283e 7bb5 883d e052 cabd
00000090: ff54 a63b 65a1 b73d 4aa7 81bd a0ce 783d
000000a0: 9ad9 243c 3752 ab3d 7c42 38be 0804 99be
000000b0: 36d6 07be cd8b 6fbd 0b0a 463d b0af b1bd
000000c0: b32b 79be bd2b 8c3d e963 8abc 2e5f f33d
000000d0: 9a53 39bd e069 5bbe b878 9fbd 6cba 1abe
000000e0: 9ff1 a03e c0dc 043d 8aa8 eabd b877 ed3d
000000f0: e4d4 a5bd bfdc cc3d 23b4 7c3c e5e5 823d

decoder.2.weight f4 [64, 32, 7, 7]
-4.932e-40 -4.93167e-40 -5.163946e-28 -4.90792e-40 -0.027951926 2.4758376e-18 4.93722e-40 4.96798e-40
1.3580832e-30 0.060812782 0.08888962 -0.03149695 -0.019562908 0.02861636 -4.96765e-40 -0.034890015
0.051462017 0.08614977 -0.010661226 -0.15117082 0.028825762 -4.9355e-40 0.07733925 0.105429426
-0.0059317276 -0.024668204 -0.13467358 0.034253594 -4.91253e-40 0.1350376 0.005646593 0.062397923
0.09412594 -0.031111022 -0.011918729 5.7972746e-19 -0.060805544 -0.015548067 0.14981636 0.038910005
0.009447166 0.00018495518 4.92226e-40 -0.01943961 -0.048476048 0.013121666 0.03945502 0.027414287
4.94798e-40 4.99051e-40 -4.92964e-40 -5.18391e-40 4.95149e-40 4.92245e-40 -5.03948e-40 4.92477e-40
-4.91448e-40 5.8574e-40 4.91961e-40 -0.048409093 0.11774002 4.92824e-40 -0.06379625 4.91577e-40
5.82018e-40 -0.09949174 0.020421607 0.023857515 -0.07264567 0.0053674467 -4.95295e-40 4.95373e-40
5.55185e-40 0.117345415 -4.92301e-40 -0.1322193 0.09482403 -5.34686e-40 0.009371088 -0.0047351173
0.052683927 4.97322e-40 -0.016083818 0.049058788 -5.92667e-40 4.94982e-40 -0.052357443 0.026982628
-0.11048239 0.00349481 4.95397e-40 -4.95772e-40 -0.0063913926 0.04539999 4.9485e-40 -4.92669e-40
4.92325e-40 4.90931e-40 0.002123928 0.010010047 0.01759398 -0.042562198 -0.0007223105 -0.013570662
0.028014403 0.0012141888 -0.008654819 0.06638439 0.004524999 0.0063174823 -0.072474614 0.016839065
0.009325698 0.024544677 0.11974764 0.036931355 -0.104347736 -0.05023378 0.03650156 0.006018198
-0.011265603 0.0100885015 0.0131289065 -0.02659005 -0.043796804 -0.023443175 0.00072609645 -0.025493847
0.004153387 -0.027681204 0.037255604 -0.11820597 0.0017370202 0.006484258 0.078863636 -0.08089065
-0.00021580151 -0.015967889 0.102986105 0.10172084 0.0031501425 0.02352786 0.02320171 -0.014721749
-0.032959133 0.027636172 0.00090208394 0.006032388 0.017631093 0.028242473 0.021023337 0.011230024
0.0050170314 0.009758702 0.0073550656 0.01902029 0.03083878 -0.046383657 0.033086393 -0.039208084
0.0277726 0.011314656 0.00025390316 0.035339788 -0.07391556 -0.08504223 0.14113341 0.064193755
-0.010628717 -0.03980477 0.023150561 -0.03857722 -0.16804656 -0.120374985 0.028653774 0.005847758
-0.013567753 0.032742754 0.018012252 -0.119447984 -0.014172425 0.03912009 -0.0031172268 0.054096665
0.04369265 -0.06974614 0.03135969 -0.0038591775 0.048296135 0.021748573 0.019873837 0.06561917
-0.05692355 0.0116839325 -0.035275865 0.08069173 -4.9411e-40 -4.91162e-40 -4.93481e-40 -5.377385e-26
-4.9173e-40 4.91647e-40 -4.91577e-40 -4.91845e-40 -4.92811e-40 -4.91817e-40 0.075995155 0.028246377
0.10978112 -0.010068236 -4.95202e-40 4.9454e-40 -0.010478609 0.04387916 -0.020646907 -0.015801227
0.0067595835 -4.92178e-40 4.95016e-40 0.02987397 0.010023054 -0.04589351 -0.024956102 -0.019717997
4.93862e-40 0.033316858 0.090248644 0.028903961 0.029146517 0.013041435 -0.08065161 -4.91749e-40
-0.00030969016 -0.07885702 -0.014071986 0.01962339 -0.09314083 -0.12552696 -4.95059e-40 -0.021128131
-0.022711735 0.019879296 0.06734273 -0.04749291 -1.04864274e-23 4.93162e-40 4.9221e-40 4.90747e-40
4.93172e-40 -2.7363222e-13 0.018115107 6.25072e-40 4.94039e-40 -4.91592e-40 -0.008284036 4.92433e-40
00000000: d75e 0580 c05e 0580 e8a6 2392 2158 0580
00000010: 70fb e4bc 40af 3622 4c60 0500 df68 0500
00000020: 925c dc0d d316 793d c30b b63d f202 01bd
00000030: 6442 a0bc db6c ea3c c768 0580 d5e8 0ebd
00000040: d6c9 523d 4a6f b03d 6cac 2ebc 86cc 1abe
00000050: 0124 ec3c d15f 0580 0a64 9e3d 62eb d73d
00000060: f05e c2bb f914 cabc dfe7 09be 7f4d 0c3d
00000070: 6a59 0580 4c47 0a3e 0e07 b93b f794 7f3d
00000080: 1ac5 c03d 8bdc febc c646 43bc f81a 2b21
00000090: 3c0f 79bd 52bd 7ebc 7669 193e 1960 1f3d
000000a0: 49c8 1a3c 87f0 4139 205c 0500 d13f 9fbc
000000b0: d28e 46bd 42fc 563c 969b 213d ed93 e03c
000000c0: 4c63 0500 276f 0500 2f5e 0580 10a5 0580
000000d0: 4664 0500 2e5c 0500 cd7c 0580 d35c 0500
000000e0: f559 0580 ce60 0600 635b 0500 9d48 46bd
000000f0: ae21 f13d cb5d 0500 9ca7 82bd 515a 0500
00000100: 6e56 0600 53c2 cbbd 374b a73c d670 c33c
00000110: 41c7 94bd 68e1 af3b ae64 0580 e664 0500
00000120: a10b 0600 cb52 f03d 565c 0580 7f64 07be
00000130: 1a33 c23d 7dd2 0580 3189 193c 0b29 9bbb
00000140: 1acb 573d 556a 0500 36c2 83bc def1 483d
00000150: 1d74 0680 cf63 0500 c274 56bd ac0a dd3c
00000160: 9744 e2bd 2f09 653b f764 0500 0366 0580
00000170: e36e d1bb 57f5 393d 7163 0500 5c5d 0580
00000180: 675c 0500 8458 0500 9931 0b3b 2e01 243c
00000190: 4021 903c b355 2ebd 7059 3dba 7b57 5ebc
000001a0: 767e e53c 6a25 9f3a f1cc 0dbc 8af4 873d
000001b0: 7146 943b e202 cf3b 926d 94bd 14f2 893c
000001c0: d0ca 183c eb11 c93c 403e f53d 5545 173d
000001d0: 44b4 d5bd f0c1 4dbd a982 153d 4e34 c53b
000001e0: 5d93 38bc 3e4a 253c a01a 573c 60d3 d9bc
000001f0: 4764 33bd e70b c0bc 8257 3e3a 79d8 d0bc
00000200: 2319 883b b1c3 e2bc 5599 183d f915 f2bd
00000210: baac e33a e679 d43b 4283 a13d ffa9 a5bd
00000220: c748 62b9 17cf 82bc 61ea d23d 0453 d03d
00000230: 9f72 4e3b 80bd c03c 8311 be3c 7e33 71bc
00000240: 2800 07bd 4165 e23c d479 6c3a 57ab c53b
00000250: 156f 903c c25c e73c 2239 ac3c 22fe 373c
00000260: e965 a43b f6e2 1f3c c302 f13b 70d0 9b3c
00000270: 9ca1 fc3c cafc 3dbd 9985 073d a898 20bd
00000280: 5d83 e33c 1b61 393c 4e1e 8539 74c0 103d
00000290: 0b61 97bd 9f2a aebd 4785 103e 0478 833d
000002a0: 1224 2ebc 540a 23bd 3fa6 bd3c 2603 1ebd
000002b0: 6614 2cbe 2987 f6bd 52bb ea3c 8d9e bf3b
000002c0: 484b 5ebc 441d 063d 6e8e 933c 25a1 f4bd
000002d0: 7533 68bc 633c 203d 634a 4cbb 7794 5d3d
000002e0: 10f7 323d 10d7 8ebd 0573 003d 41ea 7cbb
000002f0: 2bd2 453d 102a b23c 75ce a23c 5863 863d
00000300: ab28 69bd f76d 3f3c 6d7d 10bd b541 a53d
00000310: 6161 0580 2959 0580 a05f 0580 3a23 8595
00000320: be5a 0580 835a 0500 515a 0580 105b 0580
00000330: c25d 0580 fc5a 0580 59a3 9b3d f264 e73c
00000340: edd4 e03d 3ef5 24bc 6c64 0580 9462 0500
00000350: 79ae 2bbc a2ba 333d b423 a9bc 9371 81bc
00000360: 7f7f dd3b fe5b 0580 e763 0500 42ba f43c
00000370: bc37 243c d5fa 3bbd bd70 ccbc a387 a1bc
00000380: b060 0500 4277 083d 48d4 b83d 00c8 ec3c
00000390: adc4 ee3c beab 553c ac2c a5bd cc5a 0580
000003a0: e95d a2b9 ca7f a1bd 308e 66bc 3bc1 a03c
000003b0: 9fc0 bebd 248a 00be 0664 0580 e714 adbc
000003c0: f60d babc e8d9 a23c fcea 893d ed87 42bd
000003d0: 46d6 4a99 bc5e 0500 155c 0500 0158 0500
000003e0: c35e 0500 8f0a 9aaa 2266 943c 72ce 0600
000003f0: 2e61 0500 5c5a 0580 c4b9 07bc b45c 0500

decoder.2.bias f4 [32]
-0.0487128 -0.17591698 -0.015903253 0.3708787 -0.57751477 -0.28029978 -0.73332775 0.31151998
0.20556556 0.17499268 0.13875778 0.12226162 0.027349964 -0.05904768 -0.14456837 -0.6103272
-0.16811581 -0.19761224 0.27850947 -0.01645099 -0.032397863 -0.039592996 0.036272455 0.025986547
0.24262375 -0.6395459 0.08446528 0.22389583 0.072018236 0.39132783 0.119654216 -0.62287796
00000000: 1387 47bd 9523 34be 8a47 82bc d0e3 bd3e
00000010: 02d8 13bf 7483 8fbe 5ebb 3bbf 8c7f 9f3e
00000020: c77f 523e 4831 333e 8516 0e3e 4d64 fa3d
00000030: 080d e03c fbdb 71bd bb09 14be 673e 1cbf
00000040: 8d26 2cbe dd5a 4abe cb98 8e3e 3ac4 86bc
00000050: 9fb3 04bd 442c 22bd 6d92 143d bde1 d43c
00000060: 5c72 783e 48b9 23bf 22fc ac3d f344 653e
00000070: 4c7e 933d 1f5c c83e 450d f53d ee74 1fbf

decoder.4.weight f4 [32, 16, 3, 3]
-0.051082388 -0.15778795 0.03431581 0.046395577 -0.35869586 -0.09562605 0.030369123 -0.10564628
0.101833634 0.12093696 -0.051324435 0.05116916 -0.07922827 0.14788552 0.118381985 -0.053642422
0.20538312 -0.012223416 0.08540215 0.106768966 0.023653185 0.039925974 -0.03467166 0.108696
-0.1168821 -0.04055966 -0.024593985 -0.1579755 0.07664063 0.09916216 -0.03638224 0.21424408
0.26493058 -0.055128284 0.23992059 0.11206293 0.13246752 0.08083448 -0.0422391 -0.14296605
0.0074667083 0.091488905 0.04369445 0.081609525 -0.03419535 -0.25703362 0.16149662 -0.099585645
-0.06365843 0.04286432 -0.15775903 -0.084048875 -0.15970072 -0.030508738 -0.100164555 -0.19209477
-0.11902185 -0.102226615 0.06920134 -0.031526867 0.030242126 -0.023372535 -0.06820179 -0.068488754
-0.09263708 0.03755496 -0.11863926 -0.103760906 0.08028533 -0.015813423 0.08373982 0.020052675
-0.11584086 0.14156617 0.027499031 0.0982393 -0.010963094 -0.21292466 0.13566053 -0.25821978
0.02901571 -0.008112541 0.13580756 -0.12920004 0.0798664 0.1592703 0.06761121 0.079593986
0.2482899 -0.013914728 -0.11257314 -0.049459185 0.05431446 -0.06253353 0.13801083 -0.034951083
0.07655996 -0.035016973 0.062278893 0.10163679 0.06796429 -0.10832319 0.12783332 0.010742506
-0.096532956 -0.054371346 -0.21981935 -0.107311904 0.04308356 -0.08737788 -0.08538228 0.04380062
-0.20265165 -0.12600456 -0.028445192 0.12691368 -0.11258 0.04775569 0.1487391 0.018925605
0.12520236 0.14032713 -0.0059961653 0.03795935 -0.014581716 -0.082049176 0.038360935 4.7064244e-05
0.016876565 -0.07835966 -0.030973751 -0.059386566 -0.16959868 0.007754087 -0.059130605 0.0433299
0.046120208 -0.026384205 -0.04869578 0.040663034 0.046594102 -0.070896775 0.038084753 0.08512322
-0.11429598 -0.042688683 0.025718046 0.057533428 0.009219316 0.002736649 -0.07367964 -0.035569098
-0.030653972 0.004781478 0.15093826 0.06996746 0.002595473 0.028929142 -0.0070101423 0.0225338
-0.05655129 0.01266965 -0.0911674 -0.20944597 -0.08874306 -0.1485105 -0.1122133 -0.109489985
-0.05050068 -0.04845698 -0.07860057 -0.080430254 0.065711014 0.046642426 -0.0756858 0.010253896
-0.16240282 -0.05443435 -0.1433464 -0.08029875 0.013220139 -0.081939496 -0.14563186 0.051529292
0.013595028 0.0048381477 0.073115386 0.2355258 0.04043464 0.14811534 0.042087357 0.07732383
-0.09530219 -0.08405077 -0.051778503 0.06592096 0.07532709 0.031066848 0.061736196 0.18122068
0.16673894 0.0913101 0.17847218 0.12939157 0.07719744 0.03168853 0.06430188 0.0074228826
0.15348656 0.06199849 0.0719179 0.23649846 -0.105612315 0.044053547 0.03439855 0.025621686
0.04533425 0.02953372 -0.008779905 -0.17044173 -0.3013488 -0.0694684 -0.06616659 -0.06389887
-0.109525375 0.030884217 0.118249856 -0.0024473206 -0.0068318644 -0.025272407 -0.07168337 0.00086128217
-0.1882923 -0.008986275 0.013810891 -0.08737163 -0.037131187 -0.15410386 -0.035951115 -0.069962725
-0.04923686 0.056945466 -0.036245544 -0.09026046 -0.08820674 0.04389355 -0.05620933 -0.11039376
-0.05098992 -0.01785717 -0.041135143 0.0030012769 0.072656825 -0.04929585 0.0013784863 0.022232449
00000000: c43b 51bd 2a93 21be bc8e 0c3d 4a09 3e3d
00000010: fca6 b7be 97d7 c3bd abc8 f83c 145d d8bd
00000020: 278e d03d ccad f73d 9239 52bd c196 513d
00000030: 6e42 a2bd 4d6f 173e 4172 f23d 28b8 5bbd
00000040: f44f 523e b944 48bc 53e7 ae3d b0a9 da3d
00000050: 53c4 c13c 6b89 233d df03 0ebd 029c de3d
00000060: e25f efbd e321 26bd 5379 c9bc 54c4 21be
00000070: c3f5 9c3d 8815 cb3d 8b05 15bd cd62 5b3e
00000080: fba4 873e 32ce 61bd bead 753e 4081 e53d
00000090: 91a5 073e 8c8c a53d e802 2dbd b165 12be
000000a0: 4aab f43b 895e bb3d f4f8 323d e522 a73d
000000b0: 6c10 0cbd e999 83be 5f5f 253e 8ff3 cbbd
000000c0: 5a5f 82bd 7f92 2f3d 958b 21be d121 acbd
000000d0: 9688 23be 76ed f9bc 1323 cdbd 7eb4 44be
000000e0: bac1 f3bd 305c d1bd 6fb9 8d3d 5122 01bd
000000f0: 56be f73c c277 bfbc 61ad 8bbd d543 8cbd
00000100: 82b8 bdbd 3bd3 193d 24f9 f2bd 9980 d4bd
00000110: a36c a43d 278b 81bc c87f ab3d 8245 a43c
00000120: f93d edbd b9f6 103e a645 e13c b031 c93d
00000130: 8d9e 33bc ec08 5abe 98ea 0a3e 6235 84be
00000140: 5bb2 ed3c 77ea 04bc 2311 0b3e 044d 04be
00000150: ff90 a33d c117 233e bf77 8a3d 2c02 a33d
00000160: b53f 7e3e 99fa 63bc bf8c e6bd b795 4abd
00000170: d778 5e3d 9411 80bd b652 0d3e de28 0fbd
00000180: 78cb 9c3d f56d 0fbd 2718 7f3d f326 d03d
00000190: dd30 8b3d 8cd8 ddbd bde6 023e 5601 303c
000001a0: 12b3 c5bd 7db4 5ebd 5318 61be 58c6 dbbd
000001b0: 6378 303d 2df3 b2bd e8dc aebd 4768 333d
000001c0: ea83 4fbe 5707 01be e405 e9bc a9f5 013e
000001d0: 5890 e6bd 789b 433d 104f 183e df09 9b3c
000001e0: 0c35 003e eab1 0f3e 7b7b c4bb 437b 1b3d
000001f0: 26e8 6ebc 6609 a8bd 5b20 1d3d d966 4538
00000200: b940 8a3c 087b a0bd aabc fdbc 543f 73bd
00000210: 47ab 2dbe ff15 fe3b ef32 72bd b17a 313d
00000220: 8be8 3c3d b023 d8bc 3a75 47bd 488e 263d
00000230: 75d9 3e3d 5432 91bd c2fe 1b3d 1555 ae3d
00000240: 0314 eabd 54da 2ebd a7ae d23c 2ca8 6b3d
00000250: 9d0c 173c 5a59 333b 5ae5 96bd e7b0 11bd
00000260: 0a1e fbbc f2ad 9c3b 8f8f 1a3e 1a4b 8f3d
00000270: d018 2a3b cffc ec3c 56b5 e5bb ce98 b83c
00000280: 53a2 67bd 5d94 4f3c f9b5 babd 0179 56be
00000290: ecbe b5bd 2313 18be 16d0 e5bd 493c e0bd
000002a0: cdd9 4ebd d47a 46bd 56f9 a0bd 9eb8 a4bd
000002b0: 7f93 863d 210c 3f3d 2801 9bbd f5ff 273c
000002c0: ed4c 26be 8ef6 5ebd 66c9 12be ac73 a4bd
000002d0: 4899 583c e5cf a7bd 8520 15be 6110 533d
000002e0: aebd 5e3c 5389 9e3b 85bd 953d ad2d 713e
000002f0: cb9e 253d 8cab 173e cb63 2c3d f55b 9e3d
00000300: cb2d c3bd cf22 acbd b215 54bd 9101 873d
00000310: 1745 9a3d e77f fe3c 18df 7c3d ea91 393e
00000320: 9dbd 2a3e ca00 bb3d 69c1 363e 397f 043e
00000330: b119 9e3d d5cb 013d b4b0 833d a73b f33b
00000340: 952b 1d3e 21f2 7d3d b149 933d a72c 723e
00000350: 454b d8bd 7e71 343d 7ee5 0c3d 92e4 d13c
00000360: 68b0 393d b3f0 f13c 97d9 0fbc 4788 2ebe
00000370: 644a 9abe 7345 8ebd 5982 87bd 69dd 82bd
00000380: d74e e0bd e600 fd3c fb2c f23d 3a63 20bb
00000390: d5dd dfbb 1408 cfbc bbce 92bd abc7 613a
000003a0: b2cf 40be 2b3b 13bc 1347 623c e6ef b2bd
000003b0: df16 18bd 67cd 1dbe 7a41 13bd 9e48 8fbd
000003c0: 97ac 49bd a63f 693d 3576 14bd 7ada b8bd
000003d0: bca5 b4bd b9c9 333d c13b 66bd 2016 e2bd
000003e0: ceda 50bd 3349 92bc 537d 28bd 12b1 443b
000003f0: 1acd 943d 72ea 49bd 53ae b43a d320 b63c

decoder.4.bias f4 [16]
0.3204639 0.4642901 0.2656257 0.31027347 -0.09715951 0.42784035 0.6389124 -0.7904175
0.5068743 0.37718675 0.24298465 0.2759988 0.48010126 0.41107646 -0.132438 -0.4616789
00000000: d813 a43e 6fb7 ed3e 1700 883e 2adc 9e3e
00000010: 91fb c6bd e40d db3e c38f 233f cd58 4abf
00000020: 84c2 013f 9f1e c13e f8d0 783e b74f 8d3e
00000030: d5cf f53e 9d78 d23e d49d 07be 2d61 ecbe
