02_Representations/model_weights/vae.pth (torch, 896712 bytes, 17 tensors)

encoder_conv.0.weight f4 [16, 1, 3, 3]
0	0xbdced7a6	-0.100997254
1	0x3d12506f	0.03572124
2	0xbd92daad	-0.07170615
3	0xbd5656af	-0.05232876
4	0x3e2a3f56	0.16625723
5	0xbd8c6572	-0.06855287
6	0x3e652322	0.22376683
7	0x3efb8ece	0.4913239
8	0x3e5616e8	0.20907176
9	0x3e326391	0.17420794
10	0x3e800279	0.25001886
11	0x3e04bd75	0.12962897
12	0x3cc3af40	0.023887277
13	0x3dfe74a1	0.12424589
14	0x3d1ed852	0.038780518
15	0xbdb45140	-0.0880456
16	0xbe02071b	-0.12698023
17	0x3cd4a399	0.025956916
18	0xbe0912f3	-0.13386135
19	0x3cb18f49	0.021674769
20	0x3e0fcd32	0.1404312
21	0x3db737cc	0.08946189
22	0xbe3b0561	-0.1826377
23	0x3e021b2d	0.12705679
24	0x3db9a4c7	0.09064632
25	0x3d651fbc	0.055938467
26	0xbdf561a5	-0.11981515
27	0x3e621f2f	0.22082208
28	0x3ec3e6ff	0.38262174
29	0x3d8e2a38	0.06941646
30	0xbde59313	-0.11209693
31	0x3e2e7e28	0.17040312
32	0x3e90a094	0.2824751
33	0xbede0bcc	-0.43368375
34	0xbeba13c8	-0.36343217
35	0xbe242db3	-0.16033058
36	0xbe1fbe9e	-0.15600058
37	0x3e5803d8	0.21095216
38	0xbe3f8c23	-0.18705802
39	0x3eb5f58b	0.35538897
40	0x3e0ebad7	0.13938461
41	0xbea1ab8b	-0.3157619
42	0x3ecc7257	0.39930984
43	0xbda6cecd	-0.08144913
44	0xbec20529	-0.37894562
45	0xbd32a857	-0.043617573
46	0xbbe88f73	-0.0070971786
47	0xbe1fc6e7	-0.15603219
48	0xbdf84459	-0.12122411
49	0x3e3c0bec	0.18363923
50	0xbe329a98	-0.17441785
51	0xbc7bad9c	-0.015361216
52	0x3df05546	0.117350146
53	0x3db80e71	0.089871295
54	0xbea44ab0	-0.32088232
55	0xbd83ae47	-0.06429725
56	0xbda1acce	-0.07894288
57	0xbdfd856d	-0.123789646
58	0xbdb4f041	-0.08834887
59	0xbd5dbe52	-0.05413658
60	0xbe09efb5	-0.13470347
61	0xbe0c5f0a	-0.1370813
62	0xbddb83f3	-0.10718527
63	0xbcac0fae	-0.02100357
64	0xbd6091fb	-0.054826718
65	0x3e0e0a7e	0.1387119
66	0x3e202784	0.15640074
67	0x3ef823ca	0.48464805
68	0x3ebf5893	0.37372264
69	0xbdd98eac	-0.106229156
70	0x3e380c09	0.17973341
71	0x3d7d6d00	0.06187153
72	0x3e4a793b	0.19772808
73	0x3e5e9d54	0.21739703
74	0xbd10c55d	-0.03534447
75	0x3eb302af	0.34962985
76	0x3eab54ac	0.33463037
77	0x3de811cd	0.1133152
78	0x3d414dbd	0.047193278
79	0x3dd3a6dd	0.10334561
80	0xbe214dc7	-0.15752326
81	0xbe92771c	-0.28606498
82	0xbe644c58	-0.22294748
83	0x3e9ee294	0.3103224
84	0xbe6f43a6	-0.2336565
85	0xbd9937dd	-0.07481358
86	0x3ec8bfae	0.3920874
87	0x3e0ef05d	0.13958879
88	0xbcc9bb7e	-0.024625536
89	0x3e919b64	0.28438866
90	0xbd3cce9c	-0.046095476
91	0xbd92b1be	-0.07162808
92	0xbe82b16e	-0.25525993
93	0xbdd7b495	-0.1053249
94	0xbe91d91a	-0.28485948
95	0x3d9d0f1e	0.07668899
96	0xbe10775f	-0.14108036
97	0x3cd4053b	0.0258814
98	0x3eed61ab	0.46363577
99	0x3ea887ad	0.32916012
100	0x3c987633	0.01861105
101	0xbe54ce3b	-0.20781796
102	0x3e86cf0a	0.26329833
103	0xbd572534	-0.052525714
104	0xbe449028	-0.19195616
105	0x3eacb981	0.33735278
106	0xbc68d445	-0.014210765
107	0x3e7f3ad7	0.2492479
108	0x3e64b549	0.2233478
109	0xbdeb394e	-0.114855394
110	0xbe07d90a	-0.13266388
111	0x3e314b87	0.17313968
112	0xbe296914	-0.1654399
113	0xbbba2eaa	-0.0056818323
114	0xbdcd8224	-0.10034588
115	0xbe2e21e2	-0.17005113
116	0xbd28c378	-0.04120204
117	0x3e0f27ca	0.13980022
118	0x3ec664ad	0.38748685
119	0x3e00f92d	0.12595053
120	0xbeb5a09b	-0.35474095
121	0x3d853031	0.065033324
122	0x3e86f6b0	0.26360083
123	0xbe2b54f7	-0.1673163
124	0x3e85409f	0.26025864
125	0x3c917bf1	0.017759295
126	0x3e609cbe	0.21934792
127	0x3e527181	0.20551111
128	0x3cebdea5	0.028792689
129	0xbe596150	-0.21228528
130	0xbe026ac7	-0.12736045
131	0xbe50aff5	-0.20379622
132	0xbe36e6c5	-0.17861469
133	0x3ce3314e	0.027733471
134	0x3e28b77a	0.16476241
135	0xbdff3f20	-0.12463212
136	0xbd81edfd	-0.06344221
137	0x3e265272	0.16242388
138	0xbd934fea	-0.07192977
139	0xbdd36c58	-0.10323399
140	0x3d370c0d	0.044689227
141	0x3e17ac17	0.14811741
142	0xbdc61a7b	-0.096730195
143	0xbe05df6d	-0.13073511

encoder_conv.0.bias f4 [16]
0	0xbe07be0f	-0.13256095
1	0x3d932521	0.07184816
2	0x3dde5f60	0.10858035
3	0xbdbce895	-0.09224049
4	0xbd9c9c87	-0.07647043
5	0x3e21b023	0.15789847
6	0x3e96b44e	0.29434437
7	0xbe2be01f	-0.16784714
8	0xbe2d6a83	-0.16935162
9	0xbda83304	-0.082128555
10	0xbd76b22c	-0.06022851
11	0xbe000401	-0.12501527
12	0x3dc99af0	0.09844005
13	0xbe594764	-0.2121864
14	0xbbf6a57d	-0.007527052
15	0x3e194935	0.14969333

encoder_conv.2.weight f4 [32, 16, 3, 3]
0	0x3dad9144	0.08474973
1	0x3e021be1	0.12705947
2	0x3da1aed7	0.07894676
3	0x3d94f308	0.07272917
4	0x3da98448	0.08277184
5	0x3d37919d	0.044816602
6	0xbc96bc87	-0.018400444
7	0xbdbc178b	-0.09184178
8	0xbde03a8a	-0.109486654
9	0xbd1f12b0	-0.03883618
10	0x3c994a62	0.018712226
11	0x3c71ccb1	0.014758275
12	0x3d5cd560	0.053914428
13	0x3d392f6e	0.045211248
14	0x3ada7655	0.0016667346
15	0x3d8aa6b9	0.06770081
16	0xbcbb89b2	-0.022892807
17	0x3ce5b6dc	0.028041296
18	0xbc0b90a3	-0.008518371
19	0x3d3574a1	0.04430068
20	0xbd29a98e	-0.041421466
21	0x3ae847fd	0.001772165
22	0xbc420ae2	-0.011843415
23	0x3c8e4891	0.017368587
24	0xbcfe652f	-0.031054107
25	0x3be88727	0.0070961895
26	0x3c3ce061	0.0115281055
27	0x3da70793	0.081557415
28	0xbc98dc2e	-0.018659677
29	0x3db6bf9e	0.08923267
30	0x3d827131	0.06369246
31	0x3e4843ed	0.19557162
32	0x3e87f347	0.26552793
33	0x3c171a52	0.009222584
34	0x3d4b06d5	0.049567062
35	0xbcba0bce	-0.022710707
36	0xbdb77967	-0.089587025
37	0xbdb0f3cd	-0.08640251
38	0xbda598dd	-0.08085797
39	0xbc73ba74	-0.014875997
40	0x3d056fa9	0.03257719
41	0x3ced69c3	0.028981095
42	0xbe13a01a	-0.14416543
43	0xbd4bbff2	-0.0497436
44	0xbbb24215	-0.0054400065
45	0x3e2e87e0	0.1704402
46	0x3da711a6	0.08157663
47	0x3da9c12b	0.08288797
48	0x3c40a312	0.011757629
49	0xbc815a1d	-0.01579004
50	0x3d8394dc	0.06424877
51	0xbd4605d1	-0.04834539
52	0xbc8e9aaf	-0.017407743
53	0xbd05885a	-0.032600738
54	0x3d814f61	0.063139684
55	0x3ccdc03a	0.025116075
56	0xbd5562e3	-0.05209626
57	0xbd897e46	-0.06713538
58	0xbe67b304	-0.22626883
59	0xbe45a8d8	-0.1930269
60	0xbce94e30	-0.028479666
61	0x3df6ff98	0.120604694
62	0x3cf30639	0.029666053
63	0xbda19abc	-0.07890841
64	0x3bbbdef4	0.005733365
65	0x3d4ee300	0.050509453
66	0x3dab4507	0.08362775
67	0x3e4a830b	0.19776551
68	0x3c90a5eb	0.01765724
69	0xbdfa3ddd	-0.12218831
70	0xbdbacb9e	-0.09120868
71	0xbd9bd6c3	-0.07609322
72	0xbdbad3d4	-0.09122434
73	0x3d369728	0.044577748
74	0x3d642d2b	0.055707138
75	0x3e113692	0.14180973
76	0x3ddfbde1	0.109248884
77	0x3de3609a	0.1110241
78	0x3bf6bf71	0.007530146
79	0xbdbc18e4	-0.09184435
80	0xbdd81b51	-0.10552085
81	0x3d325b1c	0.04354392
82	0x3c340740	0.010988057
83	0xbd87cc59	-0.06630773
84	0x3d69b478	0.057056874
85	0x3c9197d8	0.0177726
86	0x3d59c0c3	0.053162348
87	0xbd0be45a	-0.03415332
88	0xbd15fd10	-0.036618292
89	0xbd8b8356	-0.0681216
90	0x3ca979de	0.020687994
91	0xbd9050d6	-0.07046668
92	0x3c1b00ef	0.009460672
93	0x3d36686d	0.044533182
94	0x3e64ce28	0.22344267
95	0x3dc0c58a	0.094126776
96	0xbe8b923c	-0.27260005
97	0xbdd59fc9	-0.10430867
98	0x3d068904	0.032845512
99	0xbdc68731	-0.096937545
100	0xbd4e8554	-0.05042012
101	0x3b84affd	0.0040492998
102	0x3c8b91bc	0.017037265
103	0xb97fcf36	-0.00024395887
104	0xbd84b3a8	-0.06479579
105	0xbd12bf3c	-0.035826907
106	0xbd84114f	-0.06448614
107	0xbdf23e54	-0.118282944
108	0x3d0609b3	0.032724094
109	0x3dbff32b	0.093725525
110	0x3cea40f7	0.02859543
111	0x3db5ec47	0.08882957
112	0x3bd7fb8e	0.006591267
113	0xbd264695	-0.040594656
114	0x3d5b1983	0.053491127
115	0x3d8eff0a	0.069822386
116	0x3b80c04b	0.003929173
117	0xbd69c7c8	-0.057075292
118	0xbd90f51a	-0.070779994
119	0xbe0021e3	-0.12512927
120	0xbda7229f	-0.081609
121	0xbdd20b72	-0.10256089
122	0xbddde515	-0.108347096
123	0xbd8fdf6e	-0.07025038
124	0xbd0849a8	-0.03327337
125	0xbde19e7e	-0.11016558
126	0x3d33869a	0.043829538
127	0x3a4af5fc	0.0007742343
128	0xbc86e00c	-0.016464256
129	0x3d0bae7a	0.03410194
130	0x3d710c8b	0.058849853
131	0x3d9ea2b1	0.07745875
132	0x3d16f39c	0.036853418
133	0x3db3bcca	0.08776243
134	0x3db2b540	0.08725977
135	0x3d17ac24	0.0370294
136	0xbdad3e87	-0.08459192
137	0x3d4fd5e0	0.050741076
138	0xbd0b126e	-0.033953123
139	0xbddea47d	-0.108712174
140	0x3cbead53	0.023276007
141	0x3d2a4da4	0.04157795
142	0x3cb17416	0.0216618
143	0xbca1e4da	-0.019762445
144	0x3e1396c1	0.14412977
145	0xbde2072b	-0.110365234
146	0xbe5a6618	-0.21328008
147	0x3c353101	0.011059047
148	0xbe80e6ef	-0.25176188
149	0xbc889251	-0.016671332
150	0xbebc7651	-0.36809018
151	0xbe42b4f3	-0.19014339
152	0xbd54cd0b	-0.051953357
153	0x3d52b5d6	0.051442944
154	0x3d9db446	0.077004
155	0xbd1da744	-0.038489595
156	0x3de39d5d	0.11113999
157	0x3d6731df	0.056444045
158	0x3d19a959	0.037515018
159	0x3e22427a	0.15845671
160	0x3da6a759	0.08137388
161	0x3c91c19b	0.017792514
162	0x3e01832f	0.12647699
163	0x3d24b35d	0.040210117
164	0xbcae2e73	-0.021262383
165	0x3c7c0c68	0.015383817
166	0xbceaea05	-0.028676042
167	0x3cb0d910	0.021587878
168	0x3d787c8f	0.060665663
169	0xbc9cdf54	-0.01914946
170	0xbd6a6570	-0.057225645
171	0x3d3060ae	0.04306095
172	0x3c411a4d	0.011786056
173	0xbd8beec6	-0.06832652
174	0xbdc1b9ff	-0.09459304
175	0xbd2d4f51	-0.04231197
176	0x3d0d4aa1	0.034495
177	0x3c3f6413	0.011681574
178	0x3ba75245	0.005106243
179	0x3d3a740f	0.04552084
180	0x3ca5f346	0.020257603
181	0xbd17bed0	-0.037047207
182	0xbd80ee83	-0.062954925
183	0x3de190c1	0.11013938
184	0xbe05e9cb	-0.13077466
185	0x3d1c1b41	0.03811193
186	0xbe39d1b6	-0.18146405
187	0x3d29eb45	0.041484136
188	0xbc3cb0b3	-0.011516738
189	0x3c612087	0.013740665
190	0x3d0f3fb2	0.034972854
191	0xbc043247	-0.008068628
192	0xbb80a024	-0.0039253403
193	0xbd4ee223	-0.05050863
194	0xbc5996b5	-0.01328056
195	0x3d1c5033	0.03816242
196	0xbc8eb411	-0.017419847
197	0xbd44c52a	-0.048039593
198	0xbe15a07c	-0.14612001
199	0xbd3d7da5	-0.046262402
200	0x3db79f9b	0.08965989
201	0x3c98a7e5	0.018634746
202	0xbcc0a657	-0.023516817
203	0x3d2cf191	0.042222563
204	0x3d5f3d9b	0.05450211
205	0xbd41f082	-0.047348507
206	0xbd6f909f	-0.05848753
207	0x3d1a4461	0.037662867
208	0xbd9a269d	-0.07526896
209	0xbd888cc8	-0.06667477
210	0x3d2ff042	0.042953737
211	0xbe82321f	-0.25428864
212	0x3d59fa89	0.053217445
213	0xbdb79ef6	-0.08965866
214	0xbe3a4d52	-0.18193558
215	0xbdfba541	-0.12287379
216	0xbd784ae5	-0.0606183
217	0xbd87c7b0	-0.06629884
218	0xbdd6ee36	-0.10494654
219	0x3d9b3de6	0.075801656
220	0xbe19786b	-0.14987342
221	0xbeaf1922	-0.34198862
222	0xbe14ced4	-0.14532024
223	0xbeb46c66	-0.3523895
224	0xbe011882	-0.12607005
225	0x3e4e7135	0.20160373
226	0xbcfbc046	-0.030731332
227	0x3db8a696	0.09016149
228	0x3ca0f274	0.01964686
229	0xbc20db10	-0.009817854
230	0x3d13ba2e	0.036066227
231	0x3d6c068a	0.057623424
232	0xbcfc3112	-0.030785117
233	0xbc11e88e	-0.008905543
234	0x3da3fdf0	0.08007419
235	0x3d60fd82	0.054929264
236	0xbc73a74e	-0.0148714315
237	0x3ba5f536	0.005064632
238	0xbd36bcfe	-0.04461383
239	0x3d7105a8	0.058843285
240	0xbd18fd42	-0.0373509
241	0xbd313e13	-0.04327209
242	0xbdcc6d63	-0.09981801
243	0xbd83ff14	-0.06445137
244	0x3d65a450	0.056064904
245	0x3d47160c	0.04860501
246	0x3c45af61	0.012065739
247	0x3b6b019d	0.0035859116
248	0xbda23de4	-0.07921961
249	0xbe171954	-0.14755756
250	0xbe0ec74d	-0.13943215
251	0xbbe4edfc	-0.0069863778
252	0x3c36f0d6	0.011165818
253	0x3cced241	0.025246741
254	0x3da81014	0.08206192
255	0x3d95bc17	0.07311266

encoder_conv.2.bias f4 [32]
0	0xbc9c11c7	-0.019051446
1	0x3d95c4f9	0.0731296
2	0x3da3dcc3	0.08001091
3	0xbad69071	-0.0016369951
4	0xba149136	-0.000566739
5	0x3d353105	0.0442362
6	0x3d2148a5	0.03937592
7	0x3db37d2d	0.0876411
8	0x3d30c0a1	0.043152455
9	0x3d2ff7ac	0.042960808
10	0x3d77ab1f	0.06046593
11	0x3d548ca0	0.051891923
12	0xbcab236f	-0.02089092
13	0x3bc34673	0.005959326
14	0xbc864e6e	-0.01639482
15	0x3d2c1aa0	0.04201758
16	0x3d96cf7a	0.07363792
17	0x3d8411ef	0.06448733
18	0x3b8d74ec	0.0043169167
19	0x3d91bd14	0.07116142
20	0x3da7c4e7	0.08191853
21	0x3d87722a	0.06613572
22	0x3c1ed250	0.009693697
23	0xbd3851cc	-0.044999883
24	0x3cbd0d71	0.023077698
25	0x3d52f04d	0.0514987
26	0xbd2c2c0f	-0.042034205
27	0x3d844b7c	0.0645971
28	0x3ca43494	0.020044602
29	0xbdb2e8d7	-0.08735817
30	0x3d175e92	0.036955424
31	0x3d9a8b10	0.07546055

encoder_conv.4.weight f4 [64, 32, 7, 7]
0	0x8006ae80	-6.13612e-40
1	0x800628b6	-5.65617e-40
2	0x8006235a	-5.63695e-40
3	0x00055981	4.91285e-40
4	0x00056223	4.94382e-40
5	0x0006825f	5.97781e-40
6	0x0006917d	6.03204e-40
7	0x000594d7	5.12571e-40
8	0x8005a052	-5.1669e-40
9	0x000576c0	5.01777e-40
10	0x8006992d	-6.05962e-40
11	0x80060d7e	-5.55853e-40
12	0x0006b303	6.1523e-40
13	0x800597c9	-5.13628e-40
14	0x80063404	-5.69673e-40
15	0x80057441	-5.00882e-40
16	0x800558b2	-4.90995e-40
17	0x1c2b1ce3	5.661649e-22
18	0x37f4eb7b	2.919672e-05
19	0xacb3b747	-5.107834e-12
20	0x00056ad8	4.97506e-40
21	0x80055d83	-4.92723e-40
22	0x0006d2d6	6.26647e-40
23	0x357c9a39	9.410174e-07
24	0xb6aa1250	-5.0685267e-06
25	0xb74ccb1d	-1.22066385e-05
26	0xb7940edd	-1.7649896e-05
27	0x00057a64	5.03083e-40
28	0x000622c3	5.63483e-40
29	0x80059337	-5.11988e-40
30	0xafca9d16	-3.6855202e-10
31	0xa8568d28	-1.1909995e-14
32	0xb0ecf03d	-1.723954e-09
33	0x344c097b	1.900243e-07
34	0x00057398	5.00645e-40
35	0x80064b48	-5.78019e-40
36	0x80064d10	-5.78658e-40
37	0xa555e1e3	-1.8551338e-16
38	0x2ed5b9a3	9.719094e-11
39	0x3a6be114	0.0008998078
40	0x372c2239	1.0259967e-05
41	0x8ae1ee6b	-2.1756395e-32
42	0x8006dd22	-6.3034e-40
43	0x80063b79	-5.72348e-40
44	0x00055777	4.90554e-40
45	0xb6d2c910	-6.2818945e-06
46	0xba0ac20c	-0.00052931975
47	0x002649aa	3.516175e-39
48	0x800560d2	-4.9391e-40
49	0xb9d00e12	-0.00039683335
50	0x3b711561	0.0036786424
51	0xbb138894	-0.0022511827
52	0xba577a25	-0.00082198
53	0x3b5bd528	0.00335438
54	0xbb704e23	-0.0036667667
55	0xbc2efcf5	-0.010680427
56	0xbc6d5d17	-0.014487526
57	0xbbc4d38b	-0.006006663
58	0xbc5847e8	-0.013200738
59	0x3c033dc7	0.008010334
60	0xbc9fe86c	-0.019520007
61	0xbbb964bb	-0.00565776
62	0xbb5c1080	-0.003357917
63	0xbc352427	-0.011055983
64	0x3b79d38f	0.0038120484
65	0x3bd6a6e6	0.0065506576
66	0xbc80c9cb	-0.015721222
67	0xbc235c3a	-0.009970719
68	0x3c17b214	0.009258766
69	0x3c0c472c	0.008561891
70	0xbb78e519	-0.003797835
71	0x3c1b276d	0.009469849
72	0xbc9003b6	-0.017579895
73	0x3c33cc94	0.010974068
74	0x3be30695	0.006928275
75	0x3bf07386	0.00733799
76	0xbc682c9d	-0.014170793
77	0x3baf74ee	0.0053545153
78	0x3bc482f4	0.005997056
79	0x3c47f6b7	0.0122048175
80	0xbc68ae55	-0.01420172
81	0xbc90921c	-0.017647795
82	0xbbf22f1a	-0.007390869
83	0xbc09c7ee	-0.008409483
84	0x3b5b1f4a	0.0033435398
85	0x3b0c402c	0.0021400554
86	0xbbf48bcb	-0.0074629537
87	0xbc532cd6	-0.012889108
88	0xbcc664ec	-0.024218045
89	0x3b5b91c0	0.0033503622
90	0x3a2235d4	0.00061878306
91	0xbc7e6b39	-0.015528494
92	0x3c236164	0.00997195
93	0xbb86f1b3	-0.0041181683
94	0xbad47072	-0.0016207828
95	0x3c1d3b76	0.009596696
96	0xbbf8014a	-0.007568513
97	0xbbb5b511	-0.0055452664
98	0xbab01ffe	-0.0013437269
99	0xbc210264	-0.00982723
100	0xbc543b5c	-0.0129536055
101	0xbac8aa6e	-0.0015309581
102	0x3b0fe505	0.0021956575
103	0xbbe5dda6	-0.007014948
104	0xbbe040f9	-0.006843683
105	0x00057061	4.99491e-40
106	0xbb22491a	-0.002476281
107	0xbbc225b7	-0.005924906
108	0x3b810972	0.0039378935
109	0x3b771093	0.0037699088
110	0xbb236d0a	-0.0024936819
111	0xbb955ea1	-0.0045584
112	0x80056d99	-4.98494e-40
113	0xb95ee2e4	-0.00021256093
114	0xbb2f4b64	-0.0026747817
115	0xbbd492f7	-0.006487246
116	0xbc5ae023	-0.013359102
117	0xbbce9f32	-0.0063055987
118	0x3b5c4ecd	0.0033616305
119	0x0005f802	5.48146e-40
120	0xbb53fff5	-0.0032348607
121	0x3bba16bd	0.00567898
122	0x3b293dbc	0.002582415
123	0xbb63d7ba	-0.0034766034
124	0x3b89db42	0.004207046
125	0xbbbc8039	-0.00575259
126	0x80056041	-4.93707e-40
127	0xbae74f00	-0.0017647445
128	0x3bca6b3e	0.006177335
129	0x3ba81b8a	0.005130236
130	0xbbc7f15f	-0.0061017717
131	0x3adff8bb	0.0017087677
132	0xba856b66	-0.0010179102
133	0x80066212	-5.86194e-40
134	0xb9de1d0b	-0.00042364778
135	0xba81dd49	-0.0009907867
136	0xbbf38c47	-0.007432494
137	0x3bf66e61	0.0075204824
138	0x3c1fffe3	0.009765598
139	0x3a5b62ca	0.0008368908
140	0x0006d926	6.28911e-40
141	0x3a39adf4	0.0007083111
142	0xbadc5f35	-0.0016813042
143	0x3b85c6be	0.00408253
144	0xbbc490a4	-0.005998688
145	0xbb16cb06	-0.0023009195
146	0x3b3ff022	0.0029287417
147	0x8005d496	-5.35439e-40
148	0x80067441	-5.92717e-40
149	0x0005656b	4.9556e-40
150	0xa5a082fd	-2.7844337e-16
151	0xb21ffaf0	-9.312075e-09
152	0x1480d1f1	1.3007504e-26
153	0x00055a35	4.91538e-40
154	0x0005e2a5	5.40482e-40
155	0xb89771ea	-7.221459e-05
156	0x3a73b6da	0.00092969614
157	0x3b9bfb94	0.004760215
158	0xbc2def52	-0.01061614
159	0x3c0dd277	0.008656136
160	0x3a55c27a	0.00081542844
161	0x20a6caf2	2.8255792e-19
162	0x3aee0c0a	0.0018161547
163	0x3b86f1da	0.0041181864
164	0xb7c818d1	-2.3853414e-05
165	0xbc7a7763	-0.015287253
166	0xbb824ead	-0.003976664
167	0xbaedb844	-0.001813658
168	0x2c7212a3	3.4400614e-12
169	0xb98403cc	-0.0002517983
170	0xbc34022b	-0.010986845
171	0x3a70ff9f	0.0009193364
172	0x3c1f80e5	0.009735321
173	0x3bca5404	0.006174566
174	0xbb645872	-0.0034842757
175	0x8005d0c1	-5.34064e-40
176	0x3b0d675f	0.0021576507
177	0xbc2b8153	-0.010467845
178	0xbb314d93	-0.0027054294
179	0x3bf40b69	0.0074476493
180	0x3bdf6674	0.0068176333
181	0x3a4844ea	0.00076396635
182	0x0005581c	4.90785e-40
183	0xbaf54427	-0.0018712328
184	0xbc66680e	-0.0140628945
185	0x3a856767	0.0010177911
186	0xbb6f9e30	-0.0036562793
187	0x3b215c0f	0.0024621522
188	0xb696bdef	-4.4924595e-06
189	0x000690d2	6.02965e-40
190	0x389cc088	7.4745214e-05
191	0xbb72b24f	-0.003703255
192	0x3aea38ba	0.0017869689
193	0xbc950f33	-0.018195724
194	0xbba48903	-0.005021216
195	0xb66ac5e1	-3.4983898e-06
196	0xbb6b15bb	-0.0035871107
197	0x3bf93c89	0.0076060933
198	0xbc83d116	-0.01609091
199	0xbbe36ca0	-0.0069404393
200	0x3c2ebcc5	0.010665123
201	0x3bc08b9e	0.0058760187
202	0x3c1373a9	0.0089997435
203	0xbc2a36e4	-0.0103890635
204	0xbbc68879	-0.0060587493
205	0xbc8c8be5	-0.01715655
206	0x3b657273	0.0035010844
207	0xbcd34af9	-0.025792586
208	0x3c5ec921	0.013597758
209	0xbc7c4068	-0.015396215
210	0xbbb94355	-0.0056537786
211	0xbc827015	-0.015922586
212	0x3c382a26	0.011240518
213	0x3bf53ef4	0.0074843112
214	0xbc506a36	-0.012720635
215	0xbbc10bc1	-0.0058912938
216	0xbc0072f8	-0.007839911
217	0xbc5f0bea	-0.01361368
218	0xbc890617	-0.016726537
219	0xbc89b284	-0.016808756
220	0xb86e4e35	-5.6816458e-05
221	0xbc0de686	-0.008660918
222	0x3c53ea2e	0.012934251
223	0x3c19dfff	0.009391784
224	0xbc282841	-0.0102635035
225	0xbc82e2b5	-0.015977243
226	0xbca15dfa	-0.019698132
227	0x3b994d54	0.0046784077
228	0xbc467f9d	-0.012115386
229	0xbca4c8a7	-0.02011521
230	0xbc546667	-0.012963868
231	0x39184e4a	0.00014525015
232	0xbc47882d	-0.012178463
233	0xbc99ca7e	-0.018773314
234	0xbca4a15d	-0.020096475
235	0xbc4a797e	-0.012358068
236	0xbc6aa1bb	-0.014320786
237	0xbcab4731	-0.02090797
238	0xbc4702d1	-0.012146668
239	0xbca20ae7	-0.01978059
240	0xbb7f88c2	-0.0038991426
241	0xbc65e240	-0.014030993
242	0xbbb1a85e	-0.0054216823
243	0x3c5d129b	0.013493205
244	0xbb0ee9be	-0.0021806802
245	0xb1e080ea	-6.533914e-09
246	0x39a29927	0.00031013155
247	0x38dbbd4b	0.00010477992
248	0xb962a897	-0.00021615844
249	0x38fa82f9	0.000119453245
250	0x39049c20	0.00012646662
251	0x384e23c0	4.9147522e-05
252	0xbb181ba7	-0.0023209841
253	0xbb2a592b	-0.002599309
254	0xbc36da81	-0.011160494
255	0xbbceefa1	-0.006315187

encoder_conv.4.bias f4 [64]
0	0xbce65227	-0.028115345
1	0xbbf4359a	-0.007452679
2	0x3d3eb2af	0.046557125
3	0xbaa6a1b1	-0.0012712983
4	0x3dc81230	0.09769094
5	0x3be92e88	0.0071161427
6	0x3bd8472e	0.006600282
7	0xbb99b772	-0.004691058
8	0xbcec870d	-0.028872991
9	0x3c5d11cb	0.013493012
10	0xbbcec87a	-0.0063105198
11	0x3ae4c0cf	0.0017452481
12	0x3c361c3b	0.011115129
13	0xbc58d608	-0.013234623
14	0x3c8c508b	0.01712825
15	0xbc8a15b6	-0.016856056
16	0xbc78e4b0	-0.015191242
17	0xbbdfecf1	-0.0068336655
18	0x3bb43776	0.0054997755
19	0xbca3e87b	-0.020008316
20	0x3c06eb17	0.008234761
21	0x3bebb436	0.0071931137
22	0xbb96292a	-0.004582544
23	0xbaad62d1	-0.0013228302
24	0xbaeeb335	-0.0018211367
25	0x3b21c084	0.0024681399
26	0x3c92823e	0.01788437
27	0x3d25e332	0.040499873
28	0x3ccff3b6	0.025384765
29	0xbbe8f6a9	-0.0071094823
30	0xbccf7095	-0.025322238
31	0xbc5328bd	-0.012888131
32	0x3c5ea1ef	0.013588413
33	0x3bef6965	0.007306265
34	0xbcc8e82b	-0.024524769
35	0xbc866ed6	-0.016410273
36	0xbcca6f79	-0.024711357
37	0xbd03d4a9	-0.03218523
38	0x3c7a66de	0.0152833145
39	0xbc0ad2c3	-0.008473101
40	0x3c4a900d	0.012363446
41	0x3cf1b23d	0.029503936
42	0xbc8ea7a1	-0.017413916
43	0x3bd12a8c	0.006383246
44	0xbbe9d970	-0.0071365163
45	0xbcc48d23	-0.02399308
46	0xbc956e30	-0.018241018
47	0xbc6f9b68	-0.014624454
48	0xbb096a11	-0.0020967762
49	0xbcc8e4a6	-0.02452309
50	0xbc7eef85	-0.015560036
51	0x3975186d	0.0002337412
52	0x3a605b25	0.00085585035
53	0xbb24445e	-0.0025065164
54	0xbc8bbb7a	-0.01705717
55	0x3b8992ee	0.0041984236
56	0x3dd89a0f	0.10576259
57	0xbcb83439	-0.02248584
58	0xbcfee131	-0.031113239
59	0xbaab1462	-0.0013052339
60	0xbcc64310	-0.0242019
61	0x3ddc7840	0.10765123
62	0xbbb9e718	-0.0056733005
63	0xbb38b4be	-0.0028183903

fc_mu.weight f4 [64, 64]
0	0xbc358466	-0.0110789295
1	0x340f2dab	1.3334527e-07
2	0x3a7df0f9	0.0009687092
3	0x276e01a7	3.303003e-15
4	0xbbef951f	-0.007311478
5	0x3d88a14e	0.066713914
6	0xbd12364a	-0.035696305
7	0x3a101cdf	0.0005497466
8	0xbacf627c	-0.0015822197
9	0xbdc46387	-0.09589296
10	0xba68a361	-0.0008874443
11	0x392c7d1b	0.00016449804
12	0x3ce524bd	0.02797162
13	0x3dc22101	0.09478951
14	0xbdb664c0	-0.08905935
15	0xbca8a140	-0.020584702
16	0xadf7bb2c	-2.816377e-11
17	0xbc43e04d	-0.011955333
18	0x3cb7adb2	0.022421692
19	0x3d4613a2	0.048358567
20	0x3d2fd19e	0.042924516
21	0xbdccacd8	-0.09993905
22	0x3ce3c055	0.027801672
23	0x80055b10	-4.91845e-40
24	0x00055ef6	4.93243e-40
25	0xbae38bcb	-0.0017360387
26	0x3d8ad4c3	0.06778862
27	0xbbebe9ec	-0.0071995165
28	0xbb12670b	-0.002233925
29	0x3bbc933a	0.0057548555
30	0xbda45513	-0.08024039
31	0x3b1e935c	0.002419672
32	0xbc43ffd8	-0.011962853
33	0xb3954e32	-6.952577e-08
34	0x3c1273b2	0.008938717
35	0x3d74fbde	0.05981051
36	0xbd543e35	-0.051817138
37	0xbdbe7461	-0.09299541
38	0xbde0dba0	-0.1097939
39	0x3cf7a32d	0.030229175
40	0xbcb36efc	-0.021903507
41	0x3a16cc5e	0.0005752499
42	0x3c7573d8	0.014981233
43	0xbd04c13f	-0.032410856
44	0x3ac10f9e	0.0014729386
45	0xbc2f175d	-0.010686723
46	0x3ad8873d	0.0016519796
47	0xb4a8c66d	-3.1436812e-07
48	0x121aca10	4.8842893e-28
49	0x3d050434	0.03247471
50	0x39dd9fdb	0.00042271506
51	0x3cc2f3cc	0.023797892
52	0xbbd353ee	-0.006449214
53	0xb70a5773	-8.245802e-06
54	0xbd1b1d34	-0.037869647
55	0xbd7fbed7	-0.06243786
56	0xba8ac83c	-0.0010588239
57	0xbcac830c	-0.021058582
58	0x37f3d8d6	2.906883e-05
59	0xbd4b31fc	-0.049608216
60	0x3b37088f	0.0027928685
61	0xbb7d8296	-0.0038682572
62	0x3c5ae35d	0.013359872
63	0x3cf89509	0.030344503
64	0xbda691c5	-0.08133272
65	0xb6f6e691	-7.3582128e-06
66	0x3c0cb55c	0.008588161
67	0xa7a1e568	-4.49352e-15
68	0x3be09dac	0.0068547335
69	0xbb3f2cf5	-0.0029171084
70	0x3da90d7f	0.08254527
71	0x3ac2d748	0.0014865184
72	0x3b3b6c89	0.0028598628
73	0xbcfe63b9	-0.03105341
74	0xb9a7d97f	-0.0003201477
75	0x3b8b2e7c	0.0042474847
76	0xbc2c7bc2	-0.010527553
77	0x3da7d68f	0.08195221
78	0xbdb4fbe6	-0.08837108
79	0xbc1778da	-0.009245122
80	0x2f2f7258	1.595678e-10
81	0xbda60240	-0.08105898
82	0xbd3aaf30	-0.045577228
83	0x3ca43b8b	0.020047924
84	0x3d5eb2ec	0.054369852
85	0x3d0791fe	0.033098213
86	0x3c82995f	0.015942274
87	0x80055c70	-4.92338e-40
88	0x0005627d	4.94508e-40
89	0x3c015c4e	0.007895542
90	0x3d687eae	0.056761436
91	0xba4eeb63	-0.0007893352
92	0x3b792266	0.0038014888
93	0x3cf1fe6c	0.029540263
94	0xbd9bd4c6	-0.07608943
95	0xb91c8c26	-0.00014929529
96	0x3d089263	0.03334273
97	0x341a485c	1.4368692e-07
98	0xbc10331a	-0.008801246
99	0xbd4d0d13	-0.050061297
100	0xbacbf757	-0.0015561384
101	0xbd0ab818	-0.03386697
102	0xbb08d9d3	-0.0020881786
103	0xbd07ccaf	-0.033154186
104	0x3b654d88	0.003498884
105	0x3b253ad7	0.0025212073
106	0x3c41009a	0.011779929
107	0x3d11199b	0.03542481
108	0xba50572d	-0.00079475605
109	0x3cbe52dc	0.02323287
110	0xbb41f85d	-0.00295975
111	0xba97ea6b	-0.0011590248
112	0xa15243f4	-7.1240703e-19
113	0xbd082a31	-0.03324336
114	0x39c9585f	0.0003840355
115	0xbba2fc65	-0.0049739354
116	0x3c7264aa	0.014794508
117	0x381d1d9c	3.7459293e-05
118	0xbc836b8a	-0.01604249
119	0xbaf09fb0	-0.0018358137
120	0x3b9295ba	0.004473415
121	0x3d0e1173	0.03468461
122	0x38beb77c	9.0940826e-05
123	0x3d8aac38	0.06771129
124	0x3a96d0c9	0.0011506315
125	0x3be021fd	0.006839989
126	0xbcacbf36	-0.02108727
127	0xbd28f885	-0.04125263
128	0x3d2a7cbb	0.04162286
129	0x38bcf85d	9.0108e-05
130	0x3be20683	0.006897749
131	0x2657d91f	7.4887363e-16
132	0x3c4894d8	0.012242518
133	0x3bf276f8	0.007399436
134	0xbcebefb9	-0.028800832
135	0x3a7bd75e	0.00096069823
136	0x3ab13aa1	0.0013521501
137	0x3ae15b08	0.0017193267
138	0x3b0601c3	0.0020447827
139	0x3b9d238c	0.0047954973
140	0xbcc8b056	-0.024498146
141	0x3d070712	0.032965727
142	0x3d7fa1ac	0.06241004
143	0xbaf4300b	-0.001863004
144	0xb1070a3d	-1.9650905e-09
145	0x3d8da699	0.069165416
146	0xbd8d034f	-0.06885397
147	0x3bf5e683	0.007504286
148	0x3dabf0bc	0.08395526
149	0x3d1d2072	0.03836102
150	0x3d4fdd0b	0.050747912
151	0x8005635a	-4.94818e-40
152	0x80056443	-4.95145e-40
153	0xbd55563e	-0.0520842
154	0xbc8295b4	-0.015940525
155	0x3b9aa667	0.0047195437
156	0x3bf67579	0.007521328
157	0xbd25d871	-0.040489618
158	0xbd8e7d9f	-0.06957554
159	0xbc58e2f0	-0.0132377
160	0xbc8f2e42	-0.017478112
161	0xb6737926	-3.628034e-06
162	0x3b904b15	0.0044034817
163	0xbc74893e	-0.014925299
164	0xbd1eda0f	-0.038782176
165	0x3d802705	0.062574424
166	0xbd40fb5b	-0.04711471
167	0xbd31363f	-0.043264624
168	0x3ce9cf96	0.028541368
169	0x3b22c50d	0.002483669
170	0x3ca80f1c	0.020515017
171	0x3d5503c6	0.05200555
172	0xbb050c36	-0.0020301468
173	0xbcdebdd5	-0.027190128
174	0x3bd0dac5	0.0063737356
175	0xb7501dfc	-1.2404747e-05
176	0x1ef1a396	2.5584525e-20
177	0x3d02760e	0.031850867
178	0xb6aec81b	-5.2088994e-06
179	0xbd41109d	-0.047134984
180	0x3c9d5d9f	0.019209681
181	0xb73e426b	-1.1340347e-05
182	0x3cc1f66c	0.023677073
183	0x3c4c4903	0.012468579
184	0x3bb0fcbf	0.0054012234
185	0xbd654cda	-0.055981494
186	0x38a0cc3f	7.667438e-05
187	0x3db56454	0.08857027
188	0xbb409538	-0.0029385816
189	0x3c133fe3	0.0089874
190	0x3c86edff	0.016470907
191	0x3d3c0a9a	0.045908548
192	0xbcd5c951	-0.026096972
193	0x80055a13	-4.9149e-40
194	0x3a001348	0.00048856856
195	0x80029989	-2.38749e-40
196	0xbaa7b492	-0.0012794903
197	0x3a7ca49d	0.00096375664
198	0xba8b0c03	-0.0010608438
199	0x3b093c97	0.0020940655
200	0x3a05316d	0.00050809124
201	0xbb94b7fd	-0.0045385347
202	0xbb1502e6	-0.0022737323
203	0xbae72d86	-0.0017637468
204	0x00055d12	4.92565e-40
205	0x3cbb393e	0.022854444
206	0x3cab337e	0.020898577
207	0xb37096f4	-5.6016646e-08
208	0x0005574c	4.90494e-40
209	0xbd1f1b45	-0.038844366
210	0xb43bf6c3	-1.7505504e-07
211	0x19b8dfed	1.9115597e-23
212	0xb9e41baa	-0.0004350816
213	0x3d171d97	0.036893453
214	0xa7d87131	-6.0074766e-15
215	0x80055b0c	-4.91839e-40
216	0x00056242	4.94426e-40
217	0x80055735	-4.90461e-40
218	0xa8a25693	-1.8023159e-14
219	0xbb3e3b99	-0.0029027222
220	0xbb41cc79	-0.0029571338
221	0xbca0981a	-0.019603778
222	0xbae3a854	-0.0017368891
223	0x2a5bb783	1.9514776e-13
224	0x00056120	4.9402e-40
225	0x80055bdb	-4.92129e-40
226	0x00055e87	4.93088e-40
227	0x390f02bc	0.00013638561
228	0x93ca8578	-5.112358e-27
229	0x3db5bebc	0.0887427
230	0xba2e9ba3	-0.0006660765
231	0x3749f500	1.2037577e-05
232	0xa1201018	-5.423141e-19
233	0xbb1248a4	-0.002232113
234	0x3a2db6d3	0.0006626669
235	0x2ebf7409	8.7062864e-11
236	0xba8f1820	-0.0010917224
237	0xb63f425f	-2.849985e-06
238	0x24d97dde	9.4321976e-17
239	0x33290b9a	3.935893e-08
240	0x0005613b	4.94057e-40
241	0x3ce9c641	0.028536918
242	0x000559a7	4.91339e-40
243	0x2a36a004	1.6220364e-13
244	0x9ab7cf7e	-7.602225e-23
245	0x99cf52ff	-2.143682e-23
246	0x3ced6eb0	0.028983444
247	0xbb8c713f	-0.004285961
248	0xbb1603cb	-0.0022890444
249	0x3986a244	0.0002567937
250	0x2324d0cf	8.934675e-18
251	0x39670a98	0.00022033823
252	0xa4f4add9	-1.0611264e-16
253	0xbaae83a0	-0.0013314374
254	0x3d43346a	0.047657408
255	0xb2abc169	-1.9994973e-08

fc_mu.bias f4 [64]
0	0x3dbd27aa	0.09236081
1	0xbe0c8f16	-0.13726458
2	0xbe2a3f09	-0.16625609
3	0x3cdf7e4d	0.027281905
4	0xbd81c752	-0.063368455
5	0xbe1b0216	-0.15137514
6	0xbe4db29b	-0.20087664
7	0xbc2ba5af	-0.010476514
8	0x3e836543	0.25663194
9	0xbd548122	-0.051880963
10	0xbdf0da39	-0.11760373
11	0xbda8a277	-0.08234113
12	0x3adc7733	0.0016820192
13	0xbdb8b5f5	-0.090190805
14	0xbd0d7fde	-0.03454577
15	0x3b4dffc3	0.0031432963
16	0x3e3feaec	0.1874196
17	0xbc4e1540	-0.012578309
18	0xb8eaf3bc	-0.000112033886
19	0xbe2bc23b	-0.16773312
20	0x3d916540	0.0709939
21	0x3e37d081	0.17950632
22	0x3e1016be	0.14071175
23	0xbdefb647	-0.117046885
24	0x3dec9784	0.11552337
25	0x3d464573	0.048406076
26	0xbdb78139	-0.08960194
27	0xbd986b0c	-0.074422926
28	0xbd313ceb	-0.043270987
29	0x3e0a671e	0.13515899
30	0xbdd6043f	-0.10450029
31	0x3d9e079b	0.077162944
32	0xbd828aa8	-0.06374103
33	0x3cf18f9f	0.02948743
34	0xbd8ce0b2	-0.06878795
35	0xbdc0662f	-0.0939449
36	0x3e5abcbe	0.21361062
37	0x3e354253	0.17701082
38	0x3d9101d5	0.070804276
39	0xbd91f8b9	-0.07127518
40	0x3e03530f	0.12824653
41	0x3de8e27d	0.11371324
42	0x3d615415	0.055011827
43	0x3e2df1c4	0.16986758
44	0xbd2bec6c	-0.041973516
45	0xbd807615	-0.06272522
46	0x3d8de31c	0.06928083
47	0xbc0f8e41	-0.008761943
48	0x3d1c613e	0.038178675
49	0xbd63315b	-0.05546699
50	0x3c3ea008	0.011634834
51	0x3d0fb153	0.03508122
52	0xbe31cef4	-0.17364103
53	0x3ddcd31f	0.10782456
54	0x3cb265b5	0.021777013
55	0xbd5f539a	-0.054523088
56	0xbdc8fd59	-0.09813947
57	0x3ca8f7b6	0.02062593
58	0x3dcd8677	0.10035413
59	0x3c910435	0.017702201
60	0xbd48d91e	-0.049035184
61	0xbdf5e1ae	-0.120059356
62	0x3dd7904e	0.10525571
63	0x3ba8af4f	0.0051478515

fc_logvar.weight f4 [64, 64]
0	0x3d7209be	0.059091322
1	0xb09db0c2	-1.1473491e-09
2	0x3b347aee	0.0027539092
3	0x125509b2	6.72229e-28
4	0x3b0bbdc7	0.0021322833
5	0xbd6ad239	-0.05732939
6	0x3bc5b4d2	0.0060335184
7	0x3b8a46ab	0.00421985
8	0xba3833d4	-0.0007026766
9	0xbd4c8123	-0.049927842
10	0xb9b3c485	-0.0003428796
11	0x3a910261	0.0011063331
12	0xbba403f2	-0.005005353
13	0x3cf63b59	0.030057596
14	0x3d8bbbc9	0.068229266
15	0x3d8520d5	0.06500403
16	0x10830edb	5.169328e-29
17	0x3d8a87db	0.067641936
18	0x3bd927ac	0.0066270437
19	0xbb986904	-0.0046511907
20	0xbd0c11ec	-0.03419678
21	0x3d8cdb57	0.06877773
22	0xbb90da48	-0.0044205524
23	0x00055912	4.9113e-40
24	0x000557fb	4.90739e-40
25	0xbcb3f886	-0.021969091
26	0x3b209286	0.0024501397
27	0x3bad58a0	0.005290106
28	0x3b3f3087	0.0029173212
29	0xbd296b1f	-0.041361924
30	0x3d0fd38d	0.03511386
31	0x39b26645	0.00034027002
32	0x3c960d99	0.01831703
33	0xaa65b8b7	-2.0403372e-13
34	0xb9b01861	-0.000335875
35	0xbd418b23	-0.04725183
36	0xbbd74aa6	-0.006570178
37	0xbd34eb73	-0.044169854
38	0xba948e63	-0.0011333938
39	0x39cd45b6	0.00039152586
40	0xbcf127ad	-0.029437864
41	0x3add0f43	0.001686551
42	0x3d5f1d07	0.054471042
43	0xbcc5b790	-0.024135381
44	0xb9edb019	-0.00045335366
45	0x3c775c8f	0.015097751
46	0x37f98032	2.9742809e-05
47	0xb2fda17a	-2.9526507e-08
48	0x8face657	-1.7049233e-29
49	0x3d00d8d6	0.03145679
50	0xb836ea9b	-4.3610675e-05
51	0xbb245d84	-0.0025080154
52	0x3c87d0bc	0.016579024
53	0x2ab67676	3.2411893e-13
54	0xbcfa1618	-0.030528113
55	0xbcf4246e	-0.029802527
56	0x3b401806	0.0029311194
57	0xbc8aba07	-0.016934408
58	0xa8fe3059	-2.8220632e-14
59	0xbcb33aa2	-0.021878544
60	0xb82d7101	-4.1351657e-05
61	0x39c1185a	0.00036829972
62	0xbdabe49c	-0.08393213
63	0xb9dcc911	-0.00042111476
64	0x3bded174	0.006799871
65	0x80055fc3	-4.9353e-40
66	0xbb42f44e	-0.0029747668
67	0x079ae51a	2.3305998e-34
68	0x39ba80e6	0.0003557272
69	0xbc594515	-0.013261099
70	0xbc792ba2	-0.015208157
71	0xb9d89d32	-0.0004131585
72	0xbaafbb3c	-0.0013407241
73	0xbcf9a2be	-0.03047311
74	0xbb5f1b57	-0.0034043395
75	0xb9edd69e	-0.00045364065
76	0x3a13fe06	0.00056454574
77	0xbd323570	-0.043507993
78	0x3cf88a93	0.030339515
79	0x3c80d4db	0.015726497
80	0x068fffff	5.4166774e-35
81	0x2b0bfb55	4.9731513e-13
82	0x3b0788a7	0.0020680816
83	0xba24d8ae	-0.00062883913
84	0xbc9fbba6	-0.019498657
85	0x3d0426db	0.032263618
86	0x3cbe8916	0.023258727
87	0x80055b82	-4.92004e-40
88	0x00055d7a	4.9271e-40
89	0xbc0afcba	-0.008483106
90	0x3cf5a571	0.029986115
91	0xbb1b8065	-0.0023727652
92	0xb9ae6338	-0.0003326179
93	0xbdb5dc8c	-0.088799566
94	0x3c8fa1e6	0.017533254
95	0xb81382f9	-3.516951e-05
96	0x3b5d024b	0.003372329
97	0x257e7433	2.2070358e-16
98	0x38a5a372	7.898257e-05
99	0xbcbe747e	-0.023248907
100	0x3bc9b2a2	0.006155328
101	0xbcacbf64	-0.021087356
102	0x3d501bf9	0.050807927
103	0x3b852aed	0.004063955
104	0xbc467397	-0.01211252
105	0x3af0cec7	0.0018372171
106	0xbd0b834e	-0.03406077
107	0x3bd1817b	0.006393609
108	0x3a812191	0.0009851923
109	0xbc327324	-0.0108917095
110	0xb41c96e4	-1.4583526e-07
111	0xac857dde	-3.7940614e-12
112	0x80055e00	-4.92898e-40
113	0x3cc3dba6	0.023908447
114	0x36052f44	1.9846057e-06
115	0x3c1cb1b6	0.009563854
116	0xbcb26a18	-0.021779105
117	0x303e9909	6.9339073e-10
118	0x3d05346f	0.032520708
119	0xbb103672	-0.0022005108
120	0xbac20a35	-0.0014804067
121	0xbbe37f4e	-0.006942666
122	0xb1ce0dd3	-5.9969607e-09
123	0x3d49884f	0.04920226
124	0xb672c189	-3.6173462e-06
125	0xbb482c6c	-0.0030544056
126	0x3c1dafba	0.009624416
127	0x3a7954ef	0.0009511252
128	0x3d9d0a0c	0.07667932
129	0x2b87a3a1	9.637743e-13
130	0x3b2dfbcb	0.0026547785
131	0x86e0df22	-8.45873e-35
132	0x3bb573a2	0.005537466
133	0xbd2bf754	-0.041983917
134	0x3d2ac9cf	0.041696366
135	0x3a725037	0.00092435203
136	0x39ee50d7	0.00045455128
137	0x3d0ac522	0.033879407
138	0x3bbc7034	0.0057506803
139	0xb83bb6bf	-4.475447e-05
140	0x3b12744e	0.0022347155
141	0x3dbd23be	0.09235333
142	0xbcf50657	-0.02991025
143	0xbb74da81	-0.0037361684
144	0x800561dc	-4.94283e-40
145	0x3b995bfc	0.004680155
146	0x3ca86503	0.020555979
147	0x3947f5cf	0.0001906969
148	0xbc4f2618	-0.01264336
149	0x3d917f91	0.071044095
150	0xbbedc19e	-0.007255747
151	0x00055d2c	4.92601e-40
152	0x000561c7	4.94253e-40
153	0x3bd9c752	0.0066460753
154	0xbd136bfa	-0.035991646
155	0x3b3025f4	0.002687809
156	0x3ab6954c	0.0013929992
157	0x3e05ccd0	0.13066411
158	0x3d1658aa	0.03670565
159	0x3915e143	0.00014293664
160	0x3c12ee57	0.008967957
161	0xa84cbc49	-1.1365103e-14
162	0x36a5b23e	4.9381333e-06
163	0xbc329ac0	-0.010901153
164	0xbc93bc80	-0.01803422
165	0x3ceda355	0.029008547
166	0x3c247983	0.010038736
167	0x3be51381	0.0069908504
168	0x3c004212	0.007828252
169	0xba92423a	-0.0011158653
170	0x3d7c535a	0.061602928
171	0x3cc05f63	0.023482984
172	0xba1aade8	-0.0005900548
173	0x3b7e1949	0.0038772395
174	0x37039ee3	7.845202e-06
175	0x3471295a	2.2459918e-07
176	0x861047dc	-2.7136184e-35
177	0x3d099db6	0.03359767
178	0x38917d20	6.937445e-05
179	0x3afc47eb	0.0019247507
180	0x3bdc8cb8	0.006730642
181	0xb13ab4d9	-2.7169362e-09
182	0x3cfaec8b	0.03063037
183	0x3b6eb98c	0.0036426513
184	0x3b4a5dff	0.003087878
185	0xbb99889b	-0.004685474
186	0xa7f30d78	-6.746065e-15
187	0x3d3c8b04	0.046031013
188	0xb651637d	-3.1201337e-06
189	0x3bab8869	0.005234767
190	0xbd9c0719	-0.07618541
191	0xbd026ba9	-0.031840954
192	0xbcd5769d	-0.026057536
193	0x945dbf63	-1.1195393e-26
194	0xba050388	-0.00050740736
195	0x000563ea	4.9502e-40
196	0x38eabe74	0.00011193464
197	0x3d083424	0.03325285
198	0xbc75ce5f	-0.015002816
199	0x39c8fc42	0.0003833492
200	0xba3d1e4a	-0.0007214291
201	0xbc89a19b	-0.016800692
202	0x3a7e4e57	0.00097010046
203	0xba168dd7	-0.00057431817
204	0xba05ca99	-0.0005103737
205	0xbba21081	-0.004945815
206	0x3cb19cd7	0.021681232
207	0x3bcb2e47	0.006200585
208	0x824b59e6	-1.4939884e-37
209	0x3d9ee9e2	0.07759453
210	0x3c85acb3	0.016317701
211	0xbba0deed	-0.0049093873
212	0x3d4380e1	0.04773033
213	0x3b78f95d	0.003799043
214	0xbca7d4af	-0.020487158
215	0x800562be	-4.946e-40
216	0x00056377	4.94859e-40
217	0xbb557990	-0.0032573678
218	0xbb3b391c	-0.0028567975
219	0xbb2b2d13	-0.0026119396
220	0xb9fa8c44	-0.00047788222
221	0x3c7d8b3c	0.015475091
222	0xbc297b7a	-0.0103443805
223	0xb6b9776a	-5.5273313e-06
224	0x3b560426	0.0032656281
225	0x8d8d9ff7	-8.728306e-31
226	0x35fc1e63	1.8784307e-06
227	0x3c419edc	0.01181766
228	0x3ae5380d	0.0017488018
229	0x3d905bf1	0.070487864
230	0xbd021b67	-0.031764414
231	0xba82fa7e	-0.0009992865
232	0xbc3aebb4	-0.011408735
233	0xbb33dff4	-0.002744672
234	0x3d0abb88	0.03387025
235	0x3beca59d	0.007221891
236	0xba630cd0	-0.0008661272
237	0xbc50c7ff	-0.012742995
238	0x3440c8e0	1.7954471e-07
239	0x9a9b7915	-6.4302116e-23
240	0x00044c23	3.94655e-40
241	0x3d0bd0b2	0.034134574
242	0x3220963d	9.347386e-09
243	0x3955d8ca	0.00020394023
244	0xbc961295	-0.018319407
245	0x28ce0eab	2.2876956e-14
246	0xbd0290a5	-0.031876225
247	0xba9d1f33	-0.0011987448
248	0xbad998f8	-0.0016601374
249	0xbc0b78d2	-0.0085126925
250	0xa23ec5bc	-2.5854481e-18
251	0x3ca96b46	0.020681035
252	0x354a3693	7.533028e-07
253	0x3abb6a16	0.0014298584
254	0xbac92ce2	-0.0015348459
255	0xb909dee5	-0.00013148373

fc_logvar.bias f4 [64]
0	0xbdd04f23	-0.10171344
1	0x3d0c21bd	0.034211863
2	0xbda30601	-0.079601295
3	0xbc9edd7f	-0.019392727
4	0x3da139ed	0.078723766
5	0xbec98b57	-0.3936412
6	0xbe854a95	-0.26033464
7	0x3d5e02c8	0.05420187
8	0xbe012a68	-0.12613833
9	0x3cd14129	0.025543766
10	0xbd99dd03	-0.07512858
11	0xbd96343e	-0.07334183
12	0x3da4701b	0.08029195
13	0xbe12d9b4	-0.1434086
14	0xbd881bc1	-0.06645919
15	0xbead70da	-0.3387516
16	0xbd4e5b88	-0.05038026
17	0x3d062e7d	0.03275918
18	0xbda813e6	-0.0820692
19	0xbe9c4242	-0.305193
20	0xbded577f	-0.11588954
21	0xbe0ac9d4	-0.13553554
22	0xbd9a8e34	-0.07546654
23	0xbdaf4f25	-0.085600175
24	0xbc9384f2	-0.01800773
25	0xbdf27ec8	-0.11840588
26	0xbcc84718	-0.024447963
27	0xbd1eeaf1	-0.038798276
28	0xbda7090d	-0.08156023
29	0xbd4ff23f	-0.050768133
30	0xbd29450c	-0.041325614
31	0xbdc35a6f	-0.09538733
32	0x3d4ebb33	0.050471496
33	0xbdc67a92	-0.09691347
34	0xbd83b87e	-0.064316735
35	0xbd255049	-0.04035977
36	0xbe230c65	-0.15922697
37	0xbcd77b5c	-0.02630394
38	0x3c6fe5a4	0.014642153
39	0xbda0ba90	-0.07848084
40	0xbc0698f3	-0.008215177
41	0x3c964342	0.018342618
42	0xbd006c89	-0.031353507
43	0xbcefd377	-0.029275639
44	0xbda496f9	-0.08036608
45	0xbe1a9e22	-0.15099385
46	0xbbe3feec	-0.0069578793
47	0xbdec3155	-0.11532847
48	0xbbf1c3f9	-0.007378098
49	0x3c649d26	0.013953483
50	0x3d965010	0.073394895
51	0xbe2482a3	-0.16065459
52	0xbb3fc79a	-0.002926326
53	0x3dd21abe	0.10259007
54	0xbd4bfbde	-0.049800746
55	0xbdb2e989	-0.087359495
56	0x3bab2c39	0.0052237776
57	0x3ca578e2	0.020199243
58	0xbb058944	-0.0020376006
59	0x3d234fef	0.039871152
60	0xbe1f936a	-0.15583578
61	0xbd8da0f9	-0.06915469
62	0x3d83a381	0.0642767
63	0xbd818a7a	-0.063252404

fc_decode.weight f4 [64, 64]
0	0x3c2729e4	0.010202859
1	0x3c8c9f0b	0.017165681
2	0xbc49618c	-0.012291323
3	0xbcb5a505	-0.022173414
4	0x3c9a8464	0.018861957
5	0x3c3b25d9	0.011422598
6	0x3cf103a0	0.029420674
7	0x3b9019e2	0.0043976167
8	0xbeee05a0	-0.46488667
9	0xbcaf52b0	-0.021401733
10	0xbcbcc913	-0.023045098
11	0xbe619bc2	-0.22032073
12	0xbb77b00a	-0.0037794136
13	0xbc7c553b	-0.01540118
14	0x3cfb8506	0.030703079
15	0x3e1512f9	0.14558019
16	0xbee1c801	-0.44097903
17	0x3c1ce6e7	0.009576536
18	0x3d0d7c8a	0.034542598
19	0x3edb9334	0.42885745
20	0x3cec1fd7	0.028823776
21	0x3ea4c195	0.3217894
22	0x3c250109	0.010071048
23	0xbc743ec2	-0.014907541
24	0x3c968621	0.018374505
25	0x3c78eb8f	0.01519288
26	0x3cb0770b	0.02154114
27	0x3bdbbae5	0.006705629
28	0x3c93a8ae	0.018024769
29	0xbcb4da1c	-0.022076659
30	0xbd0ad77b	-0.033896904
31	0xbcb940b8	-0.022613868
32	0x3d3ed52c	0.046590015
33	0xbbe1d683	-0.006892027
34	0xbee4e6ed	-0.44707432
35	0x3d767577	0.060170617
36	0x3de64936	0.11244433
37	0x3c0a3189	0.008434662
38	0xbca2fa5f	-0.019894777
39	0xbc5d4dda	-0.013507331
40	0x3a72a15e	0.0009255613
41	0x3c9ecaf8	0.019383892
42	0x3b46cf87	0.0030336098
43	0x3d42b170	0.0475325
44	0xbbca7353	-0.0061782985
45	0xbc1037d4	-0.008802373
46	0xbd14caeb	-0.03632633
47	0x3cbe314d	0.023216868
48	0xbba3ae64	-0.004995154
49	0xbd2f8d72	-0.042859502
50	0xbc5d0b99	-0.013491535
51	0xbb783879	-0.0037875457
52	0x3cbb5d67	0.022871686
53	0x3adfd074	0.0017075674
54	0x3c53b110	0.012920633
55	0xbd11e92b	-0.035622757
56	0xbca50623	-0.020144528
57	0xbca17f42	-0.019714002
58	0x3d482b55	0.04886945
59	0x3bbbfde4	0.005737053
60	0xbd488b00	-0.048960686
61	0xbb41df4a	-0.0029582554
62	0xbb94961c	-0.004534496
63	0xbaef8567	-0.001827401
64	0xbd15b556	-0.03654989
65	0x3c267502	0.010159733
66	0x3ccef675	0.025264004
67	0xbc797f69	-0.015228131
68	0xbd195c4c	-0.037441537
69	0x3e6cb3dc	0.23115486
70	0xbc9e7691	-0.019343646
71	0xbca48538	-0.020083055
72	0xbd68770f	-0.056754168
73	0xbcda4912	-0.02664617
74	0xbcc66d9b	-0.024222186
75	0xbe00b866	-0.12570342
76	0xbcec400f	-0.02883914
77	0x3d174336	0.03692933
78	0x3ca9345d	0.020654852
79	0xbde524e4	-0.11188677
80	0x3e12cb50	0.1433537
81	0x3caf0f9b	0.021369746
82	0xbc895c2f	-0.01676759
83	0x3e97eb39	0.29671648
84	0xbba09e12	-0.004901656
85	0xbde1bb43	-0.110220455
86	0x3d3f5213	0.04670913
87	0xbd053d40	-0.032529116
88	0xb9abb8e8	-0.00032753428
89	0x3d0c816c	0.034303114
90	0x3cc15575	0.02360032
91	0x3c022b19	0.007944846
92	0x3ccac35b	0.024751356
93	0x3d151266	0.0363945
94	0xbd26bc90	-0.04070717
95	0x3c2fa74b	0.010721038
96	0x3a282ec7	0.0006415662
97	0x3d0dfc1b	0.034664255
98	0x3e0b3211	0.13593318
99	0x3d25d636	0.04048749
100	0x3f2fc56d	0.6866062
101	0xbd0516b8	-0.03249237
102	0x3d38944b	0.0450633
103	0xbd30567f	-0.04305124
104	0xbbec51b1	-0.007211887
105	0x3caeff4e	0.021361973
106	0xbcc20020	-0.0236817
107	0xbba35740	-0.0049847662
108	0x3c84d3bb	0.016214242
109	0x3bbc4332	0.005745315
110	0x3c94c1c2	0.018158797
111	0xbcd1a192	-0.025589738
112	0x3c95c656	0.01828305
113	0xbc32e841	-0.010919631
114	0xbbf3a781	-0.0074357395
115	0xbc758228	-0.014984645
116	0xbc309e31	-0.010779903
117	0x3bcfb443	0.0063386275
118	0x3d150314	0.03637989
119	0x3c47314d	0.01215775
120	0xbc3904f6	-0.011292687
121	0x3a1930f7	0.0005843783
122	0x3c2c9fbb	0.01053613
123	0xbc3c368d	-0.011487615
124	0x3c0ba63e	0.008523522
125	0xbafd89d0	-0.001934344
126	0xbd5daabc	-0.054117903
127	0x3ce14f43	0.027503615
128	0x3d4e9c01	0.050441746
129	0x3baebf59	0.005332869
130	0x3cbe7446	0.023248803
131	0xbbd8a437	-0.006611373
132	0x3c41cb2d	0.011828226
133	0xbe8e14f2	-0.27750355
134	0x3f2b2c62	0.668646
135	0x3d21f9a8	0.03954473
136	0x3dfb16a5	0.122601785
137	0x3bcbb76f	0.0062169353
138	0x3c36fde8	0.011168934
139	0x3a6505db	0.0008736529
140	0x3d316dd7	0.043317642
141	0xbb9ed66b	-0.004847338
142	0xbc6a23c4	-0.014290754
143	0xbf3eebf8	-0.7457881
144	0x3cdefa94	0.027219094
145	0xbd4a8c10	-0.04944998
146	0xbd2c2e45	-0.042036314
147	0xb9938918	-0.00028140168
148	0x3bab59e4	0.0052292217
149	0xbe32c92b	-0.17459552
150	0xbd2be99d	-0.041970838
151	0xbd2161b8	-0.039399832
152	0xbb789096	-0.0037927977
153	0x3cca6680	0.024707079
154	0x3c9c7eda	0.019103456
155	0xbc87d0c1	-0.016579034
156	0xbd1de045	-0.03854396
157	0xbd06fc5f	-0.032955524
158	0x3da494e6	0.080362126
159	0xbd26de1d	-0.040739167
160	0x3d352d6f	0.044232782
161	0xbb17deba	-0.0023173527
162	0x3e0a468d	0.13503475
163	0xbb9491ac	-0.004533967
164	0x3ea6bd65	0.32566372
165	0x3d0e17f2	0.034690805
166	0x3c6e0775	0.014528145
167	0x3ce5c11c	0.028046183
168	0x3c119cf3	0.008887517
169	0x3d039165	0.03212108
170	0xbd17c877	-0.037056413
171	0x3c934af0	0.017980069
172	0x3cda08d1	0.026615532
173	0x3d1251db	0.035722595
174	0xbc5de709	-0.013543853
175	0xbd0b9c21	-0.034084443
176	0xbd22feaa	-0.039793648
177	0xbc248040	-0.010040343
178	0x3cb6a95b	0.022297552
179	0x3c281bd2	0.010260539
180	0x3c558adf	0.013033598
181	0x3ccf5775	0.025310257
182	0x3d120209	0.035646472
183	0xbd8a8fb4	-0.067656904
184	0xbcca17ca	-0.024669547
185	0x3b8e53a8	0.0043434687
186	0xbd175c93	-0.03695352
187	0x3c8b7a23	0.017026013
188	0x3b565a12	0.0032707495
189	0x3c80f70d	0.015742803
190	0x3ba34615	0.0049827197
191	0x3d806fee	0.06271349
192	0xbc94b3b4	-0.018152095
193	0xbb9adf9b	-0.004726363
194	0x3d4937cf	0.04912549
195	0x3b90d003	0.004419328
196	0xbd2b9d52	-0.04189808
197	0x3e95f436	0.2928788
198	0x3efe6d60	0.49692822
199	0xbb5d43f6	-0.0033762432
200	0x3ed02919	0.40656355
201	0x3a440e38	0.00074789254
202	0x3d068ddf	0.032850143
203	0x3dc84cd1	0.097802766
204	0xbd01464e	-0.03156119
205	0xbd17e4cb	-0.03708343
206	0x3bf6b82d	0.0075292797
207	0x3e0a7889	0.13522543
208	0xbe4df3f5	-0.20112593
209	0xbc9df540	-0.019281983
210	0xbc8dccd9	-0.017309593
211	0xbed8bd5f	-0.4233198
212	0x3cc66d94	0.024222173
213	0xbe531c44	-0.20616251
214	0x3d04dcca	0.032437123
215	0x3c0b93c0	0.008519113
216	0xbcb100b7	-0.021606786
217	0x3d03817f	0.03210592
218	0xbc8adbb2	-0.016950462
219	0xbaa4857e	-0.0012551991
220	0xbd0b0d1c	-0.03394805
221	0x3b68720a	0.0035468363
222	0xbc0cf7ce	-0.008604003
223	0x3addbe11	0.0016917606
224	0x3c19aaca	0.009379098
225	0xbc10d1f8	-0.008839123
226	0x3e369492	0.17830113
227	0xbd7562e5	-0.059908766
228	0xbd0f9647	-0.035055425
229	0x3c8a8fc1	0.01691425
230	0x3c85e891	0.016346248
231	0xbb9677e0	-0.004591927
232	0x3c0725ba	0.008248741
233	0x3cba257b	0.02272295
234	0x3c5ac26f	0.013352021
235	0x3d5fefed	0.05467217
236	0x3c25817b	0.010101671
237	0xbcd7fad5	-0.026364723
238	0x3d615710	0.05501467
239	0x3d2a97d6	0.04164871
240	0x3c02a44e	0.007973744
241	0xbb398843	-0.0028309978
242	0x3d3fc621	0.04681981
243	0xbbd68b6d	-0.0065473826
244	0xbd38872b	-0.04505078
245	0xbc18aa2c	-0.009317916
246	0xbd21191c	-0.039330587
247	0xbcbbbc86	-0.022917043
248	0xbcdf6052	-0.027267609
249	0x3b2cb8ce	0.002635527
250	0xbca5ab6e	-0.020223346
251	0xbc5068e8	-0.012720324
252	0xbd82334c	-0.0635744
253	0xbd3bd984	-0.045861736
254	0xbc8aa44b	-0.016924044
255	0x3b78c2ab	0.0037957828

fc_decode.bias f4 [64]
0	0xbf3988f0	-0.72474575
1	0xbf19c14a	-0.6006056
2	0x3f23b490	0.6394739
3	0xbefed07a	-0.4976843
4	0x3ea56199	0.32301024
5	0x3ea398c2	0.31952482
6	0xbe934627	-0.2876446
7	0xbf2c79ca	-0.67373335
8	0xbe57b6bb	-0.210658
9	0xbf471617	-0.7776808
10	0xbebfd12f	-0.37464282
11	0xbf4a2c6a	-0.7897402
12	0x3e02fc55	0.1279157
13	0xbee53fbc	-0.44775188
14	0xbf21c64d	-0.6319321
15	0xbec34fe6	-0.38146895
16	0x3e80c49e	0.25150007
17	0x3ed2e084	0.41186917
18	0xbeab5279	-0.3346136
19	0x3f1fff95	0.6249936
20	0xbf3ffb28	-0.7499261
21	0xbf315ba8	-0.6928048
22	0xbf3c5e00	-0.7358093
23	0xbec1bb41	-0.37838176
24	0x3f19785b	0.5994927
25	0xbee4a41c	-0.44656456
26	0xbee15b43	-0.4401494
27	0x3eb11a0a	0.3459018
28	0x3f02f9f0	0.51162624
29	0xbddc585d	-0.107590415
30	0xbee40f39	-0.44542864
31	0xbebdd46b	-0.37076125
32	0x3f2836e8	0.6570878
33	0x3f2c7740	0.6736946
34	0x3f230408	0.63678026
35	0xbec648f9	-0.3872755
36	0xbf17c9d1	-0.5929232
37	0x3e10085b	0.14065687
38	0x3f0ccb4b	0.549977
39	0x3ed617f3	0.41815147
40	0x3f408443	0.75201815
41	0x3eea40d4	0.45752585
42	0x3e760d9e	0.24028632
43	0xbf291279	-0.6604381
44	0x3f3049bd	0.68862516
45	0x3f358bc0	0.70916367
46	0xbed068e9	-0.4070504
47	0x3e34182f	0.1758735
48	0x3ef4ea4d	0.47835007
49	0xbf18b672	-0.5965339
50	0x3eec9a30	0.46211386
51	0x3e5b8e65	0.21441038
52	0x3e92870c	0.28618658
53	0x3f73e241	0.9526711
54	0x3ef1eac8	0.47249436
55	0x3ecf442b	0.40481696
56	0xbf0e74c3	-0.55646914
57	0x3eeb6759	0.45977286
58	0x3e623af4	0.22092801
59	0xbec261c3	-0.3796521
60	0x3ecab214	0.39588988
61	0x3ed40f0f	0.4141774
62	0xbe6fa7f3	-0.23403911
63	0xbf1cf8b9	-0.6131702
