02_Representations/model_weights/vae_best.pth (torch, 855990 bytes, 17 tensors)

encoder_conv.0.weight f4 [16, 1, 3, 3]
0	0xbe046ffb	-0.12933342
1	0x3d3a2f72	0.045455404
2	0x3c64d6b6	0.013967207
3	0x3e4e2b3d	0.20133682
4	0x3ee56c3f	0.44809148
5	0x3ed19103	0.40930948
6	0xbdbd9932	-0.09257735
7	0x3cab1278	0.02088283
8	0x3e5db583	0.21651272
9	0xbe925741	-0.28582194
10	0xbdc1b641	-0.0945859
11	0xbe8c3b01	-0.27388766
12	0x3e8d009b	0.27539524
13	0xbe028a11	-0.1274798
14	0xbe4959de	-0.19663188
15	0x3e796a0e	0.24356863
16	0x3e651945	0.22372921
17	0x3e749b32	0.23887327
18	0x3e2c6185	0.16834076
19	0x3e960ca5	0.29306522
20	0x3d35c87c	0.04438065
21	0xbe2cb740	-0.1686678
22	0x3e8b7fa3	0.27245817
23	0x3e3c4a92	0.18387821
24	0x3e8d3cb2	0.2758537
25	0x3e14ae26	0.14519557
26	0xbd2f8c37	-0.04285833
27	0x3cc67850	0.024227291
28	0xbe25f93f	-0.16208361
29	0x3e1760c9	0.14783014
30	0xbc15e7e7	-0.009149528
31	0xbdbdbb5c	-0.092642516
32	0x3e36fbdc	0.17869514
33	0x3e6bcb73	0.23026828
34	0xbe64337b	-0.22285263
35	0xbe02552a	-0.127278
36	0x3db9e393	0.090766095
37	0xbd60fd1e	-0.05492889
38	0x3df41bb4	0.119193465
39	0x3e9ecf2e	0.3101744
40	0x3e5915a9	0.21199669
41	0x3c96d6b7	0.01841293
42	0xbe8800b8	-0.26563048
43	0xbdfd9c2f	-0.12383305
44	0xbdd55a35	-0.10417596
45	0x3ea33750	0.31878138
46	0x3e9ecb35	0.3101441
47	0x3e841016	0.25793523
48	0x3d61a4ce	0.05508881
49	0x3e45092e	0.19241783
50	0x3e2310d0	0.15924382
51	0x3e37b5a7	0.17940389
52	0xbd3b1778	-0.04567668
53	0xbde5b27b	-0.11215683
54	0x3e82aedb	0.2552403
55	0x3ed43012	0.41442925
56	0xbded5363	-0.115881704
57	0x3e916390	0.28396273
58	0x3e8b7b03	0.27242288
59	0xbd3668f2	-0.044533677
60	0xbe8e68fa	-0.27814466
61	0xbe193eb9	-0.14965333
62	0xbe08b8a6	-0.13351688
63	0x3c2783b2	0.01022427
64	0x3d0573eb	0.03258125
65	0x3e4de6e9	0.20107616
66	0xbe891454	-0.26773322
67	0xbe468f06	-0.19390497
68	0x3ea7f540	0.32804298
69	0xbe8278f2	-0.254829
70	0xbe5a35cc	-0.21309584
71	0x3e931a5a	0.28731042
72	0xbc13fe09	-0.009032735
73	0xbd9c6555	-0.07636515
74	0xbd9ccc0e	-0.07656108
75	0xbe0ff723	-0.14059119
76	0x3ee52c14	0.4476019
77	0xbe1b4f8a	-0.1516706
78	0xbe838cc3	-0.2569333
79	0x3eb174f8	0.34659553
80	0xbe6c67fb	-0.2308654
81	0xbde967f6	-0.11396782
82	0xbcec9a74	-0.028882243
83	0xbdcbeca2	-0.099572435
84	0xbd896577	-0.06708806
85	0xbe3125c4	-0.17299563
86	0xbd90f93d	-0.070787884
87	0xbdc171cd	-0.09445534
88	0xbd1219bc	-0.035669073
89	0x3b8727cc	0.004124617
90	0xbea0bdbc	-0.31394756
91	0xbd66bd9c	-0.05633317
92	0xbe141d61	-0.14464332
93	0xbe3452d5	-0.17609723
94	0x3c6b5522	0.014363559
95	0xbe70af91	-0.23504473
96	0xbe0cc2f2	-0.1374624
97	0xbd53bcd5	-0.051693756
98	0xbe65d919	-0.22446097
99	0x3e5e0dff	0.21685027
100	0xbe1cf881	-0.15329172
101	0xbd29936d	-0.04140036
102	0x3e46dc6c	0.19420022
103	0x3ea83cec	0.3285898
104	0x3e4ede39	0.20201959
105	0x3e6cf3e2	0.23139909
106	0x3e7389bf	0.23783015
107	0x3ddd2112	0.10797323
108	0xbeb217f5	-0.34783903
109	0x3e21822c	0.15772313
110	0x3e66ca3c	0.22538084
111	0xbe89b64d	-0.26896897
112	0x3ddd9482	0.10819341
113	0x3e47c8d7	0.19510208
114	0xbdf32cc9	-0.118737765
115	0x3eda76f5	0.42668882
116	0x3e3f2846	0.18667707
117	0x3e933451	0.28750852
118	0x3e7eb142	0.24872306
119	0x3e870f30	0.26378775
120	0xbe5df0c1	-0.21673872
121	0xbe0dc183	-0.1384335
122	0x3d5f0b1b	0.05445395
123	0xbe81449f	-0.25247666
124	0xbe80c1a7	-0.25147745
125	0xbe95a1f0	-0.2922511
126	0x3ea31344	0.31850636
127	0x3c996bcb	0.018728158
128	0xbe6b43eb	-0.22975127
129	0x3e8f9a94	0.2804762
130	0xbda60a7c	-0.081074685
131	0xbe79889b	-0.24368517
132	0x3e81dd9a	0.2536438
133	0xbe2916f7	-0.16512667
134	0xbdb8f1f8	-0.09030527
135	0x3e8bcdf2	0.2730556
136	0x3a2b7f89	0.00065421365
137	0x3b9b9ddb	0.0047490424
138	0xbe67f42e	-0.22651741
139	0xbe29e4d2	-0.16591194
140	0xbdf10f4a	-0.11770494
141	0xbd35c017	-0.044372644
142	0x3e729b41	0.23692037
143	0xbcf5037d	-0.02990889

encoder_conv.0.bias f4 [16]
0	0xbe08bf65	-0.13354261
1	0x3ceda3a7	0.0290087
2	0x3ddc4735	0.10755769
3	0x3e21a362	0.15784982
4	0x3e7ea004	0.24865729
5	0xbe0adb22	-0.13560155
6	0xbe173a63	-0.14768367
7	0xbca8e97d	-0.020619148
8	0xbbd34644	-0.0064475853
9	0x3e9999ce	0.30000156
10	0x3ea0976a	0.3136552
11	0xbe1e2e7f	-0.15447424
12	0xbe16ba0b	-0.14719407
13	0x3e47788b	0.19479577
14	0xbd2706c8	-0.04077795
15	0x3d540047	0.051758077

encoder_conv.2.weight f4 [32, 16, 3, 3]
0	0x3c5959d3	0.013266045
1	0xbdba93f0	-0.09110248
2	0xbcbf7ed5	-0.023375908
3	0xbe078b4a	-0.13236728
4	0xbd9ce08d	-0.07660017
5	0xbd8d7a18	-0.06908053
6	0x3d1cb011	0.038253848
7	0xbdb7e1d5	-0.08978621
8	0x3d1e6e67	0.038679507
9	0xbd92cec5	-0.071683444
10	0xbc5ec4e1	-0.013596744
11	0xbd895672	-0.06705941
12	0xbc61def3	-0.013786065
13	0x3e08ce78	0.13360012
14	0xbc96b68e	-0.018397596
15	0x3e679123	0.22613959
16	0x3d18fbbb	0.037349444
17	0x3d57675b	0.0525888
18	0xbc84b6f3	-0.016200518
19	0x3d4cc98f	0.04999691
20	0x3d661979	0.056176636
21	0xbd1af3b1	-0.03783006
22	0x3d1bf2b4	0.038073257
23	0xbc3edb40	-0.011648953
24	0x3db3c7b4	0.08778325
25	0x3de1de08	0.11028677
26	0xbc9d5d6a	-0.019209582
27	0xbd54f2cd	-0.051989365
28	0x3ca488f3	0.020084834
29	0x3d8b5989	0.06804187
30	0x3c300470	0.0107432455
31	0x3d9cd0ce	0.07657014
32	0xbd526b6d	-0.05137198
33	0x3ce61825	0.028087685
34	0xbd7fd39f	-0.062457677
35	0xbc8e82d7	-0.017396374
36	0xbc6420b6	-0.0139238145
37	0x3d71d0aa	0.05903689
38	0xbc05a6e6	-0.0081574675
39	0xbc7f90ba	-0.01559847
40	0xbb617e1f	-0.003440745
41	0x3c9b1dc8	0.0189351
42	0xbc88eed1	-0.016715439
43	0xbd28372b	-0.041068237
44	0xbb5a3624	-0.003329643
45	0xbd072a24	-0.032999173
46	0x3c055203	0.008137229
47	0x3dec2a5c	0.11531517
48	0xbe328201	-0.17432405
49	0xbe2d60c7	-0.16931449
50	0xbddd35d5	-0.10801283
51	0x3dcc8e9c	0.09988138
52	0xbc9f4abf	-0.019444821
53	0x3d0f4383	0.034976494
54	0xbcf1c61a	-0.029513407
55	0x3deec1da	0.11658068
56	0x3e1520a5	0.14563234
57	0xbdbe33a9	-0.09287197
58	0xbeb66ede	-0.3563146
59	0xbea0068c	-0.31254995
60	0x3e0bc5b8	0.13649642
61	0xbc2099e4	-0.009802315
62	0xbb7e8300	-0.0038835406
63	0x3b2f28be	0.0026727165
64	0x3ab269e1	0.0013611877
65	0xbd1688ca	-0.036751546
66	0xbddf31c2	-0.108981624
67	0xbc58f2e3	-0.013241502
68	0xbc77aa04	-0.0151162185
69	0x3e2913a5	0.165114
70	0xbd9e8542	-0.07740261
71	0xbded6ee0	-0.11593413
72	0xbd72db67	-0.05929127
73	0xbe2eae42	-0.17058662
74	0x3bd0f079	0.006376323
75	0xbd1c70a7	-0.03819337
76	0xbdce21d4	-0.10065046
77	0x3d061f2d	0.032744575
78	0xbb70dcc2	-0.0036752676
79	0x3d9e4298	0.077275455
80	0xbc1d1988	-0.009588607
81	0xbc3a8f76	-0.011386743
82	0x3cf6a336	0.030107122
83	0x3c33246c	0.010933977
84	0x3db89b30	0.09013975
85	0x3d5fcdb8	0.054639548
86	0x3cd342c5	0.025788674
87	0xbc3c238c	-0.011483084
88	0xbb8d779e	-0.004317238
89	0xbd1fd7d6	-0.039024197
90	0xbc817e02	-0.015807156
91	0xbccc788b	-0.024959823
92	0xbd68e7bb	-0.05686162
93	0xbd35db70	-0.044398725
94	0xbbeaa12c	-0.0071603265
95	0xbcb147fe	-0.021640774
96	0xbd9cfe84	-0.076657325
97	0x39c5f2ff	0.00037755814
98	0xbdc97099	-0.098359294
99	0xbe02b9f7	-0.12766252
100	0xbd0bb8a7	-0.034111645
101	0xbd89fd36	-0.06737749
102	0xbccfa2e2	-0.025346223
103	0xbccec23a	-0.025239099
104	0xbd633265	-0.05546798
105	0x3e4841f7	0.19556414
106	0x3da2e721	0.079542406
107	0xbb674b37	-0.0035292634
108	0xbcb1e9ce	-0.021717932
109	0xbe1b1788	-0.15145695
110	0xbd9a7c63	-0.07543256
111	0xbd077a10	-0.033075392
112	0xbda4dae5	-0.08049563
113	0xbd1e8687	-0.038702514
114	0x3de8e230	0.11371267
115	0x3c9251f8	0.017861351
116	0xbc6dcb19	-0.014513754
117	0x3c9fb906	0.019497406
118	0x3da01bc3	0.07817795
119	0xbcf40874	-0.029789187
120	0x3d81b7dd	0.06333897
121	0x3d962318	0.07330912
122	0xbce9d2b4	-0.028542854
123	0xbd0ad44a	-0.03389386
124	0x3c9289f8	0.017888054
125	0xbd30961a	-0.043111898
126	0xbdb583fc	-0.08863065
127	0x3db3ebca	0.087852076
128	0x3defe323	0.11713245
129	0xbd9030f8	-0.0704059
130	0xbe8d2e97	-0.27574608
131	0xbe2964e9	-0.165424
132	0x3db8d41f	0.09024834
133	0xbd33ab08	-0.04386428
134	0x3d2f30c7	0.042771127
135	0x3d44260c	0.047887847
136	0x3d145d51	0.036221806
137	0x3dc69e1d	0.096981265
138	0x3d830462	0.0639732
139	0xbd05503b	-0.032547217
140	0x3b86bebc	0.004112093
141	0x3e1f09a9	0.15531029
142	0x3c442362	0.011971327
143	0x3c8e9ebc	0.017409675
144	0xbe3306cb	-0.1748306
145	0xbd9f1ad7	-0.07768791
146	0xbde522de	-0.11188291
147	0xbe0b4ada	-0.13602772
148	0xbe9fa0d6	-0.31177396
149	0xbe58b5b2	-0.21163061
150	0x3d242237	0.040071692
151	0x3da6f0fc	0.08151433
152	0x3d1314e7	0.035908606
153	0xbbcb0550	-0.0061957017
154	0x3d4a490d	0.049386073
155	0x3dba3167	0.09091454
156	0xbd771f4e	-0.06033259
157	0xbc5f4604	-0.013627533
158	0x3d4cd760	0.050010085
159	0x3d1372ed	0.035998274
160	0x3d905b45	0.07048658
161	0x3dd8270d	0.10554323
162	0x3d015e1f	0.0315839
163	0x3d32d5ab	0.0436608
164	0x3dbcd1c3	0.092196964
165	0xbc551add	-0.013006893
166	0x3c208d3b	0.009799297
167	0xbdb61e3d	-0.08892486
168	0x3d51fd11	0.051266734
169	0x3dd1d417	0.10245531
170	0x3db9dc87	0.090752654
171	0xbcfbd976	-0.030743342
172	0x3d5eb695	0.054373343
173	0x3d009d15	0.031399805
174	0xbd100b4e	-0.03516703
175	0x3d567525	0.05235781
176	0xbd3b6502	-0.045750625
177	0xbd7c59eb	-0.06160919
178	0x3ccb53be	0.024820205
179	0x3c8ac805	0.01694108
180	0x3c15ec83	0.009150627
181	0x3ddf84cf	0.10914003
182	0x3d84873a	0.06471105
183	0xbd4a8266	-0.049440764
184	0x3d776eb8	0.060408324
185	0xbd8892e9	-0.06668646
186	0xbd3ba75f	-0.045813914
187	0xbd9afc82	-0.07567693
188	0xbd94ca14	-0.07265106
189	0xbdd12644	-0.10212377
190	0xbe783cc1	-0.24241926
191	0xbe2771c4	-0.16351992
192	0xbe06e942	-0.13174918
193	0xbe352e31	-0.17693402
194	0xbe9b9b68	-0.30392003
195	0xbdde3906	-0.1085072
196	0x3c47797b	0.012174959
197	0xbc698c91	-0.014254705
198	0xbda54d61	-0.080713995
199	0xbe76abd8	-0.2408899
200	0xbe550d90	-0.20805955
201	0xbe179e4c	-0.14806479
202	0xbd96923e	-0.07352112
203	0xbb88e6df	-0.0041779126
204	0xbdfd1166	-0.12356834
205	0x3d087f38	0.03332445
206	0x3defeaed	0.117147304
207	0xbc0e599c	-0.008688357
208	0xbb9bdc48	-0.004756484
209	0xbe337fe8	-0.17529261
210	0xbd8e4008	-0.06945807
211	0xbdb56cf2	-0.0885867
212	0xbe24db62	-0.16099313
213	0xbbd50d14	-0.006501803
214	0xbda3deee	-0.08001505
215	0xbe12cf4d	-0.14336891
216	0x3d772190	0.060334742
217	0x3d1a3af5	0.037653882
218	0x3c845701	0.016154768
219	0x3c52cab7	0.012865714
220	0xbd07e638	-0.033178538
221	0xbd39bbcb	-0.04534511
222	0x3cdbc08e	0.026825216
223	0x3a86aa01	0.0010274054
224	0xbd222c7a	-0.039593197
225	0x3e2b86fb	0.1675071
226	0x3df686f6	0.120374605
227	0x3cbc296f	0.022968976
228	0x3be4aa30	0.0069782957
229	0x3d841390	0.06449044
230	0x3c8d48f1	0.017246695
231	0x3c6ca20b	0.014442931
232	0x3ce2f0cd	0.027702713
233	0xbcd9fda6	-0.026610207
234	0x3d16a8f3	0.036782216
235	0x3c636fa5	0.013881599
236	0x3db207eb	0.086929165
237	0x3dac1ebe	0.08404301
238	0xbcc360f3	-0.02384994
239	0x3d0609bd	0.03272413
240	0x3d379795	0.044822294
241	0xbd4ceac0	-0.050028563
242	0xbc8fea96	-0.017567914
243	0xbcc90de6	-0.02454276
244	0xbe17f820	-0.14840746
245	0xbdeb1bdf	-0.11479925
246	0xbe73bc35	-0.23802264
247	0xbe6605eb	-0.22463195
248	0xbe443fa4	-0.19164902
249	0xb9af125c	-0.0003339228
250	0x3d796568	0.060887724
251	0x3e004222	0.12525228
252	0xbd837bc9	-0.064200945
253	0xbd85c3cc	-0.06531486
254	0xbd5a5a3b	-0.053308707
255	0xbcae07be	-0.021243926

encoder_conv.2.bias f4 [32]
0	0xbd28419a	-0.041078188
1	0x3d9c3101	0.07626534
2	0xbaa3d6a2	-0.0012499879
3	0xbd796bc8	-0.060893804
4	0xbd4b17fd	-0.049583424
5	0xbd68bb9f	-0.056819554
6	0xbc0adb00	-0.008475065
7	0x3d7429c4	0.059610143
8	0x3d6c394b	0.057671826
9	0xbc8d9889	-0.017284648
10	0xbd5d5b3c	-0.054042086
11	0xbce74984	-0.028233297
12	0xbcd8fb39	-0.02648698
13	0x3d510ad8	0.051035732
14	0x3d0d194b	0.03444795
15	0xbca43680	-0.020045519
16	0xbd2884df	-0.04114234
17	0x3da136f7	0.07871812
18	0x3d69fd45	0.057126302
19	0xbd436f78	-0.047713727
20	0x3d7a2662	0.06107176
21	0xbd1d3922	-0.038384564
22	0x3dcd95e2	0.100383535
23	0x3d90efc3	0.07076981
24	0x3dc5681d	0.09638999
25	0x3d839aa2	0.06425978
26	0xbc8117bb	-0.015758386
27	0xbd94a802	-0.072586074
28	0x3d2d0b2b	0.04224698
29	0x3d8119a9	0.063037224
30	0x3db458a1	0.08805967
31	0xbc810c31	-0.015752884

encoder_conv.4.weight f4 [64, 32, 7, 7]
0	0x3d42f592	0.047597475
1	0x3d4d54f1	0.050129835
2	0x3d56a749	0.05240563
3	0x3db03e46	0.08605628
4	0x3daef5f6	0.08543007
5	0x3da8ec2a	0.0824817
6	0x3d93d8d6	0.072190925
7	0x3c978230	0.018494695
8	0x3d9d4323	0.07678821
9	0x3c2962ad	0.010338468
10	0x3b026e0e	0.0019902023
11	0xbc9edc91	-0.019392284
12	0xbcb2029d	-0.021729762
13	0x3db84c70	0.08998954
14	0x3cc93cef	0.024565188
15	0x3d2c39e4	0.042047396
16	0x3dd29a9c	0.10283396
17	0x3dae8836	0.08522074
18	0x3dd74e77	0.10513013
19	0x3d962675	0.07331554
20	0x3e01e66b	0.12685554
21	0x3c96b8df	0.0183987
22	0x3cbfb8f1	0.023403617
23	0x3e709aa5	0.23496492
24	0x3d627352	0.05528576
25	0x3e186c53	0.14885072
26	0x3aec93f2	0.0018049462
27	0xbd29cdee	-0.041456155
28	0x3d621c73	0.055202913
29	0x3d272b52	0.040812798
30	0x3d69a25f	0.057039615
31	0x3e2d0d59	0.16899623
32	0x3e291cd5	0.16514905
33	0xbe49df33	-0.1971405
34	0xbdea86e1	-0.11451507
35	0x3d719cee	0.05898755
36	0x3ce911eb	0.028450927
37	0x3e0c4ea0	0.13701868
38	0x3d868de7	0.065700345
39	0x3de1b5ca	0.11021002
40	0xbd2c5df3	-0.042081784
41	0xbcb20c99	-0.021734523
42	0x3d331a8f	0.0437265
43	0x3dbd4b88	0.09242922
44	0x3ce3d4dc	0.02781146
45	0x3e1de96f	0.15421079
46	0x3dcf9058	0.10134953
47	0xbd339d83	-0.043851387
48	0x3caafd3b	0.020872703
49	0x3d9c3234	0.07626763
50	0x3d9a42ab	0.07532247
51	0x3dd4e01c	0.10394308
52	0x3dc8b0b8	0.097993314
53	0x3db3c061	0.08776928
54	0x3d670877	0.056404557
55	0x3d47635d	0.048678745
56	0x3daa9b81	0.08330441
57	0x3d8d706a	0.06906207
58	0x3d517499	0.051136587
59	0x3cb9d83f	0.022686122
60	0xbb155af6	-0.0022789813
61	0x3d77a743	0.060462248
62	0x3da33b72	0.07970323
63	0x3d815837	0.06315654
64	0x3db42ce6	0.08797626
65	0x3cba1035	0.022712806
66	0xbc01bbd6	-0.007918319
67	0x3db5da8b	0.088795744
68	0x3e2276f0	0.15865684
69	0x3d205cd4	0.039151028
70	0x3db2fd60	0.08739734
71	0x3caa68fe	0.020802017
72	0x3da05090	0.07827866
73	0x3d6fd686	0.058554195
74	0x3e105134	0.14093477
75	0xbe3782c0	-0.17920971
76	0xbda84d24	-0.082178384
77	0x3db25e0e	0.08709346
78	0xbb6d2264	-0.0036183828
79	0xbdd32b7c	-0.10311028
80	0x3e9daf0f	0.30797622
81	0x3e9e285e	0.30890173
82	0xbe9edc81	-0.31027606
83	0xbc1ce98d	-0.009577167
84	0x3d96ff0b	0.07372864
85	0x3c5089a5	0.0127281295
86	0xbcc9fb9d	-0.024656111
87	0xbcae377c	-0.021266691
88	0x3e951fac	0.29125726
89	0xbd7ab8a7	-0.061211254
90	0x3cb58f49	0.02216305
91	0x3d963681	0.073346145
92	0x3d6a174e	0.05715113
93	0x3cfd9b08	0.030957714
94	0x3e26dbc1	0.16294767
95	0x3dcaaef1	0.09896649
96	0x3cd9d380	0.026590109
97	0x3d860412	0.06543745
98	0x3d3b204c	0.045685098
99	0x3ca11d73	0.019667363
100	0x3c85d51b	0.016336968
101	0x3d15d483	0.03657962
102	0xbc576539	-0.013146692
103	0xbbf91be2	-0.007602201
104	0x3c9ff355	0.01952521
105	0x3d8ceca2	0.068810716
106	0x3d2bf71c	0.04198371
107	0x3d80c55b	0.062876426
108	0x3d2923b5	0.04129382
109	0x3d0ce79b	0.034400564
110	0x3dad5564	0.084635526
111	0x3d4d2794	0.050086573
112	0x3d8c0154	0.06836191
113	0x3d5840bd	0.052796114
114	0x3d67aab3	0.056559276
115	0x3d8bc868	0.06825334
116	0x3c817942	0.01580489
117	0x3d20344b	0.03911237
118	0x3d3eba0b	0.046564143
119	0x3d0652cf	0.032793816
120	0x3d1e788e	0.03868919
121	0x3ccf1c14	0.025281943
122	0x3dbd7b03	0.09251978
123	0x3c5468bd	0.012964425
124	0xbd1a7dc5	-0.0377176
125	0xbd218ece	-0.03944283
126	0x3d4b1ff6	0.049591027
127	0x3cc83076	0.02443717
128	0xbc965827	-0.018352581
129	0x3c896150	0.016770035
130	0x3e725d98	0.23668516
131	0xbe349f36	-0.17638859
132	0xbd9a2207	-0.075260215
133	0x3da7feca	0.08202894
134	0x3dc9a04d	0.09845028
135	0xbb02fffa	-0.0019989
136	0xbd61a3a0	-0.055087686
137	0x3d578af8	0.052622765
138	0xbe0efe8b	-0.13964288
139	0x3b9656be	0.004587977
140	0x3d5c6835	0.053810317
141	0x3d95523a	0.07291074
142	0x3dfa6600	0.12226486
143	0x3dc830e2	0.09774949
144	0x3d7c8de9	0.061658774
145	0x3d98c5e7	0.07459622
146	0x3d65be7d	0.056089867
147	0x3aed0f92	0.0018086305
148	0xbe1e5249	-0.15461077
149	0x3d0b244e	0.03397017
150	0x3e5e501b	0.21710245
151	0x3e539dce	0.20665666
152	0x3e61d9a3	0.22055678
153	0x3db84666	0.089978024
154	0x3b5cf6fc	0.003371655
155	0x3d4f4cc4	0.05061032
156	0x3daf66ee	0.08564554
157	0x3dbc9e06	0.09209828
158	0x3de3c0d3	0.11120763
159	0x3df5e6d2	0.12006916
160	0x3d548044	0.051880136
161	0x3dc18b3c	0.09450385
162	0x3cffeb87	0.031240238
163	0x3d6e0672	0.058111615
164	0x3c4dca6a	0.012560466
165	0x3c8a2624	0.01686389
166	0x3db6397c	0.08897683
167	0x3de45a9a	0.111500934
168	0x3dbdfe39	0.09277005
169	0x3df28a9c	0.11842844
170	0x3d7d6caa	0.06187121
171	0xbd21c02d	-0.039489914
172	0x3b82f6e7	0.003996718
173	0x3e2ca9da	0.16861668
174	0x3e9ad1b0	0.30238104
175	0x3e1d63f0	0.15370154
176	0x3e4872fb	0.19575112
177	0x3da93722	0.08262469
178	0xbdb8c893	-0.090226315
179	0x3ce24835	0.027622322
180	0x3e0b52d7	0.1360582
181	0x3d2d7280	0.042345524
182	0x3e38267c	0.1798343
183	0x3e3bce7a	0.18340483
184	0x3dbfe29f	0.093693964
185	0x3d363b50	0.04449016
186	0x3dd9379a	0.10606308
187	0x3e1218b1	0.14267232
188	0x3d597163	0.05308665
189	0x3d8a6f83	0.067595504
190	0x3d82c91c	0.06386015
191	0xbc7e818b	-0.015533815
192	0xbc880a74	-0.016606547
193	0x3d3fe300	0.046847343
194	0x3db36fb6	0.087615415
195	0x3c893343	0.016748076
196	0x00066a17	5.89071e-40
197	0x8005a5ff	-5.18726e-40
198	0x0005ca5f	5.31775e-40
199	0x80059284	-5.11737e-40
200	0x8005c25b	-5.28899e-40
201	0x8006261b	-5.64683e-40
202	0x0005938e	5.1211e-40
203	0x0005cd3e	5.32805e-40
204	0x00061fac	5.62375e-40
205	0x0005c773	5.30726e-40
206	0x800603b6	-5.52344e-40
207	0x00059ef9	5.16206e-40
208	0x0005ea85	5.43307e-40
209	0x00060133	5.51443e-40
210	0x0006a5de	6.10515e-40
211	0x3b058321	0.0020372348
212	0xb716211f	-8.948408e-06
213	0xa454ecbf	-4.6170704e-17
214	0x336f2f50	5.5689554e-08
215	0x80065ec4	-5.85008e-40
216	0x0005b765	5.24967e-40
217	0x800641cc	-5.74616e-40
218	0x39e578e1	0.00043768345
219	0x3bd1b973	0.006400281
220	0xb92e7481	-0.00016637334
221	0xb4b3e19e	-3.3505506e-07
222	0xb6a11379	-4.800441e-06
223	0x00065616	5.81895e-40
224	0x8006069a	-5.53381e-40
225	0x000558ab	4.90986e-40
226	0xbaff19d8	-0.0019462658
227	0xb8211c63	-3.841183e-05
228	0xbb978510	-0.0046240166
229	0x8005f892	-5.48348e-40
230	0x800688b0	-6.00047e-40
231	0x800574e8	-5.01116e-40
232	0xb98088e0	-0.00024516042
233	0xbb9346ff	-0.0044945474
234	0x9ed4f16f	-2.2546228e-20
235	0x00068fa7	6.02546e-40
236	0x80064ed6	-5.79294e-40
237	0x8006b002	-6.14153e-40
238	0x000678ad	5.94303e-40
239	0x3b143338	0.0022613537
240	0x3bd8f30e	0.0066207713
241	0x3ce24953	0.027622854
242	0x3a47c10f	0.00076200155
243	0xb0215d41	-5.870398e-10
244	0x0005ef5b	5.45042e-40
245	0x379ca7fc	1.8674873e-05
246	0xbe167e4d	-0.14696617
247	0xbe287ece	-0.16454622
248	0x3d3fe9d7	0.046853866
249	0x3e14d56a	0.14534536
250	0x3e41378b	0.18868844
251	0x3dcc9aa6	0.09990434
252	0xbc10a916	-0.008829376
253	0xbd8d552e	-0.06901012
254	0xbdba0ccc	-0.09084472
255	0xbd46eb0e	-0.04856401

encoder_conv.4.bias f4 [64]
0	0x3db5db99	0.088797756
1	0x3c7f361e	0.015576867
2	0x3c4961a9	0.01229135
3	0xbce768ee	-0.028248277
4	0xbc44d29c	-0.012013104
5	0xbd0a58e3	-0.033776175
6	0xbb8cb9d5	-0.004294614
7	0xbc55be98	-0.013045929
8	0x3dadc82f	0.084854476
9	0xbc94f60c	-0.01818373
10	0x3cbd034c	0.023072861
11	0xbb67791d	-0.0035319992
12	0x3c15f239	0.009151989
13	0xbbda0b38	-0.0066541694
14	0xbcfb616d	-0.030686105
15	0xbc3d00ee	-0.011535866
16	0xbc888d3f	-0.016668914
17	0xbcbc0c43	-0.022955066
18	0x3b2468e5	0.0025086936
19	0xbcf04a34	-0.029332258
20	0xbc5d5b27	-0.013510502
21	0x3c027986	0.007963544
22	0xbc8ee543	-0.017443305
23	0xbce5df0d	-0.02806046
24	0xbcde40da	-0.027130533
25	0xbc143ece	-0.009048177
26	0xbb9d361d	-0.0047977106
27	0xbcc72c47	-0.024313105
28	0x3bfb048d	0.0076604546
29	0xbd141d30	-0.036160648
30	0x3c4969f9	0.012293332
31	0x3da061a4	0.078311235
32	0xbce7ddd2	-0.028304014
33	0xbceafa4d	-0.028683806
34	0xbc82ee6c	-0.015982829
35	0xbca802ce	-0.02050915
36	0x3c6b6eee	0.014369709
37	0x3abaccc6	0.0014251701
38	0xbcf6882a	-0.030094225
39	0x3c6bc8c7	0.014391131
40	0x3c23595e	0.009970037
41	0x3be95dd5	0.0071217814
42	0x3d82e0ba	0.063905194
43	0x3cfceb93	0.03087405
44	0xb91fdfac	-0.00015246746
45	0xbce78e5d	-0.028266126
46	0x3c4d32fa	0.012524361
47	0x3d49d9d7	0.049280014
48	0x3d768370	0.060183942
49	0x3bc3d39b	0.005976153
50	0x3c8620a4	0.016372986
51	0xbc189f0e	-0.009315265
52	0x3d875ac9	0.06609113
53	0xbd80a3e1	-0.062812574
54	0xbccf9bf6	-0.025342923
55	0xbc953de3	-0.018217986
56	0x3cf0cc63	0.029394334
57	0x3c1b5d3b	0.009482677
58	0x3c604a90	0.013689652
59	0xbc1cd36d	-0.009571892
60	0x3c843ce7	0.016142322
61	0xbce17503	-0.027521616
62	0xbcdd098c	-0.026982091
63	0xbc62abc9	-0.013834902

fc_mu.weight f4 [10, 64]
0	0x3cebc263	0.028779214
1	0xba8e998d	-0.0010879502
2	0x3cd99d1c	0.026564173
3	0x3c4930fa	0.012279743
4	0xbe0273e6	-0.12739524
5	0x3d29c0a7	0.041443493
6	0x3d035409	0.032062564
7	0x3d585dde	0.052823894
8	0x3e1b8d87	0.15190707
9	0xbdce097d	-0.100604035
10	0xbc8fc835	-0.01755152
11	0xbd040ab6	-0.032236777
12	0xbc999279	-0.018746601
13	0x3db74b16	0.089498684
14	0xbd7dd24e	-0.06196814
15	0x3a830bc0	0.0009998009
16	0x3c8e0f72	0.01734135
17	0x3a277c8b	0.0006389103
18	0x3d666b1d	0.056254495
19	0xbe19c743	-0.15017419
20	0xbe6b9560	-0.23006201
21	0xbb6f9f39	-0.003656341
22	0x3d40a870	0.047035635
23	0x3d24d87d	0.04024552
24	0x3b8a3bbc	0.0042185467
25	0x3e4a7e00	0.19774628
26	0x3d77cffb	0.06050108
27	0xbe172135	-0.14758761
28	0xbd20aa4f	-0.03922492
29	0x3dcab90c	0.09898576
30	0x3daa01a5	0.08301095
31	0xbe40daa4	-0.18833405
32	0x3ce72b90	0.028219014
33	0xbd8bafb8	-0.06820625
34	0xbae5d008	-0.0017533312
35	0x3bc43381	0.005987585
36	0x3c96ba20	0.018399298
37	0xbd76cd54	-0.06025441
38	0x3c8c8fa8	0.017158344
39	0xbe08d28a	-0.13361564
40	0xbd16d225	-0.036821503
41	0xbc508820	-0.012727767
42	0xbd514ca8	-0.051098496
43	0x3d87ac48	0.06624657
44	0x3d32f8ab	0.04369418
45	0x3dec11b9	0.11526818
46	0xbd59d91d	-0.05318557
47	0x3c50fd67	0.012755728
48	0x3d4181a6	0.047242783
49	0x3cc4e556	0.024035137
50	0xbe172468	-0.14759982
51	0xbe428e77	-0.18999659
52	0x3ed56680	0.41679764
53	0x3d21fda2	0.039548524
54	0x39b31208	0.00034154975
55	0xb99e4d38	-0.0003019364
56	0x3e663cb8	0.224841
57	0x3cf6e499	0.0301383
58	0xbd607eeb	-0.05480854
59	0xbdc673d9	-0.09690065
60	0x3d076c9c	0.033062562
61	0xbd87e27b	-0.066349946
62	0x3de91026	0.11380033
63	0x3e0f3c63	0.1398788
64	0xbdb17698	-0.08665198
65	0x974f40f1	-6.6967275e-25
66	0x3d8cec3b	0.06880995
67	0x3d88676d	0.06660352
68	0x3dbded46	0.09273772
69	0xbb8f2b79	-0.004369196
70	0x3cdeac4f	0.027181773
71	0x3d3e2af8	0.046427697
72	0x3cbdc5de	0.02316564
73	0xbdfbf3ff	-0.12302398
74	0xbd1ee220	-0.03878987
75	0xb7db95e5	-2.6176634e-05
76	0xbd217f66	-0.039428137
77	0x3d8cc7ad	0.06874023
78	0xbce903e0	-0.02844423
79	0x3d24ffc2	0.040282972
80	0xbcde3473	-0.02712462
81	0x3dadeda8	0.08492595
82	0xbd866194	-0.0656158
83	0xbdbe4519	-0.09290523
84	0x3e10e1cc	0.14148635
85	0xbd825997	-0.06364744
86	0x3cd77cd5	0.026304642
87	0xbb47b2f3	-0.0030471652
88	0xbc557fad	-0.013030929
89	0x3c5e6280	0.013573289
90	0xbd431107	-0.04762366
91	0xbd10a3b5	-0.035312373
92	0x3d6bbd7a	0.057553746
93	0x3ce9e5ac	0.028551899
94	0xbd55b5f1	-0.052175466
95	0x3dc1aba2	0.094565645
96	0xbcfc1645	-0.030772338
97	0x3df286da	0.11842127
98	0x3d8a7c27	0.067619614
99	0x3d9e255c	0.077219695
100	0x3db94556	0.09046428
101	0xbd21d428	-0.03950897
102	0xbcf7adc4	-0.030234225
103	0x3dcc2067	0.09967118
104	0xbdc07230	-0.093967795
105	0x3d6454a9	0.0557448
106	0x3e0ec0e2	0.13940766
107	0xbdbaf30e	-0.0912839
108	0x3cd082fe	0.025453087
109	0xbd4045d9	-0.046941612
110	0x3ddc003d	0.10742233
111	0xbdce392b	-0.10069498
112	0x3dfeb6a6	0.12437181
113	0xbd948369	-0.07251627
114	0xbe32a080	-0.17444038
115	0xbd7b7caa	-0.061398186
116	0x3abf59cb	0.0014598904
117	0x3a2ad6da	0.0006517001
118	0xbd9d0ccc	-0.076684564
119	0x145858dd	1.0922738e-26
120	0x3dc1fe53	0.094723366
121	0xbde5b332	-0.112158194
122	0x3c31ab4c	0.010844063
123	0xbdc94867	-0.09828263
124	0xbd57e6d0	-0.052710354
125	0x3da62ac5	0.081136264
126	0xbd827046	-0.06369071
127	0x3dc00761	0.093764074
128	0xbca86e13	-0.0205603
129	0x3ba15a63	0.004924105
130	0x3db33e2f	0.08752095
131	0x3d2c7caa	0.042111076
132	0xbe43ba6d	-0.19114085
133	0xbdde2020	-0.10845971
134	0xbd6b0ecc	-0.05738716
135	0xbd528a65	-0.051401515
136	0x3e203b54	0.15647632
137	0xbd93d8e6	-0.072191045
138	0xbd22b08d	-0.039719153
139	0xbb048e92	-0.002022658
140	0x3d4ab4f6	0.049488984
141	0xbcd96dbe	-0.026541587
142	0x3dba52a5	0.090977944
143	0xbb9e0f01	-0.004823566
144	0xbd5948cb	-0.053047936
145	0x3dc178b8	0.094468534
146	0xbe384480	-0.1799488
147	0xbd827e81	-0.06371785
148	0xbd00da11	-0.031457964
149	0xbe4dcf10	-0.2009852
150	0xbd8a80a5	-0.06762818
151	0x3d474bae	0.04865616
152	0x3cbfddbf	0.023421166
153	0x3d938dc2	0.072047725
154	0xbdc80ef9	-0.09768481
155	0x3e058afd	0.13041301
156	0xbe22f08d	-0.15912075
157	0xbd86d77f	-0.06584071
158	0x3db618a7	0.08891421
159	0x3d33b498	0.0438734
160	0xbcfb473c	-0.030673616
161	0xbd8b914d	-0.06814823
162	0xbd23c5ee	-0.039983682
163	0x3dcf7df1	0.10131443
164	0x3dd6efd8	0.10494965
165	0x3e1f79f3	0.15573864
166	0x3cd3061c	0.02575975
167	0x3d9b349c	0.07578394
168	0xbdcc6660	-0.09980464
169	0x3d87ce8e	0.06631194
170	0x3de26603	0.110546134
171	0xbdef1b8b	-0.11675175
172	0x3d88855a	0.0666606
173	0xbddd8c00	-0.108177185
174	0xbd50e068	-0.05099526
175	0x3c181e59	0.009284579
176	0xbaebabe7	-0.0017980308
177	0x3db36a05	0.08760456
178	0x3e04a59e	0.12953803
179	0xbda4f96f	-0.08055388
180	0x3cf028b7	0.02931629
181	0xbe2cdc8d	-0.16881008
182	0x3d8d6b72	0.06905259
183	0xb995c604	-0.00028567028
184	0x3d888b49	0.066671915
185	0xbcc7ce2a	-0.024390299
186	0x3d8c54dd	0.06852124
187	0xbbe2912d	-0.006914279
188	0xbd8ed5c8	-0.06974369
189	0x3ce251fb	0.027626982
190	0x3b0347b9	0.0020031764
191	0x3db9f178	0.0907926
192	0x3df3a6d0	0.11897051
193	0x350eeba5	5.324203e-07
194	0xbd839f0b	-0.064268194
195	0x3cd71e05	0.026259432
196	0x3c997a85	0.01873518
197	0x3c98497f	0.018589733
198	0x3c587332	0.013211058
199	0xbda556d8	-0.08073205
200	0x3e085067	0.13311921
201	0x3c51bf83	0.012802008
202	0x3e4198c4	0.18905932
203	0xbc4ade76	-0.01238214
204	0xbb538fae	-0.0032281685
205	0x3e2d80e5	0.169437
206	0xbd9803e2	-0.074226156
207	0x3d4c8e5b	0.04994045
208	0x3d937247	0.07199531
209	0xbd205916	-0.03914746
210	0xbd786c39	-0.060650084
211	0xbddaea7d	-0.10689256
212	0xbe047571	-0.12935425
213	0x3e7efb53	0.2490056
214	0xbce3be3a	-0.027800668
215	0xbc94ea36	-0.018178087
216	0x3d6266f5	0.05527397
217	0xbd88f918	-0.06688136
218	0x3ef32fe4	0.47497475
219	0xbda4936e	-0.080359325
220	0xbe9bdb24	-0.3044063
221	0x3d5a1a59	0.053247783
222	0xbd946018	-0.07244891
223	0x3e14d6fe	0.14535138
224	0x3d2dda19	0.042444322
225	0xbe92e55c	-0.28690612
226	0x3dc43016	0.09579484
227	0xbdb66a8c	-0.08907041
228	0xbda4a0de	-0.080384955
229	0xbdb8e122	-0.09027316
230	0x3d7b11f5	0.061296422
231	0xbbb6bfd6	-0.005577068
232	0x3c98a800	0.018634796
233	0x3d799cc1	0.060940508
234	0xbc9e19c8	-0.019299403
235	0xbe0241b1	-0.12720372
236	0xbd5500f2	-0.052002855
237	0xbc699ebb	-0.014259036
238	0xbd2d70be	-0.042343847
239	0xbe649df0	-0.22325873
240	0xbd8920fd	-0.06695745
241	0x3d91398e	0.07091056
242	0xbd3f5941	-0.04671598
243	0xbd1cb52e	-0.038258724
244	0xbe2297d7	-0.15878235
245	0x3e2b8595	0.16750176
246	0x3dd0cda3	0.10195472
247	0xb86269c9	-5.398112e-05
248	0xbab9af49	-0.0014166619
249	0x3cd4557b	0.025919667
250	0xbde0ec52	-0.109825745
251	0xbcbd1f79	-0.023086296
252	0x3d05f5ac	0.032704994
253	0xbd7654e1	-0.06013954
254	0xbded5535	-0.115885176
255	0xbddc30c5	-0.107514895

fc_mu.bias f4 [10]
0	0xbc1e5211	-0.009663121
1	0xbd3405fc	-0.04395102
2	0x3d74e464	0.059788123
3	0x3e3b7452	0.18306091
4	0x3d61eb01	0.055155758
5	0xbcccbd48	-0.0249926
6	0xbc94e237	-0.018174274
7	0xbdbf49f2	-0.09340276
8	0x3d4964d9	0.04916844
9	0xbaecccf1	-0.0018066448

fc_logvar.weight f4 [10, 64]
0	0xbd57892b	-0.052621048
1	0xb87b7465	-5.9951464e-05
2	0xbcb3a5c5	-0.021929631
3	0xbac99c39	-0.0015381641
4	0x3d356a11	0.044290606
5	0xbc25ac35	-0.010111858
6	0x3a64b370	0.0008724248
7	0xbcc52f6a	-0.02407046
8	0xbdfc7076	-0.12326138
9	0xbb7e6b3f	-0.0038821248
10	0xbd987dd0	-0.07445872
11	0xbce55a34	-0.027997114
12	0xba8ca214	-0.0010729455
13	0xbd826ee6	-0.063688084
14	0xbb44deff	-0.0030040143
15	0x3d8c33c9	0.06845815
16	0xbd104650	-0.035223305
17	0x3a7d9528	0.000967341
18	0x3d3bb2e2	0.045824893
19	0x3b296142	0.0025845324
20	0xbbd17ffa	-0.00639343
21	0x3cb27958	0.021786377
22	0x3ce79c34	0.028272726
23	0xacab0363	-4.8604883e-12
24	0x3b215dad	0.0024622486
25	0x3d1d76f4	0.03844352
26	0xbb2ad0cd	-0.0026064396
27	0x3d13da70	0.03609699
28	0xbdcf9dda	-0.1013753
29	0xbc565ddc	-0.013083901
30	0x3ab27862	0.0013616199
31	0xbe041688	-0.1289922
32	0xbb6c314e	-0.003604013
33	0xbd3ea732	-0.04654617
34	0xbd3b8c5d	-0.045788158
35	0xbca1d665	-0.019755552
36	0xbd091a61	-0.033472423
37	0x3aabae12	0.0013098142
38	0x3b1feb98	0.00244019
39	0x3d4b3247	0.049608495
40	0x3d5d9c71	0.054104272
41	0xbbc22c61	-0.0059257005
42	0x3bf481e2	0.0074617723
43	0xbbe691d5	-0.0070364275
44	0x3d424af3	0.04743476
45	0xbc846629	-0.016161995
46	0x3cb8b2fd	0.022546286
47	0xbccd9a59	-0.025098013
48	0x3d1525cd	0.036413003
49	0xbd5deb1b	-0.054179292
50	0xbd9392cd	-0.072057344
51	0xbcb5cf5f	-0.022193609
52	0xbcb2f212	-0.021843944
53	0xbcfb6824	-0.030689307
54	0x3dfdbe59	0.123898216
55	0x2f384404	1.6758867e-10
56	0xbc82f96e	-0.015988078
57	0xbd1d8371	-0.03845543
58	0xbb979290	-0.004625626
59	0xbd497567	-0.04918423
60	0x3a053074	0.00050807674
61	0xbd86305f	-0.06552195
62	0xbd5806ae	-0.052740745
63	0xbd8a1126	-0.06741552
64	0xbda7fa33	-0.082020186
65	0xbac1acbb	-0.0014776209
66	0x3dbda008	0.09259039
67	0x3dcd19e2	0.100147024
68	0x3d33ea6e	0.04392474
69	0xbc5194ac	-0.012791794
70	0x3d82b998	0.063830554
71	0x3dad6750	0.08466971
72	0xbdf9de2e	-0.122005805
73	0xbd99e636	-0.075146124
74	0xbde89b57	-0.11357754
75	0x3986746b	0.0002564521
76	0xbd0ec765	-0.034858126
77	0xbdc190bc	-0.09451434
78	0xbcc44969	-0.023960786
79	0x3c47cff0	0.012195572
80	0xbd341aff	-0.043971058
81	0x3ad571bb	0.0016284505
82	0xbd3b5221	-0.04573262
83	0xbca3a1cb	-0.01997461
84	0x3d65abee	0.056072168
85	0x3cfd267e	0.030902144
86	0x3dbf87cb	0.09352072
87	0xbd98f2bc	-0.07468173
88	0x3ccb7ca3	0.024839705
89	0x3cbaa4e5	0.022783706
90	0xbccd3bd6	-0.025052946
91	0x3bbcfd33	0.0057674884
92	0xbd522a90	-0.051310122
93	0x3d120520	0.03564942
94	0xbdd320c1	-0.10308982
95	0xbd9f7ed7	-0.07787865
96	0xbd2cea3a	-0.042215563
97	0xbde8ba44	-0.11363652
98	0x3be85db8	0.0070912503
99	0xbce574e7	-0.028009845
100	0xbdcd89a0	-0.100360155
101	0xbd945454	-0.07242647
102	0x3d26c0b2	0.040711112
103	0x3da449b0	0.08021867
104	0xbc76f811	-0.015073792
105	0xbbecf9fe	-0.00723195
106	0xbdf4efb5	-0.11959783
107	0x3c4dbf3d	0.012557802
108	0xbd905c85	-0.07048897
109	0xbd576694	-0.05258806
110	0xbac0ae70	-0.0014700424
111	0xbdc99b82	-0.09844114
112	0xbe1705cb	-0.14748304
113	0xbbb63df2	-0.0055615837
114	0xbdb8fb39	-0.09032292
115	0xbd29902c	-0.04139726
116	0x3c5748a3	0.013139877
117	0xbd5f147e	-0.054462902
118	0x3d88867b	0.06666275
119	0xb6da18c6	-6.4997903e-06
120	0x3dbbdda2	0.091731325
121	0x3dbdd586	0.09269242
122	0xbd7a0686	-0.061041377
123	0xbd9ac6e2	-0.07557465
124	0xbd01e8ea	-0.031716265
125	0x3d68da86	0.056849025
126	0xbcfb9e72	-0.030715201
127	0x3d6b2fbd	0.057418574
128	0xbdadf5ee	-0.08494173
129	0xbae4218b	-0.0017405016
130	0x3c9135de	0.017725881
131	0xbd9613c0	-0.07327986
132	0x3d89030d	0.06690035
133	0x3cbf5688	0.023356691
134	0x3d6a0399	0.057132337
135	0xbdae969b	-0.085248195
136	0xbd8bbbd2	-0.06822933
137	0xbdfb697a	-0.122759774
138	0xbcf63b3f	-0.030057548
139	0x3c8d2244	0.017228253
140	0xbbe70c34	-0.0070510153
141	0xbe02cde6	-0.12773857
142	0x3d31e58a	0.043431796
143	0x3d74777f	0.059684273
144	0x3d2ad1ea	0.041704096
145	0xbdb3dcc5	-0.08782343
146	0x3d43385f	0.04766118
147	0x3c7a6e78	0.015285127
148	0xbd667248	-0.05626133
149	0x3d1ac301	0.037783626
150	0xbd4b68da	-0.04966054
151	0x3b8ea30d	0.0043529333
152	0x3d0f9198	0.03505096
153	0x3d987c05	0.0744553
154	0xbd2ce362	-0.042209037
155	0x3df4075c	0.11915466
156	0x3d5a3f5d	0.053283084
157	0xbd632edd	-0.055464614
158	0xbdccf1f5	-0.10007087
159	0xbdc87156	-0.09787242
160	0x3c0be6f1	0.008538947
161	0xbd86c238	-0.06580013
162	0x3c9ae4f7	0.018908007
163	0x3d73293a	0.05936549
164	0x3d702e01	0.058637623
165	0xbd8b1980	-0.06791973
166	0xbba3e305	-0.005001428
167	0x3d76d2dc	0.060259685
168	0x3ca128b7	0.019672735
169	0x3d03e6d1	0.032202546
170	0xbdefc5c6	-0.11707644
171	0x3cc7c162	0.024384204
172	0xbdfd18fb	-0.1235828
173	0xbdc4c7f5	-0.09608451
174	0x3d0254bb	0.031819087
175	0xbe25b482	-0.1618214
176	0xbdee91a7	-0.11648875
177	0x3d9ce574	0.07660952
178	0xbdba4b1f	-0.090963595
179	0xbd4857af	-0.048911747
180	0xbd1991e3	-0.037492644
181	0xbca2349e	-0.01980048
182	0xbd8ab4de	-0.06772779
183	0x33dc66ef	1.0263272e-07
184	0x3ce4178e	0.027843263
185	0x3c9b341d	0.018945748
186	0x3dcda764	0.10041693
187	0xbd46a91e	-0.048501126
188	0x3d98f404	0.07468417
189	0x3d5b64c8	0.05356291
190	0xbb0731ea	-0.0020629116
191	0x3d1231e2	0.035692103
192	0xbd0d9242	-0.03456331
193	0x3992342c	0.0002788616
194	0x3a98cc7e	0.0011657623
195	0xbbb859c6	-0.005625936
196	0x3c48b66d	0.012250525
197	0x3e0c7807	0.13717662
198	0x3ccdb91b	0.02511268
199	0x3d1a46f4	0.037665322
200	0xbdefc5e0	-0.117076635
201	0xbcd40dc0	-0.025885463
202	0x3d381fd3	0.044952225
203	0x3d29bd29	0.041440163
204	0x3c4f0de5	0.01263759
205	0xbd3d3ada	-0.046198703
206	0xbd98a6c7	-0.07453685
207	0x3dcde959	0.10054273
208	0xbd1b3e2e	-0.037901096
209	0x3de50673	0.11182871
210	0x3d0acaf0	0.033884943
211	0x3d9cd4fe	0.076578125
212	0x3c0b85a0	0.008515745
213	0x3d2f05fa	0.04273031
214	0xbd669b62	-0.05630053
215	0x3c65ca99	0.014025354
216	0xbd50e4dd	-0.05099951
217	0x3d886a13	0.06660857
218	0xbd0f4cbf	-0.0349853
219	0x3e789391	0.24275042
220	0xbd7a1084	-0.061050907
221	0xbb5bba07	-0.003352763
222	0xbd3baeae	-0.045820884
223	0xbdc2b00b	-0.09506234
224	0x3cc20120	0.023682177
225	0x3bd1adc5	0.006398889
226	0xbdb08e15	-0.0862085
227	0xbd4499f6	-0.04799839
228	0x3de4e6f6	0.11176865
229	0x3c3aa04a	0.011390755
230	0x3d95fecb	0.073239885
231	0x3c44613a	0.011986071
232	0xbd50b154	-0.050950363
233	0x3d5ef95c	0.054437026
234	0xbd18e472	-0.037327237
235	0xbc9cd267	-0.019143296
236	0x3dcf5320	0.10123277
237	0xbde42da0	-0.11141515
238	0xbd188192	-0.037232943
239	0xbde631ec	-0.112399906
240	0xbc0f9321	-0.008763106
241	0xbd4bfd55	-0.049802143
242	0xbcc51b68	-0.02406092
243	0xbc8a536b	-0.01688548
244	0x39df8d67	0.00042639227
245	0xbdeae547	-0.114695124
246	0xbd173ccc	-0.036923215
247	0xb72ea9e1	-1.0410761e-05
248	0x3d4c4adf	0.04987609
249	0x3bf19261	0.007372186
250	0xbb3d7114	-0.002890651
251	0xbd6a09ae	-0.057138138
252	0xbda4e334	-0.08051148
253	0xbd37c7c1	-0.044868235
254	0x3debf888	0.11522013
255	0x3dfa0e13	0.12209716

fc_logvar.bias f4 [10]
0	0x3bd1c03e	0.006401091
1	0xbe94276f	-0.28936335
2	0xbcba33bf	-0.022729753
3	0xbe626909	-0.2211038
4	0xbd9adef3	-0.075620554
5	0xbe20980a	-0.15682998
6	0xbd174aa7	-0.03693643
7	0xbdae12e1	-0.084996946
8	0xbd0e1edd	-0.034697402
9	0xbe08c624	-0.13356835

fc_decode.weight f4 [64, 10]
0	0xbdaab512	-0.08335318
1	0x3bfa2ff4	0.007635111
2	0x3e8f1198	0.2794311
3	0x3d99d2d0	0.075109124
4	0xbe1eebc7	-0.1551963
5	0xbe01fdd3	-0.12694483
6	0x3edc183a	0.42987233
7	0xbec0174a	-0.37517768
8	0x3e98d9df	0.29853722
9	0xbe91db2f	-0.28487536
10	0xbd03008b	-0.03198294
11	0x3efe852f	0.49710986
12	0x3ee4fcdc	0.44724166
13	0xbddbf107	-0.10739332
14	0x3cef9898	0.029247567
15	0xbd9b5303	-0.075841926
16	0xbe93c40e	-0.28860515
17	0x3ec02832	0.37530667
18	0xbea1685c	-0.31524932
19	0x3e66f845	0.22555645
20	0x3cedcbaa	0.029027779
21	0x3cfbf7d8	0.03075783
22	0x3f1d9109	0.6154943
23	0x3d468e51	0.048475567
24	0xbeddeaf0	-0.43343306
25	0xbeae1a2b	-0.3400434
26	0x3e66a815	0.22525056
27	0x3ee8f301	0.45497897
28	0xbebb6426	-0.36599845
29	0xbeae9394	-0.34096968
30	0xbd0b4ee4	-0.034010783
31	0xbd2d485b	-0.04230533
32	0x3ed0d737	0.40789196
33	0x3e0ae386	0.13563356
34	0x3ec1a2a3	0.37819394
35	0xbda8eb85	-0.08248047
36	0xbc95d703	-0.018291002
37	0x3e9f8a9a	0.31160432
38	0xbe405e2b	-0.18785922
39	0x3e47b5b5	0.1950291
40	0x3e9e6c84	0.30942166
41	0x3ee629a9	0.4495366
42	0x3e6adff5	0.22936995
43	0xbe1a9d39	-0.15099038
44	0x3ebe199f	0.37128922
45	0xbd228f9c	-0.039687738
46	0xbd22d7f5	-0.039756734
47	0x3e94e1ab	0.2907842
48	0x3ec5ca95	0.3863112
49	0x3df3a5af	0.11896836
50	0xbe3f9f97	-0.18713222
51	0xbe2bceeb	-0.16778152
52	0xbe1d63db	-0.15370123
53	0x3e844036	0.2583024
54	0x3eee1a8e	0.46504635
55	0x3d51bff9	0.05120847
56	0xbe1ccb90	-0.15312028
57	0xbeac76eb	-0.33684477
58	0x3d873e8e	0.06603728
59	0xbdfb2fcf	-0.12264978
60	0x3ec2d9cc	0.3805679
61	0xbe3ea731	-0.18618466
62	0xbe3c1aaa	-0.18369547
63	0x3cf57329	0.02996214
64	0x3e92e845	0.28692833
65	0x3d8dad40	0.069178104
66	0xbea94573	-0.33060798
67	0xbebdf017	-0.37097237
68	0xbe728688	-0.23684132
69	0x3e13c222	0.14429525
70	0x3e2337a3	0.15939192
71	0x3eae79a2	0.34077173
72	0xbbd63212	-0.0065367306
73	0x3ed2a9e1	0.41145232
74	0x3f150a23	0.5821859
75	0x3e3287ae	0.1743457
76	0x3e24d19d	0.16095586
77	0x3d978af6	0.073995516
78	0xbe99ea15	-0.30061403
79	0x3eb0d546	0.34537715
80	0xbdcf0667	-0.10108643
81	0xbe6d7fdc	-0.23193306
82	0xbcfaf45c	-0.030634098
83	0xbe875ced	-0.26438084
84	0x3df4dc40	0.11956072
85	0x3e94a66e	0.29033226
86	0xbe9b9073	-0.30383644
87	0xbd9a1337	-0.07523196
88	0x3e9c70ae	0.30554718
89	0xbcc34d0b	-0.023840448
90	0x3e0d5bfa	0.13804618
91	0xbe485b10	-0.19565988
92	0x3e1ef046	0.15521345
93	0xbe43c6c0	-0.19118786
94	0xbe4f7dbc	-0.20262808
95	0xbc29509d	-0.010334161
96	0x3ecae7f6	0.39630097
97	0xbe1521c4	-0.14563662
98	0x3e72b9da	0.23703709
99	0x3eaa08c9	0.33209828
100	0xbd47e35b	-0.048800807
101	0xbed49fb4	-0.41528094
102	0xbd9671a0	-0.07345891
103	0x3e84f6c5	0.2596952
104	0xbeb88a1d	-0.36042872
105	0x3e57075b	0.209989
106	0xbe8c637a	-0.27419645
107	0xbe6f3831	-0.23361279
108	0x3e483af1	0.19553734
109	0x3e8005d4	0.25004447
110	0xbe424ad0	-0.18973851
111	0xbea39240	-0.31947517
112	0x3ec6384a	0.3871482
113	0xbc53598a	-0.012899766
114	0xbf056296	-0.52103555
115	0x3e9a17e6	0.30096358
116	0x3d42f4d3	0.047596764
117	0xbec56b46	-0.38558406
118	0xbed55ff5	-0.41674772
119	0x3e79cab7	0.24393736
120	0xbe9ff229	-0.3123944
121	0x3e5ab3f6	0.21357712
122	0x3e4df200	0.20111847
123	0xbec99e2d	-0.3937849
124	0x3e457317	0.19282185
125	0x3df47d6e	0.11937986
126	0xbec49784	-0.38396847
127	0xbd37a87c	-0.044838414
128	0x3e4f7170	0.20258117
129	0x3e27a21f	0.16370438
130	0x3d355382	0.044269092
131	0xbf385e48	-0.7201886
132	0x3ea30d32	0.31846005
133	0xbddc851d	-0.10767577
134	0x3f000fc0	0.5002403
135	0xbcccebdc	-0.02501481
136	0x3dbea632	0.09309043
137	0x3ec3d29f	0.3824663
138	0xbd044f52	-0.03230221
139	0x3ce639ad	0.028103674
140	0x3ccee4e0	0.02525562
141	0xbe22b069	-0.15887608
142	0x3c8d3e49	0.017241614
143	0x3e976956	0.29572552
144	0xbe90062b	-0.28129706
145	0xbe7527f6	-0.23941025
146	0xbeac1ee0	-0.33617306
147	0xbed4bcb9	-0.41550234
148	0xbe7daba8	-0.24772513
149	0xbd0eb6ca	-0.03484229
150	0xbe5f45de	-0.21803996
151	0x3d1bf003	0.03807069
152	0xbea30374	-0.31838572
153	0x3e17f22e	0.14838478
154	0xbddac6e9	-0.1068247
155	0x3e51d17c	0.20490068
156	0x3e90751d	0.2821435
157	0x3ed3386a	0.41253978
158	0xbe758b66	-0.23978958
159	0xbe246036	-0.16052327
160	0x3ebe5d5c	0.37180603
161	0xbc458a1d	-0.012056855
162	0xbe82364b	-0.25432047
163	0xbecc5edd	-0.39916125
164	0x3e7f04c1	0.24904157
165	0xbee5c594	-0.44877303
166	0x3ef5d772	0.48015934
167	0xbb51dc54	-0.0032022195
168	0x3e6e5ab0	0.23276782
169	0xbd0eea47	-0.034891393
170	0xbe2d8e95	-0.16948922
171	0xbee13ae1	-0.43990234
172	0x3e98194d	0.29706803
173	0xbc3d85a3	-0.011567506
174	0x3c20d36d	0.009816033
175	0xbea6051e	-0.3242578
176	0x3dda2541	0.10651637
177	0x3e9196f9	0.28435495
178	0x3e394932	0.18094328
179	0xbc17fa15	-0.009275933
180	0xbe313e59	-0.1730894
181	0x3e3f08b5	0.18655665
182	0x3e46f1fa	0.19428244
183	0xbcc45296	-0.023965161
184	0x3f1342ce	0.5752381
185	0xbe4118e8	-0.18857157
186	0x3ea61ba2	0.32442957
187	0x3d7ea253	0.062166523
188	0xbee0fa56	-0.4394099
189	0xbe52584a	-0.20541492
190	0x3e21ab48	0.15787995
191	0xbea3100a	-0.31848174
192	0xbe845533	-0.25846252
193	0x3ea0b3f2	0.31387287
194	0xbee96f34	-0.45592654
195	0x3da239c4	0.07921174
196	0xbe644e27	-0.22295438
197	0xbeac1c2a	-0.33615237
198	0xbee06f1a	-0.43834764
199	0x3d71c92b	0.05902974
200	0xbddbfe36	-0.10741846
201	0x3db5cf5d	0.08877442
202	0xbee45344	-0.44594777
203	0xbc52e6ff	-0.012872457
204	0xbe451ae1	-0.19248535
205	0x3e3e3ea1	0.18578579
206	0xbea58d35	-0.32334295
207	0xbebc8fbe	-0.36828417
208	0xbe9a518f	-0.3014035
209	0xbec79df6	-0.38987702
210	0xbe057632	-0.13033369
211	0xbf0f89ed	-0.56069833
212	0xbee81172	-0.4532581
213	0xbdedc749	-0.11610276
214	0xbd7ad8c3	-0.061241876
215	0x3e8f5c10	0.27999926
216	0x3e68fe5c	0.2275328
217	0x3de44ca6	0.11147432
218	0x3eb3598b	0.35029253
219	0xbe8cafa5	-0.27477756
220	0xbe90d668	-0.2828858
221	0x3e9bc3b9	0.30422762
222	0x3e0c0fa0	0.13677835
223	0xbc2a873a	-0.010408217
224	0xbe988450	-0.29788446
225	0x3b8aa391	0.0042309244
226	0xbcf4a761	-0.029864969
227	0x3d872667	0.065991215
228	0xbedd94bd	-0.4327754
229	0xbec6f168	-0.38856053
230	0x3e7d15d0	0.24715352
231	0x3ed344c4	0.41263402
232	0x3ea10a92	0.31453377
233	0x3cc8c534	0.024508096
234	0xbea7a515	-0.32743135
235	0xbbb69f57	-0.005573194
236	0x3f1c06fb	0.6094815
237	0xbedc26aa	-0.42998248
238	0xbdba030a	-0.09082611
239	0x3e9b45b6	0.30326623
240	0xbcb3bf3b	-0.021941772
241	0x3d9f00d0	0.07763827
242	0xbe75a4c9	-0.23988642
243	0x3e0e7450	0.13911557
244	0x3dc2d63e	0.0951352
245	0xbe922942	-0.28547102
246	0x3d1da5d4	0.038488224
247	0xbe551f00	-0.20812607
248	0x3ef3a171	0.47584108
249	0x3eb4fc1e	0.353486
250	0x3c242048	0.010017462
251	0x3e16dcb7	0.14732634
252	0xbeef9c03	-0.46798715
253	0xbe9a8c2a	-0.30185062
254	0xbe70e4c3	-0.23524766
255	0xbe9c1b3e	-0.30489534

fc_decode.bias f4 [64]
0	0x3eb375ea	0.350509
1	0xbce710c3	-0.028206235
2	0xbee4028d	-0.44533196
3	0xbe472f25	-0.19451578
4	0xbf18307d	-0.5944899
5	0xbee5700b	-0.44812045
6	0xbf0145ab	-0.5049693
7	0xbec8c75d	-0.39214602
8	0x3f0b44ec	0.5440204
9	0xbf0b730b	-0.54472417
10	0xbefe85b6	-0.49711388
11	0xbe88b732	-0.26702267
12	0xbee2dab3	-0.4430748
13	0xbe136df4	-0.14397413
14	0xbf0eb20c	-0.5574043
15	0x3e4e9efd	0.20177837
16	0x3e4813d0	0.19538808
17	0xbecf9c78	-0.40549064
18	0xbee46017	-0.4460456
19	0x3f228b07	0.6349339
20	0xbf2c81c6	-0.6738552
21	0xbdb62a24	-0.088947564
22	0x3e22b84a	0.15890613
23	0xbd214aa8	-0.03937784
24	0x3ef70123	0.48243055
25	0x3e759945	0.23984249
26	0xbe0e2ed0	-0.13885045
27	0xbec7614b	-0.38941416
28	0xbf2fa978	-0.68617964
29	0x3e58a8c3	0.21158127
30	0xbd3a984d	-0.0455554
31	0x3ea78695	0.32719865
32	0xbf09aa5a	-0.5377556
33	0xbd57eb70	-0.052714765
34	0xbe5e7e11	-0.21727778
35	0xbf1d46c0	-0.6143608
36	0x3ecc0a7c	0.3985175
37	0xbded373f	-0.11582803
38	0xbec88819	-0.39166334
39	0xbdadfe6b	-0.08495792
40	0x3e9f5222	0.3111735
41	0xbec71083	-0.38879785
42	0x3e61d5bf	0.22054194
43	0x3f17a5cd	0.59237367
44	0x3eb75c4d	0.35812607
45	0xbeb9fcb4	-0.3632561
46	0x3d9ce7cc	0.07661399
47	0x3f0b36d9	0.54380566
48	0x3f04d1a2	0.51882374
49	0xbeda9a2e	-0.42695755
50	0xbf080a74	-0.5314095
51	0x3d838b1e	0.06423019
52	0xbee53192	-0.44764382
53	0x3e9aaf3d	0.3021182
54	0xbf2d71b2	-0.6775161
55	0xbf3b03cb	-0.7305266
56	0x3ef40637	0.47660992
57	0xbf186482	-0.5952836
58	0x3dfb69c5	0.12276033
59	0x3e8bc318	0.27297282
60	0x3eabcd8e	0.33555263
61	0xbea52258	-0.32252765
62	0x3ed8a384	0.42312253
63	0xbf30bf6a	-0.69042075

decoder_conv.1.weight f4 [64, 32, 7, 7]
0	0x3d36700e	0.044540457
1	0x3cfb7c56	0.030698936
2	0x3d66eb14	0.05637653
3	0xbd4383ae	-0.047733
4	0x3c1ff711	0.009763495
5	0x3de2d9b6	0.11076681
6	0x3b6c00a0	0.0036011115
7	0x3cedd5b0	0.029032558
8	0x3d080021	0.033203248
9	0x3e01eb3a	0.12687388
10	0x3d14d881	0.036339287
11	0xbd83a988	-0.0642882
12	0x3e305542	0.17220023
13	0x3d4df768	0.050284773
14	0x3d63b598	0.055593103
15	0x3ddcd731	0.10783232
16	0xbca1c6f1	-0.019748183
17	0x3d552833	0.05204029
18	0x3e2031cc	0.15643996
19	0x3dd54137	0.10412829
20	0x3e21ca3d	0.15799804
21	0x3cb5f138	0.022209749
22	0x3d8b557a	0.06803413
23	0xbc6701ec	-0.014099579
24	0x3e038ace	0.12845919
25	0xbe822884	-0.25421536
26	0x3e2a36a2	0.16622403
27	0x3d17b46b	0.037037294
28	0x3d2058b4	0.039147094
29	0x3e1cde3b	0.15319149
30	0x3e49cc5e	0.19706866
31	0xbcd5afdd	-0.026084835
32	0xbd9f359b	-0.07773896
33	0x3e605d03	0.21910481
34	0x3cc57e68	0.024108127
35	0x3d3ad327	0.045611527
36	0x3dc1f330	0.094702125
37	0x3ddea7d3	0.10871854
38	0xbd8e084e	-0.06935178
39	0x3de4150b	0.11136826
40	0x3e676e0c	0.22600573
41	0x3ddd8d16	0.10817926
42	0x3d8a72f9	0.067602105
43	0x3c4e7b28	0.012602605
44	0x3cf699e6	0.030102681
45	0xbc931f99	-0.017959403
46	0x3d137fa7	0.03601041
47	0x3d41828f	0.04724365
48	0x3d822bec	0.06356034
49	0x3db55c25	0.08855466
50	0x3d87646a	0.06610949
51	0xbcb2b9e9	-0.021817164
52	0xbc911185	-0.01770855
53	0x3d09cedc	0.033644542
54	0x3d57267d	0.05252694
55	0x3e15da96	0.14634165
56	0x3d6d272d	0.05789869
57	0x3ca3c752	0.019992504
58	0xbd829a00	-0.063770294
59	0x3c94a4e8	0.01814504
60	0xbd8d2d03	-0.06893351
61	0xbd7e6361	-0.062106494
62	0x3e19f835	0.1503609
63	0x3d4f0b0c	0.050547644
64	0x3e0c9e76	0.13732323
65	0x3e4bec7f	0.19914435
66	0xbdb874aa	-0.09006627
67	0xbc8e0c83	-0.01733995
68	0x3e1efba1	0.15525676
69	0x3ddfdf4a	0.10931261
70	0x3df7df59	0.12103147
71	0x3e227b3b	0.15867321
72	0x3e24a171	0.1607721
73	0x3d872605	0.065990485
74	0xbd012fa1	-0.031539563
75	0x3e34550a	0.17610565
76	0x3c9b1123	0.01892907
77	0x3c0b6f80	0.00851047
78	0x3cf9d728	0.030498102
79	0x3df84770	0.121230006
80	0xbdf33d3f	-0.11876916
81	0x3d3c2540	0.045933962
82	0x3e1e0443	0.15431313
83	0x3d475131	0.048661415
84	0x3d2d7a4a	0.042352952
85	0x3d9e5242	0.07730533
86	0x3c502682	0.0127044935
87	0x3ce9cd9f	0.02854043
88	0x3a288f51	0.0006430047
89	0x3ddf2344	0.10895398
90	0x3e61e913	0.22061567
91	0x3da0d975	0.07853977
92	0x3c7da58c	0.015481364
93	0x3e4f8bb9	0.20268144
94	0x3e7a8fff	0.24468993
95	0x3de4c5f1	0.11170567
96	0x3bd63d29	0.0065380526
97	0x3d5e3c62	0.054256804
98	0x3d903468	0.07041246
99	0xbd61f175	-0.055161912
100	0xbc8e5ad8	-0.017377302
101	0xbd9b1d8c	-0.07573995
102	0x3d59c920	0.053170323
103	0xbde2749b	-0.11057397
104	0x3db2a2c5	0.08722452
105	0x3c0e6c74	0.008692849
106	0x3de580f3	0.11206236
107	0x3e155034	0.14581376
108	0xbd30446f	-0.043034013
109	0xbd894d14	-0.067041546
110	0x3e2b5b85	0.1673413
111	0xbbe0b5c2	-0.0068576047
112	0x3dd0c687	0.10194116
113	0x3dce7f79	0.10082907
114	0xbcf68ce9	-0.030096488
115	0x3d0353a7	0.0320622
116	0xbe10a3aa	-0.14124933
117	0xbd06b60d	-0.03288846
118	0xbda4aaa8	-0.080403626
119	0x3dc67475	0.09690181
120	0x3e98e4f7	0.29862186
121	0x3cdacb6f	0.026708333
122	0x3e0b9494	0.13630897
123	0x3b64cb75	0.003491131
124	0x38950537	7.105845e-05
125	0x3c610a7a	0.013735408
126	0x3db6502c	0.0890201
127	0xbdb6667c	-0.08906266
128	0x3cac222d	0.02101239
129	0xbd170621	-0.03687108
130	0xbc9b9771	-0.018993111
131	0xbb1e4328	-0.0024148915
132	0x3dc9cc24	0.0985339
133	0x3dfe5f8b	0.12420567
134	0x3cf5e421	0.030016007
135	0x3cf1709b	0.02947264
136	0xbcac7281	-0.021050693
137	0x3d10925b	0.035295825
138	0x3e023238	0.1271447
139	0x3d979531	0.07401503
140	0x3d94d42e	0.072670326
141	0x3dae43a8	0.08508998
142	0x3dbb2c46	0.09139304
143	0x3defaa79	0.11702437
144	0x3e1e9c60	0.1548934
145	0x3d6cf077	0.057846513
146	0x3dcca014	0.0999147
147	0x3dcf95c6	0.10135989
148	0x3d4d2a85	0.050089378
149	0x3d26cbac	0.04072158
150	0xbbb29a12	-0.0054504955
151	0x3d733f79	0.059386704
152	0x3d325072	0.04353375
153	0x3d86b54e	0.0657755
154	0xbc08332f	-0.008312984
155	0x3d90add7	0.07064407
156	0x3d6cfaa2	0.05785621
157	0xbdbcdfa1	-0.09222341
158	0x3ddb0979	0.10695166
159	0x3e50015e	0.20313022
160	0x3e1c9cac	0.1529414
161	0x3de62d15	0.112390675
162	0x3defe898	0.117142856
163	0x3e3e8ff6	0.18609604
164	0x3d8b2a54	0.06795183
165	0xbe14c5f4	-0.14528638
166	0x3e8b3216	0.2718665
167	0x3e1ee2b2	0.15516165
168	0x3deb2918	0.114824474
169	0x3da495e6	0.08036403
170	0x3dbdeb7d	0.092734315
171	0x3c836494	0.01603917
172	0xbd863dc8	-0.065547526
173	0xba99f761	-0.0011746698
174	0x3cb03a18	0.021512076
175	0x3b4bf349	0.003112035
176	0x3d08705c	0.03331028
177	0x3b8ac487	0.0042348537
178	0xbcb8ae5b	-0.022544077
179	0xbe06a1b0	-0.13147616
180	0xbdfa11b2	-0.12210406
181	0x3db47bd3	0.0881268
182	0x3b65966c	0.0035032285
183	0xbdaf45ed	-0.08558259
184	0x3cbeb857	0.02328126
185	0x3cbaf1c6	0.022820365
186	0xbbba5d1a	-0.005687368
187	0x3ddfa154	0.10919443
188	0x3aa3d22f	0.0012498553
189	0x3e1c5d45	0.15269955
190	0xbcaceb97	-0.021108432
191	0x3c98a423	0.018632954
192	0x3e8366c5	0.25664344
193	0x3cc62566	0.024187755
194	0x3e0d6409	0.13807692
195	0xbb6f920c	-0.0036555557
196	0x3da9d9c6	0.0829349
197	0x3cee568f	0.029094009
198	0x3def9099	0.11697502
199	0x3c8b10f8	0.016975865
200	0x3ae7ff3c	0.0017699967
201	0x3d42829b	0.047487836
202	0x3d17de9a	0.037077524
203	0x3d19579c	0.037437066
204	0x3de32044	0.110901386
205	0x3d3de7a2	0.04636348
206	0xbd8245e1	-0.063609846
207	0xbd86e259	-0.06586141
208	0x3e07671f	0.13222931
209	0xbbc04caa	-0.005868514
210	0x3d5bf1e9	0.0536975
211	0x3dc984b1	0.09839762
212	0x3e375e54	0.17907077
213	0x3c8096e0	0.015696943
214	0x3e05f025	0.13079889
215	0x3e8adea8	0.27122998
216	0x3d62c8e2	0.055367358
217	0xbcec4333	-0.028840637
218	0x3cb6c6ed	0.022311652
219	0x3c19bdad	0.009383601
220	0x3c8cc063	0.01718158
221	0x3a33975b	0.0006850862
222	0x3e7b2e1d	0.2452931
223	0x3e8369f7	0.25666782
224	0x3d1ab8b4	0.037773803
225	0x3de294cb	0.11063536
226	0xbbcfaf82	-0.006338061
227	0x3db19d91	0.086726315
228	0x3deb734b	0.114966
229	0xbc035092	-0.008014815
230	0x3e05d3cf	0.1306908
231	0x3d844d34	0.06460038
232	0x3dba5f51	0.091002114
233	0x3db3fbc7	0.08788257
234	0xbd1f99c4	-0.038965
235	0x3da4f1fa	0.08053966
236	0x3e04710b	0.12933747
237	0x3b99694f	0.004681743
238	0x3d92acde	0.07161878
239	0x3c04646a	0.008080581
240	0x3e4df25a	0.20111981
241	0x3df0cd24	0.117578775
242	0x3dd9d026	0.10635404
243	0x3e32966e	0.17440197
244	0x3e1250a3	0.14288573
245	0x3df3159a	0.118693545
246	0x3d3b3e28	0.045713574
247	0x3db2c49e	0.08728908
248	0x3e00618c	0.12537211
249	0x3e6c24fa	0.2306098
250	0x3e47a8bc	0.19497961
251	0x3e5f061f	0.21779679
252	0x3baffc3f	0.0053706462
253	0x3dce7387	0.10080629
254	0xbd05eeb7	-0.03269836
255	0xbdd66a7f	-0.10469531
