02_Representations/model_weights/vae_best.pth (torch, 855990 bytes, 17 tensors)

encoder_conv.0.weight f4 [16, 1, 3, 3]
0.0054021995 -0.008435268 -0.23313238 -0.20904431 -0.046951197 -0.10541054 -0.07879509 -0.048842393
-0.09858373 0.42541248 -0.05959135 -0.13164768 0.44873622 -0.3026805 -0.13652919 0.07053206
-0.37194327 -0.089013875 -0.019730624 -0.16629077 0.16104896 0.052493174 -0.18946104 -0.19094554
0.19065954 0.04882027 -0.11294665 -0.1671957 -0.34498864 0.3703441 -0.3371198 -0.03056143
0.18681607 0.2090287 0.41336238 -0.17167757 -0.16098855 -0.3247716 -0.37314597 0.012975536
0.01994469 -0.056937326 0.22917174 0.29990885 0.33370748 -0.24845263 -0.034862567 -0.09236257
-0.17939274 0.10591675 0.04754966 0.031614654 0.09077346 -0.13465941 -0.1483079 -0.11409799
0.23642501 -0.38200456 -0.06270252 0.49252078 -0.39816564 0.00050381053 0.39898592 0.12511395
0.11986739 0.107718244 -0.030276688 -0.14173914 0.012714301 0.19194283 0.18706428 0.2275962
0.17237979 0.07684288 0.2101914 0.11947206 -0.0768433 0.1415527 -0.057032883 -0.2452116
0.04884642 0.15327296 0.22295831 0.034773327 0.14719029 0.5497163 0.16767602 0.0065753614
0.041634716 -0.09875279 -0.3387252 -0.103709094 -0.03580394 -0.096034825 0.014143044 -0.11307677
-0.2719411 -0.11472563 -0.21257676 -0.07227252 -0.0709214 -0.061577305 0.10817184 0.096616715
-0.06579088 -0.0106209945 -0.088446826 -0.05062086 -0.087807834 -0.083378114 0.01702461 0.35229853
0.29022318 0.0877655 0.387714 0.32211387 -0.06647821 -0.013415456 0.23553468 0.3852062
-0.1778474 0.05878286 0.22635092 -0.12331898 -0.31049827 -0.19356118 0.13781843 -0.22380514
-0.14470316 0.14119838 0.02252613 0.0429772 -0.20497465 0.019869832 0.18887378 0.04565144
0.3573538 0.27266118 0.11492708 0.21323806 0.11162002 0.100564145 0.29557106 0.17375877
00000000: ef04 b13b 1434 0abc 41ba 6ebe b60f 56be
00000010: e64f 40bd 7be1 d7bd 525f a1bd f60e 48bd
00000020: 44e6 c9bd aacf d93e 0f16 74bd a6ce 06be
00000030: c1c0 e53e f0f8 9abe 4fce 0bbe 1d73 903d
00000040: 596f bebe e84c b6bd 1ea2 a1bc 2148 2abe
00000050: 05ea 243e 1503 573d 1302 42be 3a87 43be
00000060: 413c 433e c3f7 473d 9350 e7bd 5935 2bbe
00000070: 5aa2 b0be be9d bd3e f79a acbe f75b fabc
00000080: b64c 3f3e 9f0b 563e 3ca4 d33e 3fcc 2fbe
00000090: 2fda 24be 7748 a6be fd0c bfbe 5897 543c
000000a0: 0c63 a33c 1d37 69bd ffab 6a3e a78d 993e
000000b0: b5db aa3e 5e6a 7ebe 0dcc 0ebd 9628 bdbd
000000c0: bbb2 37be e2ea d83d 6fc3 423d 5e7e 013d
000000d0: 70e7 b93d 28e4 09be 07de 17be 35ac e9bd
000000e0: 6619 723e 1a96 c3be 2e6a 80bd af2b fc3e
000000f0: 5edc cbbe 2712 043a e247 cc3e df1d 003e
00000100: 097d f53d 629b dc3d d106 f8bc 1124 11be
00000110: a54f 503c a98c 443e c78d 3f3e fa0e 693e
00000120: 5484 303e cd5f 9d3d 6a3c 573e c4ad f43d
00000130: 0560 9dbd 31f3 103e 509b 69bd c018 7bbe
00000140: 2f13 483d 96f3 1c3e 2f4f 643e 7a6e 0e3d
00000150: 0db9 163e 35ba 0c3f 43b3 2b3e 2176 d73b
00000160: 2a89 2a3d e73e cabd 646d adbe 6f65 d4bd
00000170: 27a7 12bd e8ad c4bd 3ab8 673c cb94 e7bd
00000180: dd3b 8bbe 45f5 eabd b9ad 59be 9d03 94bd
00000190: 3d3f 91bd 7c38 7cbd 3389 dd3d fcde c53d
000001a0: 5ebd 86bd ae03 2ebc 9c23 b5bd d257 4fbd
000001b0: 98d4 b3bd 25c2 aabd 3277 8b3c 7960 b43e
000001c0: 2298 943e 66be b33d 7382 c63e 1cec a43e
000001d0: ba25 88bd 80cc 5bbc 0130 713e bf39 c53e
000001e0: a11d 36be 4cc6 703d 89c8 673e a98e fcbd
000001f0: a1f9 9ebe e734 46be 4620 0d3e 2d2d 65be
00000200: 112d 14be 4f96 103e b888 b83c dc08 303d
00000210: e0e4 51be 0fc6 a23c 2168 413e 01fd 3a3d
00000220: 14f7 b63e 3f9a 8b3e e45e eb3d 145b 5a3e
00000230: 0999 e43d 93f4 cd3d 1755 973e d2ed 313e

encoder_conv.0.bias f4 [16]
0.2125161 -0.11593543 0.14456359 -0.2284723 -0.10594324 0.29770064 -0.14649537 0.08726797
0.12318277 -0.15435074 0.34013167 0.27319366 -0.14895822 -0.047309384 0.19435048 -0.13871701
00000000: d29d 593e 8e6f edbd 7a08 143e a5f4 69be
00000010: c5f8 d8bd 386c 983e e202 16be 8db9 b23d
00000020: 4047 fc3d 1f0e 1ebe bd25 ae3e 0ae0 8b3e
00000030: 8188 18be 7cc7 41bd d003 473e d50b 0ebe

encoder_conv.2.weight f4 [32, 16, 3, 3]
-0.009683236 0.039337546 0.010510443 0.060589038 -0.03178456 -0.16236001 0.10275221 0.007787414
-0.114426 0.11977057 0.109835826 0.05397061 -0.28511393 -0.16081607 0.034277514 -0.28488034
0.25536263 0.17173901 -0.03005933 -0.10353586 -0.12635677 -0.05063003 -0.06399763 -0.14149542
-0.059350654 -0.028294636 -0.081142746 0.30860063 -0.667424 0.062278073 -0.21634671 -0.43801025
0.22686623 -0.245925 0.022847475 0.121187076 0.06795948 -0.037543092 -0.14616026 0.2448779
-0.061920263 -0.012548492 -0.24505873 -0.3844685 -0.5456993 0.033570386 0.0144642955 0.06341541
0.049481664 0.039358277 0.07123934 0.0029081684 0.027235782 -0.039775237 0.084104694 -0.22599877
0.10452228 0.050004877 -0.0039598807 0.20395736 0.1044795 0.088153414 0.26020217 0.1438662
0.0012269313 0.0004375189 0.16676225 0.02623173 0.033171427 0.04454951 0.028468693 0.035746906
0.123983845 -0.018414095 -0.07466137 0.0025591124 0.016761355 -0.025240868 0.04029546 0.07857967
-0.063321725 0.029191645 -0.03584167 -0.15853092 -0.09333082 -0.59044284 0.021733982 0.024589125
-0.18208638 0.09871312 -0.12651718 0.060069665 -0.026775973 -0.043302998 0.06791386 -0.04178798
0.1394175 -0.0069715707 -0.07277497 0.064748354 0.09040597 0.119099475 -0.008735107 -0.00072678993
0.044545986 0.13628995 0.112464555 0.06420263 0.018315531 -0.26007053 -0.12209704 -0.10631353
-0.62090856 0.12930629 -0.65600616 -0.11972445 0.11273999 -0.019363342 -0.0724683 -0.2816592
0.01240117 -0.06810851 0.0124082165 0.030823674 -0.13075297 -0.06393176 0.07969975 0.081442855
0.14399606 0.05288823 0.018078241 0.123266645 0.10029355 -0.02847531 -0.022071147 0.11176317
-0.12748463 -0.34681416 -0.10807254 -0.28992188 -0.04075486 -0.47956893 -0.20916344 -0.0076935412
0.14708258 0.05035742 -0.15666299 -0.076053746 -0.03817459 -0.22480509 0.05973457 -0.091196194
-0.18440348 -0.5492599 -0.014469691 0.102109775 0.023551028 -0.20454942 0.45307374 0.28093213
-0.16864026 0.27646184 -0.0024609687 0.03256535 -0.14906396 0.06308661 0.037334483 -0.040127378
-0.009423293 -0.095879845 -0.0062500834 -0.21264185 0.17799513 0.0019195062 -0.38456553 0.055575866
-0.05425688 0.45309824 0.093818635 0.23098738 0.1827654 -0.23959921 0.017993547 -0.06501078
-0.3543609 -0.34072006 -0.18676458 -0.3495314 -0.53334785 0.059197746 0.06891897 0.08262864
0.02427664 -0.011677226 0.0449175 0.039172687 0.08286268 0.05836403 -0.051057052 -0.059845466
0.20878123 0.052249398 0.11708036 0.22249112 0.11392856 0.25026906 0.14818741 0.040066708
-0.03549431 -0.026122566 0.13043682 0.123911574 -0.10634433 0.047845386 0.2167086 -0.104325786
0.007276907 0.06854464 -0.04249786 0.036119405 0.11761382 -0.04784482 0.06910914 -0.018513596
-0.19623241 -0.19374646 -0.4770384 0.11132219 -0.21097423 -0.24350293 0.14251165 -0.092900336
-0.04534315 0.09715311 0.045409486 0.044887446 -0.07595334 0.0783001 -0.020655852 -0.077906154
0.064669035 -0.11778989 -0.124683574 0.050119653 0.109000064 0.10841765 0.022624293 0.09994543
-0.03536044 0.053463902 0.12750931 0.006189843 -0.19712298 -0.23292686 0.13334449 -0.20227465
00000000: 6fa6 1ebc 6820 213d fe33 2c3c 362c 783d
00000010: 8730 02bd b441 26be c06f d23d 902d ff3b
00000020: 2e58 eabd 464a f53d 9bf1 e03d 4910 5d3d
00000030: 74fa 91be f8ac 24be 9466 0c3d d6db 91be
00000040: e4be 823e 5adc 2f3e fc3e f6bc 9c0a d4bd
00000050: ab63 01be 6f61 4fbd 3011 83bd 2de4 10be
00000060: ac19 73bd 27ca e7bc 2b2e a6bd e700 9e3e
00000070: 4ddc 2abf 4b17 7f3d fe89 5dbe e142 e0be
00000080: 9f4f 683e c3d3 7bbe a12a bb3c ee30 f83d
00000090: 572e 8b3d c9c6 19bd 09ab 15be 46c1 7a3e
000000a0: 1aa0 7dbd 3198 4dbc adf0 7abe 0ed9 c4be
000000b0: f3b2 0bbf 1a81 093d a7fb 6c3c f0df 813d
000000c0: 49ad 4a3d 2536 213d eee5 913d f896 3e3b
000000d0: 931d df3c 5ceb 22bd 153f ac3d 396c 67be
000000e0: c70f d63d ead1 4c3d e3c1 81bb 33da 503e
000000f0: 59f9 d53d c789 b43d 3839 853e a951 133e
00000100: fcd0 a03a cb62 e539 b9c3 2a3e ede3 d63c
00000110: c3de 073d 8c79 363d 2d37 e93c 596b 123d
00000120: 3eeb fd3d 28d9 96bc 0fe8 98bd c8b6 273b
00000130: 1c4f 893c f0c5 cebc da0c 253d 61ee a03d
00000140: d2ae 81bd 5123 ef3c b7ce 12bd ee55 22be
00000150: 3b24 bfbd 4327 17bf 770b b23c 226f c93c
00000160: da74 3abe 1b2a ca3d b88d 01be 9c0b 763d
00000170: 4959 dbbc 7c5e 31bd 6c16 8b3d df29 2bbd
00000180: 76c3 0e3e c671 e4bb 0b0b 95bd c99a 843d
00000190: c426 b93d 6dea f33d b21d 0fbc 0c86 3eba
000001a0: da75 363d 988f 0b3e d153 e63d ab7c 833d
000001b0: 740a 963c f727 85be 030e fabd e8ba d9bd
000001c0: ddf3 1ebf de68 043e 05f0 27bf 1832 f5bd
000001d0: 39e4 e63d df9f 9ebc 436a 94bd a235 90be
000001e0: 472e 4b3c 797c 8bbd d54b 4b3c ee81 fc3c
000001f0: 1be4 05be a8ee 82bd 9f39 a33d 83cb a63d
00000200: b473 133e 54a1 583d d218 943c 3973 fc3d
00000210: b466 cd3d 0e45 e9bc 8dce b4bc 17e4 e43d
00000220: 558b 02be a091 b1be 2355 ddbd a470 94be
00000230: 91ee 26bd 0f8a f5be f12e 56be 1a1a fcbb
00000240: d19c 163e 9543 4e3d 436c 20be 11c2 9bbd
00000250: f55c 1cbd 4e33 66be 3dac 743d 12c5 babd
00000260: 44d4 3cbe 4c9c 0cbf 4812 6dbc ee1e d13d
00000270: 16ee c03c 6775 51be 48f9 e73e 56d6 8f3e
00000280: 08b0 2cbe 688c 8d3e 3448 21bb 3f63 053d
00000290: 39a4 18be 8d33 813d 0bec 183d 9b5c 24bd
000002a0: 2864 1abc a75c c4bd 80cd ccbb c9be 59be
000002b0: 5b44 363e f197 fb3a c6e5 c4be 85a3 633d
000002c0: 763c 5ebd 7efc e73e fc23 c03d f587 6c3e
000002d0: da26 3b3e 7f59 75be 3467 933c 5f24 85bd
000002e0: cb6e b5be dc72 aebe 373f 3fbe c8f5 b2be
000002f0: 7c89 08bf 5679 723d 6425 8d3d 3439 a93d
00000300: cedf c63c d651 3fbc 6afb 373d 8a73 203d
00000310: e9b3 a93d 1f0f 6f3d 3321 51bd 8520 75bd
00000320: bfca 553e 7703 563d d4c7 ef3d b6d4 633e
00000330: 6053 e93d 4423 803e 71be 173e fd1c 243d
00000340: 7b62 11bd fefe d5bc 3b91 053e 5ac5 fd3d
00000350: 0ecb d9bd 86f9 433d dce8 5d3e c2a8 d5bd
00000360: 1f73 ee3b 2261 8c3d 3c12 2ebd f1f1 133d
00000370: 84df f03d eef8 43bd 1889 8d3d d3a9 97bc
00000380: 26f1 48be 7965 46be 613e f4be e3fc e33d
00000390: a109 58be d558 79be 93ee 113e 8842 bebd
000003a0: bdb9 39bd 36f8 c63d 4cff 393d e6db 373d
000003b0: 6d8d 9bbd ce5b a03d 7636 a9bc 438d 9fbd
000003c0: 3371 843d d33b f1bd 1a5a ffbd 444a 4d3d
000003d0: 6d3b df3d 130a de3d 9556 b93c 31b0 cc3d
000003e0: 1cd6 10bd f7fc 5a3d cd91 023e 2bd4 ca3b
000003f0: 9bda 49be 6184 6ebe 758b 083e 1621 4fbe

encoder_conv.2.bias f4 [32]
-0.025266211 0.009034829 -0.060854547 -0.05285344 -0.020973643 0.0643005 0.053609803 0.027927045
0.120429344 -0.10311777 -0.04016428 0.09579672 -0.009211412 -0.06734623 0.101106495 0.009018067
-0.0551751 0.05714357 -0.04511302 0.034714315 -0.020595375 0.024164671 -0.006700069 -0.008179194
0.013978779 0.11224194 0.08562546 -0.051064745 0.02040277 -0.019638387 -0.043652553 0.0840898
00000000: 16fb cebc d206 143c 9e42 79bd d97c 58bd
00000010: ebd0 abbc fbaf 833d f495 5b3d 42c7 e43c
00000020: a9a3 f63d 692f d3bd 4d83 24bd 1231 c43d
00000030: 76eb 16bc d2ec 89bd ec10 cf3d 84c0 133c
00000040: 49ff 61bd 600f 6a3d 6ec8 38bd 9930 0e3d
00000050: a2b7 a8bc fdf4 c53c 418c dbbb 0702 06bc
00000060: 4007 653c 1adf e53d 675c af3d 4429 51bd
00000070: b623 a73c afe0 a0bc 05cd 32bd 4637 ac3d

encoder_conv.4.weight f4 [64, 32, 7, 7]
-0.014609511 0.0010401801 -0.009674085 -0.0062251985 0.0018682297 -0.006640247 0.007479698 0.0017375902
-0.003809915 -0.009734123 5.1468443e-05 -1.5967157e-06 -0.0009602203 0.005892908 -0.00808543 -0.0056403293
-0.008837921 -0.003865353 0.0002453836 -7.059957e-05 -0.00803659 -0.010585771 -0.006331833 0.0052440725
-0.005609166 0.0005992227 -0.0015291492 0.002538121 -0.0097267665 -0.0020924446 0.005526786 -0.009501189
-0.0027955214 -0.00048627376 -0.006747979 -0.0010581304 -0.0060713505 0.001251873 0.0065911636 -0.005216243
-0.006502052 -0.00066817895 -0.0044736383 -0.006488509 0.0033592742 0.0025243144 0.0044495016 -0.005867793
-0.0074023046 -4.98038e-40 -0.0025823622 0.0032106524 0.0012432054 -0.006175084 -0.0058628437 0.002768731
5.19918e-40 -0.0034075615 -0.0050962274 0.0035837663 -0.0011435562 -0.0032849305 -0.0016448476 5.10291e-40
-0.0034038522 -0.0012488761 0.0005462287 -1.9749401e-05 0.00016743959 -0.0022089537 -5.29139e-40 0.0021126813
0.0064342697 -0.004600995 -0.0027659154 -0.0032722221 -0.0043468243 5.51885e-40 -0.006920658 -0.0047036693
0.0003181644 -0.00154269 0.0006839874 -0.004240452 5.1661e-40 -0.0015307843 -0.004550469 -0.0038620122
-0.0008392529 -0.00074574735 0.0029413556 -5.54586e-40 -0.0014792021 -0.0004958556 -0.0047023143 0.0011099363
-0.006054596 0.0037049514 -5.68063e-40 5.29919e-40 -5.87863e-40 5.36082e-40 -4.98055e-40 5.2091e-40
5.4551e-40 5.92871e-40 -4.93886e-40 5.34338e-40 5.02863e-40 4.90816e-40 6.11649e-40 -4.93603e-40
-6.25897e-40 5.67579e-40 -5.67971e-40 -6.529412e-15 3.4533392e-25 6.6490927e-16 -5.29747e-40 -5.99934e-40
4.94402e-40 4.93596e-40 4.94363e-40 5.14498e-40 -5.44517e-40 4.92932e-40 -4.94081e-40 4.9424e-40
4.9335e-40 -4.176088e-16 4.522566e-09 4.94974e-40 5.78399e-40 4.90738e-40 4.90468e-40 -5.98597e-40
-1.5610764e-08 4.92374e-40 4.95094e-40 -5.43541e-40 4.9199e-40 5.0502e-40 4.94542e-40 2.0783204e-22
-2.2836504e-29 5.18431e-40 5.4752e-40 5.44812e-40 5.35995e-40 -5.831e-40 5.79029e-40 -5.19442e-40
-5.75335e-40 5.51496e-40 5.2946e-40 5.24111e-40 -1.8646389e-09 3.69108e-07 -2.141458e-32 -6.02127e-40
-5.5263e-40 5.88105e-40 -4.92875e-40 -5.483581e-05 2.5291768e-06 7.823481e-07 -2.8020591e-11 6.12094e-40
5.09861e-40 8.176751e-15 -0.000740407 -9.206903e-05 0.00032367662 4.91973e-40 4.95e-40 -4.95458e-40
-1.9936435e-06 -0.00043836958 8.636252e-05 -2.7257343e-07 2.7082749e-25 5.57987e-40 5.90235e-40 -2.248497e-06
1.8849682e-06 0.000614044 -6.475712e-13 -4.9228e-40 -4.93729e-40 4.94347e-40 -4.93009e-40 1.1471e-09
-1.4192844e-07 3.0687148e-25 -4.91576e-40 -5.94581e-40 -5.27355e-40 3.7308182e-37 6.461873e-24 1.4687077e-10
-1.0493034e-18 -2.0070826e-17 3.515165e-14 -4.93916e-40 0.00011308109 0.00042091927 0.0010603167 -0.00013638173
1.1506723e-05 9.73142e-06 4.94566e-40 -0.00017482722 -0.00018889802 0.00030916164 -0.001078571 0.0001272816
7.967116e-06 4.93386e-40 -5.584694e-05 0.00072477025 2.4588855e-06 -9.987154e-09 2.5612553e-07 5.4381053e-05
-4.92416e-40 -9.283193e-05 0.0002910536 -0.0003886475 -1.0526459e-05 8.4374566e-05 -8.5951314e-07 -4.94328e-40
-4.6369165e-05 -0.00064258 -5.049452e-05 1.3219868e-05 6.656421e-09 6.1494015e-06 4.91978e-40 -7.534603e-05
-8.5598345e-05 0.00012606295 -4.9200853e-08 2.3112532e-08 -2.2151225e-05 2.8371377e-18 0.0010505448 -6.1126098e-06
9.2721755e-05 -0.00041142962 -0.00015784353 8.943725e-05 0.0054496313 0.0004951641 -0.0014291024 -0.01007572
00000000: bb5c 6fbc a756 883a 0e80 1ebc c0fc cbbb
00000010: 63df f43a 6e96 d9bb 4118 f53b dabf e33a
00000020: c4af 79bb df7b 1fbc d2df 5738 bc4e d6b5
00000030: 4bb7 7bba 4c19 c13b c078 04bc 83d2 b8bb
00000040: edcc 10bc dd51 7dbb d4a6 8039 db0e 94b8
00000050: e7ab 03bc f16f 2dbc 447b cfbb 78d6 ab3b
00000060: 18cd b7bb 2815 1d3a bc6d c8ba 9b56 263b
00000070: 045d 1fbc 6521 09bb 0b1a b53b e0aa 1bbc
00000080: 1135 37bb 8ff2 feb9 271e ddbb f7b0 8aba
00000090: 2ef2 c6bb e315 a43a b0fa d73b 05ed aabb
000000a0: 2a0f d5bb bb28 2fba 9997 92bb 8f9d d4bb
000000b0: 4527 5c3b f86e 253b 20cd 913b 9e46 c0bb
000000c0: 088f f2bb 546c 0580 d93c 29bb cf69 523b
000000d0: 0df3 a23a 5c58 cabb 191d c0bb 9973 353b
000000e0: 52a9 0500 6551 5fbb 41fe a6bb 9fdd 6a3b
000000f0: 61e3 95ba fd47 57bb ed97 d7ba 7c8e 0500
00000100: 2a13 5fbb 54b1 a3ba ca30 0f3a 84ab a5b7
00000110: b992 2f39 18c4 10bb 06c3 0580 e974 0a3b
00000120: 91d6 d23b f2c3 96bb 5c44 35bb c772 56bb
00000130: ce6f 8ebb 6e02 0600 b0c6 e2bb 3d21 9abb
00000140: 4ecf a639 1634 caba 9e4d 333a 7df3 8abb
00000150: 19a0 0500 99a4 c8ba 1a1c 95bb d019 7dbb
00000160: 4f01 5cba 427e 43ba c2c3 403b f609 0680
00000170: c9e1 c1ba 4efc 01ba df15 9abb 487b 913a
00000180: a265 c6bb c5ce 723b 872f 0680 33c5 0500
00000190: b966 0680 61d6 0500 606c 0580 16ac 0500
000001a0: a9f0 0500 af74 0600 c160 0580 84d1 0500
000001b0: c779 0500 3258 0500 07a9 0600 f75f 0580
000001c0: bfd0 0680 2e2e 0600 462f 0680 323f eba7
000001d0: 58c0 d516 a5a5 3f26 b8c4 0580 5f88 0680
000001e0: 3162 0500 f25f 0500 1562 0500 369a 0500
000001f0: e4ed 0580 185e 0500 4c61 0580 bd61 0500
00000200: 425f 0500 2ebc f0a5 e964 9b31 c963 0500
00000210: 574c 0600 fa57 0500 3a57 0500 a584 0680
00000220: 6f18 86b2 8a5c 0500 1f64 0500 2ceb 0580
00000230: 785b 0500 ca7f 0500 9562 0500 e740 7b1b
00000240: f496 e78f 2da5 0500 43f6 0500 b7ee 0500
00000250: 23d6 0500 7259 0680 194e 0600 fea7 0580
00000260: cd43 0680 5901 0600 ebc3 0500 02b5 0500
00000270: 1323 00b1 d129 c634 b861 de8a 7c8e 0680
00000280: 8204 0680 6667 0600 ef5d 0580 81ff 65b8
00000290: edba 2936 8d02 5235 c378 f6ad 45aa 0600
000002a0: 498d 0500 9c4c 1328 df17 42ba 2f15 c1b8
000002b0: 24b3 a939 6c5b 0500 dc63 0500 2365 0580
000002c0: 89ca 05b6 f8d4 e5b9 861d b538 3556 92b4
000002d0: 54a2 a716 7113 0600 566d 0600 e2e4 16b6
000002e0: 04ff fc35 ccf7 203a 6c46 36ab 475c 0580
000002f0: 5160 0580 0a62 0500 4f5e 0580 fea7 9d30
00000300: fe64 18b4 baf1 bd16 505a 0580 7379 0680
00000310: 0dbe 0580 05e8 fd02 4afb f918 727c 212f
00000320: 90d9 9aa1 e61e b9a3 184f 1e29 d660 0580
00000330: f325 ed38 d4ae dc39 53fa 8a3a b101 0fb9
00000340: 000d 4137 2144 2337 a662 0500 d351 37b9
00000350: ed12 46b9 f916 a239 d65e 8dba e576 0539
00000360: 81aa 0537 5c5f 0500 323d 6ab8 82fe 3d3a
00000370: 5503 2536 f893 2bb2 a081 8934 3617 6438
00000380: a85c 0580 c3ae c2b8 8e98 9839 62c3 cbb9
00000390: cc9a 30b7 40f2 b038 4bb9 66b5 fc61 0580
000003a0: 837c 42b8 d072 28ba 14ca 53b8 e7ca 5d37
000003b0: 80b6 e431 f556 ce36 6f5b 0500 1803 9eb8
000003c0: 4383 b3b8 c42f 0439 e950 53b3 ff88 c632
000003d0: 65d1 b9b7 0458 5122 6fb2 893a eb1a cdb6
000003e0: 9d73 c238 26b5 d7b9 cd82 25b9 4290 bb38
000003f0: d292 b23b e6cd 013a b850 bbba a214 25bc

encoder_conv.4.bias f4 [64]
-0.0066900076 -0.014190606 0.14364925 -0.014892433 0.041554697 -0.007291186 0.009618619 -0.013333513
-0.0016534423 -0.0023240633 -0.01737998 -0.029654818 0.041452132 -0.029677112 0.0043612057 0.0017310354
-0.0072358935 0.00034310855 0.0086046 -0.0043862225 -5.1823976e-05 0.0057089576 0.021606177 -0.014425299
-0.01777092 -0.017172448 0.00835929 -0.023063526 -0.016864337 -5.5000415e-05 -0.0005245498 -0.0006990971
-0.029853718 0.025301812 -0.006117564 -0.029696783 0.0032158755 -0.0016609498 0.017399808 0.08460696
-0.005066193 -0.022486884 -0.010753615 -0.017423274 0.019698804 -0.0023030513 0.003325558 -0.025654258
0.010585798 -0.014327643 -3.676604e-07 -0.01356553 0.008805446 0.008908478 -0.011417361 0.009466392
-0.030357942 0.0041468698 -0.00934719 0.0073284386 -0.0070346775 0.013010303 -0.029405981 -0.024644803
00000000: da37 dbbb b77f 68bc ca18 133e 64ff 73bc
00000010: 4235 2a3d e7ea eebb 6a97 1d3c cf74 5abc
00000020: 51b8 d8ba 504f 18bb 7660 8ebc a9ee f2bc
00000030: b6c9 293d 6a1d f3bc 72e8 8e3b e9e3 e23a
00000040: 131b edbb 40e3 b339 4ffa 0c3c 4dba 8fbb
00000050: 925d 59b8 3512 bb3b 70ff b03c 1758 6cbc
00000060: 5294 91bc 3cad 8cbc 67f5 083c b8ef bcbc
00000070: 1427 8abc 3fb0 66b8 f181 09ba 9d43 37ba
00000080: c98f f4bc bf45 cf3c d975 c8bb ab46 f3bc
00000090: 70c1 523b 3ab4 d9ba 0b8a 8e3c 6a46 ad3d
000000a0: 4f02 a6bb 6a36 b8bc ee2f 30bc 41bb 8ebc
000000b0: 635f a13c caee 16bb 9bf1 593b e128 d2bc
000000c0: 0e70 2d3c 7ebe 6abc dc62 c5b4 f541 5ebc
000000d0: b844 103c ddf4 113c e20f 3bbc ed18 1b3c
000000e0: 38b1 f8bc 77e2 873b f524 19bc 6623 f03b
000000f0: 2783 e6bb 2a29 553c d0e4 f0bc e6e3 c9bc

fc_mu.weight f4 [10, 64]
0.015082338 0.040587608 0.033091675 0.108669564 -0.14838876 0.024781829 0.035725225 0.008332482
4.90604e-40 1.5692117e-10 -0.0026430169 0.04707892 -0.14993696 4.91793e-40 0.07344031 0.026063746
0.08879028 0.027011814 0.0069423346 -0.003324321 -0.00027853355 -0.018668003 0.13413829 -0.009279968
4.94178e-40 3.6909006e-07 -0.013009979 0.0429437 -0.1440621 -4.93216e-40 -4.4735974e-38 0.024875281
-0.062992014 0.078550704 0.064590886 -0.0068885125 0.0141312005 0.030395735 0.109540775 0.25099918
-3.157891e-17 0.030739125 0.007991353 0.053767666 0.028678441 0.0008262881 -0.2193447 -0.00022114653
0.014135921 0.0017234144 -4.9396e-40 -0.0009135227 -0.07018469 -0.063847326 7.734468e-05 0.0097508645
-0.025770737 -0.040464126 -0.04152811 0.012137986 -0.001467036 -0.18041326 -0.05915855 -0.043031454
-0.020430768 0.0027423322 0.02809859 -0.226799 0.41804215 0.005269765 0.04301986 -0.013300433
-4.92143e-40 2.1461872e-08 -0.079302855 -0.010406679 -0.24333903 -4.9129e-40 -0.0754719 -0.03199355
-0.0723179 -0.052345432 0.009789965 0.019143282 0.00014398491 -0.08674445 -0.08154377 -0.00549014
-4.91277e-40 2.2347107e-08 0.07993157 -0.04303893 -0.010393254 4.92484e-40 4.91109e-40 -0.008734195
0.062987596 -0.0081619825 -0.079717346 0.0026141924 -0.07525611 0.026865399 0.099080905 0.031474438
4.6842255e-05 0.071642496 -0.011279316 -0.10199748 0.1307621 0.0003690905 -0.061363272 -0.0035073145
0.01582936 -0.024605703 4.91022e-40 -0.013187798 0.13822521 0.016276764 -0.0034766656 -1.3236088e-19
-0.08224734 0.06725574 -0.0036696426 -0.0018498872 -0.040290967 -0.04026648 -0.08431299 0.015492325
0.022641705 -0.014296881 0.08653742 -0.24722087 -0.16198021 0.004211601 -1.3893569e-07 -0.012075686
4.9279e-40 3.8099484e-38 0.003353097 0.042175967 -0.040923927 4.91355e-40 -0.014930109 -1.7379945e-08
-0.1326798 0.06407318 -1.3466703e-07 -0.020589206 -4.9426e-40 -0.014234091 -0.00092205807 0.00094770134
-4.93934e-40 -1.6799412e-18 0.043178808 -1.4915477e-07 -0.07532109 4.90841e-40 -4.92587e-40 -4.679841e-05
0.063009955 0.13613693 0.030552814 -0.03633823 -0.09358132 0.05738742 -0.07464514 0.08211768
-4.485973e-16 0.0018116046 1.6042097e-05 -0.10574996 0.045653403 4.90745e-40 0.15826948 -0.00017808485
-2.0005036e-13 0.03109501 -4.90459e-40 0.001559594 -0.09566529 0.013535129 -0.00060605624 0.0002458053
0.051517088 0.08388547 0.02535225 -4.39971e-23 0.016351284 0.13155048 -0.012059346 0.04947023
-0.0025808718 0.039324634 0.09895528 0.017770747 -0.085911 0.0015922739 1.659719e-10 -0.018047052
-2.7157318e-29 3.3284678e-20 0.0225924 0.036758576 -0.0334901 4.91252e-40 -0.014445338 1.1529411e-09
-0.107732564 -0.018635077 2.4205282e-11 0.008113488 -1.472835e-10 -0.039104875 0.01648345 2.4437702e-08
-4.95056e-40 -2.38055e-40 0.12271168 9.4880215e-06 -0.11972091 -4.92858e-40 -4.92898e-40 1.3893971e-10
0.00014931009 -0.18221308 -0.018881256 -0.028355155 -0.051981956 -0.03955352 0.24168037 -0.09715968
4.91553e-40 -0.00039356222 -0.000117268115 -0.043568753 -0.029987145 -1.9794818e-36 0.120661564 0.0026846188
5.5367186e-06 -0.028774638 4.93386e-40 -0.00031046482 0.08858152 0.0121592255 4.7259866e-07 8.204003e-08
-0.018876918 0.06500501 -0.0006562571 -1.1746966e-13 -0.004284832 -0.06729494 -0.048742775 0.0032851924
00000000: e91b 773c 313f 263d 238b 073d 268e de3d
00000010: 39f3 17be 4303 cb3c 9d54 123d f684 083c
00000020: 9b57 0500 6289 2c2f 7736 2dbb d3d5 403d
00000030: 1389 19be eb5a 0500 e067 963d a383 d53c
00000040: aed7 b53d e147 dd3c 867c e33b dadc 59bb
00000050: 2408 92b9 a4ed 98bc 8c5b 093e 020b 18bc
00000060: 9161 0500 5a27 c634 cf27 55bc bce5 2f3d
00000070: 0485 13be e35e 0580 d990 7381 3fc7 cb3c
00000080: f501 81bd 31df a03d 3a48 843d 08b9 e1bb
00000090: 8d86 673c 7a00 f93c ea56 e03d f782 803e
000000a0: cca1 11a4 9ed0 fb3c 2aee 023c 7c3b 5c3d
000000b0: 0def ea3c 419b 583a e69b 60be 92e3 67b9
000000c0: 5a9a 673c 31e4 e13a f660 0580 7879 6fba
000000d0: febc 8fbd 63c2 82bd 1c34 a238 17c2 1f3c
000000e0: 271d d3bc b6bd 25bd 6119 2abd 67de 463c
000000f0: 8f49 c0ba 41be 38be 3c50 72bd c041 30bd
00000100: 6d5e a7bc b3b8 333b 042f e63c ff3d 68be
00000110: 9f09 d63e fead ac3b 9835 303d 0fea 59bc
00000120: e55b 0580 285b b832 8969 a2bd c680 2abc
00000130: de2d 79be 8459 0580 0391 9abd ab0b 03bd
00000140: 681b 94bd 2a68 56bd 1766 203c 5fd2 9c3c
00000150: a8fa 1639 13a7 b1bd 6c00 a7bd a2e6 b3bb
00000160: 7b59 0580 cff5 bf32 2ab3 a33d 9749 30bd
00000170: 7848 2abc d85c 0500 0359 0500 de19 0fbc
00000180: a4ff 803d d6b9 05bc d942 a3bd df52 2b3b
00000190: e01f 9abd d314 dc3c eeea ca3d 57eb 003d
000001a0: 7d78 4438 4db9 923d e1cc 38bc 0ee4 d0bd
000001b0: 80e6 053e 7d82 c139 0e58 7bbd f9da 65bb
000001c0: 93ac 813c e691 c9bc c558 0500 a211 58bc
000001d0: e98a 0d3e d956 853c c5d8 63bb 9f43 1ca0
000001e0: 4b71 a8bd 61bd 893d 637e 70bb ea77 f2ba
000001f0: 2408 25bd 77ee 24bd 4aac acbd 85d3 7d3c
00000200: 197b b93c 773d 6abc 883a b13d 7827 7dbe
00000210: 24de 25be 7801 8a3b 5a2e 15b4 19d9 45bc
00000220: b35d 0500 ee6e 4f01 a2bf 5b3b b5c0 2c3d
00000230: d99f 27bd b359 0500 6a9d 74bc e74a 95b2
00000240: 37dd 07be cd38 833d fe98 10b4 b2aa a8bc
00000250: cc61 0580 1b36 69bc 45b6 71ba 296f 783a
00000260: e360 0580 62ea f7a1 43dc 303d 5a27 20b4
00000270: f241 9abd 4458 0500 225d 0580 6949 44b8
00000280: 5d0b 813d 7b67 0b3e e549 fa3c 65d7 14bd
00000290: 90a7 bfbd 120f 6b3d 8ddf 98bd 502d a83d
000002a0: a34c 01a6 5d73 ed3a 2492 8637 6f93 d8bd
000002b0: 10ff 3a3d ff57 0500 6511 223e 4abc 3ab9
000002c0: 973c 61aa f6ba fe3c 3357 0580 4a6b cc3a
000002d0: 2aec c3bd 72c2 5d3c bfdf 1eba 6edf 8039
000002e0: 9503 533d 25cc ab3d 86af cf3c c6c1 549a
000002f0: 21f3 853c 2bb5 063e 9094 45bc 4ca1 4a3d
00000300: d823 29bb de12 213d 11a9 ca3d f593 913c
00000310: 1bf2 afbd d9b3 d03a f07c 362f 69d7 93bc
00000320: 37b4 0990 b52e 1d1f b213 b93c 2990 163d
00000330: ea2c 09bd 6959 0500 24ac 6cbc 8275 9e30
00000340: e4a2 dcbd 97a8 98bc 73e9 d42d 6fee 043c
00000350: 9ff0 21af 6f2c 20bd 4d08 873c 13eb d132
00000360: 0464 0580 9a97 0280 4350 fb3d be2e 1f37
00000370: 3d30 f5bd e35d 0580 005e 0580 0dc4 182f
00000380: 1f90 1c39 1196 3abe ddac 9abc 1249 e8bc
00000390: 08eb 54bd df02 22bd 0f7b 773e a8fb c6bd
000003a0: 405a 0500 0757 ceb9 d7ed f5b8 2675 32bd
000003b0: 9aa7 f5bc 4c65 2884 691d f73d 6ef0 2f3b
000003c0: 0dc8 b936 cab8 ebbc 5c5f 0500 e2c5 a2b9
000003d0: 3a6a b53d 7d37 473c 77b9 fd34 fc2d b033
000003e0: c4a3 9abc 5921 853d ab08 2cba 5342 04aa
000003f0: c767 8cbb eed1 89bd 81a6 47bd 624c 573b

fc_mu.bias f4 [10]
0.1349585 0.19243264 0.12481696 -0.13703373 0.039151065 -0.020047454 -0.10117227 -0.07478989
-0.012982715 -0.07930656
00000000: 9032 0a3e 100d 453e 09a0 ff3d 9252 0cbe
00000010: de5c 203d 8f3a a4bc 6833 cfbd 712b 99bd
00000020: 74b5 54bc 7a6b a2bd

fc_logvar.weight f4 [10, 64]
0.0032994053 0.031453315 -0.0924837 -0.03698558 -0.057868086 -0.0052776253 1.4496248e-06 -0.060896296
-4.90683e-40 4.9441e-40 0.008124356 -0.0023189255 -0.035871178 -4.95188e-40 -0.024817064 -1.894891e-09
-0.06410645 -0.022090683 -4.91123e-40 1.6057741e-09 4.94001e-40 0.085883304 -0.0711886 -0.00024691902
-4.94577e-40 4.92744e-40 -0.005491215 -0.00013589868 -0.07060852 -4.9522e-40 4.94706e-40 0.00058452017
-0.0026372478 -0.07000588 -0.015861848 0.03483903 0.1236934 -0.00861163 -0.029346786 -0.08029301
4.91405e-40 8.682323e-05 1.646267e-08 -0.05261115 0.0016504487 -1.7690373e-11 -0.057175893 0.058896363
1.3532714e-14 0.01520056 -4.92524e-40 -0.0029323327 0.08358391 -0.07411716 -0.00077083445 -0.002038689
0.106832236 -0.027662031 -0.024783323 2.1191156e-19 0.016445603 0.20179725 -0.051711448 -0.0356521
-0.0024312893 -0.0043837265 -0.07097098 -0.012027463 -0.039458036 -0.06893158 0.009324287 -0.0040483843
4.94867e-40 1.3700433e-23 0.031870257 0.00073215924 -0.051395155 -4.94604e-40 0.11282176 -0.0017254387
0.034740273 -0.048365794 -0.000120788834 7.529157e-05 -7.175705e-08 -0.07590614 0.110291384 -0.0021412543
4.9445e-40 -1.100803e-18 -0.08320276 -0.009936314 -0.053082224 -4.92646e-40 -4.93729e-40 -0.0039056472
0.05658652 -0.08373298 -0.036280036 0.032175962 -0.0006826547 -0.0776412 -0.016878573 -0.06799827
2.819722e-06 0.033333592 -0.0037029635 0.0958276 0.07286803 -8.6596947e-07 -0.06808215 0.056785394
-0.0015504282 -0.03837999 4.94954e-40 0.016742434 0.003786602 -0.040251534 -0.0015581951 0.0012022868
0.075341344 0.020573772 -0.011785586 -0.00021347744 -0.053287752 0.085532844 -0.019385 0.014781929
-0.034715276 -0.014318029 -0.101790994 -0.033679493 -0.08154008 0.03929552 0.0010306229 -0.04042195
-4.95274e-40 4.91966e-40 0.01186616 0.05702771 -0.0455916 4.91674e-40 0.036847215 -2.9651746e-06
-0.023607368 -0.0679433 -1.257299e-10 -4.7037386e-24 4.94712e-40 -0.010455086 0.029005636 -0.0022420087
-4.9429e-40 -3.7034983e-19 0.065019086 -0.000107039814 -0.076022945 4.9161e-40 4.92905e-40 0.0008002004
-0.0045029917 -0.07803415 0.0516962 -0.02825169 0.09238068 0.07322452 -0.081404686 -0.08679764
4.92142e-40 0.0100338105 8.4469335e-05 -0.023105964 0.10652588 -7.161027e-16 -0.06122917 0.061376475
9.631248e-06 0.018296333 -4.94137e-40 0.011781299 -0.06785477 -0.04282342 -0.00044048188 -0.0025178893
-0.05735449 0.02064601 -0.00864971 -2.2427528e-07 0.00032264917 0.11667109 0.046376053 -0.010916272
2.3641574e-05 0.073112026 -0.09187327 -0.07765728 -0.060571287 0.028343925 -0.00011019531 -0.027093533
-4.93145e-40 -4.91487e-40 0.00031586926 0.023015292 -0.024074515 4.91924e-40 -0.058380947 3.40481e-08
-0.011185343 -0.06049453 -5.0591675e-10 1.2682204e-06 -5.457441e-26 -0.04100587 0.007895107 -2.32836e-08
-4.91616e-40 4.9235e-40 -0.06923897 -0.0002587808 -0.120968 4.93455e-40 4.94766e-40 2.299876e-05
-0.0058713737 -0.092525735 -0.03149316 -0.027957639 0.05676593 -0.052707598 -0.02171027 -0.13354027
-4.92046e-40 0.002485518 3.4824744e-08 -0.027423248 0.04221436 -1.0335698e-08 -0.043454774 -0.032073013
2.0042226e-09 0.007006896 4.91248e-40 -0.0016091792 0.07246735 -0.0356318 1.0932934e-12 -4.9472e-40
0.101285756 0.06222847 0.005813569 -6.839914e-08 0.013208681 0.06063167 0.066818036 0.02914553
00000000: d63a 583b 31d5 003d 1868 bdbd 317e 17bd
00000010: 1607 6dbd eeef acbb bb90 c235 656e 79bd
00000020: d357 0580 3762 0500 051c 053c 1df9 17bb
00000030: a8ed 12bd 6264 0580 284d cbbc 4637 02b1
00000040: 3e4a 83bd 85f7 b4bc 0d59 0580 27b2 dc30
00000050: 1361 0500 96e3 af3d 54cb 91bd e974 81b9
00000060: ae62 0580 925d 0500 a6ef b3bb 0680 0eb9
00000070: 339b 90bd 7964 0580 0a63 0500 7c3a 193a
00000080: add5 2cbb 3e5f 8fbd b5f0 81bc 5fb3 0e3d
00000090: f752 fd3d cb17 0dbc ac68 f0bc a970 a4bd
000000a0: d659 0500 de14 b638 cb69 8d32 ca7e 57bd
000000b0: de53 d83a 2e9b 9bad 4531 6abd 503d 713d
000000c0: a1c8 7328 c50b 793c f55c 0580 612c 40bb
000000d0: 0a2e ab3d bdca 97bd d311 4aba 879b 05bb
000000e0: dcca da3d 7c9b e2bc 6506 cbbc 572e 7a20
000000f0: eeb8 863c f0a3 4e3e 62cf 53bd f007 12bd
00000100: 4456 1fbb 5da5 8fbb 3c59 91bd d60e 45bc
00000110: c09e 21bd 002c 8dbd e5c4 183c 4fa8 84bb
00000120: 7d63 0500 a180 8419 638a 023d 60ee 3f3a
00000130: ba83 52bd c162 0580 180f e73d 1e28 e2ba
00000140: d14b 0e3d 361b 46bd 0350 fdb8 dbe5 9d38
00000150: db18 9ab3 ae74 9bbd 73e0 e13d 4954 0cbb
00000160: 5362 0500 2973 a2a1 3566 aabd eccb 22bc
00000170: bf6c 59bd 4c5d 0580 5160 0580 e3f5 7fbb
00000180: 44c7 673d 327c abbd 609a 14bd f1ca 033d
00000190: 2ef4 32ba 5902 9fbd ef44 8abc ad42 8bbd
000001a0: 753a 3d36 ce88 083d 6bad 72bb 4341 c43d
000001b0: d53b 953d f874 68b5 a76e 8bbd cd97 683d
000001c0: bd37 cbba 5634 1dbd bb63 0500 6e27 893c
000001d0: a428 783b cbde 24bd 5a3c ccba 0d96 9d3a
000001e0: 904c 9a3d 548a a83c 5518 41bc ead8 5fb9
000001f0: 4244 5abd d82b af3d 4bcd 9ebc e72f 723c
00000200: 9b31 0ebd 2b96 6abc cc77 d0bd 82f3 09bd
00000210: 7cfe a6bd 57f4 203d f715 873a 7d91 25bd
00000220: 9f64 0580 675b 0500 486a 423c e395 693d
00000230: 42be 3abd 965a 0500 1bed 163d 50fd 46b6
00000240: 3d64 c1bc db25 8bbd d23d 0aaf 92f7 b598
00000250: 0e63 0500 cf4b 2bbc 3a9d ed3c aaee 12bb
00000260: e161 0580 af9d daa0 ba28 853d 907a e0b8
00000270: ebb1 9bbd 695a 0500 055e 0500 8ac4 513a
00000280: d58d 93bb 5ed0 9fbd 65bf 533d 1770 e7bc
00000290: 1532 bd3d bdf6 953d 80b7 a6bd f6c2 b1bd
000002a0: e45b 0500 da64 243c 2125 b138 b848 bdbc
000002b0: 3e2a da3d 0e67 4ea6 70cb 7abd e665 7b3d
000002c0: e595 2137 31e2 953c 7461 0580 5906 413c
000002d0: 71f7 8abd 9c67 2fbd 7af0 e6b9 2c03 25bb
000002e0: 8bec 6abd d221 a93c 83b7 0dbc 52d0 70b4
000002f0: 3d29 a939 41f1 ee3d d1f4 3d3d 2ada 32bc
00000300: e551 c637 c2bb 953d 0e28 bcbd c80a 9fbd
00000310: 9919 78bd 8531 e83c a818 e7b8 42f3 ddbc
00000320: b05e 0580 115a 0580 419b a539 918a bc3c
00000330: eb37 c5bc 495b 0500 dc20 6fbd 483c 1233
00000340: bb42 37bc 1dc9 77bd ba10 0bb0 b937 aa35
00000350: a41e 8795 c5f5 27bd 7b5a 013c 2e01 c8b2
00000360: 6d5a 0580 795c 0500 29cd 8dbd f9ac 87b9
00000370: 12be f7bd 8d5f 0500 3563 0500 76ed c037
00000380: a764 c0bb 227e bdbd f9fe 00bd 6b07 e5bc
00000390: 6483 683d ece3 57bd bcd9 b1bc c8be 08be
000003a0: a05b 0580 13e4 223b 3692 1533 b8a6 e0bc
000003b0: f7e8 2c3d e190 31b2 a2fd 31bd fe5e 03bd
000003c0: a8ba 0931 1b9a e53b 6659 0500 18eb d2ba
000003d0: c369 943d a6f2 11bd 0cde 992b 1463 0580
000003e0: e86e cf3d 48e3 7e3d c07f be3b d3e2 92b3
000003f0: 3969 583c ea58 783d e5d7 883d 9bc2 ee3c

fc_logvar.bias f4 [10]
-0.08404532 -0.19269407 -0.1453891 -0.0998266 -0.16474709 -0.0070235226 -0.0070013776 -0.2005037
-0.04446499 -0.008873183
00000000: f41f acbd 9851 45be e1e0 14be e371 ccbd
00000010: 76b3 28be 9425 e6bb d06b e5bb d850 4dbe
00000020: ec20 36bd d460 11bc

fc_decode.weight f4 [64, 10]
-0.12039266 0.209486 -0.07183664 -0.12992828 -0.1183738 0.04213112 -0.18716744 -0.30236015
0.38449752 0.004811486 0.3295146 -0.25227535 -0.10970986 -0.23694868 -0.22640985 0.052635107
0.3613539 -0.009201453 0.03089148 0.01566624 0.124191344 0.18818973 -0.14078909 -0.011113205
0.42447776 0.039377466 0.22876787 0.37524492 0.3599426 0.048631076 -0.022492921 0.21472126
-0.03999098 0.48843643 0.15389042 -0.06546159 -0.5320716 -0.24863292 0.11224331 0.030508164
-0.19508967 -0.10252704 0.025602428 0.24298324 -0.030405572 0.07466246 0.20978768 -0.31549403
0.46192464 0.06431706 0.05788157 -0.4247317 -0.33435947 0.09741466 0.19948357 -0.01848694
-0.03576757 0.41359264 0.30889413 0.04664491 -0.21046686 -0.17381606 -0.43349496 0.35265923
0.23237643 -0.005146256 -0.3084941 0.0028790915 -0.42267358 0.059542026 0.36871466 0.22209018
0.5047347 -0.5895434 -0.2823624 0.046968415 -0.029067675 -0.5174681 -0.3667372 -0.023431456
-0.13064116 0.11202938 -0.01857302 -0.4517011 -0.1621848 0.016029056 -0.21047434 0.33532164
0.4218042 0.051656965 -0.3227339 -0.19873473 0.07900187 0.114209406 0.07382816 -0.009527577
0.36828497 0.024379743 0.3912463 -0.010828259 0.35762727 0.1070602 0.31631368 0.2214818
0.12292004 -0.029459387 -0.3013001 0.087482944 -0.11449988 0.038104884 0.010305161 0.32024
-0.11898462 -0.15641718 -0.035194807 -0.02700664 -0.18774527 -0.42436415 -0.59086436 0.008122687
-0.19773029 -0.23289107 0.16005893 0.25219655 0.24971822 0.06689016 -0.14273173 0.17441796
-0.31761876 -0.006378243 0.011845319 0.047525607 0.022670146 0.17031488 0.07214935 0.02609426
-0.41298914 -0.47654346 -0.26694512 -0.0025145942 0.06748887 -0.18647204 -0.060934205 0.10290326
0.09351453 -0.0005152326 0.16781804 0.1720517 -0.3669205 0.0032658111 -0.34560958 0.10033935
-0.3799729 0.28518394 0.24624936 -0.04903374 0.28624812 -0.05072547 0.38319686 -0.051971342
-0.3754863 -0.22788349 -0.17111388 -0.4291028 0.09700477 -0.07212962 0.18964542 0.100476325
-0.4078224 -0.04180423 0.25701654 -0.23787089 0.11489124 -0.12546523 0.0988145 0.021774337
-0.34566158 0.20122546 -0.64870673 -0.06450796 -0.22030252 0.29195714 -0.27849057 0.53098315
0.06643293 -0.012294718 -0.1886242 -0.058952276 0.12712069 -0.056996625 -0.22006199 0.41742676
0.26093578 0.008453576 0.2953242 -0.008755454 0.26953068 -0.040807348 0.53496283 0.002274359
-0.09730702 -0.006768618 0.2470022 0.07538842 -0.29093614 0.04402745 0.3962865 0.22742699
-0.45741856 -0.028970005 -0.05527234 0.011574221 -0.48215526 -0.005037792 -0.30315802 -0.043678626
-0.041993517 0.40093213 -0.16491011 -0.013913568 0.11021652 -0.16466795 0.26084355 -0.1800127
0.26997414 0.041612413 -0.25650245 -0.11427048 0.12786889 0.060103 0.42935947 -0.2854889
0.2429093 0.06484548 0.10447967 -0.00907074 0.53291965 -0.26613128 -0.153474 0.014510572
0.22995485 0.003665305 -0.054019917 0.46012035 0.2608157 0.07114129 0.016296076 0.21189192
0.34541273 -0.060881723 -0.19635 0.17535758 -0.24023037 0.0067171864 -0.15444505 0.062247977
00000000: 6d90 f6bd 7f83 563e 171f 93bd eb0b 05be
00000010: f66d f2bd ae91 2c3d d2a8 3fbe f3ce 9abe
00000020: dcdc c43e aca9 9d3b 23b6 a83e 3c2a 81be
00000030: 90af e0bd ada2 72be fcd7 67be e997 573d
00000040: 6103 b93e b1c1 16bc 2110 fd3c 7d56 803c
00000050: 0858 fe3d cfb4 403e 042b 10be 2914 36bc
00000060: 2655 d93e 444a 213d 2042 6a3e 1a20 c03e
00000070: 654a b83e 6131 473d 1343 b8bc e4df 5b3e
00000080: 95cd 23bd 5714 fa3e 7395 1d3e ba10 86bd
00000090: d835 08bf a199 7ebe d2df e53d 42ec f93c
000000a0: 96c5 47be b2f9 d1bd 2fbc d13c 99d0 783e
000000b0: 1b15 f9bc a2e8 983d 95d2 563e 6f88 a1be
000000c0: 6381 ec3e aab8 833d 3a15 6d3d 6f76 d9be
000000d0: 2a31 abbe 5681 c73d 6c45 4c3e ec71 97bc
000000e0: 0481 12bd 6ac2 d33e 5f27 9e3e bc0e 3f3d
000000f0: a084 57be d6fc 31be 0df3 ddbe c08f b43e
00000100: 16f4 6d3e eda1 a8bb f0f2 9dbe 24af 3c3b
00000110: ac68 d8be 57e2 733d 2bc8 bc3e 9c6b 633e
00000120: 4b36 013f 51ec 16bf ce91 90be f461 403d
00000130: 551f eebc ca78 04bf fac4 bbbe 53f3 bfbc
00000140: ccc6 05be a96f e53d 7226 98bc 5e45 e7be
00000150: c613 26be 5e4f 833c 9686 57be 47af ab3e
00000160: b8f6 d73e 4196 533d 613d a5be 1e81 4bbe
00000170: bbcb a13d 9fe6 e93d 3833 973d 8e19 1cbc
00000180: d98f bc3e 07b8 c73c 6f51 c83e 0369 31bc
00000190: ec1a b73e 6142 db3d def3 a13e 20cc 623e
000001a0: 80bd fb3d d054 f1bc 0244 9abe 422a b33d
000001b0: ea7e eabd de13 1c3d fad6 283c 7ff6 a33e
000001c0: 35ae f3bd d32b 20be 6e28 10bd 073d ddbc
000001d0: 4c40 40be 4246 d9be e342 17bf 0515 053c
000001e0: cf79 4abe ff7a 6ebe 7de6 233e e81f 813e
000001f0: 22b6 7f3e b5fd 883d 4428 12be 9f9a 323e
00000200: ed9e a2be 9500 d1bb de12 423c 36aa 423d
00000210: beb6 b93c 0667 2e3e 0ac3 933d a1c3 d53c
00000220: 5073 d3be 81fd f3be 08ad 88be e4cb 24bb
00000230: 9b37 8a3d 87f2 3ebe 2596 79bd f2be d23d
00000240: 8c84 bf3d ad10 07ba 7ed8 2b3e 522e 303e
00000250: 01dd bbbe 3807 563b bdf3 b0be b87e cd3d
00000260: cf8b c2be a103 923e cb28 7c3e 9ad7 48bd
00000270: 1d8f 923e 83c5 4fbd 6132 c43e e7df 54bd
00000280: be3f c0be 4a5a 69be 7a38 2fbe 5db3 dbbe
00000290: 70aa c63d b2b8 93bd 6932 423e 88c6 cd3d
000002a0: 19ce d0be ea3a 2bbd ac97 833e 6d94 73be
000002b0: 194c eb3d f579 00be 425f ca3d 1860 b23c
000002c0: 8efa b0be 0c0e 4e3e a511 26bf c01c 84bd
000002d0: fc96 61be 687b 953e 5196 8ebe 83ee 073f
000002e0: fd0d 883d c96f 49bc b426 41be f177 71bd
000002f0: ed2b 023e 4b75 69bd ee57 61be f6b8 d53e
00000300: 6099 853e de80 0a3c bc34 973e 0973 0fbc
00000310: edff 893e 9b25 27bd 53f3 083f 6a0d 153b
00000320: e748 c7bd 48cb ddbb 25ee 7c3e 3e65 9a3d
00000330: 95f5 94be 2156 343d 10e6 ca3e 9fe2 683e
00000340: c432 eabe 8152 edbc 4065 62bd cda1 3d3c
00000350: 0edd f6be 1014 a5bb 8737 9bbe 5ce8 32bd
00000360: 6501 2cbd fa46 cd3e 32de 28be bcf5 63bc
00000370: 33b9 e13d b79e 28be 498d 853e 4055 38be
00000380: 0d3a 8a3e c771 2a3d 4a54 83be a406 eabd
00000390: 10f0 023e 902e 763d 01d5 db3e 9a2b 92be
000003a0: 37bd 783e b5cd 843d 70f9 d53d 719d 14bc
000003b0: 6c6d 083f 5c42 88be 4a28 1dbe c0bd 6d3c
000003c0: 4979 6b3e 9d35 703b fd43 5dbd e594 eb3e
000003d0: a389 853e 86b2 913d 597f 853c 32fa 583e
000003e0: f0d9 b03e 1d5f 79bd f90f 49be f090 333e
000003f0: f3fe 75be d81b dc3b d826 1ebe bcf7 7e3d

fc_decode.bias f4 [64]
0.29939514 0.4714851 0.13854605 0.56691706 0.5851631 -0.38786843 -0.4199667 -0.056729414
-0.5597569 -0.5440664 -0.39424273 0.23371854 -0.095893405 0.35041752 -0.46023646 0.6600341
-0.6008524 0.62718165 -0.41471055 0.39715517 -0.12809429 0.45092243 -0.42827785 0.4548645
-0.32249895 -0.16389416 -0.5033932 0.4129476 -0.5629021 0.57289267 0.47296637 0.15653302
-0.20135505 -0.35557652 -0.47066125 0.48741776 0.05508866 0.22127487 -0.4264049 -0.4506867
-0.36996982 -0.44883686 0.6695641 0.0047299503 -0.26140383 -0.057522904 -0.3534215 -0.46609733
0.46192354 -0.32657757 -0.34621578 -0.14505678 -0.5567452 -0.29939276 0.39306384 0.4654576
-0.36849892 0.34050974 -0.48376134 0.4679622 -0.4691662 0.42735997 -0.5033278 0.5145777
00000000: 524a 993e 7f66 f13e 04df 0d3e 7a21 113f
00000010: 40cd 153f b196 c6be e005 d7be 1a5d 68bd
00000020: 3a4c 0fbf f047 0bbf 2fda c9be ea53 6f3e
00000030: c363 c4bd ed69 b33e 1da4 ebbe fff7 283f
00000040: 76d1 19bf fa8e 203f f154 d4be ec57 cb3e
00000050: 262b 03be 4edf e63e 3c47 dbbe 00e4 e83e
00000060: 951e a5be dfd3 27be 60de 00bf de6d d33e
00000070: 5a1a 10bf 18a9 123f a628 f23e 314a 203e
00000080: 0530 4ebe 200e b6be 83fa f0be d28e f93e
00000090: a6a4 613d e195 623e be51 dabe 68c0 e6be
000000a0: af6c bdbe f2cd e5be 8e68 2b3f b3fd 9a3b
000000b0: b9d6 85be 239d 6bbd aaf3 b4be 4fa4 eebe
000000c0: 3e81 ec3e 2d35 a7be 3243 b1be c489 14be
000000d0: da86 0ebf 024a 99be aa3f c93e 7550 ee3e
000000e0: e4ab bcbe 4b57 ae3e 91af f7be be98 ef3e
000000f0: 8d36 f0be edce da3e 17da 00bf 5dbb 033f

decoder_conv.1.weight f4 [64, 32, 7, 7]
-0.13553323 0.01477018 0.13234729 0.0409824 0.16444743 0.1371446 0.017665073 0.12503675
0.13144912 0.04826901 0.019292431 -0.10979293 -0.014419191 0.076354995 -0.046975248 0.056557596
0.06490522 -0.039311737 0.034346983 -0.1478954 -0.11822969 -0.04462007 0.007813226 -0.115783595
-0.09070178 0.2628079 0.09121591 0.043977723 -0.06624518 -0.012664114 -0.11414288 -0.13217667
-0.13888843 0.110905886 -0.0027376495 0.22958992 -0.14832291 -0.06612226 -0.00091547286 0.07942464
-0.01916093 -0.016717074 -0.09700157 -0.13906461 -0.042423833 -0.023053234 -0.117280945 0.002330811
0.026283499 0.07440875 0.00023540723 0.033319794 -0.039707195 0.2489194 0.15764602 0.06012847
-0.0154816145 0.031451542 -0.07906452 -0.07767102 0.1280635 -0.21334808 0.05361537 0.0883034
0.135502 0.17877212 -0.120995305 -0.021022053 0.014888787 0.031285428 0.04121833 -0.005626067
0.152808 -0.029271672 0.037661422 0.0046666223 0.0028445718 0.01587138 0.08657812 0.05526119
0.0032644116 -0.12259632 0.05451785 0.2699414 0.2350711 -0.011653348 0.0053980625 0.06004844
-0.00441143 0.005187771 0.083037175 0.16775602 -0.13115646 0.025952924 0.028541777 0.0318449
-0.07979851 -0.05402644 0.079367556 0.094799094 0.09658012 0.103633225 -0.02444093 0.07923038
0.04613787 0.031043967 -0.027909163 0.051280063 0.054588765 -0.008139816 -0.046770558 0.09836156
0.12294483 0.055001736 0.032084733 -0.02343044 -0.0072191246 0.058659654 0.10337549 0.19429065
-0.047193717 0.012118029 0.064391404 -0.15332726 -0.15700373 0.14501128 -0.027814105 0.08167021
-0.0033210793 0.023247393 -0.0029527612 0.12249557 0.039890673 0.10000858 -0.1255288 0.04327428
-0.012349072 0.006265578 0.1295771 -0.04262037 0.06287631 0.006160613 0.0073046824 0.09454415
0.070277035 0.06365778 0.13870253 0.08519696 0.056891065 0.14696571 0.29495516 -0.067382924
-0.04165313 0.066901386 0.04995245 0.09068155 0.1584835 -0.17972489 -0.17351651 0.018042527
-0.0078004706 0.16506343 0.022730595 0.08844905 0.13773711 -0.05653166 -0.0062780576 -0.0436253
0.054236583 0.14786804 0.026035588 0.04598377 -0.11020886 0.1181332 0.13113809 0.10636109
0.07247779 -0.11189272 -0.08178084 -0.12397987 0.21295954 0.14648895 0.03721179 0.04390811
0.047705606 -0.1281457 0.043066308 0.13030098 -0.08537326 0.06323958 0.12062255 0.04062944
0.017738203 0.07158581 0.016791195 0.034163367 0.1026885 0.062069118 0.041401204 0.07908091
0.1054085 0.052803606 0.05191441 0.12879938 0.02958371 0.19522169 -0.05719717 -0.22479257
-0.096109435 -0.015045167 0.17274141 0.08268072 0.08169323 0.05668098 0.0029873892 -0.012805649
-0.0258729 0.10703771 -0.00547463 0.07029607 -0.030437496 -0.10010505 0.21290058 -0.007019446
0.05709773 0.10883569 0.050236825 0.04027082 -0.012812755 -0.17631227 0.04403365 0.0811442
0.06913108 -0.0011068586 -0.07611204 0.05490048 0.024510367 0.10045215 0.14908434 0.022167109
0.08417321 0.015016312 0.04562265 0.048828427 0.05443991 0.010308659 0.06258452 0.047052875
-0.017780913 -0.029124914 0.05641501 0.0715706 0.016122824 0.1532035 0.11745744 0.03305831
00000000: 39c9 0abe a0fe 713c 0c86 073e 29dd 273d
00000010: e864 283e a26f 0c3e 58b6 903c a209 003e
00000020: 999a 063e bab5 453d 290b 9e3c 1edb e0bd
00000030: 783e 6cbc 0260 9c3d 1e69 40bd f0a8 673d
00000040: 07ed 843d 5805 21bd 6caf 0c3d e471 17be
00000050: 6822 f2bd 89c3 36bd 0c03 003c f31f edbd
00000060: dbc1 b9bd c28e 863e 68cf ba3d fc21 343d
00000070: 8eab 87bd 257d 4fbc bec3 e9bd 5259 07be
00000080: c538 0ebe a022 e33d 236a 33bb 9f19 6b3e
00000090: f6e1 17be 1c6b 87bd 58fc 6fba 63a9 a23d
000000a0: 62f7 9cbc 3ff2 88bc c2a8 c6bd f466 0ebe
000000b0: 9dc4 2dbd 23da bcbc fe30 f0bd 85c0 183b
000000c0: 7e50 d73c 9d63 983d a6d7 7639 567a 083d
000000d0: 03a4 22bd bae4 7e3e f56d 213e 4549 763d
000000e0: 99a6 7dbc 55d3 003d 94ec a1bd fc11 9fbd
000000f0: 1423 033e eb77 5abe ca9b 5b3d 6ad8 b43d
00000100: 09c1 0a3e 0a10 373e 63cc f7bd 7136 acbc
00000110: 19f0 733c 2625 003d 8dd4 283d df5a b8bb
00000120: b379 1c3e 25cb efbc dd42 1a3d 77ea 983b
00000130: ff6b 3a3b b204 823c df4f b13d 8f59 623d
00000140: bdef 553b c813 fbbd 1c4e 5f3d c235 8a3e
00000150: 7ab6 703e afed 3ebc 3be2 b03b 5af5 753d
00000160: c28d 90bb 2dfe a93b 650f aa3d 3cc8 2b3e
00000170: e14d 06be 3a9b d43c 72d0 e93c cc6f 023d
00000180: 676d a3bd d44a 5dbd 758b a23d 0726 c23d
00000190: cccb c53d a83d d43d 5838 c8bc 8a43 a23d
000001a0: 10fb 3c3d eb4f fe3c c2a1 e4bc 0b0b 523d
000001b0: 7898 5f3d dd5c 05bc 7c92 3fbd c971 c93d
000001c0: 80ca fb3d 8049 613d 486b 033d 32f1 bfbc
000001d0: 688e ecbb 1b45 703d 87b6 d33d 21f4 463e
000001e0: 334e 41bd b38a 463c a4df 833d d201 1dbe
000001f0: 96c5 20be d67d 143e 68da e3bc b642 a73d
00000200: 77a6 59bb 5171 be3c 1d83 41bb f5de fa3d
00000210: 6764 233d 4cd1 cc3d 9f8a 00be 5f40 313d
00000220: c353 4abc 7a4f cd3b dcaf 043e b292 2ebd
00000230: 4bc5 803d f8de c93b 1e5c ef3b 5da0 c13d
00000240: 68ed 8f3d 035f 823d 0908 0e3e be7b ae3d
00000250: 9b06 693d 2e7e 163e 5d04 973e 0f00 8abd
00000260: 799c 2abd 9803 893d f19a 4c3d 40b7 b93d
00000270: 8049 223e cd09 38be 50ae 31be eccd 933c
00000280: 179b ffbb 6306 293e 8335 ba3c c724 b53d
00000290: f50a 0d3e be8d 67bd 2ab8 cdbb 71b0 32bd
000002a0: 2e27 5e3d b86a 173e 9648 d53c 7a59 3c3d
000002b0: 2fb5 e1bd d2ef f13d 1049 063e d8d3 d93d
000002c0: 3c6f 943d 0328 e5bd b77c a7bd 28e9 fdbd
000002d0: 1112 5a3e 3301 163e 646b 183d fed8 333d
000002e0: f466 433d a038 03be 4c66 303d 9f6d 053e
000002f0: 2dd8 aebd c183 813d f508 f73d 0e6b 263d
00000300: b54f 913c 959b 923d b08d 893c e3ee 0b3d
00000310: 594e d23d 303c 7e3d 4f94 293d 2cf5 a13d
00000320: 69e0 d73d 9848 583d 34a4 543d fce3 033e
00000330: 8959 f23c 32e8 473e 9447 6abd 0630 66be
00000340: 06d5 c4bd 0180 76bc 20e3 303e 8254 a93d
00000350: c84e a73d 512a 683d 13c8 433b c9ce 51bc
00000360: 67f3 d3bc 9636 db3d 8664 b3bb 63f7 8f3d
00000370: 0e58 f9bc e003 cdbd 9c02 5a3e 6203 e6bb
00000380: 4fdf 693d 3fe5 de3d 21c5 4d3d 04f3 243d
00000390: 97ec 51bc 348b 34be a15c 343d ee2e a63d
000003a0: 9894 8d3d 0314 91ba a1e0 9bbd 53df 603d
000003b0: f7c9 c83c dbb9 cd3d 91a9 183e cc97 b53c
000003c0: 0163 ac3d fa06 763c d1de 3a3d 5100 483d
000003d0: 62fc 5e3d a6e5 283c 502c 803d 84ba 403d
000003e0: 47a9 91bc 5f97 eebc 6d13 673d 9b93 923d
000003f0: 0314 843c 61e1 1c3e 878d f03d 2768 073d

decoder_conv.1.bias f4 [32]
-0.058192063 -0.16005984 -0.08237263 -0.022184975 -0.08741049 0.007256911 -0.07029677 -0.1719657
0.05869019 0.0045135035 0.04320901 0.0324102 -0.17398217 0.045890022 0.033820663 -0.030318622
0.05603356 -0.048901666 0.09827269 0.032109614 -0.030171487 -0.20623638 0.020142967 0.015114215
-0.039864197 0.019249408 -0.13874137 -0.02749669 0.083482035 -0.1155005 0.084152974 -0.119270384
00000000: cd5a 6ebd bae6 23be fbb2 a8bd 44bd b5bc
00000010: 4504 b3bd 62cb ed3b c1f7 8fbd c717 30be
00000020: 2065 703d 03e6 933b eefb 303d 8fc0 043d
00000030: 6228 32be 2df7 3b3d 8987 0a3d c25e f8bc
00000040: 7283 653d 1d4d 48bd 3143 c93d 5f85 033d
00000050: 322a f7bc a12f 53be dd02 a53c 9da1 773c
00000060: a448 23bd efb0 9d3c 3812 0ebe bd40 e1bc
00000070: a1f8 aa3d 878b ecbd 6558 ac3d 0844 f4bd
