02_Representations/model_weights/vae_best.pth (torch, 855990 bytes, 17 tensors)

encoder_conv.0.weight f4 [16, 1, 3, 3]
0	0x3e424d78	0.18974864
1	0xbe8b67cf	-0.27227637
2	0xbe7f8ea0	-0.24956751
3	0x3ecbd5ba	0.39811498
4	0xbdc3acca	-0.09554441
5	0xbe92eaaf	-0.28694674
6	0x3eb33824	0.3500377
7	0x3e62a3dc	0.2213282
8	0xbd46d067	-0.04853859
9	0x3d88358a	0.06650837
10	0xbdc750b5	-0.097321905
11	0x3e2f1b33	0.1710022
12	0xbe43d6cd	-0.19124909
13	0xbd118f33	-0.035536956
14	0xbd4d4ef0	-0.05012411
15	0x3e2bacbb	0.1676511
16	0xbd1bbd8d	-0.038022567
17	0xbe03949f	-0.12849663
18	0xbda40256	-0.08008258
19	0x3e6d6960	0.23184729
20	0x3e9b0407	0.3027651
21	0x3e6a6250	0.22889066
22	0x3ef57675	0.47941938
23	0x3e82c2f0	0.2553935
24	0x3d45699d	0.048196424
25	0x3dba8ae3	0.09108522
26	0xbd39f749	-0.045401845
27	0x3e8c21c5	0.27369514
28	0x3e14098a	0.14456764
29	0x3e4451d7	0.19171844
30	0xbe00568c	-0.12533015
31	0x3d07af16	0.03312596
32	0xbdee9bf4	-0.116508394
33	0xbe01496f	-0.12625669
34	0x3e748284	0.23877913
35	0x3d8d3c6c	0.0689629
36	0xbe737ef6	-0.237789
37	0xbe0a7737	-0.1352204
38	0x3df87ba8	0.121329606
39	0xbe974fc0	-0.29553032
40	0xbd310a8e	-0.043222956
41	0x3db2ac59	0.08724279
42	0x3ead218f	0.33814666
43	0x3edb777b	0.42864594
44	0x3d9f91d6	0.07791488
45	0x3f02f412	0.5115367
46	0xbdd491ee	-0.103793964
47	0xbe3bf9ca	-0.18357006
48	0x3e599a3c	0.21250242
49	0xbeafec15	-0.34359804
50	0xbd75c3d5	-0.060001213
51	0xbc8fcdd8	-0.017554209
52	0xbe42eef8	-0.19036472
53	0xbd3678f3	-0.04454894
54	0xbd1dad7f	-0.038495537
55	0xbb82d4e2	-0.0039926628
56	0xbdda8095	-0.10669056
57	0xbe88ce1f	-0.26719758
58	0x3ece5f27	0.4030697
59	0xbe022182	-0.12708095
60	0xbce2347b	-0.027612915
61	0x3eb014fb	0.34391007
62	0xbeb4eab2	-0.35335308
63	0x3d460326	0.048342846
64	0x3dd5ed8d	0.104457
65	0xbd32e846	-0.043678544
66	0x3eaa2335	0.33229986
67	0x3d53c809	0.05170444
68	0xbea5d43b	-0.32388481
69	0x3e103038	0.14080894
70	0xbe0091c2	-0.12555602
71	0xbe506ad0	-0.20353246
72	0xbe005230	-0.12531352
73	0x3d35a360	0.04434526
74	0xbd54ca0a	-0.051950492
75	0x3e2746fb	0.1633567
76	0x3ce9f657	0.028559847
77	0x3dbc6b41	0.092001446
78	0xbbaa95f0	-0.005205862
79	0x3d660729	0.056159172
80	0x3d888d4b	0.066675745
81	0x3ea8bb96	0.32955617
82	0x3e7e69d3	0.24845056
83	0x3e203732	0.15646055
84	0x3d23a093	0.039948057
85	0x3d2af805	0.041740436
86	0x3dd5a3a2	0.10431601
87	0xbec6d5f0	-0.38835096
88	0xbeb1c538	-0.34720778
89	0xbdc41530	-0.09574354
90	0x3deca4fd	0.115549065
91	0x3e2107f3	0.15725689
92	0x3b29929f	0.0025874746
93	0x3e24f130	0.1610763
94	0xbdcf7c6b	-0.10131153
95	0x3e3b9ea4	0.18322235
96	0x3e1a1f81	0.1505108
97	0xbe41ccaf	-0.18925737
98	0x3dcb4e64	0.09927061
99	0x3d0e4898	0.0347372
100	0xbcce365e	-0.025172409
101	0xbd6f0638	-0.05835554
102	0xbe2eda30	-0.1707542
103	0xbd8d0c7c	-0.06887147
104	0xbe255512	-0.16145733
105	0xbe4625ba	-0.19350329
106	0xbd84e01e	-0.064880595
107	0xbe285023	-0.1643682
108	0x3d84f825	0.06492642
109	0x3e65de70	0.22448134
110	0xbea54d50	-0.32285547
111	0xbe4d289a	-0.2003502
112	0x3ed92a83	0.42415246
113	0x3dc4bb75	0.09606067
114	0xbe5db355	-0.21650441
115	0x3e8fce84	0.28087246
116	0x3dd8adbb	0.105800115
117	0xbe060f29	-0.1309172
118	0xbddea1ee	-0.108707294
119	0xbe1bb543	-0.15205865
120	0x3df26dab	0.11837324
121	0x3e6bcac4	0.23026568
122	0x3e5cab8d	0.21549816
123	0x3e483a69	0.19553532
124	0x3ea083b4	0.31350482
125	0x3e466478	0.19374263
126	0xbd4c382e	-0.049858265
127	0xbe714561	-0.23561622
128	0x3e69df25	0.22839029
129	0xbe3ca254	-0.18421298
130	0xbe9f4461	-0.31106856
131	0x3ee37e3b	0.44432244
132	0xbe301438	-0.17195213
133	0xbdf9b12c	-0.12191996
134	0x3eb6b6b0	0.35686255
135	0xbe50772a	-0.20357957
136	0x3eabbb03	0.33541116
137	0x3ec32567	0.38114473
138	0xbeaeb0a5	-0.34119144
139	0xba0b67ca	-0.0005317895
140	0xbda36e36	-0.079800054
141	0xbd760960	-0.060067534
142	0x3ddbfd1f	0.107416384
143	0xbd8279d1	-0.06370891

encoder_conv.0.bias f4 [16]
0	0xbe2ac1f9	-0.16675557
1	0x3e1f9143	0.15582757
2	0xbe3001e2	-0.17188218
3	0xbdfbd4d1	-0.12296451
4	0xbe24fc98	-0.16111982
5	0xbde61a23	-0.11235454
6	0xbdb57f91	-0.08862222
7	0xbd910cbf	-0.07082509
8	0x3e3826e1	0.17983581
9	0xbdf60f31	-0.12014616
10	0xbdb99a33	-0.09062614
11	0x3e88e84c	0.26739728
12	0xbe5ada37	-0.21372305
13	0xbdd71587	-0.10502153
14	0xbe082cb8	-0.13298309
15	0xbdc90922	-0.09816195

encoder_conv.2.weight f4 [32, 16, 3, 3]
0	0xbd9b48d4	-0.0758225
1	0xbcf3746b	-0.029718598
2	0x3d68216a	0.05667249
3	0x3de8d856	0.11369388
4	0x3db9295e	0.09041093
5	0xbe120765	-0.14260633
6	0x3dcec2a6	0.1009572
7	0x3de28e29	0.11062271
8	0xbdfe96ae	-0.124310836
9	0xbcc1a76c	-0.023639403
10	0xbc301e15	-0.01074936
11	0xbc2db9df	-0.010603397
12	0x3deb7a6b	0.11497959
13	0x3ca4c5b2	0.0201138
14	0x3cc1cb91	0.023656638
15	0x3d096e02	0.033552177
16	0x3bff39d3	0.0077888756
17	0x3cc52db3	0.024069643
18	0xbd12be8c	-0.03582625
19	0x3d4aa0a1	0.049469594
20	0xbea6d78d	-0.32586327
21	0xbd2b0dac	-0.041761085
22	0xbbaa2021	-0.0051918183
23	0xbe8eb0f8	-0.2786939
24	0x3deb43ea	0.11487563
25	0x3dcbc445	0.09949545
26	0x3d9fb23b	0.07797667
27	0xbde0843d	-0.109627225
28	0x3d93dc9b	0.072198115
29	0xbe6eb065	-0.23309477
30	0xbd44d3d8	-0.048053592
31	0xbcf2f11f	-0.029655991
32	0xbdaa589d	-0.08317683
33	0xbbaf0948	-0.0053416826
34	0x3c09d6d0	0.008413032
35	0xbc239d9b	-0.009986307
36	0x3d26ed4b	0.040753644
37	0x3d1b33ec	0.037891313
38	0xbe43fde0	-0.19139814
39	0x3d24a1d8	0.04019341
40	0xbd90d8b7	-0.07072585
41	0xbdc47580	-0.09592724
42	0x3d723abe	0.059138052
43	0x3d92ca92	0.071675435
44	0x3d04bec8	0.032408506
45	0x3b83e339	0.00402489
46	0x3ddc400a	0.10754402
47	0xbd7a48e0	-0.061104655
48	0x3d5b9012	0.053604193
49	0x3da9dc6f	0.082939975
50	0xbcb694e4	-0.022287793
51	0xbdd55bcd	-0.104179
52	0x3d35bd1d	0.044369806
53	0x3d3f02a4	0.046633378
54	0x3debbfa9	0.11511166
55	0x3cbf8875	0.023380497
56	0x3e320848	0.17385972
57	0x3e42df3b	0.19030468
58	0x3d18a844	0.037269846
59	0x3e04f6d8	0.12984788
60	0x3e534bac	0.20634335
61	0x3e539c41	0.20665075
62	0x3dcab32d	0.09897456
63	0xbc3dd7d4	-0.011587102
64	0x3d004f06	0.031325363
65	0x3d7f8fef	0.062393125
66	0xbd370f13	-0.04469211
67	0xbdb989df	-0.090595
68	0xbcfe6a92	-0.031056676
69	0x3cf253b9	0.029580938
70	0xbcaac2d0	-0.020844847
71	0xbe368090	-0.1782248
72	0x3dfbdafe	0.12297629
73	0xbd285f1e	-0.041106336
74	0x3ab9ac98	0.0014165817
75	0xbd04f2ed	-0.032458235
76	0x3d9239f6	0.071399614
77	0xbda61578	-0.081095636
78	0x3d14c31a	0.036318876
79	0x3a5a1f29	0.0008320683
80	0xbcb4f789	-0.02209069
81	0x3e4a3594	0.19747001
82	0xbe805c42	-0.25070387
83	0xbe75ed3e	-0.24016282
84	0xb92cea78	-0.00016490545
85	0xbe2d3bec	-0.1691739
86	0xbe27adcb	-0.1637489
87	0xbc92577e	-0.017863985
88	0x3e202b1c	0.15641445
89	0x3e3ba5a3	0.18324904
90	0xbdd818aa	-0.10551579
91	0x3cf6c881	0.030124905
92	0xbe01f9fb	-0.12693016
93	0xbd9fc10a	-0.07800491
94	0x3ac21876	0.0014808315
95	0xbdf084e3	-0.11744096
96	0x3d9749e5	0.07387141
97	0x3da664fb	0.08124729
98	0x3d52ef6c	0.05149786
99	0xbd2f3b22	-0.042781003
100	0xbd90adea	-0.070644215
101	0x3c0947bd	0.00837892
102	0xbe005300	-0.12531662
103	0xbdde8c10	-0.108665586
104	0xbc95c103	-0.018280512
105	0xbe145b03	-0.14487843
106	0xbe7157c5	-0.23568638
107	0xbde87dcf	-0.11352121
108	0xbd8d4f94	-0.06899944
109	0x3de86933	0.1134819
110	0xbdaf000e	-0.08544932
111	0xbc803b6a	-0.01565333
112	0xbd8b9396	-0.06815259
113	0xbe76a28e	-0.24085447
114	0x3d43f980	0.047845364
115	0x3d8ee08a	0.06976421
116	0xbca4498c	-0.020054601
117	0xbc22ea36	-0.009943536
118	0x3c892534	0.016741373
119	0xbe24389b	-0.16037218
120	0x3d029653	0.03188164
121	0x3c7c72c6	0.0154082235
122	0xbde112c1	-0.10989905
123	0x3dafbf01	0.08581353
124	0x3e0f7961	0.14011146
125	0x3e3595d6	0.17732939
126	0x3b75dce5	0.0037515697
127	0x3badc177	0.005302604
128	0xbd8b39f7	-0.06798165
129	0x3e3fa9c0	0.18717098
130	0xbda05495	-0.07828633
131	0xbe8e69e8	-0.27815175
132	0x3dc6e4d9	0.09711618
133	0x3d127c4d	0.035763074
134	0xbe1e0781	-0.1543255
135	0xbd274023	-0.04083265
136	0x3e439471	0.19099595
137	0xbf4db71a	-0.80357516
138	0x3dd8f79c	0.10594103
139	0x3e5661b4	0.20935708
140	0xbdee051b	-0.116220675
141	0xbd1c86a5	-0.038214345
142	0x3dded015	0.10879532
143	0x3dcec18b	0.10095509
144	0xbc001258	-0.0078168735
145	0xbd686d56	-0.056744896
146	0xbde2ec12	-0.11080183
147	0xbe01a4eb	-0.12660567
148	0xbe87c26f	-0.2651553
149	0xbe4bde82	-0.19909099
150	0xbe8e43de	-0.27786154
151	0xbc968592	-0.018374238
152	0x3e685c62	0.22691491
153	0x3e28ffe9	0.16503872
154	0x3de0a000	0.109680176
155	0x3dc1d938	0.09465259
156	0x3dff659e	0.12470554
157	0x3dd382d9	0.103276916
158	0x3db99137	0.09060901
159	0x3da14913	0.07875266
160	0x3e07b417	0.13252293
161	0xbc82905f	-0.015937982
162	0xbda6d0f6	-0.08145325
163	0xbd6d4298	-0.057924837
164	0xbe5553aa	-0.20832697
165	0xbe133969	-0.14377369
166	0xbeb79ef2	-0.35863453
167	0xbe30cd88	-0.17265904
168	0xbed1d1e2	-0.4098044
169	0xbe8e420a	-0.2778476
170	0xbd0bef8f	-0.034164008
171	0x3dc7ca99	0.09755439
172	0xbdbad95d	-0.0912349
173	0xbd4cb48f	-0.04997688
174	0x3e037c7b	0.12840454
175	0xbb462f97	-0.0030240768
176	0xbd9446c2	-0.072400585
177	0xbde6a48c	-0.112618536
178	0x3c640a84	0.013918523
179	0x3d5cd872	0.053917356
180	0x3cd96c3b	0.026540866
181	0x3c9e9db7	0.019362314
182	0xbd9286ca	-0.07154615
183	0xbec0fd6f	-0.37693354
184	0xbebb3d82	-0.36570364
185	0x3cc625db	0.024187973
186	0xbdae83c1	-0.08521224
187	0xbe46e83f	-0.19424532
188	0xbc43ba20	-0.011946231
189	0xbc8ccc79	-0.017187344
190	0xbc267aa3	-0.010161075
191	0x3e71a2fc	0.2359733
192	0xbe1e6169	-0.15466847
193	0x3c3e711e	0.011623649
194	0x3eab48d4	0.33454
195	0xbe75dd99	-0.24010314
196	0x3d6c873f	0.05774617
197	0xbead4f17	-0.33849403
198	0xbdd1242e	-0.10211979
199	0xbc93fe42	-0.018065576
200	0xbc097c52	-0.008391457
201	0x3bc8b6ce	0.0061253076
202	0x3e09a034	0.13440019
203	0xbe37ddba	-0.17955676
204	0xbd5db678	-0.054129094
205	0x3c79684b	0.015222619
206	0x3ca3bcec	0.019987546
207	0xbd5341a6	-0.05157628
208	0x3c509c1a	0.01273253
209	0x3e36e813	0.17861967
210	0xbe3723c1	-0.17884733
211	0x3de34730	0.11097562
212	0xbd5abae6	-0.053400896
213	0xbe0c85c7	-0.13722907
214	0xbdac5b8c	-0.08415899
215	0x3cc3399e	0.023831185
216	0x3e1e00c8	0.15429986
217	0x3e3090be	0.17242715
218	0x3e0341c9	0.12818064
219	0x3e1f013c	0.15527815
220	0x3e03bfb0	0.12866092
221	0x3d040475	0.032230813
222	0x3dc6217d	0.09674356
223	0x3dbd966e	0.09257208
224	0x3db243d6	0.08704345
225	0xbbcfcf26	-0.0063418327
226	0x3c19aefe	0.0093801
227	0xbda47407	-0.08029943
228	0x3cc6f7a5	0.024288008
229	0x3beac3f3	0.0071644722
230	0x3b517fa0	0.003196694
231	0xbe349763	-0.17635874
232	0x3dead364	0.11466101
233	0x3dcfc756	0.10145442
234	0x3cb8a2bf	0.02253854
235	0xbdb41c36	-0.08794443
236	0xbe141009	-0.14459242
237	0xbe4870ea	-0.19574323
238	0xbe60bec6	-0.21947774
239	0xbe08dd90	-0.1336577
240	0xbe84379f	-0.25823686
241	0x3c849881	0.016186
242	0x3d19ad39	0.037518714
243	0x3d516f81	0.05113173
244	0x3d31721f	0.043321725
245	0x3da6a561	0.08137012
246	0x3d9d767a	0.07688613
247	0xbbc1251c	-0.0058943164
248	0x3c14bff2	0.009078966
249	0x3dff8d0a	0.12478073
250	0x3cefbfd0	0.029266268
251	0xbc75b2f7	-0.014996282
252	0x3c4f519f	0.012653737
253	0xbdca0f2b	-0.09866174
254	0xbd0eeb6e	-0.034892492
255	0xbe903693	-0.28166637

encoder_conv.2.bias f4 [32]
0	0x3dc76562	0.09736134
1	0x3e1b4ba6	0.15165576
2	0x3ce1e01e	0.027572688
3	0x3d74c69d	0.059759725
4	0xbd460cc7	-0.04835203
5	0x3d47c3ba	0.048770644
6	0x3bacb431	0.005270504
7	0x3e0b3450	0.13594174
8	0x3db949c9	0.090472765
9	0x3dbd1a07	0.0923348
10	0x3d854fd9	0.0650937
11	0x3dc227ce	0.094802484
12	0xbd849d33	-0.06475296
13	0xbcec0fc9	-0.02881612
14	0x3d13ab81	0.03605223
15	0xbd07a23c	-0.033113703
16	0x3d1cc85e	0.038277023
17	0x3d9cedba	0.0766253
18	0x3ddd7676	0.1081361
19	0xbd49af20	-0.049239278
20	0x3d907aa7	0.07054644
21	0x3d4aa199	0.049470518
22	0x3d79e649	0.061010633
23	0x3deb9d8b	0.11504658
24	0xbd0c5778	-0.034263104
25	0xbcd04fee	-0.025428738
26	0x3d1221cb	0.03567676
27	0xbb9a62ad	-0.00471147
28	0x3d3c83e5	0.046024222
29	0xbce4a0a5	-0.027908633
30	0xbbe31766	-0.0069302795
31	0x3d9010a9	0.07034428

encoder_conv.4.weight f4 [64, 32, 7, 7]
0	0x18791ddb	3.2197569e-24
1	0x0ab66dc0	1.7567246e-32
2	0x87d3a92b	-3.184718e-34
3	0x0defd294	1.4780207e-30
4	0x16a4ffd0	2.665707e-25
5	0x8b2b6322	-3.300798e-32
6	0x8a25caa4	-7.9825735e-33
7	0x00055c62	4.92318e-40
8	0x90117763	-2.868818e-29
9	0x1d9f3eb0	4.2151767e-21
10	0xaa2fbfd8	-1.5609682e-13
11	0x303dc8b7	6.904303e-10
12	0xa63ca8ad	-6.54542e-16
13	0x9757da28	-6.97456e-25
14	0x80055cc8	-4.92461e-40
15	0x99a23d1a	-1.6775086e-23
16	0xa704395a	-1.834977e-15
17	0xaf8f1d82	-2.6032515e-10
18	0x33184aa2	3.5458136e-08
19	0xadd4eaa4	-2.4205811e-11
20	0x0fefdd80	2.3652538e-29
21	0x00055cbd	4.92446e-40
22	0x8d378e78	-5.656272e-31
23	0x2d31ff69	1.0117998e-11
24	0xb209321e	-7.985845e-09
25	0xb2f9c2a6	-2.9075931e-08
26	0xabb7c09d	-1.3056393e-12
27	0x8cc92a90	-3.099457e-31
28	0x00085f26	7.68817e-40
29	0x92285bd2	-5.312463e-28
30	0x29743912	5.4228384e-14
31	0xb07a4dac	-9.105985e-10
32	0x335563a9	4.9683567e-08
33	0x2d8ec50e	1.623104e-11
34	0x111ad240	1.2213246e-28
35	0x00055877	4.90913e-40
36	0x8f19b2db	-7.577929e-30
37	0xac84e88d	-3.777484e-12
38	0x31311f3d	2.5774647e-09
39	0xb23d1712	-1.10064935e-08
40	0xa94e5f3d	-4.5823795e-14
41	0x8c51fc16	-1.6176634e-31
42	0x80055f05	-4.93264e-40
43	0x83ea2052	-1.3760704e-36
44	0x163959eb	1.4972554e-25
45	0xa2f93b75	-6.7554538e-18
46	0xa9d71085	-9.550784e-14
47	0x8e9834a8	-3.75216e-30
48	0x80716e71	-1.041703e-38
49	0xaa383a22	-1.6362652e-13
50	0xa9e0f72b	-9.990475e-14
51	0x2abc8b1d	3.3492038e-13
52	0xaacb30e5	-3.609397e-13
53	0xaa0b52de	-1.237443e-13
54	0x298dcfb1	6.2976866e-14
55	0xa9031d17	-2.9113075e-14
56	0x2f75b4bc	2.234683e-10
57	0x2ecc934f	9.303013e-11
58	0xb05aeb42	-7.964226e-10
59	0x2e02ee56	2.9770263e-11
60	0x2cfd14bc	7.1929945e-12
61	0xad23a822	-9.30281e-12
62	0xaecc8892	-9.301106e-11
63	0xaff2f2d7	-4.4192092e-10
64	0x2e4a74d7	4.6033257e-11
65	0x2960256b	4.9770446e-14
66	0x9c43beca	-6.4766677e-22
67	0x03302f09	5.1775745e-37
68	0xa2c0cc51	-5.2258033e-18
69	0x2b43b272	6.952556e-13
70	0xb0188f99	-5.550134e-10
71	0x2f275041	1.5217073e-10
72	0xa9c2d0d3	-8.651556e-14
73	0xa0c44e02	-3.3255313e-19
74	0x9d0b175e	-1.8408577e-21
75	0xa7f0f8a4	-6.688296e-15
76	0x2f28b944	1.534533e-10
77	0x2f2182cd	1.4689334e-10
78	0xade399ab	-2.5875154e-11
79	0x2a51e30a	1.8641699e-13
80	0x9aa24e37	-6.712799e-23
81	0x93353d6f	-2.28757e-27
82	0xa259bed3	-2.9510005e-18
83	0xafca4a1c	-3.6796244e-10
84	0x2ff07bde	4.374376e-10
85	0x2dc99265	2.2916067e-11
86	0xa995429e	-6.6284855e-14
87	0xa0d88a0c	-3.6683175e-19
88	0x9aae29aa	-7.2032025e-23
89	0xa8c7dd23	-2.2189341e-14
90	0x2e203f0d	3.643579e-11
91	0xaefa5a22	-1.13846946e-10
92	0xaecc29fb	-9.284303e-11
93	0xad0edba2	-8.120534e-12
94	0xa69a2f4a	-1.0698714e-15
95	0xaa666d30	-2.0465986e-13
96	0x2e297cfd	3.8537163e-11
97	0xaf0e2d33	-1.2930883e-10
98	0x00056353	4.94808e-40
99	0x80055f1d	-4.93298e-40
100	0x80055e5e	-4.9303e-40
101	0x80055bce	-4.92111e-40
102	0x80055cb6	-4.92436e-40
103	0x8005f46c	-5.4686e-40
104	0x8005625b	-4.94461e-40
105	0x00055e5c	4.93027e-40
106	0x00056343	4.94786e-40
107	0x00055b35	4.91896e-40
108	0x00055973	4.91266e-40
109	0x00056045	4.93712e-40
110	0x80056019	-4.93651e-40
111	0x00055e10	4.92921e-40
112	0x80055c3c	-4.92265e-40
113	0x00055ab0	4.9171e-40
114	0x000559ed	4.91437e-40
115	0x82f7087c	-3.6298258e-37
116	0x1b97f943	2.5141936e-22
117	0x8005621b	-4.94371e-40
118	0x00055a4a	4.91567e-40
119	0x00056127	4.94029e-40
120	0x800559b7	-4.91361e-40
121	0x80055f63	-4.93396e-40
122	0x000560ca	4.93899e-40
123	0x0005605b	4.93743e-40
124	0x00055b31	4.91891e-40
125	0x00055805	4.90753e-40
126	0x80055e3c	-4.92982e-40
127	0x800558e8	-4.91071e-40
128	0x8f6c4261	-1.16484825e-29
129	0x1b306494	1.4590877e-22
130	0x0fa24923	1.6002605e-29
131	0x00055e18	4.92932e-40
132	0x80056189	-4.94167e-40
133	0x00063603	5.70389e-40
134	0x80055f00	-4.93257e-40
135	0x8005645c	-4.9518e-40
136	0x964ade35	-1.6387546e-25
137	0x8a0c4448	-6.753597e-33
138	0x800561f3	-4.94315e-40
139	0x800560c6	-4.93893e-40
140	0x00055ed9	4.93202e-40
141	0x80055b6d	-4.91975e-40
142	0x10cce787	8.0820537e-29
143	0x9c5c1ebb	-7.283161e-22
144	0x0005602b	4.93676e-40
145	0x00056139	4.94054e-40
146	0x80055981	-4.91285e-40
147	0x0006550f	5.81526e-40
148	0x80058bad	-5.09284e-40
149	0x800585b8	-5.07147e-40
150	0x00055ee9	4.93225e-40
151	0x800560ea	-4.93944e-40
152	0x00055eea	4.93226e-40
153	0x80055c75	-4.92345e-40
154	0x00067a0b	5.94794e-40
155	0x000690dc	6.02979e-40
156	0x8006c0d3	-6.20185e-40
157	0x000558c2	4.91018e-40
158	0x00055790	4.90589e-40
159	0x00056022	4.93663e-40
160	0x00061700	5.59264e-40
161	0x8005af56	-5.22076e-40
162	0x800559d6	-4.91405e-40
163	0x800558ca	-4.91029e-40
164	0x00055eeb	4.93228e-40
165	0x04821f6a	3.0591702e-36
166	0x800558b8	-4.91004e-40
167	0x8006d4a7	-6.27298e-40
168	0x80055ffb	-4.93609e-40
169	0x8005baaa	-5.2614e-40
170	0x80055bf5	-4.92165e-40
171	0x80055e9c	-4.93117e-40
172	0x00056081	4.93797e-40
173	0x00055eac	4.9314e-40
174	0x00055a9d	4.91683e-40
175	0x00061e4a	5.61879e-40
176	0x00055847	4.90845e-40
177	0x000560a1	4.93841e-40
178	0x80055a4f	-4.91574e-40
179	0x00056011	4.9364e-40
180	0x000558c9	4.91028e-40
181	0x80055d96	-4.9275e-40
182	0x000557ec	4.90718e-40
183	0x00055bd7	4.92123e-40
184	0x80055bca	-4.92105e-40
185	0x800601a2	-5.51599e-40
186	0x800557fa	-4.90738e-40
187	0x00056231	4.94402e-40
188	0x800559e2	-4.91421e-40
189	0x8005e3ec	-5.4094e-40
190	0x80055833	-4.90817e-40
191	0x00055ee7	4.93222e-40
192	0x80055ba4	-4.92052e-40
193	0x000557b7	4.90644e-40
194	0x00055df3	4.9288e-40
195	0x0005765e	5.0164e-40
196	0x80056382	-4.94874e-40
197	0x80055b9e	-4.92044e-40
198	0x800560d8	-4.93918e-40
199	0x00055b79	4.91992e-40
200	0x0005608c	4.93812e-40
201	0x0005604a	4.9372e-40
202	0x000557d8	4.9069e-40
203	0x00055f7b	4.9343e-40
204	0x000560fd	4.9397e-40
205	0x8005db3a	-5.37821e-40
206	0x00055bac	4.92063e-40
207	0x80055a9d	-4.91683e-40
208	0x00055ded	4.92872e-40
209	0x000560b2	4.93865e-40
210	0x00064999	5.77415e-40
211	0x80055bd5	-4.9212e-40
212	0x800559bc	-4.91368e-40
213	0x0005599d	4.91325e-40
214	0x80055d7e	-4.92716e-40
215	0x000560cd	4.93903e-40
216	0x00055cd2	4.92475e-40
217	0x80055a1c	-4.91503e-40
218	0x00055c53	4.92297e-40
219	0x800558b2	-4.90995e-40
220	0x00055f6e	4.93411e-40
221	0x00056065	4.93757e-40
222	0x06b6715c	6.862736e-35
223	0x80056472	-4.9521e-40
224	0x8006d97e	-6.29034e-40
225	0x00056092	4.9382e-40
226	0x800558ad	-4.90988e-40
227	0x00055f80	4.93436e-40
228	0x80056149	-4.94077e-40
229	0x0005632f	4.94758e-40
230	0x800561db	-4.94281e-40
231	0x000557f1	4.90725e-40
232	0x0005598d	4.91302e-40
233	0x80055f71	-4.93415e-40
234	0x00055e0e	4.92918e-40
235	0x80056080	-4.93795e-40
236	0x00056376	4.94857e-40
237	0x800560a5	-4.93847e-40
238	0x00055d62	4.92677e-40
239	0x00056094	4.93823e-40
240	0x0005621d	4.94374e-40
241	0x00055a99	4.91678e-40
242	0x00055c40	4.9227e-40
243	0x0005605a	4.93742e-40
244	0x8006ce8a	-6.25105e-40
245	0x0005584e	4.90855e-40
246	0x80056065	-4.93757e-40
247	0x80055f11	-4.93281e-40
248	0x00055e7d	4.93073e-40
249	0x00055a48	4.91564e-40
250	0x00055920	4.9115e-40
251	0x00055bc1	4.92093e-40
252	0x80009ce1	-5.6278e-41
253	0x04fcd1f9	5.9437745e-36
254	0x07547018	1.5982049e-34
255	0x00055d7c	4.92713e-40

encoder_conv.4.bias f4 [64]
0	0xbaa6f5b4	-0.001273802
1	0xbb645d72	-0.0034845737
2	0xb9377abf	-0.00017497966
3	0x3e2c10fe	0.16803357
4	0xbd0999db	-0.033593994
5	0xbcfe6287	-0.03105284
6	0xb3176e04	-3.5257486e-08
7	0x3da4d1e3	0.08047845
8	0xb83f0abf	-4.5547957e-05
9	0xb8bf7a4c	-9.130369e-05
10	0xbcd96bbe	-0.026540633
11	0xb95cd5e3	-0.00021060514
12	0xbc072c9f	-0.008250385
13	0xb4ed8445	-4.424093e-07
14	0xb8becba4	-9.097837e-05
15	0xbcb963fb	-0.022630682
16	0xbcd17233	-0.02556715
17	0xbbcdbbc5	-0.0062784874
18	0xbccc1a0a	-0.02491476
19	0xbc8028ea	-0.01564451
20	0xbd13fcde	-0.036129825
21	0xbb8809bc	-0.004151551
22	0x8a8d324e	-1.3596729e-32
23	0xbce57c83	-0.028013473
24	0xbd021cb3	-0.03176565
25	0x3d4475ce	0.04796391
26	0xb010e805	-5.2716614e-10
27	0xbcc8f357	-0.024530096
28	0xbcebd6ac	-0.028788887
29	0xba50532d	-0.00079469645
30	0xbb9cc764	-0.0047845114
31	0xbaa73147	-0.0012755775
32	0xbc171ca5	-0.009223138
33	0xbb3182a0	-0.0027085915
34	0x3c208690	0.009797707
35	0x3a0d3310	0.0005386332
36	0xbd072198	-0.032991022
37	0xbc412d16	-0.0117905345
38	0xb87b43eb	-5.9906317e-05
39	0x3d9b0ae7	0.07570439
40	0xbb8cac98	-0.0042930357
41	0xbbbb7f38	-0.0057219528
42	0xbc24b909	-0.010053881
43	0x3d59f09c	0.05320798
44	0x87a25273	-2.442351e-34
45	0xbae60db3	-0.001755169
46	0xbc481b1c	-0.012213495
47	0xbd33205f	-0.043732043
48	0xb999d59c	-0.00029341585
49	0xbc7a9b0f	-0.015295758
50	0xbb9228ea	-0.0044604437
51	0xb3818c32	-6.032532e-08
52	0xbad108d9	-0.0015948071
53	0xbcd7e2e7	-0.026353313
54	0xbb9f0140	-0.004852444
55	0xbd0061e8	-0.03134337
56	0xba1fcbd5	-0.0006095742
57	0xbd7141f9	-0.058900807
58	0xbcc5698e	-0.024098184
59	0xbac4e72c	-0.0015022508
60	0x3d97c689	0.074109145
61	0xbb5f7a5e	-0.0034100036
62	0xbcf386de	-0.029727396
63	0x3d2fcb33	0.042918395

fc_mu.weight f4 [10, 64]
0	0x329dfdfb	1.8392702e-08
1	0x3380c6f2	5.9966524e-08
2	0xb775f1e3	-1.4659457e-05
3	0x3a3b73a5	0.0007150716
4	0x379873c5	1.8173721e-05
5	0xbcd4a356	-0.02595679
6	0x8005585b	-4.90873e-40
7	0x3b3361a8	0.002737144
8	0x99517df2	-1.0830481e-23
9	0x21c3ad6f	1.3259621e-18
10	0x3d299b17	0.04140767
11	0xb75e0785	-1.3233982e-05
12	0x3ceeecf1	0.029165717
13	0x8005637f	-4.9487e-40
14	0x00055b0d	4.9184e-40
15	0x3bc1c2ed	0.0059131295
16	0x3c7e764c	0.015531134
17	0x35c56aa3	1.4708679e-06
18	0x3ce665a1	0.028124632
19	0xbbb01fdf	-0.005374893
20	0xb6a0d0a9	-4.792663e-06
21	0x3a93bf60	0.0011272244
22	0x80055c3f	-4.92269e-40
23	0x3d0866a7	0.033301022
24	0x0d470474	6.132697e-31
25	0x3b5a5ea9	0.0033320582
26	0x90cef3cf	-8.162832e-29
27	0x3ceb0bdd	0.02869218
28	0x3d0d435f	0.03448808
29	0x34d816f8	4.0249847e-07
30	0x39f51c01	0.00046750906
31	0xb580c19e	-9.593093e-07
32	0xb3b873d4	-8.589237e-08
33	0x354eb1b1	7.6999555e-07
34	0xbbe32bf2	-0.006932729
35	0x3d0dc673	0.034613084
36	0x2881b893	1.4401923e-14
37	0x3cf9d262	0.030495826
38	0x2f79bd07	2.2713574e-10
39	0x3baa7fee	0.0052032387
40	0x96f7b1b8	-4.0017159e-25
41	0x3ad30a11	0.0016101022
42	0xbc0542b1	-0.008133576
43	0x3a8f58e6	0.0010936528
44	0x800557cf	-4.90677e-40
45	0x36fd2ab1	7.5449575e-06
46	0x3c0cbc47	0.008589811
47	0xb7b438ec	-2.1484178e-05
48	0xb629a2a1	-2.5277625e-06
49	0x3b5aaac9	0.0033365956
50	0xbae84530	-0.0017720815
51	0x80055f03	-4.93261e-40
52	0xbd244b68	-0.040110976
53	0xb786cfe7	-1.6070857e-05
54	0xbc57bc9e	-0.013167528
55	0x3ce54a5b	0.027989557
56	0x33ee581f	1.1098768e-07
57	0xbabb33d7	-0.0014282417
58	0x201a2f48	1.3059951e-19
59	0xbbb2fcdd	-0.0054622726
60	0x3a55c272	0.000815428
61	0xb20b12b8	-8.095121e-09
62	0x3d0ab271	0.03386158
63	0x3ae2d676	0.0017306346
64	0x80056413	-4.95077e-40
65	0x992740a1	-8.646749e-24
66	0x24336d73	3.8907145e-17
67	0x3e4149b0	0.18875766
68	0xba32b85e	-0.0006817634
69	0xbd507c64	-0.05089988
70	0x00055c71	4.92339e-40
71	0x3d6530c7	0.05595472
72	0x00055b3e	4.91909e-40
73	0x2b092b08	4.8731895e-13
74	0xbca2657c	-0.019823782
75	0x3389a1d5	6.408997e-08
76	0xb921fd68	-0.00015448558
77	0x80055f81	-4.93438e-40
78	0xb93907df	-0.00017645907
79	0x39f7cc50	0.00047263736
80	0xbd01fbb5	-0.031734187
81	0x35b00c75	1.3116647e-06
82	0xbcca52e1	-0.024697723
83	0x3afb9f01	0.0019197167
84	0xbc94074f	-0.018069891
85	0xbca672e7	-0.020318462
86	0x00048b9b	4.17423e-40
87	0xbd42e196	-0.047578417
88	0xbc867170	-0.016411513
89	0xbd604579	-0.054753754
90	0x154f2071	4.182891e-26
91	0x3b3bf02b	0.0028677087
92	0xbd0b075e	-0.033942573
93	0x34d61557	3.9876133e-07
94	0x3c02df48	0.007987805
95	0x8005585d	-4.90876e-40
96	0xb452a58c	-1.9618e-07
97	0x39bfa1d1	0.00036550922
98	0x3c164d15	0.009173651
99	0xbc6db236	-0.014507821
100	0xbc43a4fd	-0.011941192
101	0x3c95f0c0	0.018303275
102	0xb18f8eeb	-4.1780956e-09
103	0xbdcd756b	-0.10032161
104	0x1baea377	2.8891522e-22
105	0xba864895	-0.001024502
106	0x3c2ba5ee	0.010476572
107	0x3e04f5d6	0.12984404
108	0x80055cb3	-4.92432e-40
109	0x3574e2c4	9.122707e-07
110	0x3a3686f1	0.0006962857
111	0x3cf606eb	0.030032596
112	0x80055ed1	-4.93191e-40
113	0xbdac9e5b	-0.084286414
114	0xba9f750e	-0.0012165622
115	0x0005606b	4.93766e-40
116	0x3d7a08e1	0.061043624
117	0xbc098767	-0.008394099
118	0xbc086416	-0.008324644
119	0x3ce9bc43	0.028532153
120	0xb6e295dd	-6.7527712e-06
121	0x3d6e6afe	0.058207504
122	0x31ba90e4	5.4297846e-09
123	0xb88ee5b6	-6.813875e-05
124	0xbe0e9eee	-0.13927814
125	0x3506a2ab	5.0155603e-07
126	0xb991ab13	-0.00027784015
127	0xbd97e94f	-0.07417547
128	0xa331358c	-9.606528e-18
129	0x9121e358	-1.2770716e-28
130	0xaafc5c99	-4.4828445e-13
131	0x3a9eb033	0.0012106955
132	0xb4d87371	-4.031713e-07
133	0x3c2d6515	0.010583182
134	0x000563d8	4.94995e-40
135	0xbb173ff0	-0.0023078881
136	0x0833971e	5.404349e-34
137	0x1922d910	8.419039e-24
138	0x3db214f3	0.08695402
139	0xaf587a8b	-1.9688622e-10
140	0x3c9a1163	0.018807119
141	0x80055cf7	-4.92527e-40
142	0x80055fed	-4.93589e-40
143	0xb7f90d76	-2.9689381e-05
144	0x3b635911	0.003469054
145	0x20e270ce	3.8360537e-19
146	0x394c8f39	0.0001950831
147	0x3c81bf58	0.01583831
148	0x3786ab57	1.6053831e-05
149	0x3bc25381	0.0059303646
150	0x00055ff5	4.936e-40
151	0xbb0254b1	-0.0019886906
152	0x8d189adc	-4.702502e-31
153	0xbbb7c66c	-0.0056083705
154	0x800560a7	-4.9385e-40
155	0xbcfe19fc	-0.03101825
156	0xbcfd02e7	-0.030885173
157	0x000561c4	4.94249e-40
158	0x30b76fa6	1.3346735e-09
159	0xab0e03c2	-5.045375e-13
160	0x31b0e6d2	5.1485154e-09
161	0x318e5745	4.1426653e-09
162	0x3c055009	0.008136758
163	0xb73d652d	-1.1288835e-05
164	0x99f0df72	-2.4905667e-23
165	0x3629c511	2.529767e-06
166	0x2c9baafa	4.424347e-12
167	0xbb7b6821	-0.0038361626
168	0x8005632c	-4.94754e-40
169	0xb8731630	-5.795638e-05
170	0xbca3dae8	-0.020001844
171	0xbb0a9d6e	-0.0021150964
172	0x00056041	4.93707e-40
173	0x341b92f9	1.4488968e-07
174	0x3d6a03a4	0.05713238
175	0xae7f31ca	-5.802451e-11
176	0xa6be4989	-1.320383e-15
177	0xbb86a416	-0.004108916
178	0xb8a24294	-7.737163e-05
179	0x00055cdf	4.92493e-40
180	0xbc66976a	-0.014074186
181	0x340992d0	1.281253e-07
182	0xafef971f	-4.3581225e-10
183	0xbd576f35	-0.05259629
184	0x8005640d	-4.95069e-40
185	0xbb4ff219	-0.0031729995
186	0x00055a62	4.91601e-40
187	0xb85de3ab	-5.290254e-05
188	0xbb80d933	-0.003932142
189	0xb059797c	-7.911678e-10
190	0x3cca3741	0.02468455
191	0xbb16e733	-0.002302599
192	0x30bb25a9	1.3616744e-09
193	0x348a6945	2.5781097e-07
194	0xb688f233	-4.0813115e-06
195	0xbc88fb19	-0.016721295
196	0xa4e5e3d4	-9.9698875e-17
197	0x3c811fdc	0.015762262
198	0x0005584a	4.9085e-40
199	0x3e746ede	0.23870417
200	0x00055c4d	4.92289e-40
201	0x0e1e2752	1.9493936e-30
202	0x3d0a2bfb	0.03373335
203	0x381c3e95	3.7251582e-05
204	0x3c629f33	0.013831901
205	0x80055b49	-4.91924e-40
206	0x393fb45e	0.00018282371
207	0xbd442b78	-0.047893018
208	0x3d25f6d3	0.040518593
209	0xb9bc6f2b	-0.0003594098
210	0xbd0d222a	-0.03445641
211	0x39f6a53e	0.0004704389
212	0xbcaf391e	-0.02138954
213	0x3d23fa5d	0.040033687
214	0x0005581d	4.90787e-40
215	0x3cebcb0d	0.028783346
216	0x3bc90534	0.0061346535
217	0xbdb6f989	-0.08934314
218	0x0005c7df	5.30878e-40
219	0xbb07d339	-0.0020725264
220	0xbd1ce063	-0.03829993
221	0x32930115	1.7113544e-08
222	0xbc03dad0	-0.008047774
223	0xb3dc037d	-1.0245183e-07
224	0x80041d17	-3.77777e-40
225	0xbaa2fb24	-0.0012434465
226	0x3e3c09b9	0.18363084
227	0x3cdcd5d2	0.026957426
228	0xbb6dad66	-0.0036266684
229	0xbc37a89e	-0.011209635
230	0x8005581b	-4.90784e-40
231	0xbce59e8f	-0.028029708
232	0x000563d9	4.94996e-40
233	0x3a257010	0.0006310949
234	0x3d274a6a	0.04084245
235	0xbe0a42d9	-0.13502063
236	0x00055e6d	4.93051e-40
237	0x00055b6e	4.91976e-40
238	0x3c28fd9e	0.010314373
239	0x39ade4c6	0.0003316758
240	0xb298ea26	-1.7801607e-08
241	0x3e0e2f2c	0.13885182
242	0x3a401103	0.00073267537
243	0x00055731	4.90456e-40
244	0xbc5f0ff1	-0.013614641
245	0x3c11a5f1	0.008889661
246	0x3b9d9a1f	0.0048096324
247	0xbd22530b	-0.039629977
248	0xb6327b53	-2.659585e-06
249	0xbd6079e2	-0.054803737
250	0xb491062b	-2.7012842e-07
251	0x3a8d0ea2	0.0010761807
252	0xbdcdee29	-0.10055191
253	0x80055e39	-4.92978e-40
254	0x39a124d5	0.00030735755
255	0x3c249f46	0.010047739

fc_mu.bias f4 [10]
0	0xbdae837e	-0.08521174
1	0x3d950acd	0.07277451
2	0x3e00d2a0	0.12580347
3	0x3e1b3930	0.15158534
4	0x3e3f04a9	0.18654121
5	0xbdd25670	-0.10270393
6	0x3e06e9ff	0.131752
7	0x3e4fb0fa	0.20282355
8	0xbe25e947	-0.1620227
9	0x3d2f90b9	0.042862628

fc_logvar.weight f4 [10, 64]
0	0x2ed0415f	9.470357e-11
1	0xb081cae7	-9.443654e-10
2	0xb62d4c16	-2.5823297e-06
3	0xbb9f2b31	-0.0048574437
4	0xb4d4f027	-3.966281e-07
5	0xbd6e142b	-0.058124702
6	0x80055932	-4.91175e-40
7	0xbb3330b7	-0.0027342269
8	0x8dd05457	-1.2839294e-30
9	0xa3b1a561	-1.9260419e-17
10	0xbdba96d5	-0.091108
11	0xb6847240	-3.947207e-06
12	0xbc932f58	-0.017966911
13	0x80056323	-4.94741e-40
14	0x00055cf6	4.92526e-40
15	0xb999a0c0	-0.00029302202
16	0x3ac948ea	0.0015356813
17	0x33aa968b	7.9436255e-08
18	0xbbdc46c2	-0.006722302
19	0xbd53d276	-0.051714383
20	0xb5a1d171	-1.205639e-06
21	0x3a9d10e9	0.0011983189
22	0x800557e7	-4.90711e-40
23	0x3b9bc4b9	0.004753676
24	0x0cc1b54a	2.9845468e-31
25	0xbaa53dbb	-0.0012606898
26	0x8005579d	-4.90607e-40
27	0xbc827319	-0.015924023
28	0x3c67d241	0.0141492495
29	0x00055a62	4.91601e-40
30	0x388ae5db	6.623167e-05
31	0x340b03f6	1.2946825e-07
32	0x319c91b3	4.5567616e-09
33	0xb222c62e	-9.474702e-09
34	0xba9afe7b	-0.0011825109
35	0xbc105840	-0.008810103
36	0x20c28f2a	3.2959616e-19
37	0xbbd58db5	-0.006517137
38	0xaedd3a05	-1.0060223e-10
39	0xbbb7528c	-0.005594557
40	0x80055ccc	-4.92467e-40
41	0xb9699e66	-0.0002227962
42	0x3cc27f44	0.023742326
43	0xbae42ee0	-0.0017408989
44	0x80056261	-4.94469e-40
45	0x343942a8	1.7253717e-07
46	0x3d1415cd	0.036153603
47	0x349e3123	2.9465545e-07
48	0x33193c16	3.5677736e-08
49	0xbaa05666	-0.001223278
50	0x3b32f092	0.0027304036
51	0x000558ad	4.90988e-40
52	0xbdd33f36	-0.10314791
53	0x348ed0bd	2.6601438e-07
54	0xb9d13b1d	-0.0003990763
55	0x3d364f9f	0.044509526
56	0x80056282	-4.94515e-40
57	0xb9f36e3f	-0.00046430712
58	0x96084489	-1.1007618e-25
59	0xba196644	-0.00058517256
60	0xbb1a115b	-0.002350888
61	0x31305c1b	2.5663727e-09
62	0xbcfc8885	-0.030826816
63	0x3ab31517	0.0013662901
64	0x00055d45	4.92636e-40
65	0x0005595a	4.91231e-40
66	0x8003e6ff	-3.58372e-40
67	0xbdddb654	-0.10825792
68	0x32199bfe	8.941241e-09
69	0xbd1c2a18	-0.03812608
70	0x800560f6	-4.9396e-40
71	0xbe109f16	-0.14123186
72	0x8005577d	-4.90562e-40
73	0x95c32c4f	-7.882978e-26
74	0xbd29e536	-0.04147836
75	0x27a3f437	4.5506367e-15
76	0x3c879132	0.016548727
77	0x00055c2e	4.92245e-40
78	0x0005620c	4.9435e-40
79	0xbb832404	-0.004002096
80	0x3d2f611a	0.042817213
81	0x2dc48531	2.2341769e-11
82	0x3be4fb42	0.00698796
83	0xbc876095	-0.016525546
84	0xb4225599	-1.5118566e-07
85	0x3cf921e2	0.030411664
86	0x00055b9b	4.9204e-40
87	0x3c9315e2	0.01795477
88	0x0e54af6d	2.6215482e-30
89	0xbdf819e5	-0.12114314
90	0x000561fe	4.9433e-40
91	0xbd26de07	-0.040739086
92	0x3d2cda8d	0.042200614
93	0xaac291a9	-3.4562395e-13
94	0x3a414dac	0.000737394
95	0x8005618e	-4.94174e-40
96	0x2bab3c65	1.2167044e-12
97	0x2e417ee3	4.3995817e-11
98	0xbd5c0db3	-0.053724002
99	0xbc1e8ab6	-0.009676626
100	0xba298da2	-0.00064679433
101	0x3a63a1a4	0.0008683449
102	0xa0d44ea4	-3.5966237e-19
103	0xbe655873	-0.22397022
104	0x8005576c	-4.90539e-40
105	0xb64cfee6	-3.054674e-06
106	0xbc3fee4d	-0.01171453
107	0xbd8ce026	-0.068786904
108	0x80055ed6	-4.93198e-40
109	0x2e3e606b	4.3286635e-11
110	0xbd48d654	-0.049032524
111	0x373a1b03	1.1092753e-05
112	0x80055a74	-4.91626e-40
113	0xbd5bf9e5	-0.053705115
114	0xb829e776	-4.0508305e-05
115	0x80055e44	-4.92994e-40
116	0xbcadec50	-0.021230847
117	0x2e8bae7e	6.351984e-11
118	0x39c2432f	0.0003705262
119	0x3d437b74	0.047725156
120	0xad118ef2	-8.274036e-12
121	0xbdad80d6	-0.08471839
122	0x80056081	-4.93797e-40
123	0xb5c44608	-1.462352e-06
124	0xb9851654	-0.00025384373
125	0xab10d4f8	-5.145463e-13
126	0xbce90375	-0.028444031
127	0xbe1739f9	-0.14768209
128	0x861af53b	-2.9144348e-35
129	0xaca44997	-4.6693305e-12
130	0x2b1863bb	5.413965e-13
131	0x3a21e3bd	0.0006175598
132	0x80055b03	-4.91826e-40
133	0xbd471789	-0.04860643
134	0x00056288	4.94524e-40
135	0x3b2db8e9	0.002650792
136	0x80055b7d	-4.91997e-40
137	0x00056438	4.95129e-40
138	0x3c1c4e7b	0.009540196
139	0xb5ac20fa	-1.2824596e-06
140	0x3bf64aad	0.0075162263
141	0x000558d3	4.91042e-40
142	0x80055cad	-4.92423e-40
143	0x3b9d8541	0.004807145
144	0x3cde8be0	0.027166307
145	0xb73a17b1	-1.109198e-05
146	0x3c3abf23	0.01139811
147	0x3bd8642e	0.006603739
148	0x1b9bc77f	2.577152e-22
149	0x3a94c4f7	0.0011350204
150	0x80055bed	-4.92154e-40
151	0xbc961f9d	-0.018325621
152	0x8d8e0405	-8.752393e-31
153	0x3b42f809	0.0029749891
154	0x00055765	4.90529e-40
155	0xbba8241e	-0.0051312586
156	0xbbc7f3b6	-0.0061020507
157	0xb2783080	-1.44465275e-08
158	0xbb7c0b96	-0.0038459054
159	0x941d83eb	-7.9524906e-27
160	0x800558d9	-4.9105e-40
161	0x8194785b	-5.4539315e-38
162	0xbb73ed21	-0.0037220197
163	0xbb662218	-0.0035115536
164	0x000559d7	4.91406e-40
165	0xbca414ad	-0.02002939
166	0x80055cfc	-4.92534e-40
167	0x3b11129c	0.0022136336
168	0x80055edd	-4.93208e-40
169	0x3a0f8cf9	0.00054760237
170	0x3d62f1e5	0.05540647
171	0xb987eda7	-0.0002592627
172	0x00055d12	4.92565e-40
173	0x80055e94	-4.93106e-40
174	0x3c062280	0.008186936
175	0x2af0da79	4.278416e-13
176	0xa1cf5aae	-1.4050868e-18
177	0xbad06328	-0.0015898691
178	0xb89dd2cf	-7.5256095e-05
179	0x800562f4	-4.94675e-40
180	0x3d038671	0.032110635
181	0x00056361	4.94828e-40
182	0x3c282c45	0.010264461
183	0xbd3f146e	-0.046650343
184	0xb427eea7	-1.5639908e-07
185	0x3a6bdf8b	0.0008997849
186	0x000569bc	4.97108e-40
187	0x38086abb	3.2524327e-05
188	0x3b4e2c0b	0.0031459357
189	0x00055ba8	4.92058e-40
190	0xbce13e5f	-0.027495561
191	0x3b16a140	0.0022984296
192	0x2f2fc97f	1.5987743e-10
193	0xaea6b599	-7.581064e-11
194	0xb5d8ff09	-1.6167479e-06
195	0xbd1c20f9	-0.038117383
196	0x375b1944	1.30593e-05
197	0xbd9a2826	-0.07527189
198	0x000562d5	4.94632e-40
199	0xbe0d3791	-0.13790728
200	0x9da9aeab	-4.491453e-21
201	0x28b358f8	1.9911576e-14
202	0xbb87e8f7	-0.0041476446
203	0x35606bfc	8.360364e-07
204	0xbd894079	-0.0670175
205	0x80055dc9	-4.92821e-40
206	0x80055c3c	-4.92265e-40
207	0x3a94a978	0.001134201
208	0xbaa739c0	-0.00127583
209	0xb48be439	-2.605682e-07
210	0x3b275242	0.0025531207
211	0xbc9c4075	-0.019073704
212	0x3334373c	4.195975e-08
213	0x3dbd1388	0.09232241
214	0x000559bc	4.91368e-40
215	0xba968041	-0.0011482314
216	0x8cfb4ecd	-3.87201e-31
217	0xbda792a3	-0.081822656
218	0x1ee3ebe7	2.4132127e-20
219	0xbd6d4446	-0.05792644
220	0xbce6b20e	-0.028161075
221	0x8ee90ea7	-5.7453044e-30
222	0xb8f2ac18	-0.00011571514
223	0xb2f80019	-2.8871044e-08
224	0x3294c4f6	1.7319035e-08
225	0x3595eb2e	1.1169811e-06
226	0x3cc3b6c2	0.023890857
227	0xba857e20	-0.0010184683
228	0x2d82f9ea	1.4890273e-11
229	0x3bad9282	0.005297006
230	0x31f31293	7.0743424e-09
231	0xbe2e8ea1	-0.17046596
232	0x00055dc8	4.9282e-40
233	0x3ac0b8a8	0.0014703469
234	0xbd561718	-0.052268118
235	0xbd8f5161	-0.06997944
236	0x80055dec	-4.9287e-40
237	0xb63bdbca	-2.7993106e-06
238	0x3d4b2856	0.049599014
239	0xb78c5902	-1.6730748e-05
240	0xb017863e	-5.512425e-10
241	0xbd6626e5	-0.056189436
242	0x3a23fc88	0.00062555866
243	0x8005620e	-4.94353e-40
244	0x3cf13625	0.029444763
245	0x37be9279	2.2717972e-05
246	0xba05946c	-0.0005095664
247	0xbc1401d8	-0.009033643
248	0x8005602b	-4.93676e-40
249	0xbcd40c67	-0.02588482
250	0x9b55e9d7	-1.7694505e-22
251	0xba32ee04	-0.0006825628
252	0xbd9f78e5	-0.07786731
253	0x33de9b42	1.0365922e-07
254	0xbca0ea57	-0.019642992
255	0xbe1d6af0	-0.15372825

fc_logvar.bias f4 [10]
0	0x3dae0f45	0.08499006
1	0xbea39a9f	-0.31953904
2	0xbda52ff2	-0.080657855
3	0xbe918c21	-0.28427222
4	0xbe61a4d7	-0.22035538
5	0xbe12d1e5	-0.14337881
6	0xbe47b575	-0.19502814
7	0xbe32494d	-0.17410775
8	0xbe5b86f1	-0.21438195
9	0xbdd84be5	-0.10561351

fc_decode.weight f4 [64, 10]
0	0x3d0cf000	0.03440857
1	0x3e9a28cd	0.30109254
2	0x3d82afb1	0.06381167
3	0x3f0a3e2c	0.54001117
4	0xbec09375	-0.376125
5	0xbd4d63b2	-0.050143905
6	0xbefb1b9f	-0.4904451
7	0xbe8ba1d5	-0.27271906
8	0xbf441568	-0.76595163
9	0xb7c5ad8e	-2.3565048e-05
10	0x3c3dccf8	0.011584513
11	0xbe315a0b	-0.17319505
12	0xbd11fa70	-0.035639226
13	0xbeecd09d	-0.4625291
14	0x3e81676a	0.2527421
15	0x3ea75e34	0.3268906
16	0x3e6ca9ac	0.231116
17	0xbe3704db	-0.17872946
18	0xbebcff0c	-0.36913335
19	0xbe39491f	-0.180943
20	0x3d528515	0.05139645
21	0x3ed8f772	0.42376286
22	0xbc8c67e0	-0.017139375
23	0x3dba44e7	0.09095173
24	0xbd91840c	-0.07105264
25	0xbe6226e4	-0.22085148
26	0xbd6babd6	-0.057536922
27	0xbc838038	-0.01605235
28	0xbe01c6fa	-0.1267356
29	0x3d0b2ef8	0.03398034
30	0x3b07114a	0.002060967
31	0xbe843fe9	-0.2583001
32	0x3d16c446	0.036808275
33	0xbde00cf4	-0.109399706
34	0x3dbfdadb	0.09367915
35	0xbf01e4b5	-0.50739604
36	0x3e668a17	0.22513615
37	0x3e9dece8	0.30844808
38	0xbbfaaf34	-0.0076502804
39	0xbec96980	-0.39338303
40	0xbd3f6468	-0.046726614
41	0x3f02a901	0.5103913
42	0xbd7ea3a4	-0.06216778
43	0x3d9aea56	0.07564227
44	0x3e8a719d	0.27039805
45	0xbc25b5ea	-0.0101141725
46	0xbea1e9b3	-0.3162361
47	0xbceee3f7	-0.029161436
48	0x3f2e381d	0.6805437
49	0x3c94efb7	0.018180711
50	0xbc279b1e	-0.010229854
51	0xbe65139f	-0.22370766
52	0xbd303270	-0.04301685
53	0xbcee8251	-0.029114874
54	0x3dae2f9e	0.08505176
55	0xbeddb166	-0.43299407
56	0xbf02f06f	-0.5114812
57	0xbe062ea1	-0.13103725
58	0xbec58830	-0.38580465
59	0x3d77cbb2	0.060496993
60	0x3c8c7773	0.017146802
61	0xbe1947f8	-0.1496886
62	0xbcb32865	-0.021869848
63	0x3db820dc	0.089906424
64	0x3e34451b	0.17604487
65	0x3ed73cb5	0.42038503
66	0xbddf4d75	-0.10903446
67	0x3d00c9bb	0.031442385
68	0x3e75e405	0.24012764
69	0x3d13fe2a	0.03613106
70	0x3babdf52	0.0052451277
71	0x3f0f479a	0.5596863
72	0xbacc3ef1	-0.0015582723
73	0xbd9cbd4c	-0.07653293
74	0xbe0387c3	-0.12844758
75	0xbe42b65c	-0.19014877
76	0xbdb63ea7	-0.08898669
77	0xbe407d3f	-0.18797778
78	0xbe2dffb7	-0.16992079
79	0x3dd157bc	0.10221812
80	0x3d0ab8cc	0.033867642
81	0xbd78d474	-0.060749486
82	0xbb92fe7d	-0.004485904
83	0xbf21f3b1	-0.6326247
84	0xbe770ce3	-0.2412601
85	0xbd29470f	-0.041327532
86	0x3e853466	0.2601654
87	0xbeafb4a4	-0.34317505
88	0x3ea49db7	0.32151577
89	0x3e95b710	0.29241228
90	0x3c1acdc4	0.009448472
91	0xbe17cdd3	-0.1482461
92	0xbc299a07	-0.010351664
93	0x3ebfa83e	0.37433046
94	0x3c62523e	0.013813553
95	0xbe09a5f7	-0.13442217
96	0xbe7d8c2f	-0.24760507
97	0xbda09e78	-0.078427255
98	0x3eae41d6	0.34034604
99	0x3d86534f	0.065588586
100	0x3d4ff949	0.050774846
101	0x3ee3dfc6	0.44506663
102	0x3d0460e2	0.032318957
103	0xbcda0143	-0.02661193
104	0xbd64df3c	-0.055876955
105	0x3ec409a1	0.38288596
106	0xbdb998f8	-0.090623796
107	0x3e0531e4	0.13007313
108	0xbe274471	-0.16334702
109	0x3dbc2ae6	0.0918787
110	0xbc239731	-0.009984777
111	0x3e69b900	0.22824478
112	0x3c31e5ec	0.01085804
113	0x3e8ff214	0.28114378
114	0x3d618f97	0.05506858
115	0xbebc5871	-0.36786225
116	0x3e9b339c	0.30312812
117	0x3e55ad5b	0.20866911
118	0xbda495ea	-0.08036406
119	0x3ecf2fe8	0.40466237
120	0xbb4ee98f	-0.0031572317
121	0x3eae0347	0.33986875
122	0xba5d6624	-0.0008445701
123	0x3ea0d32c	0.3141111
124	0xbe54b26c	-0.20771188
125	0xbec4a338	-0.38405776
126	0x3e21b539	0.15791787
127	0xbe84d937	-0.25946972
128	0xbe4898c1	-0.19589521
129	0xbd7e48dd	-0.062081207
130	0x3c8d156d	0.01722213
131	0xbd97ae9d	-0.07406352
132	0x3c81d386	0.015847933
133	0x3f037dba	0.5136372
134	0xbb192015	-0.002336507
135	0xbec9bf78	-0.39403892
136	0xbe4ee557	-0.20204674
137	0xbea4d533	-0.32193908
138	0x3da65318	0.081213176
139	0xbe068b0d	-0.13138981
140	0xbc2ed8ff	-0.010671853
141	0xbf03991c	-0.514055
142	0xbcf922cb	-0.030412098
143	0x3e39e47b	0.18153565
144	0xbe19f406	-0.15034494
145	0xbafd2d0c	-0.0019315793
146	0x3deb1cb4	0.11480084
147	0xbe882a27	-0.2659466
148	0xbedf6230	-0.436296
149	0x3e829075	0.25500837
150	0xbc630e24	-0.013858352
151	0xbe9c27bc	-0.30499065
152	0x38998f40	7.322291e-05
153	0x3e9b8ab0	0.30379248
154	0x3c775d60	0.015097946
155	0x3e68d48e	0.22737333
156	0xbdd95698	-0.106122196
157	0xbe687b61	-0.22703315
158	0x3e787e4f	0.24266933
159	0x3d1ef654	0.038809136
160	0xbca42385	-0.020036468
161	0xbe9fe7f0	-0.31231642
162	0x3d129425	0.035785813
163	0xbec808d8	-0.39069247
164	0x3ad8a2cf	0.0016528013
165	0xbdaf57df	-0.08561682
166	0xbe830e8f	-0.25597045
167	0x3e878683	0.26469812
168	0x3e1b9d47	0.15196715
169	0xbeb4517e	-0.35218424
170	0xbc5b8d85	-0.01340044
171	0x3e838252	0.25685364
172	0xbc92d80f	-0.01792529
173	0xbe2b2940	-0.16714954
174	0xbe5ddc01	-0.21665956
175	0x3ba0a97c	0.0049030166
176	0xbea3dade	-0.3200292
177	0x3d8ccae1	0.068746336
178	0x3e62ee85	0.221613
179	0xbdc1c00f	-0.094604604
180	0xb8eb92fc	-0.00011233051
181	0xbe0ab75f	-0.13546513
182	0x3d04e666	0.032446288
183	0xbeeda13f	-0.46412084
184	0x3e3ebc15	0.18626435
185	0xbe11601b	-0.14196818
186	0xbeae0c2b	-0.33993658
187	0xbead0283	-0.3379098
188	0xbd10c246	-0.035341524
189	0xbd6bb2a8	-0.057543427
190	0xbb0f5531	-0.0021870846
191	0x3e9e9f79	0.30981043
192	0x3d8249e8	0.06361753
193	0x3e268fcb	0.1626579
194	0xbe3518fd	-0.17685314
195	0xbeb96425	-0.36209217
196	0xbee882f4	-0.4541241
197	0x3e060791	0.13088824
198	0x3e2e265f	0.17006825
199	0x3ed79baa	0.4211095
200	0x3a5b4a77	0.0008365283
201	0x3f0afeae	0.5429486
202	0xbc02c637	-0.007981828
203	0xbf02b38b	-0.5105521
204	0x3e63259a	0.22182313
205	0xbe48de8d	-0.19616146
206	0xbdae846d	-0.08521352
207	0x3e566194	0.2093566
208	0xbe932733	-0.28740844
209	0xbd96b45c	-0.073586196
210	0x3d7d0a9f	0.061777707
211	0xbee54940	-0.44782448
212	0xbbd3aa92	-0.0064595426
213	0x3d3c8794	0.046027735
214	0x3e07f527	0.13277112
215	0xbe149b8c	-0.14512461
216	0x3ed2044e	0.4101891
217	0xbe52889a	-0.20559922
218	0x3e21f96a	0.158178
219	0x3dfd59ac	0.12370619
220	0xbb83f510	-0.0040270165
221	0x3e562dcc	0.20915908
222	0xbce6240d	-0.028093362
223	0xbdaae25e	-0.08343957
224	0x3cf00638	0.02929984
225	0xbe2b5ac1	-0.16733839
226	0x3e740849	0.23831286
227	0xbe65f613	-0.22457151
228	0xbe2dd307	-0.16975032
229	0xbd8f8006	-0.070068404
230	0x3c61bc64	0.013777826
231	0x3e81eacb	0.25374445
232	0x3cbc0966	0.0229537
233	0xbe1efd07	-0.1552621
234	0xbdc3e3a8	-0.09564906
235	0xbdb6333e	-0.088964924
236	0x3e637050	0.22210813
237	0x3ec73e82	0.38914877
238	0xbe0bdf7c	-0.13659471
239	0x3de0a9c1	0.10969878
240	0x3cc5d89a	0.024151135
241	0xbebfd802	-0.37469488
242	0x3cbf102e	0.023323145
243	0x3e97d268	0.29652715
244	0x3e4a0f8b	0.19732492
245	0x3cef3abd	0.029202813
246	0x3f06d05f	0.526617
247	0xbe4aa94c	-0.19791144
248	0xbd039313	-0.032122683
249	0x3ea2d3fb	0.31802353
250	0x3b0e6d3c	0.002173259
251	0x3ec0e5bf	0.37675282
252	0x3a6494b9	0.0008719671
253	0x3e46837a	0.19386092
254	0x3e10bb07	0.14133845
255	0xbd8d7f3d	-0.069090344

fc_decode.bias f4 [64]
0	0x3d68271f	0.056677934
1	0x3ee90a8e	0.45515865
2	0x3f131149	0.5744825
3	0x3e24cc46	0.16093549
4	0x3f06e98c	0.52700114
5	0x3e0f7b51	0.14011885
6	0xbeb4333e	-0.35195345
7	0xbf0391e1	-0.5139447
8	0xbed0c2e3	-0.40773687
9	0x3eb5067d	0.35356513
10	0x3f058f49	0.5217176
11	0xbea5d7a4	-0.32391083
12	0x3e8eed6f	0.27915522
13	0xbed64eb4	-0.4185692
14	0xbf26f7c8	-0.65221834
15	0x3ecbcb5d	0.3980359
16	0x3eb192a7	0.346822
17	0xbe8c7652	-0.2743402
18	0x3efecf3d	0.49767485
19	0x3f0c5d93	0.5483028
20	0xbe36911d	-0.17828794
21	0x3f18f51e	0.5974902
22	0xbeea9f11	-0.45824483
23	0xbf0606e7	-0.5235428
24	0xbe8f2d73	-0.27964363
25	0xbf0305f2	-0.51180947
26	0x3ea65232	0.32484585
27	0xbf0db85a	-0.55359423
28	0x3d15fd89	0.036618743
29	0xbef78082	-0.4834023
30	0xbe9c61c7	-0.30543348
31	0xbec1e56c	-0.37870347
32	0xbef70149	-0.48243168
33	0x3f036af6	0.51335084
34	0xbeae78b3	-0.3407646
35	0x3f0b6d7b	0.5446393
36	0xbe30d8f4	-0.17270261
37	0x3ef5dffe	0.48022455
38	0xbe47ccd8	-0.19511735
39	0xbe29a2ff	-0.16566084
40	0x3e82e5ea	0.25566036
41	0x3e7a8eaf	0.24468492
42	0xbeade23c	-0.33961666
43	0x3ee2c49d	0.4429063
44	0xbf0c1227	-0.547152
45	0x3ee7d1e8	0.45277333
46	0x3f038529	0.5137506
47	0xbf095d0d	-0.5365761
48	0xbeccfdca	-0.40037376
49	0x3ea2c18d	0.31788293
50	0x3ed8ee2d	0.42369214
51	0x3e20ad39	0.15691079
52	0xbda08d96	-0.078395054
53	0x3eb19f35	0.34691778
54	0x3e3f765a	0.18697491
55	0xbf243e67	-0.6415772
56	0x3ea77ff0	0.32714796
57	0xbebbf210	-0.36708117
58	0xbf01506b	-0.50513333
59	0x3ee424e3	0.44559392
60	0xbf0d610a	-0.55226195
61	0xbe996902	-0.29962927
62	0x3e9b76d9	0.3036411
63	0x3df42453	0.11920991
